results/traffic_SegRNN/1/checkpoint.pth (torch, 425317 bytes, 10 tensors)

pos_emb f4 [1, 64]
0	0x3f8169bb	1.0110391
1	0xbfc80fb6	-1.5629795
2	0xbed008fa	-0.4063185
3	0x3e0130b0	0.12616229
4	0xbf3c709e	-0.7360934
5	0x3ef4f243	0.4784108
6	0x3f044b5a	0.5167748
7	0x3eeaf87d	0.45892707
8	0xbfabb4aa	-1.3414509
9	0x3f6727de	0.9029521
10	0x3e1d612d	0.15369101
11	0x3f2e52ae	0.6809491
12	0xbfbf7e78	-1.496047
13	0xbfc6fd1f	-1.5545996
14	0x3fd2f54c	1.6481109
15	0x3f95bfbe	1.169914
16	0x3ec5fd0c	0.38669622
17	0xbf18676b	-0.59532803
18	0xbf1adffb	-0.6049802
19	0xbf4dc00c	-0.80371165
20	0x3eab7c84	0.33493435
21	0x3ed4dfea	0.41577083
22	0x3f17ed3e	0.5934638
23	0xbf3cd29c	-0.73758864
24	0xbf8adb4e	-1.0848176
25	0xbfd09b6b	-1.629743
26	0xbf22195c	-0.63319945
27	0x3f9ea84b	1.2395109
28	0xbfb8fd5f	-1.4452323
29	0xbd5cae6b	-0.053877275
30	0xbfd1fcea	-1.6405308
31	0x3f6f2c17	0.9342665
32	0xbe00d84e	-0.12582514
33	0x3d8eb950	0.06968939
34	0xbeacfbd8	-0.33785892
35	0xbfec9651	-1.8483373
36	0xbe9397ec	-0.28826845
37	0xbe4f16de	-0.20223567
38	0xbe3ecd58	-0.1863302
39	0x3e51dc49	0.20494188
40	0x3fa78fb8	1.3090734
41	0xbeedd81f	-0.4645395
42	0x3e0d1a88	0.13779652
43	0x3f84c143	1.0371479
44	0x3f5eb243	0.86990756
45	0x3f77b9f8	0.9676814
46	0xbf8337ef	-1.0251445
47	0x3f0e1dba	0.5551411
48	0x3f70aee9	0.9401689
49	0xbe9664de	-0.2937383
50	0x3faed0a8	1.3657427
51	0x3fb460ac	1.4092002
52	0x3e4d689e	0.2005944
53	0xbf25ea78	-0.64810896
54	0xbf172217	-0.5903639
55	0x3fd80422	1.6876261
56	0xbf0c429c	-0.5478914
57	0x3f1cfe03	0.6132509
58	0xbee10bbe	-0.4395427
59	0xbff1ca9e	-1.8889959
60	0xbdc78fac	-0.097442
61	0x3e4e72b4	0.20160943
62	0xbd61075e	-0.054938667
63	0x3e54c764	0.20779186

channel_emb f4 [1, 64]
0	0xbf128953	-0.5724079
1	0x3fc779fb	1.55841
2	0x3e8dff4a	0.27733833
3	0xbf816c63	-1.0111202
4	0x3ff0ce34	1.8812928
5	0x3f3cbf41	0.7372933
6	0x3fb5a26d	1.4190193
7	0x3f00d720	0.50328255
8	0xbeea7e98	-0.45799708
9	0xbf984f65	-1.1899229
10	0x3f937697	1.1520566
11	0xbe4c283d	-0.19937225
12	0xbeaf8292	-0.34279305
13	0xbe455046	-0.19268903
14	0x3f2ab54d	0.66682893
15	0x3f346e25	0.7048057
16	0xc00d0878	-2.203642
17	0xbdb1da12	-0.08684172
18	0xbe78fe8a	-0.24315849
19	0xbf89a094	-1.075213
20	0xbf743ebc	-0.95408225
21	0x3f2fbd34	0.68648076
22	0x3e3c4876	0.18387017
23	0xbf9da3ff	-1.2315673
24	0xbeab1516	-0.33414525
25	0x3ed02131	0.40650323
26	0xbf423495	-0.75861484
27	0xbef25f85	-0.473385
28	0x3f756b59	0.95866925
29	0xbf085735	-0.5325807
30	0xbf7ad495	-0.97980624
31	0xbfecad63	-1.8490413
32	0xbf95fe96	-1.1718318
33	0xbd05a69e	-0.0326296
34	0xbd3ab49d	-0.045582402
35	0xbf868d3e	-1.0511854
36	0x3fb9b3a1	1.4507943
37	0x3ea57a85	0.32320037
38	0x3fb30b27	1.3987778
39	0xbd515bc5	-0.05111291
40	0xbe22b3e5	-0.15888937
41	0xbfc8ebd5	-1.569697
42	0x400b103e	2.1728663
43	0xbf1cef95	-0.61303073
44	0xbf9c03c6	-1.2188652
45	0xbe828000	-0.2548828
46	0x3eab057d	0.33402625
47	0x3f1e0b48	0.61735964
48	0x3edda642	0.43290907
49	0xbeeba5e1	-0.46024993
50	0x3fb5cf54	1.4203897
51	0xbf7c3a43	-0.985264
52	0xc0005714	-2.0053148
53	0x3f550c8c	0.8322227
54	0xbed68268	-0.41896367
55	0x400053bc	2.0051107
56	0x3f85fc25	1.0467573
57	0x3ea8fa57	0.33003494
58	0xbf76d5f5	-0.9642022
59	0x3e603b06	0.21897516
60	0x3f3658d5	0.71229297
61	0xbf8eb4ae	-1.1148889
62	0x3eb6766d	0.35637227
63	0x3ef20304	0.47267926

valueEmbedding.0.weight f4 [128, 24]
0	0xbda42ba7	-0.080161385
1	0xbcd1fdad	-0.025633657
2	0xbd6936d1	-0.056937043
3	0xbe22ac34	-0.15886003
4	0x3d7e3305	0.062060375
5	0x3dbef827	0.09324675
6	0xbdcbbf4a	-0.09948595
7	0xbe4533a7	-0.19257985
8	0xbc76b770	-0.015058383
9	0xbe45a21b	-0.1930012
10	0x3c7e5a00	0.015524387
11	0xbe47dcff	-0.19517897
12	0x3e3dc87f	0.18533514
13	0x3e1aed31	0.15129544
14	0x3d3e1857	0.04640993
15	0xbc89196b	-0.016735753
16	0xbd260c3e	-0.04053902
17	0xbda32ff5	-0.079681315
18	0xbe1d8dc1	-0.15386106
19	0x3e5aedf5	0.21379836
20	0x3db9d3d2	0.09073605
21	0x3da5ab77	0.08089345
22	0xbd987f19	-0.07446117
23	0xbd8a0bf2	-0.0674056
24	0xbe95c48f	-0.29251525
25	0xbe8a2530	-0.26981497
26	0x3d7509a3	0.059823643
27	0xbc4534ae	-0.012036486
28	0xbe4e9dc4	-0.2017737
29	0xbdb2774f	-0.087141626
30	0xbdd7634a	-0.10516985
31	0x3dd5effd	0.10446165
32	0x3dba18d0	0.09086764
33	0xbdf8f9f9	-0.121570535
34	0x3d91b078	0.07113737
35	0x3dcf7cf2	0.10131253
36	0x3db5e6d6	0.08881919
37	0xbd54423a	-0.05182097
38	0xbe3b60bc	-0.1829862
39	0xbe70d9d5	-0.23520596
40	0xbe88c8ce	-0.26715702
41	0xbe12c56a	-0.1433312
42	0x3d544aae	0.051829033
43	0x3e203738	0.15646064
44	0x3cebf366	0.028802585
45	0x3e3027af	0.17202638
46	0x3b893bda	0.004188043
47	0xbeb942ed	-0.36183873
48	0x3e791f9c	0.24328464
49	0xbc195103	-0.009357694
50	0x3df51efe	0.11968802
51	0x3ddbe8ac	0.10737738
52	0x3d669cde	0.056301944
53	0xbe1b9219	-0.1519245
54	0xbc4c1ea4	-0.012458477
55	0xbe211fd2	-0.15734795
56	0xbdaed1cb	-0.085361086
57	0x3e2a61ad	0.16638823
58	0xbe2595d2	-0.16170433
59	0x3ddeefb9	0.10885567
60	0x3d840086	0.06445412
61	0x3e062142	0.13098624
62	0x3dd99bed	0.106254436
63	0x3da7c947	0.081926875
64	0x3e2bee17	0.16790043
65	0xbd36b0ec	-0.04460232
66	0xbe4f4b7c	-0.20243639
67	0x3c8f30e1	0.017479362
68	0xbd7c18e3	-0.06154717
69	0xbe64eb83	-0.22355466
70	0x3dc54459	0.09632177
71	0x3ddbbe31	0.107296355
72	0xbe62184f	-0.22079585
73	0xbb0b7fe7	-0.0021285953
74	0xbd2da295	-0.04239138
75	0x3de2d73d	0.1107621
76	0x3da74db5	0.08169118
77	0x3cc50922	0.024052206
78	0xbe3663f8	-0.17811573
79	0x3e1f695a	0.15567532
80	0x3dcac759	0.09901304
81	0x3e3e87c7	0.18606482
82	0xbdc5728d	-0.096409895
83	0xbe0129c2	-0.12613586
84	0x3d81b473	0.06333246
85	0x3ded03f9	0.11573023
86	0x3d2fde7e	0.042936794
87	0x3dbeaa68	0.09309846
88	0xbe084341	-0.13306905
89	0x3dc1652e	0.094431266
90	0xbdab3d43	-0.08361294
91	0x3e22f286	0.15912828
92	0xbdd63644	-0.10459569
93	0xbce08af8	-0.027410015
94	0x3e328917	0.17435108
95	0x3bc64df3	0.0060517727
96	0xbe05c33c	-0.13062757
97	0x3dc20f5c	0.09475586
98	0xbd7befa1	-0.061507825
99	0x3e05481b	0.13015787
100	0xbc7ac0a0	-0.015304714
101	0xbe5ebb2b	-0.21751086
102	0xbe224f53	-0.15850572
103	0x3ccf2296	0.025285047
104	0xbbcb8536	-0.0062109483
105	0xbd23fe5c	-0.040037498
106	0x3e775e27	0.2415701
107	0x3e526d53	0.20549516
108	0x3e6192b1	0.22028615
109	0x3e75114f	0.23932384
110	0xbe34f241	-0.17670538
111	0xbe0f1503	-0.13972859
112	0xbe07efe7	-0.13275109
113	0x3d8bbcb9	0.06823105
114	0xbdd2a32b	-0.10285028
115	0xbe024618	-0.12722051
116	0xbdbe4706	-0.092908904
117	0xbe3af56f	-0.18257688
118	0xbe0e6ce3	-0.13908724
119	0xbe07c2e4	-0.13257939
120	0x3ecb8174	0.39747202
121	0x3e853b1f	0.26021668
122	0xbd9966e4	-0.07490328
123	0xbdbf2ac6	-0.0933433
124	0x3e82befc	0.25536335
125	0x3e0a2bb7	0.13493238
126	0x3e47c089	0.1950704
127	0x3dd27002	0.1027527
128	0x3e10a6fe	0.14126202
129	0xbda5a91d	-0.080888964
130	0xbe2f1034	-0.17096025
131	0xbdcee80e	-0.10102855
132	0xbd840850	-0.06446898
133	0xbe1e2269	-0.15442814
134	0xbdc7104d	-0.09719906
135	0xbcb63ee0	-0.022246778
136	0x3e198e9e	0.1499581
137	0x3e51bb65	0.20481642
138	0x3db289a1	0.08717657
139	0x3e5ab1a5	0.21356829
140	0x3e7d9b37	0.24766241
141	0x3e677fb7	0.22607313
142	0x3d7c7655	0.061636288
143	0x3eec88e8	0.461982
144	0xbe890611	-0.2676244
145	0xbe13fae5	-0.14451177
146	0x3d423422	0.047413
147	0xbe666265	-0.22498472
148	0xbe17cdc0	-0.14824581
149	0xbc07a64c	-0.008279394
150	0xbe033a55	-0.1281522
151	0x3e32de73	0.1746767
152	0x3dd7f510	0.10544789
153	0x3d68faf8	0.056879967
154	0x3d60c6ad	0.054876972
155	0xbdf99cab	-0.12188085
156	0xbcbd3070	-0.023094386
157	0xbe6de939	-0.23233499
158	0x3e0892ac	0.13337201
159	0x3b9c5fff	0.004772186
160	0x3d01626c	0.031588003
161	0xbd071e5b	-0.032987934
162	0xbd51eefb	-0.0512533
163	0x3dd5e1f7	0.1044349
164	0xbdd2ca76	-0.102925226
165	0xbd2e6e7e	-0.042585842
166	0x3e227253	0.15863924
167	0xbdae92a5	-0.08524064
168	0xbc79bdb4	-0.015242983
169	0x3d249556	0.04018148
170	0x3e580cb2	0.21098593
171	0xb953cd5f	-0.00020199035
172	0x3e0a9fe4	0.13537556
173	0xbc4ee38e	-0.012627495
174	0xbd6f602d	-0.05844133
175	0xbdb7a5bc	-0.08967158
176	0xbd7afa61	-0.061273936
177	0x3d08cdc4	0.03339936
178	0x3de819e5	0.11333064
179	0x3db1e364	0.086859494
180	0x3e0fd85c	0.14047378
181	0x3e222821	0.1583562
182	0x3e22010d	0.15820713
183	0x3e1222b9	0.14271058
184	0xbbe6c2e2	-0.007042275
185	0x3d8d188f	0.0688945
186	0xbc78fbb3	-0.0151967285
187	0xbde4bd31	-0.11168898
188	0xbe2cb0fb	-0.16864388
189	0xbe1e483d	-0.15457244
190	0x3e45bb7a	0.19309798
191	0x3e163d43	0.14671807
192	0x3e44880c	0.19192523
193	0x3e0eb946	0.13937864
194	0x3b34b700	0.0027574897
195	0xbd4062a2	-0.046969064
196	0xbdf05cdb	-0.11736461
197	0xbe2b58b4	-0.16733056
198	0xbd874e77	-0.06606763
199	0xbcc9245c	-0.02455347
200	0xbe56ff06	-0.20995721
201	0x3d9659d4	0.07341352
202	0xbdba2066	-0.09088211
203	0x3b909468	0.0044122227
204	0xbd8f1a4e	-0.06987439
205	0x3e5081cd	0.20362015
206	0xbd7ffb4c	-0.062495515
207	0xbda9c132	-0.08288802
208	0x3df1979c	0.11796495
209	0x3dfacf5e	0.122465834
210	0xbd836d98	-0.06417388
211	0x3e25ca71	0.16190507
212	0x3dbc0421	0.09180475
213	0x3e0993a5	0.13435228
214	0x3dd639b0	0.10460222
215	0x3e823e1a	0.25438005
216	0x3e8069a7	0.25080606
217	0x3e5a85f4	0.21340162
218	0x3dee140d	0.11624918
219	0x3d92c29a	0.071660236
220	0x3e1b1dde	0.15148112
221	0x3e4ca24d	0.19983788
222	0xbe225015	-0.15850861
223	0x3e4313c9	0.19050516
224	0x3e16ed05	0.14738853
225	0xbe343502	-0.17598346
226	0xbe67f469	-0.22651829
227	0xbd3ed86d	-0.04659312
228	0xbdae4e95	-0.08511082
229	0x3db9c5b0	0.09070909
230	0x3d4d6950	0.050149262
231	0x3dc15f68	0.094420254
232	0x3da80a52	0.082050934
233	0x3e569931	0.20956875
234	0x3cf8589c	0.03031569
235	0x3d6e357c	0.058156475
236	0x3e64fe14	0.22362548
237	0xbdd7ec10	-0.10543072
238	0x3e4f9ccb	0.20274656
239	0x3ba1caf8	0.004937526
240	0xbe916a3a	-0.28401357
241	0x3e25ae07	0.16179667
242	0x3db121b2	0.08649005
243	0x3e787d98	0.2426666
244	0x3cd984b9	0.026552545
245	0x3e25dc5a	0.16197339
246	0xbe101054	-0.14068729
247	0x3d792817	0.06082925
248	0x3e70e3ac	0.2352435
249	0x3b0c9e0f	0.0021456515
250	0xbda006d1	-0.078138
251	0x3dc96d03	0.098352455
252	0x3c8dfaad	0.017331446
253	0xbdd8bf61	-0.10583378
254	0x3c654ccb	0.01399536
255	0xbcfe48e5	-0.031040618

valueEmbedding.0.bias f4 [128]
0	0xbe40a352	-0.18812302
1	0xbd7c353c	-0.061574206
2	0xbd012e98	-0.031538576
3	0x3db1727b	0.086644135
4	0x3d07194e	0.032983117
5	0x3d9266b3	0.071484946
6	0x3a5cf92a	0.00084294623
7	0xbe5ab42f	-0.21357797
8	0xbd76168b	-0.060080092
9	0xbe13d901	-0.14438249
10	0xbdc1f646	-0.09470801
11	0xbe2184ad	-0.15773268
12	0xbe125ef3	-0.14294033
13	0x3e0eb4bc	0.13936132
14	0x3d314150	0.043275177
15	0xbe10c76f	-0.14138578
16	0x3e21ab46	0.15787992
17	0x3cc1178a	0.023570795
18	0xbe5fe002	-0.21862796
19	0xbd7fe645	-0.06247546
20	0xbe152e3b	-0.14568417
21	0x3e23e85d	0.16006608
22	0x3d6f397e	0.05840444
23	0xbd219029	-0.039444122
24	0xbe0a0d93	-0.1348174
25	0xbe406ca9	-0.1879145
26	0x3c4dcc10	0.012560859
27	0xbe280a7d	-0.16410251
28	0x3dd7f1f7	0.10544198
29	0x3e1a7438	0.15083396
30	0xbdd4ff64	-0.104002744
31	0xbdc8e6a9	-0.0980962
32	0x3e117882	0.14206126
33	0x3dd08fe2	0.101836935
34	0xbe9230d6	-0.28552884
35	0xbe0e2c0a	-0.13883987
36	0xbe01749a	-0.12642136
37	0xbbef9861	-0.007311866
38	0xbe22d922	-0.15903142
39	0xbd919a51	-0.07109512
40	0xbca9c240	-0.020722508
41	0x3db9c9a6	0.090716645
42	0xbc0611fe	-0.008183001
43	0x3cc09631	0.023509117
44	0xbd67b08d	-0.056564856
45	0x3e49819d	0.1967835
46	0xbdc00531	-0.0937599
47	0x3e0b6ac6	0.1361495
48	0xbd920c2e	-0.07131229
49	0xbda45932	-0.08024825
50	0x3e231dee	0.15929386
51	0xbdb955b2	-0.09049548
52	0xbe2b084d	-0.16702385
53	0xbdf5e2a2	-0.120061174
54	0x3d5b57b5	0.05355044
55	0x3e0de415	0.13856538
56	0xbe765d58	-0.24059045
57	0xbe307dd4	-0.172355
58	0xbcf9f076	-0.030510169
59	0xbe289983	-0.1646481
60	0xbe3ede71	-0.18639542
61	0x3e0597a6	0.1304613
62	0xbdca51b7	-0.09878867
63	0x3e174117	0.14770924
64	0xbe3a2bb5	-0.18180735
65	0x3d1fdaf9	0.039027188
66	0x3cf5f853	0.030025637
67	0xbd2f08fe	-0.042733185
68	0x3d91ac13	0.07112899
69	0xbe23b9ff	-0.1598892
70	0xbd1dd3e6	-0.03853216
71	0xbdd2bd4c	-0.10290012
72	0xbca40c07	-0.020025266
73	0xbe39ae44	-0.18132883
74	0x3d949c01	0.07256318
75	0xbd9dc05b	-0.077027045
76	0xbd4d257e	-0.050084583
77	0xbdedbca5	-0.11608247
78	0x3d84cbc7	0.0648418
79	0x3e2aa9a6	0.16666278
80	0x3dcf3225	0.10116986
81	0xbd861969	-0.06547815
82	0x3e4abc6c	0.1979844
83	0x3e042421	0.12904407
84	0xbe771238	-0.24128044
85	0xbc8dd32d	-0.01731261
86	0x3cd54ea1	0.02603847
87	0xbc876874	-0.0165293
88	0x3dd815ed	0.10551057
89	0x3dbe0e6a	0.09280093
90	0x3e250cd4	0.16118175
91	0x3e505327	0.2034422
92	0x3ddef04b	0.10885676
93	0x3df4a5a1	0.11945654
94	0xbdf41011	-0.11917127
95	0x3d21377a	0.039359547
96	0xbe1911f0	-0.14948249
97	0x3d7b09f8	0.061288804
98	0x3d902780	0.07038784
99	0x3e25e342	0.16199973
100	0xbdd9b143	-0.10629513
101	0xbdfe35e8	-0.124126256
102	0x3c857baa	0.01629432
103	0xbe3ff035	-0.18743975
104	0xbdb55fe7	-0.088561825
105	0xbe7cce56	-0.24688086
106	0x3dc53129	0.09628517
107	0xbe0f50c7	-0.13995658
108	0xbd3fd16e	-0.046830587
109	0xbe3f0211	-0.18653132
110	0xbe3e68be	-0.18594643
111	0x3bf35ed4	0.007427076
112	0xbc851029	-0.016243057
113	0x3d55be7a	0.052183606
114	0xbdd22dbc	-0.102626294
115	0x3d5120d8	0.051056713
116	0xbda81acb	-0.08208235
117	0xbe30310e	-0.17206213
118	0xbe1998ea	-0.14999738
119	0xbe20ddde	-0.15709636
120	0x3d3f8d95	0.046765883
121	0xbe55cfb2	-0.2088001
122	0xbe609a89	-0.2193395
123	0xbe668a81	-0.22513773
124	0xbe639715	-0.22225602
125	0x3e089821	0.13339283
126	0xb8e19af9	-0.00010757702
127	0x3e403732	0.18771055

rnn.weight_ih_l0 f4 [384, 128]
0	0xbd834197	-0.06408995
1	0xbb81956a	-0.003954579
2	0xbdddad1e	-0.10824035
3	0xbca0ec70	-0.019643992
4	0x3cfc9c5e	0.03083628
5	0xbdcf4a48	-0.1012159
6	0xbd05e937	-0.032693114
7	0xbd990a4f	-0.07472669
8	0xbcdeb455	-0.027185598
9	0x3d7b4208	0.06134227
10	0xbdcbd62e	-0.09952961
11	0x3d013e12	0.031553335
12	0xbdbf6c6f	-0.09346854
13	0x3cf6be51	0.030120047
14	0x3d836437	0.06415599
15	0xbd39d876	-0.04537245
16	0xbc409679	-0.0117546255
17	0xbde89dc4	-0.113582164
18	0xbc44159c	-0.011968043
19	0x399fe632	0.00030498352
20	0x3d99aa84	0.075032264
21	0xbd0f01a8	-0.03491369
22	0xbc84381b	-0.016140034
23	0xbdde293c	-0.108477086
24	0xbd9efffc	-0.07763669
25	0xbd4397ab	-0.047752064
26	0x3c5dcf75	0.013538231
27	0x3cc8f198	0.024529263
28	0x3d97178d	0.07377539
29	0xbd0a20ee	-0.03372281
30	0x3b300d2e	0.0026863324
31	0xbd7a166d	-0.061056543
32	0xbd78391f	-0.06060135
33	0xbe13eeff	-0.14446639
34	0xbd9b35c8	-0.07578617
35	0x3db496a6	0.088177964
36	0xbe53762b	-0.20650546
37	0xbc8a3055	-0.01686875
38	0x3d0b6292	0.03402955
39	0xbc84f689	-0.016230838
40	0x3da11ebd	0.07867191
41	0xbe0871bb	-0.13324635
42	0xbd15083e	-0.036384813
43	0x3c4d97b2	0.012548374
44	0xbd861c2a	-0.065483406
45	0xbc83db22	-0.016095702
46	0xbcb67812	-0.02227405
47	0xbd842175	-0.06451694
48	0x3d55cfa2	0.052199967
49	0xbe20b6e2	-0.15694764
50	0xbd10ce75	-0.035353143
51	0xbccf2397	-0.025285525
52	0x3d862ef7	0.065519266
53	0x3b243228	0.002505431
54	0xbdd070f5	-0.10177795
55	0x3ad460e3	0.0016203191
56	0xbdb56ffa	-0.088592485
57	0x3d80d6c6	0.06290965
58	0xbda3ba36	-0.07994501
59	0xbcaf57a6	-0.021404099
60	0x3c007579	0.007840508
61	0xbdac156a	-0.08402522
62	0xbe0f2d1b	-0.1398205
63	0xbdf67fb8	-0.12036079
64	0x3dc42fa4	0.09579399
65	0xbb8d3698	-0.0043094866
66	0xbe1d8d7b	-0.15386002
67	0x3d0a121b	0.033708673
68	0x3d5587dc	0.05213152
69	0xbd8b71bc	-0.068088025
70	0x3d4722b7	0.04861709
71	0xbd4f1567	-0.05055752
72	0xbdd26dfc	-0.10274884
73	0x3b093aaf	0.002093952
74	0x3cfbf8af	0.03075823
75	0x3d5df87a	0.054192044
76	0xbce766b0	-0.028247207
77	0xbe1838c7	-0.14865409
78	0x3d30de63	0.043180835
79	0xbd0c2c08	-0.03422168
80	0xbd9585d2	-0.07300915
81	0x3c81a3d0	0.015825182
82	0x3c1c05b8	0.009522848
83	0x3d0d1694	0.03444536
84	0xbd67cfa3	-0.056594502
85	0xbd177d53	-0.036984753
86	0xbca28110	-0.019836932
87	0x3d5a600c	0.053314254
88	0xbe1de6f2	-0.1542013
89	0x3d566430	0.05234164
90	0x3cefa597	0.029253764
91	0xbe226e84	-0.15862471
92	0x3d3bc641	0.045843367
93	0xbd0ed098	-0.0348669
94	0xbd87645f	-0.06610941
95	0xbd3a4b42	-0.045481928
96	0xbddcae75	-0.107754625
97	0xbdb02133	-0.08600082
98	0xbdeb1aca	-0.11479719
99	0xbd4e290d	-0.050332118
100	0x3da4dedc	0.080503196
101	0x3dcf9cae	0.10137306
102	0xbd4fd970	-0.050744474
103	0x3dc80bf2	0.097679034
104	0x3c1b0fd3	0.009464222
105	0x3dd6826f	0.10474097
106	0xbd1dc734	-0.038520053
107	0xbe2f70f7	-0.17132936
108	0xbd13f0af	-0.036118206
109	0xbd84b796	-0.06480329
110	0xbdc45c15	-0.09587876
111	0x3cb3c311	0.0219436
112	0xbd76960e	-0.060201697
113	0x3c27a9bb	0.010233338
114	0xbd420e3c	-0.047376856
115	0xbde55f21	-0.11199785
116	0xbc494c8a	-0.012286315
117	0xbbbdca46	-0.005791935
118	0xbd2eef9d	-0.04270898
119	0xbda6a1f0	-0.08136356
120	0x3d16770b	0.036734622
121	0xbc4e9759	-0.012609326
122	0x3d79878f	0.060920294
123	0x3cc20e32	0.02368841
124	0x3dac50c7	0.084138446
125	0xbd4304c2	-0.04761196
126	0x3d59a95b	0.053140026
127	0x3c916945	0.017750392
128	0xbca37e19	-0.019957589
129	0xbd762c7e	-0.060101025
130	0xbdffacde	-0.12484144
131	0x3d1603ac	0.036624596
132	0xbe324dcf	-0.17412494
133	0x3ddacfa8	0.106841385
134	0x3d8ebcaa	0.069695786
135	0x3d28a58c	0.041173503
136	0xbdfa2a4d	-0.122150995
137	0x3dfd661e	0.12372993
138	0xbbb53a43	-0.005530627
139	0xbda3aa83	-0.07991507
140	0x3da2b703	0.07945063
141	0x3d55f92b	0.05223958
142	0xbd3b4eb3	-0.04572935
143	0xbc10cb29	-0.0088375
144	0x3db9df8b	0.090758406
145	0x3dc19437	0.09452098
146	0x3d7acc54	0.06123002
147	0xbdf93102	-0.121675506
148	0x3cf66f58	0.03008239
149	0xbd32e56f	-0.043675836
150	0xbe0300fe	-0.12793347
151	0xbbeee05f	-0.0072899307
152	0x3d9744fa	0.07386203
153	0xbd742d4b	-0.059613507
154	0xbe741e8f	-0.23839782
155	0xbc4c2799	-0.012460613
156	0x3d7726b2	0.060339637
157	0xbd853ea0	-0.065060854
158	0xbca6b110	-0.020348102
159	0x3dc72d8b	0.097254835
160	0x3e1cf8e9	0.15329327
161	0x3cc1316d	0.023583138
162	0x3cfa9dcc	0.030592822
163	0xbd151276	-0.03639456
164	0x3d863071	0.06552208
165	0xbdb6a7df	-0.089187376
166	0xbd65c905	-0.05609991
167	0x3e52713f	0.20551012
168	0x3cf468e9	0.029835181
169	0x3d21f4e1	0.039540175
170	0x3d9d2ed0	0.076749444
171	0x3d9fc9dc	0.078021735
172	0xbc1dc3f0	-0.009629235
173	0xbb98c510	-0.0046621636
174	0x3e03dc29	0.12876953
175	0x3dcf1fc9	0.101134844
176	0x3d90f32d	0.07077632
177	0x3b2c9f88	0.0026340205
178	0x3d5955a2	0.05306018
179	0x3da5243c	0.08063552
180	0xbd440598	-0.047856897
181	0xbd9d364e	-0.076763734
182	0xbdeed3d0	-0.11661494
183	0xbd1afe18	-0.03783998
184	0x3d066ba8	0.032817513
185	0x3d4c2608	0.049840957
186	0x3d18745a	0.037220336
187	0x3d32fb2f	0.04369658
188	0x3def2481	0.116768844
189	0xbd9f30b6	-0.07772963
190	0x3ce07766	0.027400684
191	0xbd8ff325	-0.07028798
192	0x3c807f79	0.015685784
193	0x3d5a8052	0.053345032
194	0xbcf106af	-0.029422132
195	0x3d79ecc3	0.06101681
196	0xbd84097d	-0.06447122
197	0xbd86bb0e	-0.065786466
198	0x3cac4791	0.02103022
199	0xbd236b71	-0.039897386
200	0xbc52b591	-0.012860672
201	0x3c9cf93c	0.019161813
202	0xbd085dc6	-0.033292554
203	0x3d9cf023	0.0766299
204	0xbcbcace7	-0.023031665
205	0x3c95d839	0.01829158
206	0x3d2dca0e	0.042429022
207	0x3dfef767	0.12449532
208	0x3da09a7c	0.078419656
209	0x3dc11415	0.094276585
210	0xbe470da1	-0.19438793
211	0x3cbe5726	0.023234915
212	0x3ba6d569	0.0050913584
213	0x3db708f0	0.089372516
214	0xbdc3019b	-0.095217906
215	0xbe095173	-0.13409977
216	0xbc797cf5	-0.015227546
217	0xbcc4dafd	-0.024030203
218	0xbb9927ee	-0.0046739494
219	0xbd6c49b9	-0.057687495
220	0xbd6f7863	-0.05846442
221	0xbdd207f0	-0.1025542
222	0xbc5cdf77	-0.013481013
223	0x3b86aabf	0.00410971
224	0x3d8f618f	0.0700103
225	0xbd8389fb	-0.06422802
226	0x3d261c2c	0.04055421
227	0xbc79b2bf	-0.01524037
228	0x3d81b25b	0.06332847
229	0xbd0f6a6e	-0.03501361
230	0x3c13ab93	0.009013074
231	0x3b3bc6bc	0.002865239
232	0x3cdac5f5	0.026705721
233	0xbdd6df31	-0.10491789
234	0x3d0f9b45	0.035060186
235	0x3d86e3af	0.06586396
236	0x3d82637c	0.063666314
237	0x3def1b02	0.11675073
238	0xbc311e5a	-0.010810459
239	0x3b8663dd	0.00410126
240	0x3dd13664	0.10215452
241	0x3c0dc7b6	0.008653572
242	0x3c4befa5	0.012447272
243	0x3d7f2daa	0.062299408
244	0x3cbddc44	0.02317632
245	0x3d03f72b	0.03221814
246	0xbdb49aa5	-0.088185586
247	0xbd0c0170	-0.03418106
248	0x3d6866aa	0.056738533
249	0x3d6c27c2	0.057655104
250	0x3bf7400f	0.007545478
251	0xbd80ea82	-0.06294729
252	0xbd8fc387	-0.07019716
253	0xbe418ad9	-0.18900622
254	0x3c1841d1	0.009293036
255	0xbdcafd21	-0.09911562

rnn.weight_hh_l0 f4 [384, 128]
0	0xbd2c5f66	-0.042083167
1	0x3c2735f2	0.010205733
2	0xbc76307c	-0.015026208
3	0xbbe59e4a	-0.007007395
4	0xbdd2c124	-0.10290745
5	0xbd04d6ea	-0.03243152
6	0x3db48f9f	0.08816456
7	0xbd0d975d	-0.03456818
8	0x3cd42536	0.02589665
9	0xbd91cd40	-0.071192265
10	0xbc56bdf2	-0.01310681
11	0xbd579e11	-0.05264098
12	0x3d98cc0d	0.074607946
13	0x3aeb1449	0.0017935123
14	0xbc873212	-0.016503368
15	0x3cb9c156	0.022675198
16	0x3cdb75d8	0.02678959
17	0x3d80f2be	0.062962994
18	0xbd2f18af	-0.04274815
19	0xbd8cddf1	-0.068782695
20	0x3d76850a	0.06018547
21	0xbd9ed8f9	-0.07756228
22	0xbd0333e8	-0.032031924
23	0xbce85555	-0.028361002
24	0x3d7b69cd	0.061380196
25	0xbdc6d2cc	-0.09708175
26	0xbe03b96b	-0.128637
27	0x3d7001f7	0.058595624
28	0xbd931204	-0.071811706
29	0x3d983622	0.074322
30	0xbd9516e6	-0.07279758
31	0xbdaa19c5	-0.083056964
32	0xbc81472c	-0.015781008
33	0x3d18c892	0.037300654
34	0x3d161f11	0.03665072
35	0xbcb1b89f	-0.02169448
36	0x3d5e7858	0.054313987
37	0xbdacdba1	-0.084403284
38	0xbd0081fb	-0.03137396
39	0xbd925328	-0.07144767
40	0x3dac5a2f	0.08415639
41	0xbd8a38c8	-0.067491114
42	0xba9e4a7e	-0.0012076644
43	0x3d9654c9	0.0734039
44	0x3dbadb2d	0.09123836
45	0xbdc9751f	-0.09836792
46	0xbd6373fa	-0.055530526
47	0xbd4a1e94	-0.049345568
48	0xbc41d142	-0.011829676
49	0x3dc59618	0.09647769
50	0x3af33538	0.0018555289
51	0xbda1097c	-0.07863137
52	0x3d9da32f	0.076971404
53	0x3b4edb5b	0.0031563852
54	0x3d715e53	0.058927845
55	0x3dd38b7d	0.1032934
56	0x3c77e490	0.015130177
57	0x3d8417aa	0.06449826
58	0xbd1e6a40	-0.038675547
59	0x3d0823b9	0.033237193
60	0x3b84d615	0.004053841
61	0xbc3ac2d5	-0.011398991
62	0x3d9f0c40	0.077660084
63	0x3cee02c8	0.02905406
64	0x3c64f26f	0.013973816
65	0x3de6e113	0.11273398
66	0x3cbcd167	0.02304907
67	0xbc13e62d	-0.009027046
68	0x3d8df335	0.06931154
69	0xbd204f13	-0.03913791
70	0xbd40160d	-0.04689603
71	0xbdc64fec	-0.09683213
72	0x3b6d04ef	0.003616627
73	0x3d34550a	0.044026412
74	0xbd01bd2e	-0.031674556
75	0x3d960c25	0.07326535
76	0x3d9b3c1d	0.07579825
77	0xbd04d581	-0.032430176
78	0x3c5db733	0.013532448
79	0xbcfd19a2	-0.030896012
80	0x3bf52e37	0.007482316
81	0x3d9b912e	0.0759605
82	0xbb6005cf	-0.003418315
83	0xbdc871ee	-0.09787355
84	0xbcbc61a4	-0.022995777
85	0xbcae1256	-0.021248978
86	0xbdbab7ef	-0.09117114
87	0xbdb09009	-0.086212225
88	0x3da4de47	0.080502085
89	0x3cec7872	0.028866027
90	0xbcedc1db	-0.029023102
91	0x3d1b0d9b	0.037854772
92	0x3d5479e2	0.05187405
93	0xbc0b8f35	-0.00851803
94	0xbd976d8f	-0.073939435
95	0xba4efd72	-0.00078960427
96	0x3d8ed957	0.06975048
97	0x3d81e7a5	0.06343011
98	0x3ca57619	0.020197915
99	0x3d806211	0.06268705
100	0x3cf0d216	0.029397052
101	0xbd652468	-0.055942923
102	0xbd726596	-0.05917891
103	0xbd4abbab	-0.04949538
104	0x3cf5834e	0.029969838
105	0x3caf64df	0.021410404
106	0xbd044481	-0.032291893
107	0x3caccde9	0.02109428
108	0x3d094f94	0.033523157
109	0xbd99d275	-0.075108446
110	0x3d6a2b45	0.05717017
111	0x3d2aead0	0.04172784
112	0x3cab59a0	0.02091676
113	0x3da816b2	0.08207454
114	0xbdafae38	-0.085781515
115	0x3c55ab19	0.013041281
116	0xbd5a5bd0	-0.053310215
117	0x3d742978	0.05960986
118	0xbd61df0f	-0.055144366
119	0x3da0919a	0.07840271
120	0xbd023ed1	-0.031798188
121	0xbd9d579a	-0.07682724
122	0xbd6ae222	-0.057344563
123	0xbd836739	-0.064161725
124	0xbdf80889	-0.12111003
125	0x3bb07eac	0.005386194
126	0x3dc00443	0.09375813
127	0x3d8015a9	0.06254131
128	0x3d6c4185	0.05767967
129	0xbd2e1e39	-0.04250929
130	0xbd94e243	-0.072697185
131	0xbd46c817	-0.048530664
132	0x3d879fc1	0.066222675
133	0x3daa3f18	0.083128154
134	0x3bcaf2cd	0.006193495
135	0xbcc0efbc	-0.023551814
136	0x3d738f26	0.05946269
137	0xbe00c31c	-0.12574428
138	0xbd8316b7	-0.06400817
139	0x3c56b05b	0.01310357
140	0x3b8bb49e	0.0042634746
141	0xbdcccc6f	-0.0999993
142	0xbc68d593	-0.014211076
143	0xbde1c1f9	-0.110233255
144	0x3d53662b	0.051611107
145	0x3d852e16	0.06502931
146	0xbc0c26de	-0.008554189
147	0xbdce1a6f	-0.100636356
148	0x3c215b30	0.009848401
149	0x3d6fd513	0.058552813
150	0xbda136f7	-0.07871812
151	0xbd93d861	-0.072190054
152	0xbd1c8850	-0.038215935
153	0xbcfae19f	-0.030625163
154	0x39b8c6ca	0.00035243324
155	0x3ce3fc6c	0.027830325
156	0x3d841511	0.064493306
157	0xbe1adbae	-0.15122864
158	0x3bbc9e6e	0.005756191
159	0x3cf403bf	0.029786943
160	0x3a0bd620	0.00053343363
161	0x3df6eefb	0.12057301
162	0x3c5bc9ad	0.0134147825
163	0xbc192100	-0.009346247
164	0x3dc79035	0.09744302
165	0x3d2d42d9	0.04230008
166	0x3cd26a98	0.025685593
167	0x3daa80e9	0.08325369
168	0xbd4e9cdf	-0.050442573
169	0xbd2a25f6	-0.04154011
170	0x3d1bcfae	0.038039856
171	0x3cf06e26	0.029349398
172	0x3d0ce3fd	0.034397114
173	0x3dcd9c83	0.10039618
174	0x3bba0977	0.005677398
175	0x3b4be7e9	0.003111357
176	0x3d1c1b21	0.03811181
177	0xbd3eda7c	-0.04659508
178	0x3d819d1a	0.06328793
179	0x3de32b02	0.110921875
180	0xbd1b129e	-0.03785955
181	0xbd15339c	-0.03642617
182	0x3c146460	0.009057134
183	0x3d6f9f93	0.05850179
184	0xbd2fda73	-0.04293294
185	0xbd3025d6	-0.043004833
186	0x3c54fe17	0.013000033
187	0x3de8504e	0.11343442
188	0xbdbdf800	-0.09275818
189	0x3d831d1c	0.064020365
190	0xbdc59d70	-0.096491694
191	0x3c4808b3	0.012209105
192	0xbca9a333	-0.020707702
193	0x3d49edfb	0.04929922
194	0x3cf8624b	0.030320307
195	0x3b2db5dc	0.0026506102
196	0x3d56bc82	0.05242587
197	0x3cc93682	0.024562124
198	0xbdff4e3b	-0.12466093
199	0x3d15f5cf	0.036611374
200	0x3da122bb	0.078679524
201	0x3d8a55c6	0.06754641
202	0x3ccc0282	0.02490354
203	0xbdf41afb	-0.119192086
204	0x3d3ab92b	0.045586746
205	0x3cb5104a	0.022102494
206	0x3cd578ba	0.026058543
207	0x3caff602	0.02147961
208	0xbcff2fc9	-0.031150715
209	0xbdba11c6	-0.09085421
210	0x3df67f50	0.12036002
211	0xbd38b34a	-0.04509286
212	0xbd83ea12	-0.0644113
213	0x3ced2b11	0.0289512
214	0x3ddabf04	0.106809646
215	0x3c7c7c0c	0.015410434
216	0x3d7bba83	0.06145717
217	0x3b8a9f8e	0.004230446
218	0x3ca82537	0.020525558
219	0xbca8241b	-0.020525029
220	0xbd5b9818	-0.053611845
221	0xbdc58141	-0.09643794
222	0x3da3e8c2	0.080033794
223	0x3e635b81	0.22202875
224	0xbd05edec	-0.032697603
225	0x3d2a3627	0.04155555
226	0x3dda0026	0.106445596
227	0xbd9983ea	-0.07495864
228	0x3d0fe335	0.03512879
229	0x3df83d0a	0.12121017
230	0xba9dac15	-0.0012029434
231	0x3dae7833	0.0851902
232	0x3d2fa5f8	0.04288289
233	0xbd799350	-0.060931504
234	0x3bf5714c	0.0074903127
235	0xbd343ab0	-0.04400128
236	0x3d2a0ca6	0.04151597
237	0xbdf95fe3	-0.12176492
238	0x3daf653a	0.08564229
239	0x3bc3d58f	0.005976386
240	0xbd05918c	-0.032609507
241	0xbc9566c4	-0.018237479
242	0xbba7ac3c	-0.0051169675
243	0x3d999549	0.07499177
244	0xbc1c8f9b	-0.009555723
245	0xbd39ee19	-0.045393083
246	0xbc9d4dd2	-0.019202147
247	0x3a97512f	0.001154458
248	0x3d639291	0.0555597
249	0x3aede43d	0.0018149685
250	0x3af238c6	0.0018480055
251	0xbac57e48	-0.0015067542
252	0x3dde691c	0.10859892
253	0x3da1be00	0.07897568
254	0x3d2b43fa	0.041812874
255	0xbe294750	-0.1653111

rnn.bias_ih_l0 f4 [384]
0	0xbdddc745	-0.10829023
1	0x3c4270a0	0.011867672
2	0x3d0e7e59	0.034788463
3	0xbd6b4980	-0.057443142
4	0x3d739e1d	0.05947696
5	0xbd30534e	-0.043048196
6	0xbd837632	-0.06419028
7	0xbdc95783	-0.09831145
8	0x3bf1209a	0.0073586227
9	0x3de5f8f3	0.11229124
10	0x3d77ab5a	0.060466148
11	0xbde12f0c	-0.109953016
12	0xbc3e3beb	-0.011610965
13	0xbabf0ac9	-0.0014575358
14	0x3cb10000	0.021606445
15	0x3d011832	0.031517215
16	0xbda39790	-0.07987893
17	0xbc89f952	-0.016842518
18	0x3d0788f9	0.03308961
19	0x3d192b02	0.03739453
20	0xbd89159f	-0.06693577
21	0xbd0a1fdf	-0.0337218
22	0xbd3b99a6	-0.045800827
23	0xbdba8634	-0.091076285
24	0x3d30ab16	0.04313191
25	0x3d48fbf3	0.049068402
26	0xba4e1d13	-0.0007862609
27	0xbd228eb5	-0.039686877
28	0x3d426ce4	0.047467127
29	0x3d7c15b6	0.061544143
30	0xbd9208c5	-0.07130579
31	0xbd44d903	-0.04805852
32	0xbd962367	-0.07330971
33	0x3ca75740	0.020427346
34	0xbd55f8f4	-0.052239373
35	0x3cb982cb	0.022645375
36	0x3d9dba71	0.077015765
37	0xbd3ee68a	-0.046606578
38	0xbdd5bdd9	-0.10436601
39	0xbd2f707a	-0.042831875
40	0x3d064ae6	0.032786272
41	0xbd8c39a5	-0.06846932
42	0xbc4a75c3	-0.012357178
43	0x3d47ad34	0.048749164
44	0xb9c4bd89	-0.00037525248
45	0xbccef7ef	-0.025264708
46	0x3ba1e5c7	0.0049407217
47	0xbd8b0d90	-0.06789696
48	0xbd21037a	-0.039309956
49	0x3d205fa4	0.03915371
50	0xbd0539d8	-0.032525867
51	0xbbd40dae	-0.0064713573
52	0x3d163fab	0.036681812
53	0x3c94c1f1	0.018158885
54	0x3dfb0468	0.122567
55	0x3d74221d	0.059602845
56	0x3c78155d	0.015141812
57	0xbca57374	-0.020196654
58	0x3c287d8f	0.010283842
59	0xbdab7169	-0.08371241
60	0xbdc1f4d0	-0.094705224
61	0xbd50a9a4	-0.050943032
62	0xbd3ef871	-0.04662365
63	0x3cf6f11b	0.030144265
64	0x3d977607	0.07395559
65	0x3b61f411	0.003447775
66	0xbd523ebb	-0.051329356
67	0x3dd33188	0.10312182
68	0xbd0134ba	-0.031544425
69	0x3cc5fb0c	0.02416756
70	0xbd8cb760	-0.068709135
71	0xbc5cd15b	-0.013477649
72	0xbc074950	-0.008257225
73	0xbca6333b	-0.0202881
74	0x3baf3e96	0.005348037
75	0xbd9b69a1	-0.075885065
76	0x3d83675d	0.06416199
77	0xbdab0d1a	-0.08352108
78	0x3d05fcbf	0.03271174
79	0xbd38c2d2	-0.04510767
80	0x3caa2606	0.020770084
81	0x3d1a8f99	0.0377346
82	0xb8b0e11e	-8.434265e-05
83	0xbcf22f56	-0.029563587
84	0xbcef793f	-0.02923262
85	0x3d7d2610	0.061803877
86	0x3d5701cf	0.05249196
87	0xbd0d2f29	-0.034468804
88	0x3d87a3b6	0.06623022
89	0x3cd327d7	0.025775833
90	0xbdb1b961	-0.08677936
91	0x3c5ff0e6	0.0136682745
92	0x3a8b7c44	0.0010641892
93	0x3c4aa80d	0.012369168
94	0x3dd2746b	0.10276111
95	0x3dabdca8	0.08391696
96	0x3d30e502	0.04318715
97	0x3d996f4b	0.074919306
98	0xbd898deb	-0.06716522
99	0x3d8f4d34	0.06997147
100	0xbd404858	-0.046943992
101	0xbdc2b7ab	-0.09507688
102	0xbd8eef08	-0.06979185
103	0xbd403a1d	-0.04693042
104	0xbd8408b4	-0.064469725
105	0x3cae5d47	0.021284712
106	0x3beb9c4c	0.007190263
107	0xbd52397d	-0.051324356
108	0xbca54c06	-0.020177852
109	0x3d5b4395	0.053531248
110	0xbdb2f667	-0.08738404
111	0x3bbc4ee9	0.0057467115
112	0xbc733bb6	-0.014845779
113	0x3d96bc3d	0.07360122
114	0xbd04cef7	-0.03242394
115	0xbdbe82da	-0.09302302
116	0xbd37dcea	-0.044888414
117	0x3cc90077	0.024536354
118	0x3dd2086e	0.10255514
119	0xbc868ca5	-0.016424486
120	0x3cf7bfe2	0.030242864
121	0xbd861ca1	-0.06548429
122	0xbd1b0947	-0.037850644
123	0xbd7e3e18	-0.062070936
124	0xbd1bba1b	-0.03801928
125	0xbc3936cc	-0.0113045685
126	0xbcee459c	-0.029085927
127	0xbdf4b69f	-0.11948895
128	0x3d2f3236	0.042772494
129	0x3c143b00	0.00904727
130	0xbd5407f3	-0.051765393
131	0x3d0c99fb	0.034326535
132	0x3c60bba8	0.013716616
133	0xbd447641	-0.04796434
134	0x3a013644	0.00049290457
135	0x3dd00435	0.101570524
136	0x3bea1765	0.007143902
137	0x3ccdaef9	0.025107848
138	0x3c1a2874	0.009409059
139	0xbbb9f409	-0.005674843
140	0x3d2a14eb	0.041523855
141	0x3da949a4	0.08265999
142	0x3d853e9b	0.06506082
143	0x3d1b941e	0.037983052
144	0x3c19bc29	0.00938324
145	0x3dd1668e	0.10224639
146	0x3e232ab4	0.15934259
147	0x3da69233	0.08133354
148	0xbca923c2	-0.020646933
149	0x3d30312b	0.04301564
150	0x3d52e4b6	0.051487647
151	0xbdb0de7f	-0.08636188
152	0x3dd412cd	0.103551485
153	0x3c6a31b3	0.014294076
154	0x3adfefd2	0.0017085022
155	0x3d4aad11	0.049481455
156	0x3dd2563b	0.102703534
157	0xbd0a6619	-0.033788774
158	0x3dabffc7	0.08398395
159	0x3c04b651	0.008100108
160	0x3d4091b1	0.047013942
161	0x3e2ab3cb	0.16670148
162	0x3dbf220a	0.09332664
163	0xbd5333f5	-0.051563222
164	0x3d9dea85	0.07710747
165	0xbd28d69b	-0.04122029
166	0x3caa7f0e	0.020812538
167	0x3d2328a4	0.03983368
168	0x3e147abf	0.14499949
169	0x3d891846	0.06694083
170	0x3db1645f	0.086617224
171	0xbd14a5a8	-0.036290795
172	0x3dc08540	0.094004154
173	0x3e07cee7	0.1326252
174	0x3e0e3769	0.13888325
175	0x3c3538bf	0.011060893
176	0xbd10743d	-0.035267103
177	0x3d575e85	0.052580375
178	0x3c979ddd	0.018507892
179	0x3d5eb463	0.05437125
180	0x3cdc629c	0.02690249
181	0x3d1f44ae	0.038883857
182	0x3dab4949	0.083635874
183	0xbd6389bb	-0.055551272
184	0x3e15daa1	0.14634182
185	0xbb7c3a5f	-0.003848694
186	0xbdd39ede	-0.10333036
187	0x3db775d1	0.089580186
188	0x3de2e53d	0.1107888
189	0xbb097429	-0.0020973778
190	0xbb96e462	-0.004604862
191	0xbc88c258	-0.016694233
192	0x3cfb80f5	0.03070114
193	0x3e033c17	0.12815891
194	0x3b1b2d14	0.0023677992
195	0x3e144427	0.14479123
196	0x3d45be20	0.04827702
197	0x3d00fff2	0.03149409
198	0xbd099ec8	-0.03359869
199	0xbaf08c21	-0.0018352309
200	0x3cfe0fb3	0.031013345
201	0x3d3d3e80	0.046202183
202	0x3db8d486	0.09024911
203	0xbd8103c0	-0.062995434
204	0x3dcec1d9	0.10095567
205	0x3e00787d	0.12545963
206	0xba5eda29	-0.00085011363
207	0xbe1feb85	-0.15617187
208	0xbd45d0b7	-0.04829475
209	0x3cf7bd20	0.030241549
210	0x3df4531c	0.11929914
211	0x3dce1893	0.10063281
212	0x3d95f560	0.07322192
213	0x3db3d89d	0.0878155
214	0x3d48c4fb	0.04901598
215	0xbd80e3ec	-0.06293473
216	0xbd7ab885	-0.061211128
217	0xbda76d14	-0.08175102
218	0x3de6a2c1	0.112615116
219	0x3d13b42a	0.03606049
220	0x3d520699	0.051275823
221	0xbb1ae928	-0.0023637507
222	0x3dc82a66	0.09773712
223	0xbd96242b	-0.07331117
224	0xbc07e381	-0.008293987
225	0x3cc20ed1	0.023688706
226	0x3cb973f2	0.022638295
227	0x3b56b544	0.0032761851
228	0x3c366766	0.011133051
229	0x3d1bebb6	0.03806659
230	0x3cfdd8b9	0.03098713
231	0x3daa5036	0.0831608
232	0x3bc49fa0	0.006000474
233	0x3e07d812	0.13266018
234	0x3d9ab83a	0.0755467
235	0xbbbf6afa	-0.00584161
236	0x3dd23dc0	0.10265684
237	0xb9c73224	-0.00037993595
238	0x3cf91020	0.030403197
239	0x3dbf096d	0.0932797
240	0x3d9ccc55	0.07656161
241	0x3e106452	0.14100769
242	0x3dfdae3b	0.123867474
243	0x3dbf6a96	0.093465015
244	0x3d93713d	0.07199333
245	0x3d9a3b36	0.07530825
246	0x3c6ef6ba	0.014585191
247	0x3a840fef	0.0010075549
248	0x3d3bdde0	0.045865893
249	0xbd3853b7	-0.04500171
250	0x3c350f7a	0.011051053
251	0x3cfa3b24	0.030545779
252	0x3c95e377	0.01829694
253	0x3d446097	0.047943678
254	0x3d78734a	0.060656823
255	0xbe1c9292	-0.15290287

rnn.bias_hh_l0 f4 [384]
0	0xbd5cf8c4	-0.05394818
1	0x3da40881	0.080094345
2	0xbd09c67d	-0.03363656
3	0x3cb70458	0.022340938
4	0x3cd81362	0.02637643
5	0x3a8d1a7a	0.0010765337
6	0x3d9e687c	0.077347726
7	0xbdc2bfb6	-0.09509222
8	0x3d688578	0.05676791
9	0xbd327f52	-0.043578453
10	0x3c067dc7	0.008208699
11	0x3c0c191e	0.00855091
12	0xbdaac2a3	-0.08337905
13	0xbce3eed5	-0.027823845
14	0xbc8ef839	-0.017452346
15	0x3c681dd6	0.01416727
16	0x3be295c8	0.006914828
17	0xbdd558ba	-0.10417314
18	0xbaa62355	-0.0012675325
19	0xbd749e1d	-0.0597211
20	0x3d6e0cb2	0.058117576
21	0x3bd64537	0.006539013
22	0xbce68039	-0.028137313
23	0x3c4e333c	0.012585457
24	0x3c049fac	0.008094709
25	0x3dbc36d1	0.09190143
26	0xbc0afffd	-0.008483884
27	0xbd15fd0c	-0.036618277
28	0xbca83243	-0.02053178
29	0x3bf75319	0.007547748
30	0x3cc94b31	0.024571987
31	0xbcf9af56	-0.030479115
32	0xbda0b2ab	-0.07846578
33	0xbcb8f469	-0.022577481
34	0x3db19482	0.08670904
35	0x3d2b1025	0.041763443
36	0x3d83aef1	0.06429852
37	0x3d89e971	0.067339785
38	0xbd02062a	-0.03174416
39	0xbd993085	-0.074799575
40	0xbdac0433	-0.083992384
41	0xbbb41d44	-0.005496653
42	0xbc610199	-0.013733291
43	0x3d47bdc6	0.048764966
44	0xbd4f531b	-0.050616365
45	0x3d2fd4ae	0.042927437
46	0xbbb9f6af	-0.005675159
47	0xbd24aee6	-0.04020586
48	0xbddcf00e	-0.10787974
49	0x3d4c67f3	0.04990382
50	0x3c5d4b8f	0.013506784
51	0xbc1ee94d	-0.009699178
52	0x3c2cba7a	0.010542506
53	0x3d3c746f	0.046009477
54	0xbd0ed349	-0.034869466
55	0xbccaa731	-0.024737926
56	0x3e0d1203	0.13776402
57	0xbd4b1b52	-0.0495866
58	0x3d0debf1	0.03464884
59	0x3d91a2ab	0.071111046
60	0xbd7ebf0a	-0.062193908
61	0x3d0392fd	0.0321226
62	0xbd9185bd	-0.07105587
63	0xbd371090	-0.04469353
64	0xbc077f94	-0.008270163
65	0xbdeb9a90	-0.1150409
66	0xbd8a2dd2	-0.06747021
67	0xbd7eeaa3	-0.062235486
68	0x3cb5fa80	0.022214174
69	0x3cd7a35c	0.026323013
70	0xbd28a3e8	-0.04117194
71	0xbc55b1a9	-0.013042846
72	0xbdd37f5e	-0.10327028
73	0x3d10aa2b	0.035318535
74	0x3d83942c	0.06424746
75	0x3d154c4d	0.03644972
76	0xbcf1c306	-0.02951194
77	0xbd94da82	-0.072682396
78	0x3cfb03ed	0.03064152
79	0xbca96c4d	-0.020681525
80	0xbd9bbcf6	-0.07604401
81	0x3a04a377	0.00050597586
82	0x3b00e4e7	0.0019667686
83	0xbd4fce64	-0.05073394
84	0x3d624ad2	0.055247135
85	0xbccebac1	-0.025235536
86	0x3dc83943	0.09776547
87	0xbd156eda	-0.03648267
88	0x3d84ff4f	0.06494009
89	0x3df95b6e	0.12175642
90	0x3d9d4e38	0.07680935
91	0xbd981cba	-0.07427354
92	0x3d9f1597	0.0776779
93	0x3bd8b7a6	0.0066136895
94	0x3e04f154	0.12982684
95	0xbc89f1a2	-0.016838852
96	0xbd31d538	-0.043416232
97	0xbcf7093b	-0.030155769
98	0xbcb6e3c7	-0.02232541
99	0xbb80c91f	-0.0039302255
100	0x3d4b69a9	0.049661312
101	0xbc97ac4a	-0.018514771
102	0xbd5464d2	-0.051853962
103	0xbca91fa0	-0.020644963
104	0x3d128197	0.035768118
105	0xbc11bb72	-0.008894788
106	0x3ced1a04	0.02894307
107	0xbb7180a4	-0.0036850357
108	0x3d089922	0.033349164
109	0xbda25f52	-0.07928337
110	0xbd1daba9	-0.038493786
111	0x3c6389e4	0.013887856
112	0x3d1b525a	0.037920333
113	0xbd2bd0f0	-0.041947305
114	0x3d82c2b2	0.063847914
115	0x3d29fc28	0.04150024
116	0xbc8a243f	-0.016862987
117	0x3cf1cf66	0.02951784
118	0x3dcecaa8	0.10097247
119	0xbd9992ab	-0.07498678
120	0x3d6820e3	0.05667199
121	0x3bcd2ce6	0.006261456
122	0xbb2d6962	-0.0026460518
123	0xbd779cf0	-0.0604524
124	0xbd8ae007	-0.06781011
125	0xb80302c1	-3.12354e-05
126	0xbd04e6a9	-0.032446537
127	0xbdfd364a	-0.123638704
128	0x3dafbb67	0.08580666
129	0x3a8817ce	0.0010383071
130	0x3d87d1cd	0.06631813
131	0x3d5508b9	0.05201027
132	0x3cdfa88e	0.027302053
133	0x3d32d268	0.04365769
134	0x3ce5e2c4	0.028062232
135	0x3d42b062	0.047531493
136	0x3dec018f	0.11523735
137	0xbd8a736e	-0.06760298
138	0xbce36424	-0.027757712
139	0x3d56feda	0.05248914
140	0x3d9538a1	0.07286192
141	0x3ddf4ba6	0.10903101
142	0x3e00a84b	0.12564199
143	0x3d5400b4	0.051758483
144	0x3df88398	0.121344745
145	0x3d121376	0.03566309
146	0x3da02488	0.07819468
147	0xbbf8ea96	-0.007596324
148	0x3b4181b5	0.0029526774
149	0xbd0eca07	-0.034860637
150	0xbd52382a	-0.051323093
151	0xbdd06e2d	-0.10177264
152	0x3e111e37	0.14171682
153	0x3d51eeaa	0.051253
154	0x3d863c70	0.06554496
155	0xbcda8ee9	-0.026679473
156	0xbd44b0f7	-0.04802033
157	0x3deeaaf8	0.116537035
158	0xbd7815fb	-0.060567837
159	0x3d128b76	0.03577753
160	0x3c91a8d4	0.017780699
161	0x3dd06243	0.10174992
162	0x3bd0ddbe	0.00637409
163	0x3d343120	0.04399216
164	0xbd79bd99	-0.06097183
165	0x3dea408c	0.114380926
166	0x3df0151a	0.11722775
167	0x3d91551d	0.07096312
168	0x3db29939	0.08720631
169	0x3d9268b0	0.07148874
170	0xbd5400ae	-0.05175846
171	0x3d092223	0.03347982
172	0xbd8aa09c	-0.06768915
173	0x3dd1801b	0.10229512
174	0x3c5b9133	0.013401317
175	0xbbd8d8ce	-0.006617642
176	0xbd552f60	-0.052047133
177	0x3cb8399a	0.022488404
178	0x3e188ca0	0.14897394
179	0x3d2156b9	0.039389346
180	0x3bf50979	0.007477936
181	0x3dd8e8cb	0.10591277
182	0xbc5aeeb0	-0.013362572
183	0x3d0f2b34	0.03495331
184	0x3bfa5a10	0.007640131
185	0x3c671fe8	0.014106728
186	0x3d7be767	0.06149998
187	0x3e0231a2	0.12714246
188	0x3c983d2e	0.01858386
189	0xbc74d28b	-0.0149427755
190	0xbc57c5e7	-0.013169742
191	0x3ca0cde0	0.019629419
192	0x3c76d22c	0.015064757
193	0x3d181f89	0.03713945
194	0x3df70fa3	0.12063529
195	0x3d0fa4bf	0.035069223
196	0x3cb4afb9	0.022056447
197	0x3d20230b	0.03909592
198	0x3dc5e9f3	0.09663763
199	0x3d82dba0	0.063895464
200	0x3e0823a4	0.13294846
201	0xbdc4a5f9	-0.09601969
202	0xbd7ecd68	-0.06220761
203	0x3ceb5a1f	0.028729497
204	0x3dcdbfeb	0.10046371
205	0xbcfb0bbd	-0.030645246
206	0x3d840677	0.064465456
207	0xbd8e1c84	-0.06939033
208	0xbd5548e3	-0.052071463
209	0xbd11d683	-0.035604965
210	0x3cbc55fb	0.022990217
211	0x3d9f786a	0.07786639
212	0x3dd4d2ca	0.10391767
213	0x3e1d7626	0.15377101
214	0xbd1c81f1	-0.03820986
215	0x3d086ffa	0.033309914
216	0xbdb052ae	-0.0860952
217	0x3c20e44f	0.009820058
218	0x3d6eda83	0.058313858
219	0x3d9bca58	0.076069534
220	0xbd89a22e	-0.067203864
221	0x3ac20fe8	0.0014805766
222	0x3d1b4d7e	0.0379157
223	0xbd51033d	-0.05102848
224	0xbc5e789c	-0.01357856
225	0x3c466294	0.012108464
226	0xbb47a3e1	-0.003046267
227	0x3d1d9764	0.038474455
228	0x3d7a6df2	0.06114001
229	0x3dbf8be8	0.09352857
230	0x3d0c4f3b	0.034255248
231	0x3db1df30	0.08685148
232	0x3dd53b6c	0.104117244
233	0x3cdae123	0.026718682
234	0xbd9793ed	-0.074012615
235	0x3e078c3f	0.13237093
236	0x3c1d8a65	0.009615515
237	0x3d9e4d15	0.07729546
238	0xbb16786c	-0.002295996
239	0x3d4c739c	0.04991494
240	0x3db3e9d0	0.087848306
241	0x3db9b200	0.09067154
242	0xbc99180d	-0.018688226
243	0xbbb94a52	-0.0056546116
244	0xbb8677c0	-0.004103631
245	0xbbb3081b	-0.0054636127
246	0x3d9c2d25	0.07625798
247	0x3d351e1f	0.04421818
248	0xbd156592	-0.036473818
249	0xbcbdecc0	-0.02318418
250	0x3cb68140	0.022278428
251	0x3d74ebee	0.059795313
252	0x3cae4e1d	0.021277482
253	0x3d984c5f	0.07436442
254	0x3e10a9da	0.14127293
255	0xbe1c3bfe	-0.1525726

predict.1.weight f4 [24, 128]
0	0xbc44be3f	-0.012008249
1	0x3c2b759a	0.01046505
2	0xba7029c2	-0.0009161496
3	0x3cf4561d	0.029826218
4	0x3da038a0	0.078233
5	0x3d12e4b1	0.03586263
6	0x3ce6daba	0.028180469
7	0x3b817ff0	0.003952019
8	0x3d4bbc94	0.04974039
9	0xbc80f578	-0.015742049
10	0xbca89a9a	-0.020581532
11	0xbcbdb5d7	-0.023157997
12	0x3b553cc8	0.003253745
13	0x3ab32cdb	0.0013669984
14	0xbcb003d3	-0.021486199
15	0x3cf446a7	0.029818846
16	0x3d0b9095	0.03407343
17	0x3cb4475d	0.022006685
18	0xbcc1cbf0	-0.023656815
19	0xbd1f2c79	-0.03886077
20	0x3c8bedb3	0.017081117
21	0x3be16d2a	0.0068794684
22	0x3c89b4b4	0.016809799
23	0x3d232870	0.039833486
24	0xbcaf3e6f	-0.021392075
25	0x3c914b9e	0.017736252
26	0xbbe7089c	-0.007050587
27	0x3c9a5a4e	0.018841889
28	0xbcb5d43f	-0.022195933
29	0xbd14cd94	-0.036328867
30	0xbb438974	-0.0029836567
31	0xbd296716	-0.041358076
32	0x3ccc9775	0.024974564
33	0x3c682cdb	0.014170851
34	0x3d7ecced	0.06220715
35	0xbb9b362c	-0.0047366824
36	0x3d15f4ac	0.03661029
37	0x3c41140c	0.011784565
38	0xbadb7709	-0.0016743849
39	0xbd6ee5e7	-0.05832472
40	0x3caec993	0.021336352
41	0xbd19073d	-0.03736042
42	0xbc95ce61	-0.018286886
43	0xbc316c23	-0.010829004
44	0x3ce2a10d	0.027664686
45	0x3b911348	0.0044273473
46	0xbaea40cb	-0.0017872093
47	0xbc3e53f0	-0.011616692
48	0xbd5e9e08	-0.05434993
49	0x3c96b9ce	0.018399145
50	0xbce5a9a4	-0.028034993
51	0xbc4b2a60	-0.01240024
52	0xbdab8869	-0.083756275
53	0x3d6ba004	0.05752565
54	0xbc0b7f56	-0.008514246
55	0xbd29b757	-0.041434612
56	0xbdac8801	-0.08424378
57	0xbb8d694b	-0.0043155304
58	0xbd0e6706	-0.03476622
59	0x3d58865a	0.052862503
60	0xbcfb19e4	-0.030651994
61	0x39cb33dd	0.00038757818
62	0x3b45b143	0.003016547
63	0xba1a3f7d	-0.0005884094
64	0xbd087d81	-0.033322815
65	0x3d9f1dbc	0.07769343
66	0x3b827c9e	0.0039821407
67	0xbb9816e5	-0.004641401
68	0x3ab08f61	0.0013470465
69	0xbc4b0f57	-0.012393794
70	0x3d459a3e	0.0482428
71	0x3cbd1312	0.023080382
72	0x3cb78434	0.022401907
73	0xba8b6962	-0.0010636265
74	0xbc9c4ba1	-0.019079031
75	0xbd71a0f8	-0.058991402
76	0x3cde00f1	0.027100058
77	0xbc856ea8	-0.016288117
78	0x3d26e263	0.040743243
79	0x3d5251a9	0.05134741
80	0x3d086713	0.033301424
81	0xbd0cb612	-0.034353323
82	0xbd4e0710	-0.050299704
83	0xbcff0f38	-0.031135187
84	0xbc2c4270	-0.010513887
85	0xbd34cbb3	-0.044139575
86	0xbbb093f5	-0.0053887316
87	0x3c1b76f1	0.009488807
88	0x3cedaa4d	0.02901187
89	0xbc7556b1	-0.014974282
90	0x3cb95f3e	0.022628423
91	0x3cb7c245	0.022431502
92	0xbddcfe40	-0.10790682
93	0x3d390d0a	0.04517845
94	0xbc76136b	-0.015019278
95	0xbbaecfcf	-0.0053348313
96	0xbcd9779c	-0.026546292
97	0xbc86f3e1	-0.016473712
98	0x3c86024a	0.016358513
99	0x3c70a196	0.014686963
100	0xbda0f994	-0.07860103
101	0xbd468c21	-0.04847348
102	0xbcb1f6dd	-0.021724159
103	0x3cc5673c	0.024097078
104	0x3d3d2647	0.046179082
105	0x3c64bb58	0.013960682
106	0xbcd314d9	-0.025766777
107	0x3c69d2b0	0.014271423
108	0x3ce69e78	0.028151736
109	0xbc1557cc	-0.009115171
110	0xbcd8b3aa	-0.026452858
111	0x3c9e3fc0	0.019317508
112	0xbd27a811	-0.040931765
113	0xbd2699de	-0.040674083
114	0x3c8a0bd3	0.016851341
115	0xbcab7d50	-0.020933777
116	0xbd37a4cb	-0.044834893
117	0xbd1ed38e	-0.038775973
118	0x3b1ca581	0.002390236
119	0xbbf2abb8	-0.0074057244
120	0x3c9f3069	0.019432263
121	0x3b953fed	0.0045547397
122	0xbd4a40fc	-0.04937838
123	0x3cbbbe98	0.02291803
124	0xbd53c242	-0.05169893
125	0xbb36fe30	-0.0027922504
126	0xbc66aa38	-0.014078669
127	0x3c50344e	0.012707783
128	0xbc03d803	-0.008047107
129	0x3d864ece	0.065579996
130	0xbd03ae62	-0.032148726
131	0x3d18d08d	0.037308265
132	0x3d275343	0.04085089
133	0xbc3d6662	-0.0115600545
134	0x3c6d6915	0.014490386
135	0xbc52bc65	-0.0128623
136	0x3d0bf580	0.034169674
137	0xbcd12a83	-0.025532966
138	0x3c06c5d0	0.008225873
139	0xbd2510b2	-0.040299125
140	0xbcc58721	-0.024112286
141	0x3d1233f4	0.035694078
142	0xbd6c1d0b	-0.057644885
143	0x3cfbb7fb	0.030727377
144	0x3cbff05c	0.023430042
145	0xbaf22ebd	-0.0018477064
146	0x3b76a4e4	0.0037634904
147	0xbc411865	-0.011785601
148	0x3cc45c73	0.023969864
149	0xbc1c1bba	-0.009528095
150	0x3d445b74	0.04793878
151	0x3c7aa5d7	0.015298328
152	0xbd5a0930	-0.053231418
153	0x3c066e06	0.008204943
154	0x3c661f99	0.014045619
155	0x3cdb56ff	0.026774881
156	0x3cf08195	0.029358665
157	0xbcca3383	-0.024682766
158	0xbbaa5754	-0.0051983986
159	0x3c1376b1	0.009000466
160	0x3c98ed69	0.018667893
161	0xbb5e7089	-0.0033941588
162	0x3dd00fa9	0.10159237
163	0x3c3a7641	0.011380733
164	0x3c671f81	0.014106632
165	0xbd23bf3a	-0.03997729
166	0xbc94674a	-0.018115658
167	0xbd82b33d	-0.06381843
168	0x3ccd43a1	0.025056662
169	0x3c701fc9	0.014656016
170	0xbd33fbd3	-0.04394133
171	0xbdd89045	-0.10574392
172	0x3daee2cf	0.08539354
173	0xbccf632c	-0.025315844
174	0x3cf459c1	0.029827954
175	0xbcb786df	-0.022403179
176	0xbd7c5df8	-0.061613053
177	0xbd23aa00	-0.039957047
178	0x3d7e1341	0.06203008
179	0xbc9510f2	-0.018196557
180	0xbe176485	-0.14784439
181	0x3d825184	0.06363204
182	0x3c5cac33	0.01346879
183	0xbd646228	-0.05575767
184	0xbcb3bc08	-0.021940246
185	0x3c5de115	0.013542433
186	0xbd4119d2	-0.047143765
187	0x3d666b3f	0.05625462
188	0xbd18cd5e	-0.03730523
189	0xbd12eba6	-0.035869263
190	0xbd3910cd	-0.045182038
191	0xbd5b6cbf	-0.053570505
192	0xbc8da145	-0.017288813
193	0x3e22fa04	0.15915686
194	0x3c9b91e9	0.018990474
195	0x3c5cd502	0.013478519
196	0xbd604fea	-0.054763712
197	0xbc589dfc	-0.01322126
198	0x3d2bb6b7	0.041922297
199	0x3d184c74	0.037182286
200	0x3c84234d	0.016130114
201	0xbd1c246a	-0.038120665
202	0x3bde3ce1	0.0067821597
203	0xbbf634f8	-0.0075136386
204	0x3d2a8198	0.041627496
205	0x3d2b753e	0.041859858
206	0x3d3b4e78	0.04572913
207	0x3db0067f	0.08594989
208	0xbc83402d	-0.016021812
209	0xbd3c831c	-0.046023473
210	0xbd483131	-0.048875038
211	0x3d0194df	0.031636115
212	0xbab6f44f	-0.0013958308
213	0xb91a915a	-0.00014740732
214	0x3c4b46ca	0.012407014
215	0x3ae7b72e	0.0017678493
216	0x3b598a96	0.0033194176
217	0xbd170b47	-0.03687599
218	0x3d8f67e2	0.07002236
219	0x3d02423c	0.031801447
220	0xbda41433	-0.08011665
221	0x3d54890d	0.051888514
222	0x3be8d8a6	0.0071059046
223	0xbc8fae01	-0.017539026
224	0xbae583a6	-0.0017510548
225	0xbd4d4afd	-0.050120343
226	0xbcf1e578	-0.029528365
227	0x3d3c0677	0.045904603
228	0xbdc6eb22	-0.09712817
229	0xbcae8db7	-0.02130781
230	0xbcb2d142	-0.021828298
231	0x3c7b95fd	0.015355584
232	0xbb8f3c56	-0.0043712063
233	0x3d5b1125	0.053483147
234	0xbc6b03d9	-0.014344179
235	0xbd45600e	-0.048187308
236	0x3d903ec6	0.07043223
237	0xbcc50069	-0.024048047
238	0x3c962d56	0.018332165
239	0x3d1c1147	0.038102414
240	0xbd82671d	-0.063673235
241	0xbd19df28	-0.037566334
242	0x3d26b3c4	0.04069878
243	0x3ccbb15e	0.024864849
244	0xbd88d4cb	-0.06681212
245	0xbd188e0c	-0.03724484
246	0x3cb25984	0.0217712
247	0x3d539047	0.051651265
248	0xbcfa9708	-0.030589595
249	0x3cce7a5d	0.025204832
250	0xbd5954e4	-0.053059474
251	0x3c03ac84	0.008036736
252	0xbc565e23	-0.013083967
253	0x3c0911e3	0.008366081
254	0xbb13dcc7	-0.0022562013
255	0x3d814d71	0.06313599

predict.1.bias f4 [24]
0	0x3b0659b4	0.0020500245
1	0xbcb2121d	-0.021737153
2	0x3c2984b5	0.010346581
3	0xbce757ec	-0.028240167
4	0x3b41064b	0.0029453214
5	0xbd0c3f16	-0.03423985
6	0x3d0824b9	0.033238146
7	0xbd169b10	-0.036768973
8	0xbb2cd0fb	-0.002636968
9	0xbcfcbcde	-0.030851778
10	0xbd4228f3	-0.047402333
11	0x3c79d799	0.015249156
12	0x3c36c29e	0.011154799
13	0x3d816b48	0.063192904
14	0x3cc565ba	0.024096359
15	0x3cd6e583	0.026232487
16	0x3cdb169e	0.026744183
17	0xbd1fb601	-0.03899193
18	0x3cb93e07	0.022612585
19	0x3cc4ca54	0.024022259
20	0xbc80d215	-0.015725175
21	0xbba9ff4e	-0.0051879054
22	0xbb773f24	-0.0037726844
23	0xbbb41c65	-0.005496549
