results/mimic_iii_DLinear/3/checkpoint.pth (torch, 33638 bytes, 6 tensors)

Linear_Seasonal.weight f4 [48, 48]
0	0x3cb8e985	0.022572288
1	0x3b3f9c25	0.0029237357
2	0x3c8dbbbf	0.017301438
3	0x3d3d0dac	0.046155617
4	0x3ccafe84	0.024779566
5	0x3d27ee67	0.040998843
6	0x3d43a1f1	0.04776186
7	0x3d3c190e	0.04592233
8	0x3d50ac45	0.05094554
9	0x3d3db32e	0.046313457
10	0x3d117cad	0.03551929
11	0x3d1b635c	0.037936553
12	0x3c7d875c	0.015474167
13	0x3d70fa06	0.05883219
14	0x3d10cc44	0.035351053
15	0x3c854731	0.016269298
16	0x3cc68a13	0.02423576
17	0x3b229ac6	0.002481149
18	0x3af8595e	0.0018947532
19	0xbcb4c27f	-0.0220654
20	0x3ca1695f	0.019703565
21	0x3c6450ce	0.013935281
22	0x3a857dd5	0.0010184596
23	0xbb3e3c47	-0.0029027627
24	0xbbe40219	-0.006958258
25	0x3cfaf070	0.030632228
26	0x3ce916ae	0.028453197
27	0x3c924a9d	0.017857844
28	0x3d189802	0.03725434
29	0x3c6dac50	0.0145064145
30	0x3ca0db06	0.019635689
31	0x3d2e9aa4	0.042627946
32	0x3ce72980	0.02821803
33	0x3c601f48	0.013679333
34	0xba595818	-0.000829102
35	0x3d1106b3	0.03540678
36	0x3c922a5d	0.017842466
37	0x3d5f87f2	0.054573007
38	0x3ca545b0	0.020174831
39	0x3d763ee6	0.06011858
40	0x3c8215e3	0.015879577
41	0x3c9e6cbc	0.019338958
42	0x3c257771	0.010099278
43	0x3d09e10b	0.033661883
44	0x3c9a4f37	0.0188366
45	0x3c245cca	0.010031888
46	0x3bd81f94	0.0065955613
47	0xbccafe5a	-0.024779487
48	0xbbb0d681	-0.0053966646
49	0xbbb84b02	-0.005624176
50	0x3d2d7899	0.04235134
51	0x3dadd0fc	0.08487126
52	0x3d81d252	0.063389435
53	0x3d9227e7	0.07136517
54	0x3d581e06	0.052763008
55	0x3d21f630	0.039541423
56	0x3d298acb	0.04139213
57	0x3d09c905	0.033638973
58	0x3c80ed1e	0.015738066
59	0x3cab91f9	0.020943629
60	0x3bffe9e6	0.0078098653
61	0x3cfd3d25	0.030912945
62	0x3c62f42b	0.0138521595
63	0x3baf8f40	0.005357653
64	0x3d0c7b11	0.034297053
65	0x3ca340a1	0.019928278
66	0xbc0645bd	-0.008195338
67	0xba773ec2	-0.0009431654
68	0x3ccb00c5	0.02478064
69	0x3d1d4bd8	0.03840241
70	0x3c2fd1b2	0.010731148
71	0x3beb09d3	0.007172802
72	0x3c1003cc	0.008789968
73	0x3c3865bb	0.011254723
74	0x3c81058c	0.015749715
75	0x3bbfc5e4	0.005852448
76	0x3c715ebb	0.014732058
77	0x3d0c14a0	0.034199357
78	0x3d38e6c3	0.045141947
79	0x3d732dde	0.059369914
80	0x3c97a15c	0.01850956
81	0x3ca03303	0.019555574
82	0x3d0ecbb7	0.034862246
83	0x3cb60b60	0.02222222
84	0xbbe05938	-0.006846573
85	0x3bb74613	0.0055930703
86	0x3c8af239	0.016961204
87	0x3cf903ad	0.03039726
88	0x3bd17290	0.0063918307
89	0xbc1d105e	-0.009586422
90	0xbc99f421	-0.018793168
91	0xbc865bf1	-0.016401263
92	0xbc8a398c	-0.016873144
93	0xbbb40fe0	-0.0054950565
94	0x3c4a5f15	0.012351771
95	0x3d72737e	0.059192173
96	0x3b31b181	0.0027113857
97	0x3b2e11b8	0.0026560854
98	0x3c45e0c9	0.012077519
99	0x3d23510b	0.03987221
100	0x3c4dc28e	0.0125585925
101	0x3c9ca212	0.01912025
102	0x3d1676cd	0.03673439
103	0x3d742717	0.05960759
104	0x3d34bfca	0.044128217
105	0x3d2791b9	0.040910456
106	0x3d5a97eb	0.053367537
107	0x3d3330d3	0.043747734
108	0x3c235439	0.009968811
109	0x3d51fd3b	0.05126689
110	0x3d2935f7	0.04131123
111	0x3d167e3f	0.03674149
112	0x3d2ea976	0.04264208
113	0x3d060b21	0.032725457
114	0x3b03420e	0.0020028385
115	0xbca615e6	-0.020274114
116	0x3d174488	0.03693059
117	0x3d6f010f	0.05835062
118	0x3c87ff31	0.016601177
119	0xba7b0c44	-0.0009576718
120	0x3ccdda4c	0.025128506
121	0x3d28beb4	0.041197494
122	0x3d3aa48f	0.04556709
123	0x3d040252	0.032228775
124	0x3d784aa3	0.060618054
125	0x3cd0e3e9	0.025499301
126	0x3d67fb5c	0.0566362
127	0x3d6cbd96	0.05779799
128	0x3c7c3980	0.015394568
129	0x3d046855	0.03232606
130	0x3cdc950e	0.026926544
131	0x3d1c38b6	0.03814002
132	0x3d23866f	0.039923128
133	0x3d438c92	0.04774148
134	0x3d1551bf	0.036454912
135	0x3d8802cd	0.06641159
136	0x3d03fb4f	0.03222209
137	0xbcbfa34f	-0.023393301
138	0xbce4ce52	-0.027930412
139	0x3c2d8738	0.010591321
140	0xbd59d334	-0.053179935
141	0xbd488bfa	-0.048961617
142	0xbc9e063c	-0.019290082
143	0xbd360f57	-0.044448223
144	0x3d16d40a	0.03682331
145	0x3c9a5725	0.018840382
146	0x3c775dba	0.01509803
147	0x3c955b07	0.018231882
148	0xbb2c7db1	-0.0026320035
149	0x3ca774e9	0.02044149
150	0x3ccd2d95	0.02504615
151	0x3d12a27b	0.035799485
152	0x3ccda445	0.025102744
153	0x3c22d997	0.009939573
154	0x3cf7566d	0.030192578
155	0x3c9febd5	0.019521633
156	0x3c508fd6	0.012729606
157	0x3d162973	0.036660623
158	0x3d36fac5	0.044672746
159	0x3d1bf0f5	0.03807159
160	0x3cf4e6c9	0.029895203
161	0x3d0dc681	0.034613136
162	0x3cb23cd6	0.021757524
163	0xbcb7cc6d	-0.022436345
164	0x3d08efb4	0.033431724
165	0x3cccb143	0.024986869
166	0x3b61de88	0.0034464914
167	0x3c3a242b	0.011361162
168	0x3c1195de	0.008885829
169	0x3cc0a37a	0.023515452
170	0x3d0ec169	0.03485242
171	0x3ce39aae	0.027783718
172	0x3d466e5c	0.04844509
173	0x3cd6038a	0.026124734
174	0x3d5cba8c	0.053888842
175	0x3d83d725	0.0643752
176	0x3cd8a11b	0.026444009
177	0x3c9fea22	0.019520823
178	0x3c1a35ee	0.009412272
179	0x3cee5f06	0.029098045
180	0x3cae0e93	0.021247184
181	0x3d0a82a0	0.03381598
182	0x3c96ee07	0.018424047
183	0x3cfb2076	0.030655127
184	0x3c1a94a6	0.009434855
185	0x3b6c0e61	0.0036019313
186	0xbaaab5a7	-0.0013024107
187	0x3cbdfd45	0.023192057
188	0x3ba425b4	0.0050093774
189	0x3c5ef1a8	0.01360742
190	0x3c6f19ae	0.014593525
191	0xbd005994	-0.03133543
192	0x3ca6f991	0.020382674
193	0xbc2086e4	-0.009797785
194	0x3c89b6b0	0.016810745
195	0x3d235009	0.03987125
196	0x3c16a4af	0.009194537
197	0x3c8f06a5	0.017459223
198	0x3985cccc	0.00025520322
199	0xba225acd	-0.000619334
200	0x3c5dba94	0.013533253
201	0x3d28b5fe	0.041189186
202	0x3c07d608	0.008290775
203	0x3d20f5ac	0.03929679
204	0x3d159cd1	0.036526505
205	0x3d168223	0.0367452
206	0x3a6f5968	0.0009130449
207	0x3b6e8f0f	0.0036401188
208	0x3d2c08a0	0.042000413
209	0x3c20b981	0.009809853
210	0xbb61782b	-0.00344039
211	0x3cf31e5b	0.02967756
212	0xba99eac2	-0.0011742937
213	0xbacdb28b	-0.0015693469
214	0x3d0a951b	0.033833604
215	0x3d084909	0.033272777
216	0x3d166d38	0.036725253
217	0x3cb796c8	0.022410765
218	0x3c853422	0.01626021
219	0x3c050051	0.008117751
220	0xbc21c0dc	-0.009872641
221	0x3c1f0053	0.009704667
222	0xbc511090	-0.012760296
223	0x3b5957db	0.0033163938
224	0x3c82bee7	0.01596017
225	0x3c4b5e2c	0.012412589
226	0x3cc3d480	0.023905039
227	0x3c90c0d2	0.017670069
228	0x3ceb7852	0.028743897
229	0x3d2b2030	0.041778743
230	0x3c2f6f90	0.010707751
231	0x3cb41ee0	0.021987379
232	0x3cb6724f	0.022271303
233	0x3d13fa3c	0.036127314
234	0x3c554244	0.013016287
235	0x3bb6ca21	0.005578295
236	0x3cf07814	0.029354133
237	0x3d027bd8	0.031856388
238	0x3c8c806c	0.01715108
239	0x3d5011d5	0.050798256
240	0x3caa20e1	0.020767631
241	0x3b0fc5d7	0.002193799
242	0x3cea711c	0.028618388
243	0x3cedd231	0.029030891
244	0x3c371bfe	0.011176107
245	0x3c450bda	0.012026751
246	0x3b79df0a	0.0038127326
247	0xbac9272c	-0.0015346757
248	0x3caddfd9	0.021224903
249	0x3d4f6bf3	0.050640058
250	0x3bd361ac	0.0064508524
251	0x3d85d75c	0.06535217
252	0x3d4753c0	0.048663855
253	0x3d57342f	0.05254
254	0xbb22a621	-0.0024818259
255	0x3c67a358	0.014138065

Linear_Seasonal.bias f4 [48]
0	0x3e1c08a8	0.15237677
1	0x3d78cf53	0.060744595
2	0x3e008f51	0.12554671
3	0x3dfa92d6	0.12235038
4	0xbe1c14fb	-0.15242378
5	0xbd88cad2	-0.0667931
6	0x3e03396d	0.12814875
7	0x3d88bb45	0.06676344
8	0x3de7d353	0.11319604
9	0xbe255256	-0.1614469
10	0x3cc00c89	0.023443477
11	0xbcce06f7	-0.025149805
12	0x3db5b907	0.08873182
13	0x3e093a6e	0.13401195
14	0x3d151bc2	0.036403425
15	0x3dd04466	0.10169296
16	0xbcd454cc	-0.02591934
17	0x3dc16afb	0.09444233
18	0x3e08e738	0.13369453
19	0x3e222bfc	0.15837091
20	0xbd959004	-0.073028594
21	0xbcb65608	-0.02225782
22	0xbe0cd683	-0.13753705
23	0xbd8f1df9	-0.06988139
24	0xbbae757c	-0.005324064
25	0x3e08a211	0.13343073
26	0xbd734121	-0.059388284
27	0xbbc38f68	-0.005968023
28	0x3ca92be6	0.020650815
29	0x3e09f1e1	0.13471176
30	0xbe2a962f	-0.16658853
31	0x3cf2d91f	0.029644547
32	0x3d8d27d4	0.06892362
33	0x3d52cfac	0.051467583
34	0xbdce50c3	-0.10073998
35	0x3da2d68e	0.07951079
36	0xbcd42740	-0.025897622
37	0x3d957a85	0.07298759
38	0x3e13db8a	0.14439216
39	0xbc11d6c2	-0.0089013
40	0xbda49bb1	-0.08037508
41	0x3cd52cb7	0.026022298
42	0x3b65c6b1	0.0035061056
43	0x3db37a66	0.0876358
44	0x3dc32806	0.09529118
45	0xbdd38346	-0.10327773
46	0x3e14c5a7	0.14528523
47	0x3d95c3c5	0.07312731

Linear_Trend.weight f4 [48, 48]
0	0x3c5831ed	0.013195497
1	0x3c58bfea	0.01322935
2	0x3c55c91e	0.013048438
3	0x3c4fffc5	0.012695258
4	0x3c49c26f	0.012314423
5	0x3c3feb5a	0.011713827
6	0x3c35d2e5	0.011097644
7	0x3c272efe	0.010204075
8	0x3c1d64b6	0.009606531
9	0x3c142f63	0.009044501
10	0x3c06d848	0.008230276
11	0x3bf08b02	0.00734079
12	0x3bd3d89d	0.0064650313
13	0x3bbee204	0.005825283
14	0x3baabe12	0.0052106464
15	0x3b8bbad3	0.0042642145
16	0x3b55cea9	0.00326244
17	0x3b11af9f	0.0022229922
18	0x3a933410	0.0011230726
19	0x38dd97af	0.000105663545
20	0xba827215	-0.0009952212
21	0xbb1885b7	-0.002327306
22	0xbb783cfa	-0.0037878142
23	0xbb976ff9	-0.0046215025
24	0xbbb79998	-0.0056030266
25	0xbbc8dfca	-0.0061301934
26	0xbbedc890	-0.007256575
27	0xbc00d98d	-0.007864368
28	0xbc0f69ea	-0.008753279
29	0xbc1d25e6	-0.009591555
30	0xbc286f8b	-0.0102805
31	0xbc2f94e6	-0.0107166525
32	0xbc356bc6	-0.0110730585
33	0xbc4159fa	-0.011801237
34	0xbc4e386a	-0.012586692
35	0xbc5938cf	-0.013258173
36	0xbc637022	-0.013881715
37	0xbc6e1465	-0.01453123
38	0xbc7b7da6	-0.015349781
39	0xbc840a33	-0.016118145
40	0xbc8906d7	-0.016726894
41	0xbc8fbb4e	-0.017545369
42	0xbc949276	-0.018136244
43	0xbc9920ea	-0.018692452
44	0xbc9e8ed7	-0.01935522
45	0xbca37617	-0.01995377
46	0xbca75655	-0.020426909
47	0xbca9b24e	-0.020714905
48	0x3c36c833	0.01115613
49	0x3c3a4e08	0.011371143
50	0x3c399e6c	0.011329275
51	0x3c379215	0.011204262
52	0x3c3a3e4a	0.01136739
53	0x3c396dee	0.011317713
54	0x3c33a48a	0.010964522
55	0x3c2f268a	0.010690341
56	0x3c2fe230	0.01073508
57	0x3c2c9c2b	0.01053528
58	0x3c2532af	0.010082885
59	0x3c1bdeb9	0.00951355
60	0x3c10ddee	0.008841975
61	0x3bd0937f	0.006365239
62	0x3bcce89c	0.006253315
63	0x3bb7a3a9	0.0056042266
64	0x3b9619da	0.0045807185
65	0x3b8155a3	0.0039469763
66	0x3b5607d3	0.0032658472
67	0x3b3bee0d	0.0028675825
68	0x3b0d5af9	0.0021569117
69	0x3ab545dc	0.0013830024
70	0x3a6e533c	0.00090913824
71	0x3a146b84	0.0005661773
72	0xb8fd2f14	-0.00012072749
73	0xba143c87	-0.0005654771
74	0xba895c23	-0.0010479729
75	0x3938afec	0.00017613143
76	0x3b1d004a	0.002395647
77	0x3ad0aa85	0.0015919959
78	0x3a843954	0.0010087886
79	0xbabe07fc	-0.0014498229
80	0xbaf09ada	-0.0018356696
81	0xbb24dff5	-0.0025157903
82	0xbb354ff0	-0.0027666055
83	0xbb24b230	-0.0025130622
84	0xbb120aa3	-0.0022284172
85	0xbaf44cf3	-0.0018638655
86	0xbaadd7d7	-0.0013263178
87	0xba4ee502	-0.0007892401
88	0xb976b8d9	-0.0002352925
89	0x38b4a144	8.613107e-05
90	0x3718c16f	9.104943e-06
91	0x380f7976	3.4206976e-05
92	0xb8e20486	-0.00010777362
93	0x3976ebff	0.00023548304
94	0x3a150423	0.00056845153
95	0x3a35c6d4	0.000693423
96	0x3bbf71ee	0.005842439
97	0x3bd1a979	0.0063983765
98	0x3be3bd1f	0.006950035
99	0x3bf72a36	0.0075428737
100	0x3c04be77	0.008102051
101	0x3c0c5fb8	0.008567743
102	0x3c0f4c0a	0.0087461565
103	0x3c0c185c	0.00855073
104	0x3c132399	0.008980655
105	0x3c1c0df5	0.009524812
106	0x3c1dafec	0.009624463
107	0x3c1cc2ef	0.00956796
108	0x3c1e723b	0.009670789
109	0x3c230503	0.009949925
110	0x3c24d931	0.010061548
111	0x3c24215a	0.010017717
112	0x3c21c1da	0.009872878
113	0x3c1e1ac0	0.009649932
114	0x3c1ccf9e	0.009570984
115	0x3c182788	0.009286769
116	0x3c080eaa	0.008304277
117	0x3bf5c610	0.0075004175
118	0x3bd71655	0.0065639415
119	0x3bb77ea8	0.0055998154
120	0x3b974415	0.0046162703
121	0x3b8047fa	0.0039148303
122	0x3b308780	0.0026936233
123	0x3adc876e	0.0016825029
124	0x39939a49	0.00028152976
125	0xbad8d99f	-0.0016544348
126	0xbb688a53	-0.0035482838
127	0xbba2521a	-0.004953635
128	0xbbd75254	-0.0065710936
129	0xbc1086cb	-0.0088212
130	0xbc32df97	-0.010917566
131	0xbc4fca22	-0.01268247
132	0xbc6a3625	-0.014295136
133	0xbc839cb6	-0.016065937
134	0xbc933975	-0.017971734
135	0xbca29ec9	-0.019851105
136	0xbcb11ec5	-0.021621117
137	0xbcc0239a	-0.023454476
138	0xbccc8e84	-0.0249703
139	0xbcdadeb4	-0.026717521
140	0xbce87c7a	-0.028379668
141	0xbcf28327	-0.029603554
142	0xbcfd3eb9	-0.030913698
143	0xbd038529	-0.032109413
144	0x3c815c87	0.01579119
145	0x3c7ef0fb	0.015560384
146	0x3c7baf07	0.015361554
147	0x3c77930f	0.015110745
148	0x3c71b637	0.014752916
149	0x3c6c38f1	0.014417873
150	0x3c65c1e9	0.014023283
151	0x3c55da7e	0.013052581
152	0x3c4f6362	0.012657972
153	0x3c4794ef	0.012181505
154	0x3c3c212b	0.011482517
155	0x3c314009	0.01081849
156	0x3c25a0f4	0.010109175
157	0x3c1bd093	0.009510177
158	0x3c144a31	0.009050892
159	0x3c0b060e	0.00848533
160	0x3c03df77	0.008048884
161	0x3bfb20de	0.00766383
162	0x3bed51d2	0.0072424198
163	0x3bdec207	0.006798032
164	0x3bc3384f	0.0059576402
165	0x3ba80d13	0.0051285117
166	0x3b8de930	0.0043307766
167	0x3b6b9595	0.0035947312
168	0x3b380fcd	0.002808559
169	0x3b0bbda0	0.0021322742
170	0x3a9de594	0.0012046569
171	0x3991c269	0.00027801402
172	0xba538f62	-0.0008070377
173	0xbaf63f78	-0.0018787226
174	0xbb4577f6	-0.0030131317
175	0xbb821c6f	-0.0039706747
176	0xbb96abfa	-0.004598138
177	0xbbbd624d	-0.0057795406
178	0xbbe21009	-0.006898884
179	0xbc032a87	-0.008005745
180	0xbc15db0d	-0.009146464
181	0xbc279a79	-0.0102297
182	0xbc3ab036	-0.011394551
183	0xbc4e5fef	-0.012596115
184	0xbc602998	-0.013681792
185	0xbc738567	-0.014863349
186	0xbc8277b3	-0.015926218
187	0xbc8be3c1	-0.017076375
188	0xbc959abf	-0.018262265
189	0xbc9cbf35	-0.019134143
190	0xbca34285	-0.01992918
191	0xbca902be	-0.02063119
192	0x3bf913c0	0.0076012313
193	0x3bfcd957	0.0077163386
194	0x3bf72cd6	0.0075431867
195	0x3bf13bcd	0.007361865
196	0x3bf7476a	0.007546355
197	0x3bf5232d	0.007481
198	0x3bef70c9	0.007307146
199	0x3bf3b00f	0.0074367593
200	0x3befddea	0.0073201554
201	0x3bed1b78	0.0072359405
202	0x3bf103dd	0.007355197
203	0x3c1d11fd	0.009586808
204	0x3c214543	0.009843173
205	0x3c249366	0.010044908
206	0x3c2b20dc	0.010444846
207	0x3c2d7e19	0.010589146
208	0x3c2ad572	0.010426866
209	0x3c2fb116	0.010723373
210	0x3c2ff809	0.0107402885
211	0x3c345920	0.011007577
212	0x3c3c3de1	0.011489362
213	0x3c426c1a	0.011866594
214	0x3c464e1f	0.012103586
215	0x3c4eaa4d	0.012613845
216	0x3c52795d	0.012846318
217	0x3c57481d	0.013139752
218	0x3c5b75be	0.013394771
219	0x3c654cfa	0.013995403
220	0x3c6fe102	0.014641048
221	0x3c76ee14	0.015071411
222	0x3c7f8a5e	0.015596954
223	0x3c847658	0.016169712
224	0x3c891ff9	0.016738879
225	0x3c8fbf58	0.017547294
226	0x3c953cf7	0.018217547
227	0x3c9ad152	0.01889864
228	0x3c9f7fac	0.019470058
229	0x3ca3db09	0.020001905
230	0x3c986083	0.018600708
231	0x3c9dc8ae	0.01926073
232	0x3ca3da9a	0.020001698
233	0x3cab1ac4	0.020886786
234	0x3cb01404	0.02149392
235	0x3cb6fabd	0.022336358
236	0x3cbc6f3c	0.02300226
237	0x3cc0baa0	0.02352649
238	0x3cc53346	0.0240723
239	0x3cc85728	0.024455622
240	0x3c85a1cd	0.016312504
241	0x3c87e309	0.016587751
242	0x3c84f1cb	0.016228577
243	0x3c82a648	0.01594843
244	0x3c843171	0.016136857
245	0x3c828b18	0.015935466
246	0x3c7cc03b	0.015426691
247	0x3c780dfa	0.015140051
248	0x3c6ef65b	0.014585103
249	0x3c65ac4b	0.014018129
250	0x3c5e387f	0.013563274
251	0x3c5bb51c	0.013409879
252	0x3c5d014b	0.013489078
253	0x3c583765	0.013196801
254	0x3c5e7c85	0.013579492
255	0x3c579c15	0.013159771

Linear_Trend.bias f4 [48]
0	0xbd955c9f	-0.07293057
1	0xbd0aa0ab	-0.03384463
2	0xbd12dd3f	-0.035855528
3	0x3d829026	0.063751504
4	0xbdeec276	-0.11658184
5	0xbdfad7f2	-0.122482195
6	0x3e129b00	0.1431694
7	0x3ce47e7c	0.027892344
8	0x3bfb9164	0.007677244
9	0x3cf9eb27	0.030507637
10	0x3e02df79	0.1278056
11	0xbd775318	-0.06038198
12	0xbdb9f347	-0.090796046
13	0x3dafbb22	0.085806146
14	0x3c22f40f	0.009945883
15	0xbe207a9d	-0.15671773
16	0x3e0d320d	0.13788624
17	0x3da95d14	0.08269706
18	0x3dff7e4a	0.124752596
19	0xbbc89019	-0.0061206934
20	0xbe13d63c	-0.14437193
21	0x3d8f57bc	0.06999156
22	0x3cb5b77a	0.022182215
23	0x3ce18dad	0.027533377
24	0xbd8951fa	-0.06705089
25	0x3b8dfefe	0.004333376
26	0xbd3d2071	-0.046173517
27	0xbe0100f8	-0.12598026
28	0xbd9eeb8d	-0.077597715
29	0x3c022ae5	0.007944797
30	0x3da5fc6c	0.08104786
31	0x3d66705b	0.056259494
32	0xbd7b6b85	-0.061381835
33	0xbb6b2e86	-0.0035885884
34	0x3de5fb54	0.11229578
35	0x3dec0523	0.11524417
36	0x3d1f7bbd	0.038936365
37	0xbd5f0df8	-0.05445668
38	0x3e0eb573	0.13936405
39	0xbdcf0f8b	-0.101103865
40	0xbc28e68d	-0.010308874
41	0xbbd2f1a3	-0.0064374967
42	0x3d95eb9f	0.07320332
43	0x3da0bd24	0.07848576
44	0x3d182855	0.03714784
45	0xbdb1439b	-0.08655473
46	0x3c5e2524	0.01355866
47	0xbe0e947c	-0.1392383

projection.weight f4 [2, 1488]
0	0xbc8c463c	-0.017123334
1	0xbb30811d	-0.0026932426
2	0xbc8daac9	-0.01729335
3	0xbc8672b1	-0.016412111
4	0x3cf795e0	0.030222833
5	0x3ced88ae	0.028995838
6	0x3c066377	0.008202425
7	0xbbca5844	-0.006175073
8	0x3c926ef4	0.017875172
9	0x3d12f2c4	0.03587605
10	0xbbf11a98	-0.0073579066
11	0xbd09916c	-0.03358595
12	0xbc055024	-0.008136783
13	0xbba90dd5	-0.0051591196
14	0x3c0d989a	0.00864234
15	0x3b94331f	0.0045226957
16	0x3ba0033a	0.004883197
17	0x3c55e856	0.0130558815
18	0x3c59faba	0.013304407
19	0xbc69fa76	-0.014280906
20	0xbcae3068	-0.021263316
21	0x3c84e27a	0.016221274
22	0xbbdff13b	-0.006834177
23	0xbc2bd53e	-0.010487853
24	0xbae23805	-0.0017259127
25	0x3b08a5c0	0.0020850748
26	0x3c3b9ef4	0.011451472
27	0xbc9a721c	-0.01885324
28	0x3beefeac	0.007293543
29	0xbc88a704	-0.016681202
30	0xbc851f57	-0.016250296
31	0x3bd611ec	0.006532898
32	0x3c334bcb	0.010943363
33	0x3cbcfed0	0.023070723
34	0x39b0874b	0.00033670137
35	0xbb58f3d7	-0.0033104324
36	0x3d23c791	0.039985243
37	0xbc54741a	-0.012967134
38	0x3c004ed9	0.007831299
39	0x3d272104	0.04080297
40	0x3ca767aa	0.020435173
41	0xbcb00569	-0.021486955
42	0x3c4e8e47	0.012607164
43	0xbd00c050	-0.031433403
44	0xbb800990	-0.00390739
45	0x3c60056a	0.013673166
46	0xbc81d9d9	-0.015850948
47	0xbcc6dfbc	-0.024276607
48	0x3c991e1b	0.018691113
49	0x3c3965d5	0.011315783
50	0x38ea1994	0.00011162754
51	0xbbb3c0a6	-0.005485612
52	0xbb78ce7d	-0.0037964873
53	0x3c2d2c3f	0.010569631
54	0xbc69017c	-0.014221545
55	0xbb45f305	-0.0030204665
56	0x3cabb4dd	0.020960266
57	0xbbb5d6c5	-0.005549284
58	0xbbc540ed	-0.0060197026
59	0xbcb9b10d	-0.022667432
60	0x3c02bd00	0.007979631
61	0xbc16f42b	-0.009213488
62	0x37025655	7.768705e-06
63	0x3c9560d5	0.01823465
64	0xbc2ea4d2	-0.010659413
65	0xbc0a9c85	-0.008460169
66	0x3c93d6f9	0.018046843
67	0x3d044e04	0.032300964
68	0x3b792b4e	0.0038020196
69	0x3c80888c	0.01569011
70	0x3b999f0e	0.0046881502
71	0x3d109631	0.035299484
72	0x3b3b7373	0.0028602749
73	0xbc80ef2b	-0.015739044
74	0x3cbe7880	0.023250818
75	0x3c289f33	0.010291862
76	0x3bd9c61e	0.006645932
77	0x3d15fca0	0.036617875
78	0xbca97328	-0.020684794
79	0x3c2c9f17	0.010535977
80	0x3c5abab1	0.013350175
81	0x3c7e61de	0.015526263
82	0xbc64621b	-0.013939406
83	0xbc551c43	-0.013007226
84	0xbb5b34c3	-0.0033448196
85	0xba89e4d5	-0.0010520468
86	0xbb30f8a1	-0.0027003663
87	0x3d0e4c8f	0.03474098
88	0x3c9d18af	0.01917681
89	0xbbdc3ac6	-0.0067208735
90	0x3c95a3bf	0.018266557
91	0x3cfe2907	0.031025423
92	0x3b6477ea	0.0034861513
93	0xbcbfcba4	-0.023412533
94	0xbc997651	-0.018733175
95	0xbc364942	-0.011125864
96	0xbb71f2c2	-0.0036918377
97	0x3d19ba7a	0.037531354
98	0x3c959252	0.018258248
99	0x3c215a0c	0.009848129
100	0x3caba4fc	0.020952694
101	0x3c8d560a	0.01725294
102	0xbb5b6fa9	-0.0033483303
103	0x3cba097c	0.0227096
104	0xbb9f9d3a	-0.004871038
105	0x3ae9789b	0.0017812432
106	0xbc22d1a7	-0.00993768
107	0x3ca4035c	0.020021133
108	0x3c6f0b17	0.014590046
109	0x3d11b5b1	0.035573665
110	0x3cbaa5b0	0.022784084
111	0xbc589f59	-0.013221585
112	0xbbd94c8b	-0.006631439
113	0xbc89e450	-0.0168325
114	0xbc907119	-0.017632054
115	0x3baafe90	0.0052183345
116	0xbc6e3d68	-0.014541008
117	0x3cbd8e65	0.023139188
118	0x3d29a715	0.041419107
119	0x39b4e22e	0.00034500792
120	0x3c850fd7	0.016242905
121	0xbc9a17ba	-0.018810142
122	0xbbfbe978	-0.0076877438
123	0xbaf3b5fa	-0.0018593662
124	0xbd4177c4	-0.047233358
125	0xbcc11b4d	-0.023572588
126	0xbba5d3e7	-0.005060661
127	0xbd029a0e	-0.0318852
128	0xbb5f0d85	-0.0034035158
129	0xbcabadd3	-0.02095691
130	0xbcec7af6	-0.028867226
131	0x3b0578ac	0.0020366115
132	0xbce69861	-0.028148832
133	0xbc856935	-0.016285518
134	0xbd0d7179	-0.034532044
135	0x3bc3b39a	0.005972338
136	0xbc201755	-0.009771188
137	0xbc2a4cd2	-0.010394292
138	0x3c7d3a4d	0.0154557945
139	0xbd25a34d	-0.04043894
140	0xbd2315a5	-0.039815564
141	0xbd290152	-0.041261025
142	0xbba752c3	-0.0051063015
143	0xbd2c325f	-0.042040225
144	0xbbeb1d26	-0.0071751056
145	0x3c00ee80	0.007869363
146	0x3c03a4d6	0.008034905
147	0xbd52e366	-0.051486395
148	0xbc9705b4	-0.018435337
149	0xbb85336e	-0.004064969
150	0x3baf1353	0.00534288
151	0x3c4c71e4	0.0124783255
152	0xbc4b08f9	-0.012392276
153	0xbcf1440f	-0.029451398
154	0xbcf5a0f4	-0.029983975
155	0xbca6954b	-0.02033486
156	0xbca9d5fc	-0.020731919
157	0xbbc10a36	-0.00589111
158	0x3c40c82c	0.011766475
159	0xbc1c8bd2	-0.00955482
160	0x3c8517fb	0.016246786
161	0x3be2e2e1	0.0069240187
162	0xbceb73d6	-0.028741758
163	0xbd4f7c42	-0.05065561
164	0x3cf80000	0.030273438
165	0xbc5e3cdd	-0.013564316
166	0x3c7b7b75	0.015349259
167	0x3bdf2ff0	0.0068111345
168	0x3c39ed0e	0.011348022
169	0xbc3a4ad6	-0.011370381
170	0xbc7107fc	-0.014711376
171	0xbd0beb14	-0.034159735
172	0xbd0a7b03	-0.03380872
173	0xbd08f3cd	-0.03343563
174	0xbcd5f7ad	-0.026119078
175	0x3d02bd13	0.031918596
176	0xbbd31b13	-0.0064424365
177	0xbc16d837	-0.009206823
178	0xbd776f2d	-0.06040876
179	0xbcdb9a92	-0.026807103
180	0xbc3d7d15	-0.011565466
181	0xbc5c53a9	-0.0134476805
182	0xbb683cdd	-0.0035436668
183	0xbcfbd77a	-0.030742396
184	0xbd288e4b	-0.041151326
185	0xbb017442	-0.0019753133
186	0xba818b28	-0.0009883391
187	0x3bb275f2	0.005446189
188	0x3c409484	0.011754159
189	0x3cad3105	0.021141538
190	0x3d27a380	0.04092741
191	0x3cb2b88f	0.02181652
192	0x3b25403d	0.002521529
193	0xbc6e0bdb	-0.014529194
194	0x3d1c637f	0.038180824
195	0x3b4cf232	0.003127229
196	0x3c88c911	0.016697438
197	0xbbcba1bf	-0.00621435
198	0x3c9b9612	0.018992458
199	0xbc079732	-0.008275794
200	0x3d002feb	0.031295698
201	0xbb25507b	-0.0025224972
202	0xbc53c5fc	-0.012925621
203	0xbbcee41b	-0.0063138134
204	0x3cb0cecb	0.021582982
205	0x3c9db330	0.019250482
206	0x3ce58ab5	0.028020242
207	0xbbf61352	-0.0075096274
208	0xbc5cc70a	-0.013475189
209	0x3c3e9cda	0.011634076
210	0x3d17421c	0.03692828
211	0x3b72d821	0.0037055092
212	0x3be19216	0.00688387
213	0xbb2ce082	-0.0026378934
214	0x3d006aa0	0.031351686
215	0x3c96f279	0.018426167
216	0x3d069d4a	0.032864846
217	0x3ad52ccd	0.0016263962
218	0xbc621ffe	-0.013801573
219	0x3d52bbc5	0.051448602
220	0x3c5709f1	0.013124929
221	0x3cf0df55	0.029403368
222	0xbcacc0a5	-0.021087954
223	0x3ceff280	0.029290438
224	0x3c51806b	0.012786965
225	0x3c605daf	0.013694211
226	0x3bc2459d	0.0059287087
227	0xbcaa0764	-0.020755477
228	0x3ca94f5e	0.020667728
229	0x3caa940d	0.02082255
230	0xbb9b4c01	-0.004739285
231	0xbb150005	-0.0022735607
232	0x3b6d43b8	0.0036203694
233	0xbc9e90bb	-0.019356122
234	0x3b925c15	0.0044665434
235	0x3beca5a4	0.0072218943
236	0xbce6ca39	-0.0281726
237	0x3bd82ff8	0.006597515
238	0x3d1a77eb	0.03771202
239	0x3caa569c	0.020793252
240	0x3c52448b	0.012833725
241	0x3ccdad05	0.025106916
242	0x3d16d535	0.036824424
243	0x3bbd1b4d	0.005771077
244	0x3cab1bb9	0.020887243
245	0xbcbd531f	-0.023110924
246	0xbb5271f3	-0.0032111376
247	0x3c1521e6	0.00910232
248	0xbd284fc9	-0.041091714
249	0x3ca7d4a1	0.020487132
250	0xbccbaffb	-0.024864187
251	0xbaea1402	-0.0017858746
252	0x3c4d0f88	0.01251591
253	0x3d5eff54	0.05444272
254	0xbca4663b	-0.020068279
255	0xbb90072e	-0.004395387

projection.bias f4 [2]
0	0x3d41fbe2	0.047359355
1	0xbc6199c0	-0.013769567
