results/mimic_iii_SegRNN/1/checkpoint.pth (torch, 445795 bytes, 12 tensors)

pos_emb f4 [2, 64]
0.98177624 -1.5640897 -0.35709968 0.13331085 -0.71920323 0.45249608 0.44519868 0.40897885
-1.2681601 0.8906437 0.14615446 0.6365098 -1.4157485 -1.5256212 1.582869 1.1384166
0.43220314 -0.5543611 -0.561896 -0.73937464 0.35582 0.37137523 0.56483144 -0.6868594
-1.0283706 -1.5777487 -0.6142257 1.2259612 -1.3509738 -0.037044365 -1.6215093 0.9425253
-0.074023 0.047568277 -0.32556823 -1.7832799 -0.24552903 -0.17460698 -0.16441777 0.17014042
1.2662522 -0.4376502 0.1473999 0.9933128 0.86118734 0.95113224 -0.94170254 0.5060363
0.9022093 -0.26822472 1.3206552 1.4114575 0.2580653 -0.6340242 -0.57920295 1.6559054
-0.5339542 0.5847003 -0.40945724 -1.8716891 -0.095337845 0.20260724 -0.06950467 0.19254701
-0.5096292 1.5549939 0.23566547 -0.9515611 1.8074377 0.73303366 1.3764135 0.4545998
-0.43733054 -1.1845846 1.1232721 -0.17955162 -0.31294248 -0.13988043 0.6149738 0.6844789
-2.1965134 -0.07737538 -0.20887996 -1.0422713 -0.9422786 0.6438326 0.20858805 -1.1635064
-0.33876014 0.3998297 -0.734638 -0.48674357 0.93097115 -0.519211 -0.9338847 -1.8685906
-1.1496842 -0.05888965 -0.01354156 -0.99501616 1.4215592 0.3597536 1.3490473 -0.036932606
-0.14810656 -1.4776282 2.1901827 -0.58714014 -1.2192963 -0.24567121 0.2962541 0.589281
0.44799107 -0.405828 1.4285293 -0.9922333 -1.9454246 0.8488282 -0.389481 1.9836442
1.0322791 0.2687088 -0.9347673 0.26809636 0.7167601 -1.0905424 0.31236628 0.4699627
00000000: b055 7b3f 1734 c8bf c5d5 b6be a482 083e
00000010: b41d 38bf 91ad e73e 15f1 e33e ad65 d13e
00000020: 1253 a2bf 3a01 643f 84a9 153e 4ef2 223f
00000030: 3f37 b5bf 8e47 c3bf 749b ca3f a3b7 913f
00000040: bb49 dd3e 9cea 0dbf 6bd8 0fbf a847 3dbf
00000050: 0a2e b63e e524 be3e cb98 103f 05d6 2fbf
00000060: a6a1 83bf abf3 c9bf e53d 1dbf 4cec 9c3f
00000070: b6ec acbf d5bb 17bd 9e8d cfbf 5749 713f
00000080: 5f99 97bd f4d6 423d e1b0 a6be 8442 e4bf
00000090: f66b 7bbe 2ccc 32be 225d 28be 4a39 2e3e
000000a0: 8d14 a23f b013 e0be 00f0 163e bf49 7e3f
000000b0: c676 5c3f 677d 733f 6b13 71bf 988b 013f
000000c0: 30f7 663f c054 89be 3b0b a93f a4aa b43f
000000d0: 2321 843e 694f 22bf a546 14bf b5f4 d33f
000000e0: 39b1 08bf ebae 153f 61a4 d1be 8293 efbf
000000f0: 7d40 c3bd 4678 4f3e 7758 8ebd 0b2b 453e
00000100: 0f77 02bf 0a0a c73f 4a52 713e 8299 73bf
00000110: 1e5a e73f 18a8 3b3f 512e b03f 4ec1 e83e
00000120: cae9 dfbe 78a0 97bf 61c7 8f3f 61dc 37be
00000130: ff39 a0be d13c 0fbe ec6e 1d3f 023a 2f3f
00000140: ad93 0cc0 fc76 9ebd a1e4 55be 2569 85bf
00000150: 2c39 71bf 37d2 243f 1b98 553e c7ed 94bf
00000160: f871 adbe 7ab6 cc3e 3c11 3cbf 7436 f9be
00000170: 2054 6e3f 03eb 04bf 1113 6fbf fa2d efbf
00000180: da28 93bf 4636 71bd 6bdd 5dbc 61b9 7ebf
00000190: a7f5 b53f a031 b83e 95ad ac3f a546 17bd
000001a0: 3fa9 17be ec22 bdbf f42b 0c40 d14e 16bf
000001b0: e711 9cbf 3c91 7bbe 9eae 973e 1fdb 163f
000001c0: 165f e53e b0c8 cfbe 0cda b63f 0003 7ebf
000001d0: ac03 f9bf ce4c 593f 0e6a c7be 0ee8 fd3f
000001e0: b921 843f 3394 893e e94c 6fbf ed43 893e
000001f0: 977d 373f e596 8bbf 79ee 9f3e f39e f03e

channel_emb f4 [31, 64]
1.2653313 -1.1150339 -0.006207269 -0.9562662 3.191791 -0.5021425 -0.76877767 0.5497657
-0.21046157 -0.036131267 1.404962 0.1868346 -1.3042371 2.7706916 1.4344532 -1.078391
-0.09178743 -2.1264517 -0.50306606 -0.7890032 1.4875001 0.7768999 -0.057762656 -1.6262922
-1.8411725 3.0134947 -0.3329662 -0.315095 1.7129304 1.1294689 -0.98272514 1.5500857
-0.4089465 1.5592356 -0.37163937 -0.7406208 0.34860647 -2.0682983 0.23776053 -0.2731396
-0.8246641 0.29197595 -3.2276711 0.6234487 -2.1995573 0.3430701 1.40292 -0.3515266
0.11506457 0.8478996 0.23972869 0.4702478 0.7117169 -0.39613017 1.6318692 0.5882014
0.065944895 1.5516995 0.1981559 -0.87013215 0.59459656 -3.0896099 -0.30546102 -0.09495804
0.42621017 0.17593567 -0.2643793 0.8209412 -1.4728022 -0.9985511 1.7953359 0.45760334
-0.5187569 -1.2995384 0.82993317 0.37753612 0.75380564 -0.5017435 -2.160102 -0.81396574
1.6791673 -0.5843065 -0.11841291 0.025580732 0.71661985 0.06080103 -0.1584964 -1.1587679
-0.9511901 -0.60288566 -0.16851626 -0.07763762 0.05711221 -0.5642654 0.97141165 1.135139
0.81523246 -1.0616393 -1.1433665 0.031266402 -1.0479879 -0.21703479 -0.23073709 2.3224144
-0.5117741 -0.11830038 0.81519055 -1.0000333 0.45480293 0.47918057 0.45350355 -0.8644952
0.3788926 -0.34745216 0.106334224 -0.011539362 0.7359244 -0.025007728 0.08443804 -0.4523144
-0.45313394 0.24017371 0.8252073 -0.6873893 0.3209222 0.36086372 0.09187082 -0.043944973
-1.3633157 1.5907106 -1.1085869 1.6173801 -0.57061714 0.5699344 1.9613764 0.8958047
-0.21264718 1.4386306 0.51994103 1.0224577 1.7065998 -0.23067057 0.38930047 -0.39747098
1.4391056 -1.7538992 1.7959943 0.16473186 1.9508702 -0.5250122 1.5827447 -0.09731604
0.80839217 -0.81319195 -0.82261807 -1.3259705 -0.2593613 0.15463786 0.5110551 -1.4000511
-0.9621901 0.37255096 -0.8454842 1.9589123 0.24489403 -0.17463286 -1.0563065 0.52407646
0.43088037 -0.028961392 1.9068769 0.4350614 -0.7683286 0.099945456 -1.3432631 0.2509422
-0.96685314 0.52816176 1.5792524 -0.087809786 -0.15007861 1.1502718 0.49295375 0.73020893
0.2692209 -0.33300078 0.9788234 -0.7001678 -0.20941828 1.4724548 0.743768 0.02994399
0.067646824 -1.0928376 -1.1150742 1.2780185 0.3092588 -0.37885797 0.31482318 -2.194886
1.5708643 2.1508782 -2.1818364 -2.180497 -0.034536116 -0.3637479 -1.4180263 -0.04272816
0.6420531 0.438104 0.32080442 -0.75657254 -0.91745764 -0.40593454 -0.8089848 0.8251008
-0.40272805 0.075695135 -0.4454602 -1.7696958 0.09872245 -2.185409 -0.25618097 0.7981117
-0.10663947 0.5659043 -0.012303256 0.6790102 0.22810309 -0.31743488 0.6038066 1.531283
0.83723027 -0.28364357 0.76524836 0.046871286 -0.20753372 1.1886121 -0.40928122 -0.51406
-0.020650262 -3.138983 0.7414479 -1.5560082 -0.17314199 -0.8169387 -1.0279845 -0.80687964
0.49617526 2.0422146 -1.5584863 0.07349061 0.048650708 0.48823118 0.18658207 -1.570021
00000000: 60f6 a13f 6eb9 8ebf 5966 cbbb ddcd 74bf
00000010: 4e46 4c40 698c 00bf 9dce 44bf 72bd 0c3f
00000020: 3d83 57be 61fe 13bd cbd5 b33f 9251 3f3e
00000030: 3ef1 a6bf 0353 3140 2a9c b73f b708 8abf
00000040: 0cfb bbbd c917 08c0 f0c8 00bf 1dfc 49bf
00000050: 6766 be3f e9e2 463f 8998 6cbd 582a d0bf
00000060: 8aab ebbf 19dd 4040 8c7a aabe 2254 a1be
00000070: 4e41 db3f 7092 903f e093 7bbf 3569 c63f
00000080: 7061 d1be 0895 c73f 8447 bebe 5399 3dbf
00000090: 8c7c b23e 005f 04c0 7f77 733e f4d8 8bbe
000000a0: 301d 53bf df7d 953e 2a92 4ec0 569a 1f3f
000000b0: 8cc5 0cc0 e2a6 af3e e292 b33f 4bfb b3be
000000c0: f9a6 eb3d f30f 593f 707b 753e 52c4 f03e
000000d0: 1433 363f 93d1 cabe 17e1 d03f 5e94 163f
000000e0: 1e0e 873d 179e c63f 61e9 4a3e fbc0 5ebf
000000f0: 7b37 183f 2bbc 45c0 6365 9cbe 5c79 c2bd
00000100: 3838 da3e 7b28 343e b95c 87be 3429 523f
00000110: c884 bcbf 0ba1 7fbf 91cd e53f fc4a ea3e
00000120: 41cd 04bf 4657 a6bf 8076 543f 6a4c c13e
00000130: 68f9 403f 4372 00bf 1c3f 0ac0 0f60 50bf
00000140: f4ee d63f 1c95 15bf 7882 f2bd af8e d13c
00000150: 6674 373f 800a 793d e14c 22be 8252 94bf
00000160: 3281 73bf b756 1abf 878f 2cbe 7900 9fbd
00000170: 7eee 693d b273 10bf 6fae 783f 3c4c 913f
00000180: 13b3 503f cce3 87bf d559 92bf 3311 003d
00000190: 7824 86bf 5e3e 5ebe 5846 6cbe 70a2 1440
000001a0: a103 03bf 7847 f2bd 54b0 503f 1701 80bf
000001b0: eedb e83e 2857 f53e 9e31 e83e 8f4f 5dbf
000001c0: 36fe c13e 40e5 b1be c2c5 d93d 980f 3dbc
000001d0: 8b65 3c3f 02dd ccbc daed ac3d c195 e7be
000001e0: 2c01 e8be 19f0 753e c940 533f bff8 2fbf
000001f0: ea4f a43e 21c3 b83e c526 bc3d a5ff 33bd
00000200: 2181 aebf 689c cb3f 2de6 8dbf 5006 cf3f
00000210: f713 12bf 39e7 113f 620e fb3f 7553 653f
00000220: 2fc0 59be 0c25 b83f db1a 053f e5df 823f
00000230: dd71 da3f e834 6cbe 6452 c73e 5181 cbbe
00000240: 9d34 b83f c57f e0bf 24e3 e53f 78af 283e
00000250: 1db6 f93f 3367 06bf 6197 ca3f a24d c7bd
00000260: caf2 4e3f 592d 50bf 1997 52bf 67b9 a9bf
00000270: 01cb 84be 6359 1e3e 82d4 023f e034 b3bf
00000280: 1752 76bf 00bf be3e a771 58bf a3bd fa3f
00000290: 80c5 7a3e f5d2 32be 0d35 87bf e029 063f
000002a0: 5a9c dc3e 7140 edbc 8b14 f43f 5ec0 de3e
000002b0: 2fb1 44bf 34b0 cc3d 0cf0 abbf 7f7b 803e
000002c0: b083 77bf 9c35 073f f124 ca3f 9ed5 b3bd
000002d0: 35ae 19be 1b3c 933f 6f64 fc3e f9ee 3a3f
000002e0: 52d7 893e 147f aabe 2c94 7a3f 323e 33bf
000002f0: bf71 56be 6679 bc3f 9467 3e3f 194d f53c
00000300: 6b8a 8a3d 1ae2 8bbf c0ba 8ebf 1c96 a33f
00000310: 2b57 9e3e acf9 c1be 8130 a13e 0379 0cc0
00000320: 1512 c93f fda7 0940 35a3 0bc0 438d 0bc0
00000330: be75 0dbd 2a3d babe e381 b5bf b903 2fbd
00000340: 985d 243f 2b4f e03e 7a40 a43e bdae 41bf
00000350: 81de 6abf a7d6 cfbe a119 4fbf ce39 533f
00000360: 5f32 cebe 0d06 9b3d 5c13 e4be 6485 e2bf
00000370: ff2e ca3d bedd 0bc0 272a 83be 0c51 4c3f
00000380: cb65 dabd 1bdf 103f 9993 49bc 9dd3 2d3f
00000390: db93 693e d386 a2be 1293 1a3f 1501 c43f
000003a0: b954 563f bb39 91be 51e7 433f 1bfc 3f3d
000003b0: b883 54be 7124 983f 4f8d d1be 7099 03bf
000003c0: bd2a a9bc 19e5 48c0 88cf 3d3f 472b c7bf
000003d0: 224c 31be e522 51bf ff94 83bf aa8f 4ebf
000003e0: af0a fe3e a5b3 0240 7b7c c7bf 3f82 963d
000003f0: f745 473d 70f9 f93e 5f0f 3f3e 73f6 c8bf

valueEmbedding.0.weight f4 [128, 24]
-0.16002795 -0.057551727 -0.10138188 -0.14848226 0.07473486 0.08975845 -0.09043221 -0.26128572
-0.085727096 -0.2354668 0.052767906 -0.18374145 0.19466509 0.12561323 0.043728 -0.011323089
-0.039923225 -0.07026962 -0.18007581 0.24322721 0.03446972 0.061370607 -0.0537151 -0.12232055
-0.1363158 -0.09959272 0.20601547 0.06577432 -0.12181888 -0.06547627 -0.08344194 0.14634843
0.15178862 -0.049959444 0.11791178 0.14015011 0.16671613 0.08479112 -0.06506735 -0.14305215
-0.12388983 -0.041069683 0.1659581 0.18702284 0.014142867 0.10100789 -0.034438092 -0.14300595
0.17955558 -0.08408671 0.110351555 0.13205275 0.03524864 -0.13302545 0.034788407 -0.18010066
-0.109328926 0.13879363 -0.20534208 0.062181234 0.030469075 0.09096838 0.03202293 0.06280285
0.20478353 -0.08520262 -0.18729043 0.09246153 -0.04870958 -0.23160242 0.14362909 -0.032808173
-0.27866143 -0.041332085 -0.12266102 0.036390424 0.01093797 0.0031672108 -0.18649785 0.1154378
0.084169194 0.13850437 -0.10202721 -0.12693976 0.040878255 0.09501689 0.071574315 0.12875763
-0.13836095 0.07258638 0.012892867 0.24523652 -0.083895124 0.012558312 0.25313416 -0.054751758
-0.063797615 0.13947959 0.02146225 0.26927802 0.05686704 -0.123428755 -0.18516101 0.0074005113
-0.07071627 -0.117198855 0.19696216 0.17972335 0.22429259 0.1712329 -0.18836944 -0.10434386
-0.15875116 0.09189018 -0.06448762 -0.13395822 -0.12012494 -0.14442961 -0.061904564 -0.048210498
0.17417274 0.086336106 -0.27204427 -0.19122903 0.17081854 0.10811504 0.17132124 0.06494537
0.10461456 -0.08918236 -0.17936698 -0.1134178 -0.14686374 -0.26721543 -0.17322856 -0.08793149
0.038000006 0.095783114 -0.08158599 0.097911656 0.09578357 0.030116487 -0.19140416 0.16407219
-0.057331227 0.009790096 0.13448827 -0.12954976 -0.076210395 0.013362197 -0.111853026 0.13588251
0.09682553 -0.020097079 0.10407545 -0.14987063 0.02967768 -0.2212519 0.14850757 -0.009922318
0.03591472 -0.038109314 -0.09619391 0.07238726 -0.19782482 -0.08079092 0.1495773 0.1560532
-0.086437196 0.009685572 0.18453223 0.015495669 0.152457 0.012799332 -0.031979457 -0.07942319
-0.078600585 0.05988754 0.11625847 0.05274133 0.13081844 0.11731712 0.119068295 0.11795525
-0.010640116 0.024764441 0.00083888235 -0.08756392 -0.17940727 -0.1999169 0.117831804 0.0024210918
0.14888208 0.1309577 0.014143797 -0.0752142 -0.12531526 -0.18895806 -0.039276723 0.024634158
-0.14611617 0.21441913 -0.04032319 0.04319827 -0.04242989 0.2552689 0.015421596 -0.052889086
0.21709432 0.17353873 0.03731039 0.2252953 0.14863594 0.11830731 0.07377514 0.07626329
0.14108823 0.110673234 0.037529428 -0.017464507 0.063680656 0.16137129 -0.18191297 0.18233219
0.19092542 -0.12969083 -0.19162902 -0.0412604 -0.13219343 0.06502501 0.041948862 0.12618883
0.13088171 0.1792493 0.052525844 0.033016305 0.1490221 -0.13630496 0.12854816 -0.15006782
-0.31345254 0.102525234 -0.003763755 0.18948284 -0.038832024 0.15341777 -0.17602958 0.0017701832
0.17326383 -0.043920346 -0.11157112 0.121989906 0.031679675 -0.16371188 -0.030367257 -0.059671294
00000000: 5ede 23be 5cbb 6bbd 4ea1 cfbd bc0b 18be
00000010: 970e 993d 47d3 b73d 8634 b9bd 3ec7 85be
00000020: b091 afbd 351e 71be 2923 583d b826 3cbe
00000030: 4956 473e c1a0 003e 221c 333d 7a84 39bc
00000040: 8986 23bd 85e9 8fbd cb65 38be 8e10 793e
00000050: 1f30 0d3d bf5f 7b3d 5d04 5cbd 3283 fabd
00000060: 5e96 0bbe 45f7 cbbd b8f5 523e b0b4 863d
00000070: 2d7c f9bd 6c18 86bd 9ce3 aabd 5ddc 153e
00000080: 7a6e 1b3e 46a2 4cbd bb7b f13d 8383 0f3e
00000090: a2b7 2a3e f7a6 ad3d 0842 85bd 437c 12be
000000a0: f4b9 fdbd af38 28bd ecf0 293e ea82 3f3e
000000b0: 7cb7 673c 3add ce3d f50e 0dbd 2770 12be
000000c0: 6bdd 373e a735 acbd ffff e13d d638 073e
000000d0: e160 103d d337 08be 4a7e 0e3d 4f6c 38be
000000e0: d8e7 dfbd eb1f 0e3e 3245 52be c0b1 7e3d
000000f0: 489a f93c a14d ba3d 7a2a 033d c89e 803d
00000100: c6b2 513e b67e aebd 10c9 3fbe 785c bd3d
00000110: b283 47bd 2f29 6dbe 8113 133e dd61 06bd
00000120: b6ac 8ebe d54b 29bd b335 fbbd 200e 153d
00000130: 2c35 333c fb90 4f3b 4bf9 3ebe a76a ec3d
00000140: e660 ac3d 17d4 0d3e a4f3 d0bd 7ffc 01be
00000150: f56f 273d 3798 c23d 8e95 923d 0ad9 033e
00000160: 7eae 0dbe 2ba8 943d 9b3c 533c 481f 7b3e
00000170: 35d1 abbd 61c1 4d3c cd9a 813e 6143 60bd
00000180: 53a8 82bd bdd3 0e3e 9ad1 af3c cfde 893e
00000190: 6aed 683d 37c8 fcbd d99a 3dbe fd7f f23b
000001a0: b1d3 90bd f405 f0bd 73b0 493e 6609 383e
000001b0: f5ac 653e ad57 2f3e ebe3 40be 3cb2 d5bd
000001c0: aa8f 22be eb30 bc3d 1612 84bd 582c 09be
000001d0: 1104 f6bd 5be5 13be a48f 7dbd 5f78 45bd
000001e0: 575a 323e fcd0 b03d 6349 8bbe 8bd1 43be
000001f0: 0eeb 2e3e 6b6b dd3d d66e 2f3e 1402 853d
00000200: 2940 d63d 3ea5 b6bd faab 37be 9747 e8bd
00000210: 7363 16be 76d0 88be d462 31be 6d15 b4bd
00000220: e5a5 1b3d f029 c43d 8e16 a7bd e885 c83d
00000230: 2d2a c43d dab6 f63c 74ff 43be 8a02 283e
00000240: 26d4 6abd a466 203c 4bb7 093e b1a8 04be
00000250: 3214 9cbd 1eed 5a3c 3313 e5bd c924 0b3e
00000260: 774c c63d a1a2 a4bc 8225 d53d b077 19be
00000270: 9b1e f33c dc8f 62be 5e12 183e 3891 22bc
00000280: 501b 133d 8318 1cbd 5001 c5bd c63f 943d
00000290: 9792 4abe b675 a5bd cb2a 193e 69cc 1f3e
000002a0: fc05 b1bd 3cb0 1e3c 04f6 3c3e 8ce1 7d3c
000002b0: b01d 1c3e 4ab4 513c e4fc 02bd a0a8 a2bd
000002c0: 58f9 a0bd a34c 753d ec18 ee3d 4b07 583d
000002d0: 45f5 053e f543 f03d 14da f33d 8692 f13d
000002e0: e253 2ebc ccde ca3c 71e8 5b3a b654 b3bd
000002f0: 8ab6 37be 04b7 4cbe cd51 f13d 2eab 1e3b
00000300: 8b74 183e c619 063e 62bb 673c e709 9abd
00000310: a552 00be 397e 41be a1e0 20bd 93cd c93c
00000320: 7a9f 15be b090 5b3e ee29 25bd abf0 303d
00000330: f7ca 2dbd 9bb2 823e ddaa 7c3c 3aa2 58bd
00000340: f94d 5e3e 23b4 313e c8d2 183d d0b3 663e
00000350: 0534 183e 1a4b f23d 6c17 973d ee2f 9c3d
00000360: 6f79 103e a6a8 e23d 75b8 193d ba11 8fbc
00000370: 016b 823d 843e 253e 6547 3abe 4ab5 3a3e
00000380: f481 433e accd 04be 663a 44be aa00 29bd
00000390: b75d 07be d52b 853d 92d2 2b3d a537 013e
000003a0: db05 063e 218d 373e 5725 573d 1b3c 073d
000003b0: 4099 183e 8793 0bbe 21a2 033e 61ab 19be
000003c0: da7c a0be c0f8 d13d 55a9 76bb ca07 423e
000003d0: 540e 1fbd 8c19 1d3e 1941 34be 7e05 e83a
000003e0: 136c 313e d2e5 33bd 667f e4bd d8d5 f93d
000003f0: 8cc2 013d 16a4 27be c1c4 f8bc e369 74bd

valueEmbedding.0.bias f4 [128]
-0.12876381 -0.13785209 -0.07445061 0.04353433 0.017696427 0.030451695 -0.025504658 -0.22411199
0.058687784 -0.19684353 -0.1543915 -0.05625825 -0.10601603 0.18764624 -0.021519389 -0.1257232
0.16631587 0.041943084 -0.18125889 -0.0324393 -0.14416003 0.08405878 0.028630648 0.005834907
-0.08986314 -0.23105837 -0.029593375 -0.119339705 0.1475662 0.11963619 -0.07423398 -0.06568939
0.13289256 0.11445948 -0.19142523 -0.0862687 -0.14822479 -0.009825492 -0.13546991 -0.16650239
-0.013515122 0.0756226 -0.040745266 -0.03729314 -0.08636319 0.16811869 -0.057348315 0.11563774
-0.11260722 -0.06356856 0.10740386 -0.12815692 -0.08403173 -0.10098464 0.1100593 0.12155916
-0.18107188 -0.1657199 0.021232514 -0.16927849 -0.1710519 0.11543688 -0.069393985 0.11512452
-0.26601654 0.062293626 0.019486506 -0.08518616 0.100534536 -0.15129946 -0.08032907 -0.030816812
-0.026692428 -0.13776328 0.01993292 0.008321715 0.008880205 -0.076257914 0.0625944 0.20294186
0.11667519 -0.018758986 0.13376643 0.14754894 -0.1695946 -0.028567778 0.07679255 0.042310044
0.07924335 0.08187153 0.17085432 0.18418501 0.098607674 0.13173202 -0.028110145 0.08438769
-0.19116643 0.09582846 0.051496692 0.1871136 -0.008501444 -0.03707609 -0.011973662 -0.13727856
-0.11411366 -0.106969714 0.15283555 -0.15041031 -0.033670876 -0.18895294 -0.23763655 0.051372156
0.008436838 0.09111096 -0.10116178 0.023205902 -0.10527251 -0.09082141 -0.14259247 -0.20868655
0.08007367 -0.14806171 -0.21473193 -0.17493817 -0.18416058 0.17553602 -0.07151538 0.17077173
00000000: a9da 03be 1929 0dbe 9079 98bd 0e51 323d
00000010: 19f8 903c d575 f93c 25ef d0bc 9d7d 65be
00000020: 9a62 703d 5a91 49be ce18 1ebe 0d6f 66bd
00000030: ef1e d9bd 5626 403e 6e49 b0bc 95bd 00be
00000040: b54e 2a3e 83cc 2b3d ee9b 39be 12df 04bd
00000050: b09e 13be 0227 ac3d d28a ea3c bf32 bf3b
00000060: 2a0a b8bd 919a 6cbe ce6d f2bc 6068 f4bd
00000070: 981b 173e d203 f53d fc07 98bd 2988 86bd
00000080: fd14 083e bb69 ea3d fa04 44be a5ad b0bd
00000090: 3dc8 17be 1afb 20bc a0b8 0abe 9a7f 2abe
000000a0: 886e 5dbc 06e0 9a3d 82e4 26bd b1c0 18bd
000000b0: 2fdf b0bd 4e27 2c3e 11e6 6abd 7bd3 ec3d
000000c0: 9d9e e6bd 3c30 82bd 8ef6 db3d 913b 03be
000000d0: d418 acbd 09d1 cebd c566 e13d 02f4 f83d
000000e0: e86a 39be 7ab2 29be cfef ad3c 5757 2dbe
000000f0: 3b28 2fbe 2c6a ec3d 6f1e 8ebd 68c6 eb3d
00000100: 5233 88be 9a27 7f3d 2aa2 9f3c 1576 aebd
00000110: 0de5 cd3d 3fee 1abe 9183 a4bd 8a73 fcbc
00000120: 14aa dabc d111 0dbe 5d4a a33c cd57 083c
00000130: 487e 113c 1c2d 9cbd 7e31 803d fecf 4f3e
00000140: 67f3 ee3d 72ac 99bc 11fa 083e 1217 173e
00000150: 35aa 2dbe f906 eabc 6a45 9d3d 4c4d 2d3d
00000160: 564a a23d 43ac a73d 6ff4 2e3e ff9a 3c3e
00000170: d2f2 c93d c2e4 063e 3f47 e6bc 74d3 ac3d
00000180: 22c1 43be b641 c43d 32ee 523d b59a 3f3e
00000190: a449 0bbc 19dd 17bd 2e2d 44bc c092 0cbe
000001a0: 6cb4 e9bd f012 dbbd ec80 1c3e 2905 1abe
000001b0: 79ea 09bd e17c 41be ff56 73be 9c6b 523d
000001c0: aa3a 0a3c 6298 ba3d e82d cfbd 4e1a be3c
000001d0: 1d99 d7bd 9300 babd c303 12be edb1 55be
000001e0: aafd a33d 7d9d 17be b0e2 5bbe fe22 33be
000001f0: 9794 3cbe b7bf 333e a876 92bd c9de 2e3e

rnn.weight_ih_l0 f4 [384, 128]
-0.030651659 -0.055693965 -0.1155368 -0.0005542789 0.039767902 0.04784463 0.045173194 0.021971736
-0.09388132 0.13275076 0.0045989905 0.05331063 -0.17532663 0.0023301307 0.14945619 0.037622165
0.015943112 -0.15097924 -0.025824083 -0.13751724 0.0886041 0.02185055 0.033587266 -0.16644269
-0.112280086 -0.0669389 -0.008561215 0.095778376 0.030085286 0.016842276 -0.085930645 -0.017367749
-0.10877915 -0.06468397 -0.12502217 -0.028172625 -0.060632065 0.03666323 0.007154466 0.060359616
0.17547818 -0.14896134 0.0772215 0.08951337 -0.049276937 0.09273538 -0.031943947 0.026980394
0.15703282 -0.1845896 0.08732277 0.07088428 0.036602125 0.003694245 -0.08444369 0.116115116
-0.05179054 0.15586787 -0.056806665 -0.06370702 0.08016541 -0.021626785 -0.06641895 0.010352719
0.0866124 -0.004060784 -0.16660394 -0.0066122613 0.025373822 -0.024698623 0.1018346 0.01381918
-0.015927222 0.0009845663 0.021538107 0.04025655 0.091315694 -0.03711225 0.060058087 -0.028623255
-0.036502413 -0.06916825 0.03224449 0.032276966 0.0042890958 -0.07844723 -0.005729292 0.11793186
0.04724034 0.08942708 0.021955142 -0.071467794 0.11415017 -0.066039555 0.011340982 -0.014225015
-0.12300264 0.005034492 -0.06576112 0.07745837 0.0651465 0.08846169 0.016820192 0.093752146
0.11788106 0.07181775 0.0705846 -0.020614462 -0.04289112 0.0065985485 -0.02978184 -0.0249906
-0.041916553 -0.03394852 -0.027899772 -0.015902894 -0.037242632 0.04035301 0.080071904 -0.09133112
0.030520337 0.08763882 0.022449743 -0.031218607 0.10166517 0.049292397 0.062402632 0.09608977
0.014955993 0.0107305655 -0.0034457077 0.013958259 -0.00871804 0.087776974 0.06648708 0.07376725
-0.010790528 0.027963374 0.0985835 -0.040298734 0.09139602 0.15766284 -0.110332005 -0.054874815
0.06148664 0.07341175 0.08334679 -0.036429603 -0.041911524 -0.06317713 -0.08197499 -0.04661868
0.12681767 0.028032249 -0.031653065 -0.12262787 0.1278414 -0.039998528 0.00013215786 0.05051225
0.0873001 0.07055973 -0.008336085 0.050331373 0.056788247 0.010924894 -0.019564424 0.0649886
0.000846761 0.01047223 0.050892696 0.03363515 -0.0847081 -0.0405263 0.13193157 0.12844796
0.026582845 -0.047931407 0.091277465 0.034563895 -0.055612583 -0.06553045 -0.07044531 -0.004302822
0.07515528 -0.0038339442 0.02155924 0.110389344 0.050819553 0.01772063 -0.021415506 -0.017145988
-0.026016286 0.096630864 0.038301583 0.040884074 -0.040172894 0.052273 -0.07836071 -0.06793158
0.034978047 0.0064598504 -0.03149829 -0.01669551 -0.03284138 0.045454808 0.02444723 0.057461377
0.09224332 0.070419595 -0.08758544 0.08464339 -0.09009908 0.07784959 -0.040952124 -0.16247036
-0.13343696 0.01757685 0.12594245 0.08346904 0.053625707 0.027218604 0.021774694 0.064046696
0.06864664 0.028656425 0.17996044 -0.018777063 -0.012148762 0.04881986 -0.05105216 0.020624802
-0.14298972 0.01572866 0.008369594 0.028691068 -0.023725353 0.13034025 -0.039712097 -0.025732396
0.04090101 0.061797407 -0.09297365 -0.062835105 0.06617396 0.08472472 0.01726547 -0.043619614
0.12263429 0.030035354 0.053183652 0.01435961 -0.02272582 -0.07787772 -0.030946277 0.009937604
00000000: 3019 fbbc 5b1f 64bd 8f9e ecbd 074d 11ba
00000010: abe3 223d bbf8 433d 8707 393d 12fe b33c
00000020: d944 c0bd d1ef 073e 21b3 963b 3f5c 5a3d
00000030: d388 33be 1bb5 183b 0b0b 193e b319 1a3d
00000040: 219b 823c 4d9a 1abe 078d d3bc 52d1 0cbe
00000050: 1176 b53d edff b23c cd92 093d f46f 2abe
00000060: 1af3 e5bd 4317 89bd 5744 0cbc 7427 c43d
00000070: 6b75 f63c d0f8 893c 68fc afbd cf46 8ebc
00000080: 9ac7 debd 0779 84bd d005 00be 47ca e6bc
00000090: 5459 78bd 2f2c 163d 0370 ea3b a53b 773d
000000a0: 8db0 333e 5289 18be 4e26 9e3d c952 b73d
000000b0: 9dd6 49bd 0cec bd3d a8d7 02bd fd05 dd3c
000000c0: 36cd 203e 0e05 3dbe 48d6 b23d c72b 913d
000000d0: 1cec 153d 251b 723b d0f0 acbd c3cd ed3d
000000e0: 5122 54bd d49b 1f3e 1bae 68bd d378 82bd
000000f0: c32d a43d a82a b1bc a906 88bd 739e 293c
00000100: d861 b13d 5310 85bb 399a 2abe abab d8bb
00000110: c3dc cf3c c454 cabc a98e d03d d869 623c
00000120: ce79 82bc 900c 813a af70 b03c 0de4 243d
00000130: b903 bb3d 0403 18bd 78ff 753d 517b eabc
00000140: 8e83 15bd 15a8 8dbd cc12 043d da34 043d
00000150: 8b8b 8c3b f1a8 a0bd c9bc bbbb 4286 f13d
00000160: 167f 413d 8b25 b73d 45db b33c b55d 92bd
00000170: 90c7 e93d bf3f 87bd 87cf 393c 0a10 69bc
00000180: cfe8 fbbd 61f8 a43b c4ad 86bd 7ea2 9e3d
00000190: 876b 853d 672b b53d 80ca 893c 2001 c03d
000001a0: a06b f13d 2f15 933d a98e 903d a9df a8bc
000001b0: 99ae 2fbd a338 d83b 0cf9 f3bc 16b9 ccbc
000001c0: b1b0 2bbd 9a0d 0bbd 108e e4bc c946 82bc
000001d0: bb8b 18bd 3349 253d bdfc a33d cf0b bbbd
000001e0: c905 fa3c fb7b b33d 86e8 b73c 2abe ffbc
000001f0: d435 d03d d3e6 493d e799 7f3d b7ca c43d
00000200: fb09 753c 41cf 2f3c 62d1 61bb 2eb1 643c
00000210: 1cd6 0ebc 6ac4 b33d 612a 883d 4913 973d
00000220: c1ca 30bc 7213 e53c 25e6 c93d 4910 25bd
00000230: d62d bb3d 5e72 213e bff5 e1bd 6ac4 60bd
00000240: 6ad9 7b3d e658 963d b9b1 aa3d 3537 15bd
00000250: 6bab 2bbd 0363 81bd 81e2 a7bd 3bf3 3ebd
00000260: 7edc 013e e3a3 e53c a5a6 01bd 5224 fbbd
00000270: dbe8 023e 7fd5 23bd db93 0a39 efe5 4e3d
00000280: 65ca b23d 9f81 903d 1394 08bc 4528 4e3d
00000290: cb9a 683d 54fe 323c 9245 a0bc be18 853d
000002a0: 2bf9 5d3a b793 2b3c dc74 503d 03c5 093d
000002b0: 717b adbd e8fe 25bd 1219 073e dd87 033e
000002c0: 44c4 d93c b953 44bd aeef ba3d df92 0d3d
000002d0: 05ca 63bd d434 86bd a145 90bd b0fe 8cbb
000002e0: 03eb 993d e942 7bbb 019d b03c cf13 e23d
000002f0: 2a28 503d db2a 913c 926f afbc be75 8cbc
00000300: 1b20 d5bc 67e6 c53d 1fe2 1c3d 0f76 273d
00000310: 558c 24bd 371c 563d 947b a0bd b61f 8bbd
00000320: 2445 0f3d 27ad d33b 5a04 01bd 06c5 88bc
00000330: af84 06bd d22e 3a3d 8f45 c83c 9f5c 6b3d
00000340: 11ea bc3d 2638 903d ff5f b3bd 8359 ad3d
00000350: de85 b8bd 9b6f 9f3d 6abd 27bd a15e 26be
00000360: b3a3 08be 53fd 8f3c 0ff7 003e d1f1 aa3d
00000370: a1a6 5b3d 8df9 de3c d860 b23c ea2a 833d
00000380: 9c96 8c3d e1c0 ea3c 8d47 383e 5bd2 99bc
00000390: 9a0b 47bc 55f7 473d 121c 51bd 58f5 a83c
000003a0: e66b 12be 64d9 803c 9f20 093c 8809 eb3c
000003b0: ac5b c2bc ea77 053e 27a9 22bd bfcc d2bc
000003c0: d187 273d 471f 7d3d f868 bebd b1af 80bd
000003d0: 3786 873d 2784 ad3d 5170 8d3c 7baa 32bd
000003e0: b027 fb3d b40c f63c 1ad7 593d 9244 6b3c
000003f0: 802b babc 5b7e 9fbd 0c83 fdbc 55d1 223c

rnn.weight_hh_l0 f4 [384, 128]
0.039530832 -0.01963313 -0.02412045 0.095060535 -0.022138584 0.03836761 0.025923477 0.033824906
0.06915214 -0.09733286 -0.102750115 0.051462278 0.14927779 0.019337917 -0.05740642 0.07111212
0.047733556 0.15195219 -0.03869809 -0.024561485 -0.07109562 -0.025606988 -0.10236615 0.06945587
-0.0012439954 -0.026265059 -0.0280188 0.14740252 0.057342812 0.16543755 -0.09249376 -0.1221768
-0.076890856 -0.014852216 0.060472857 -0.007045424 0.06064096 -0.029347409 -0.10489048 -0.0906752
0.14526008 -0.118589915 -0.009324089 0.07337427 0.07932334 -0.06751378 -0.060021218 0.026782839
0.060780503 0.11219106 -0.036549922 -0.22636431 0.009848113 -0.032761153 0.053050008 0.099622786
0.05174332 -0.009102032 -0.06633213 0.12184535 -0.0946738 -0.10961273 0.027476607 0.022860408
0.031598166 0.12330056 0.07961766 0.05801966 0.019894011 -0.080874026 -0.072072685 -0.014351721
0.019727137 0.030471532 -0.14473182 0.024126172 0.04562826 -0.010905079 -0.06615831 -0.13208671
0.02212178 0.14020522 -0.04590039 -0.14896089 -0.12450324 0.019581648 -0.10718959 -0.11455599
0.022403343 0.08743123 0.009762321 0.10589913 0.13717291 0.022735108 -0.051697526 0.03559305
0.061242215 -0.0038811467 0.0037892573 -0.014991565 0.011148845 -0.062330857 -0.07266897 -0.14645073
0.08944923 -0.10686176 0.10288584 -0.0275759 0.12122998 0.015236744 0.064565 0.1489827
-0.029823842 0.16248953 -0.15591773 0.06761526 0.040818576 0.13233136 0.016657317 0.094322205
-0.0693755 -0.13126095 0.08148276 -0.065049924 -0.046034783 -0.0533134 0.17933562 0.17339225
0.12677652 -0.014687328 -0.054277528 0.011237755 0.06772526 0.055176117 0.009628618 -0.048962757
0.08097418 -0.058359865 -0.09976351 0.11912873 0.02572883 -0.020286454 0.0001275747 0.013945746
0.020978069 0.18203433 0.0015403392 0.020639118 -0.006788236 0.07662262 -0.11783644 -0.05011877
-0.11323281 0.052794844 -0.060515713 0.098435625 0.12512599 -0.013565253 0.014083352 -0.071751066
-0.076836 0.059561595 0.05594087 -0.01577777 0.026965054 0.02742999 -0.03369211 0.023188308
-0.03342694 0.007175064 0.03168221 0.012917147 0.041625865 0.046544764 -0.0023120355 0.00782326
0.009581031 0.0008183715 -0.037568733 -0.037392724 -0.035501573 -0.057491608 -0.029938737 0.09864775
0.010607771 0.009690823 -0.01745577 0.13945487 -0.09107378 0.010019746 -0.05611365 0.057665743
8.3856234e-05 0.06485609 0.072058715 0.008890533 -0.004130201 -0.025655506 -0.14745244 0.013395847
0.07528861 0.023922784 -0.023620863 -0.0857077 -0.0009774435 0.052706096 -0.10188421 -0.013207223
-0.0045522 0.011323681 0.052495733 -0.14069963 -0.11781329 0.03736889 0.024938608 -0.0349255
0.029579332 0.072410695 0.007418605 0.04259842 -0.0074321367 -0.04214923 0.061826248 0.09861378
-0.09392265 -0.16983317 0.056204565 -0.1460426 0.029798247 0.07702608 -0.06968436 -0.0029488923
0.09560146 -0.14925669 0.031228255 -0.09970436 0.09766467 -0.01456215 0.028719122 0.014126021
0.024154132 0.063894264 -0.1010931 -0.0012066934 0.053127956 -0.019146109 0.027688283 -0.01615857
0.032634016 -0.060535286 0.037319053 -0.07920502 0.1536656 -0.012969215 0.07097532 -0.008392009
00000000: 15eb 213d a8d5 a0bc 4098 c5bc 19af c23d
00000010: fa5b b5bc 5b27 1d3d 795d d43c fc8b 0a3d
00000020: a39f 8d3d 7356 c7bd a76e d2bd 1cca 523d
00000030: 47dc 183e 8d6a 9e3c ff22 6bbd 3ba3 913d
00000040: 4384 433d 5b99 1b3e e381 1ebd 2b35 c9bc
00000050: 959a 91bd bfc5 d1bc 58a5 d1bd e13e 8e3d
00000060: 8f0d a3ba d229 d7bc af87 e5bc b0f0 163e
00000070: 4ce0 6a3d 7668 293e 5e6d bdbd d537 fabd
00000080: f478 9dbd b556 73bc 63b2 773d 4ddd e6bb
00000090: a862 783d fa69 f0bc d2d0 d6bd ebb3 b9bd
000000a0: 0fbf 143e 45df f2bd 10c4 18bc 4045 963d
000000b0: 4674 a23d aa44 8abd cfd8 75bd af67 db3c
000000c0: faf4 783d 6dc4 e53d 5fb5 15bd 0ccc 67be
000000d0: fb59 213c 8f30 06bd f74a 593d 0807 cc3d
000000e0: cef0 533d b020 15bc 24d9 87bd 0e8a f93d
000000f0: 56e4 c1bd a47c e0bd 9f16 e13c c045 bb3c
00000100: 146d 013d 0185 fc3d 950e a33d 06a6 6d3d
00000110: c4f8 a23c 48a1 a5bd d89a 93bd 7b23 6bbc
00000120: ce9a a13c 6f9f f93c 9434 14be 40a4 c53c
00000130: b3e4 3a3d 37ab 32bc 027e 87bd bd41 07be
00000140: bc38 b53c f591 0f3e 0c02 3cbd 3489 18be
00000150: 8efb febd b169 a03c 3786 dbbd 559c eabd
00000160: 3787 b73c 250f b33d 24f2 1f3c a5e1 d83d
00000170: 0e77 0c3e fa3e ba3c c9c0 53bd 05ca 113d
00000180: 1ed9 7a3d d65a 7ebb 3055 783b 2e9f 75bc
00000190: a5a9 363c a44e 7fbd 78d3 94bd 2ef7 15be
000001a0: 2831 b73d 57da dabd d0b5 d23d dbe6 e1bc
000001b0: 6c47 f83d 89a3 793c a83a 843d ec8e 183e
000001c0: 2151 f4bc a863 263e e6a8 1fbe df79 8a3d
000001d0: 6131 273d df81 073e ed74 883c 002c c13d
000001e0: be14 8ebd 4569 06be 6fe0 a63d e538 85bd
000001f0: f88e 3cbd 275f 5abd c2a3 373e bd8d 313e
00000200: b4d1 013e 1ea3 70bc 1d52 5ebd 901e 383c
00000210: 8bb3 8a3d 5a00 623d 5ac1 1d3c 2c8d 48bd
00000220: cad5 a53d c10a 6fbd d050 ccbd c3f9 f33d
00000230: 44c5 d23c c72f a6bc 93c5 0539 b37c 643c
00000240: 33da ab3c 3567 3a3e 35e5 c93a 5e13 a93c
00000250: da6f debb 52ec 9c3d 3b54 f1bd 5749 4dbd
00000260: 9ae6 e7bd 683f 583d 53df 77bd 9e98 c93d
00000270: 0721 003e cb40 5ebc dcbd 663c 39f2 92bd
00000280: 315c 9dbd dcf6 733d 4122 653d 6240 81bc
00000290: d1e5 dc3c dcb4 e03c bd00 0abd 68f5 bd3c
000002a0: b0ea 08bd cd1c eb3b 34c5 013d 71a2 533c
000002b0: e27f 2a3d b9a5 3e3d 8585 17bb 212d 003c
000002c0: c2f9 1c3c fb87 563a ace1 19bd 1d29 19bd
000002d0: 196a 11bd 527c 6bbd 1542 f5bc d507 ca3d
000002e0: 37cc 2d3c 42c6 1e3c 67ff 8ebc 42cd 0e3e
000002f0: e484 babd dc29 243c 6dd7 65bd ea32 6c3d
00000300: f9db af38 45d3 843d 8593 933d 99a9 113c
00000310: a356 87bb 7f2b d2bc c6fd 16be 417a 5b3c
00000320: ea30 9a3d b7f9 c33c 8a80 c1bc 8587 afbd
00000330: 901d 80ba 59e2 573d aba8 d0bd 1c63 58bc
00000340: 9f2a 95bb f686 393c c405 573d 9013 10be
00000350: 1848 f1bd 1f10 193d 0d4c cc3c 0b0e 0fbd
00000360: 5b50 f23c 0f4c 943d c517 f33b ae7b 2e3d
00000370: 4889 f3bb aca4 2cbd 853d 7d3d 06f6 c93d
00000380: 855a c0bd bfe8 2dbe c236 663d 318c 15be
00000390: 741b f43c d9bf 9d3d acb6 8ebd 3442 41bb
000003a0: b3ca c33d bfd6 18be 66d2 ff3c cd31 ccbd
000003b0: 6a04 c83d 1696 6ebc 5d44 eb3c d470 673c
000003c0: e3de c53c ffda 823d e609 cfbd e929 9eba
000003d0: b39c 593d 4dd8 9cbc 8ad2 e23c fa5e 84bc
000003e0: 3fab 053d d9f3 77bd dddb 183d 3e36 a2bd
000003f0: 845a 1d3e d57c 54bc 825b 913d a37e 09bc

rnn.bias_ih_l0 f4 [384]
0.01560182 0.10658165 0.028524678 -0.07524959 0.08780771 -0.022633951 -0.087654665 -0.14826035
0.027561689 0.06320277 0.034926385 -0.07542629 -0.039583843 -0.040569637 0.009905879 0.012353076
-0.093602404 0.03654216 0.062406518 -0.00016012444 -0.13957824 -0.06123099 -0.14075883 -0.12014287
0.030433616 0.048110988 -0.02952108 0.071134575 0.04974107 0.04597108 -0.105176404 0.023535695
-0.07252244 0.011390597 0.013987355 -0.007772521 0.0519552 -0.03498267 -0.12587574 0.0188288
0.039316513 -0.04022435 -0.11762786 0.0640702 -0.02017942 -0.07299861 0.04397118 -0.05727698
-0.02828318 0.04910095 -0.0047747265 -0.042201176 -0.03452534 0.007667921 0.120447084 0.035421588
-0.057260796 -0.011151672 -0.072365515 -0.08753342 -0.1476727 -0.019219454 -0.0069511277 0.034428492
0.066192664 -0.0024618155 -0.025631232 0.023360234 -0.019377591 0.032534223 -0.024632763 -0.04765031
0.03234026 -0.0094689755 -0.0066493326 -0.104005285 0.059036657 -0.09575342 0.049062666 -0.047686204
0.121944696 0.061863244 0.018947702 -0.0007250476 -0.0018523587 0.045787595 0.014777041 -0.059174035
0.17219369 0.11391694 -0.055097427 0.08594705 -0.018675173 0.0028439325 -0.005454017 0.095373705
0.025820212 -0.010980683 -0.13387865 0.045700774 0.006988423 -0.031534187 -0.067690454 -0.06690574
-0.058443222 -0.011210426 0.06075009 -0.032745276 -0.08003991 0.068650074 0.022688724 -0.008068308
-0.053761072 0.09181842 -0.04744872 -0.056905042 -0.09117508 0.06847316 0.12384454 -0.01682545
-0.028375674 -0.103712134 0.011596599 -0.00822974 -0.057170793 0.029494261 -0.037206806 -0.07129665
-0.025763465 0.020554878 -0.062064648 0.10604288 0.016191643 -0.055610053 0.035479676 0.06475625
-0.02498705 0.06389152 0.008350664 -0.04120751 0.025322735 0.07160827 0.016220307 -0.050461195
-0.005564303 0.081102744 0.0062126666 0.07917623 -0.027777605 0.029453978 0.12460817 -0.012519493
0.025068626 -0.014651314 -0.0064727054 0.040258512 0.0732733 -0.061735217 0.1475933 -0.007304954
0.022136634 0.09700063 0.08906989 -0.019464549 0.1091245 -0.06269475 -0.032937806 0.014358827
0.07753901 0.0513509 0.07553963 -0.044827405 0.091798216 0.09356087 0.10145211 -0.007718628
-0.011196462 0.037180137 -0.059428927 0.038584106 0.0067814114 0.010077619 0.10072076 -0.0050359196
0.10700585 0.049477696 -0.044634074 -0.007430363 0.09279837 0.010741831 -0.0036676603 0.022343608
0.013354397 0.092792094 -0.04829569 0.08961223 0.06922192 0.04027754 -0.032005113 0.016007366
-0.031306338 0.06191137 0.16170062 -0.041195765 0.09199111 0.08861044 -0.010236259 -0.030490285
-0.015168755 0.023349611 0.1106885 0.107625395 -0.0024048474 0.039651558 0.03823462 -0.04576077
-0.02008888 -0.02588255 0.10511939 0.058888476 0.079437785 -0.04052873 0.067378595 0.044141345
-0.056828022 0.03778332 0.0249922 -0.0039586616 0.015136722 -0.0027569663 0.059145264 0.03906739
-0.022472505 0.09520486 0.12594923 -0.050077267 0.055505693 -0.020166699 -0.016234104 0.05333403
0.05294557 0.07342395 0.097548746 0.07095311 0.0766223 0.08378031 0.030715792 -0.047588293
0.104752645 -0.008721578 0.05369465 -0.004998199 0.11169954 0.025591347 0.023372836 -0.06400061
00000000: c79e 7f3c 7b47 da3d 96ac e93c 751c 9abd
00000010: 87d4 b33d d66a b9bc 4a84 b3bd 90d1 17be
00000020: 0dc9 e13c 7470 813d f80e 0f3d 1979 9abd
00000030: ab22 22bd 592c 26bd 454c 223c 8e64 4a3c
00000040: 9eb2 bfbd 3bad 153d fa9d 7f3d 14e7 27b9
00000050: 99ed 0ebe 59cd 7abd 1523 10be 770d f6bd
00000060: eb4f f93c 0710 453d 31d6 f1bc 01af 913d
00000070: 4bbd 4b3d 2c4c 3c3d ba66 d7bd eecd c03c
00000080: a586 94bd a09f 3a3c 382b 653c a2b0 febb
00000090: face 543d fd49 0fbd 92e5 00be db3e 9a3c
000000a0: 5a0a 213d 4ac2 24bd e0e6 f0bd 3d37 833d
000000b0: 504f a5bc 4c80 95bd 201b 343d 449b 6abd
000000c0: 21b2 e7bc 141e 493d 4f75 9cbb 24db 2cbd
000000d0: 716a 0dbd 2f43 fb3b f6ac f63d 3a16 113d
000000e0: 4c8a 6abd 81b5 36bc 5f34 94bd b944 b3bd
000000f0: 8337 17be 1e72 9dbc 49c6 e3bb e404 0d3d
00000100: 0590 873d 6956 21bb 97f8 d1bc f65d bf3c
00000110: c1bd 9ebc 9b42 053d a6ca c9bc f92c 43bd
00000120: 3877 043d c323 1bbc a5e2 d9bb b900 d5bd
00000130: 6cd0 713d 5e1a c4bd eff5 483d 9c52 43bd
00000140: 24be f93d 5064 7d3d 3638 9b3c 1f11 3eba
00000150: d8ca f2ba c68b 3b3d 671b 723c 7960 72bd
00000160: 8b53 303e 494d e93d d7ad 61bd 0205 b03d
00000170: adfc 98bc 4561 3a3b 9cb7 b2bb 4a53 c33d
00000180: e984 d33c 53e8 33bc 7c17 09be bc30 3b3d
00000190: 24ff e43b fe29 01bd 4ba1 8abd e005 89bd
000001a0: 2962 6fbd efab 37bc 16d5 783d e91f 06bd
000001b0: f7eb a3bd 6998 8c3d b4dd b93c f030 04bc
000001c0: 9234 5cbd 4c0b bc3d 9759 42bd 4315 69bd
000001d0: 00ba babd a83b 8c3d 35a2 fd3d 87d5 89bc
000001e0: 1a74 e8bc 0767 d4bd a9ff 3d3c 08d6 06bc
000001f0: ec2b 6abd f39d f13c 2a66 18bd fa03 92bd
00000200: e70d d3bc b462 a83c 8037 7ebd 022d d93d
00000210: 56a4 843c 5ec7 63bd 2353 113d ed9e 843d
00000220: a4b1 ccbc 8fd9 823d 39d1 083c 35c9 28bd
00000230: a071 cf3c 5ba7 923d 73e0 843c 66b0 4ebd
00000240: c254 b6bb 3219 a63d a093 cb3b 2627 a23d
00000250: dc8d e3bc 7849 f13c 9132 ff3d 8f1e 4dbc
00000260: b85c cd3c 110c 70bc fd18 d4bb 1ce6 243d
00000270: 5010 963d 11de 7cbd b322 173e 655e efbb
00000280: e357 b53c 44a8 c63d 466a b63d 1e74 9fbc
00000290: aa7c df3d 1b66 80bd cbe9 06bd 4941 6b3c
000002a0: c6cc 9e3d 5255 523d 86b4 9a3d f19c 37bd
000002b0: b400 bc3d d79c bf3d 20c6 cf3d 8bec fcbb
000002c0: 5e71 37bc 334a 183d bf6b 73bd 5e0a 1e3d
000002d0: 9a36 de3b 991c 253c b046 ce3d 5b04 a5bb
000002e0: e225 db3d 20a9 4a3d 38d2 36bd 677a f3bb
000002f0: 120d be3d 81fe 2f3c 215d 70bb f109 b73c
00000300: 67cc 5a3c c809 be3d b4d1 45bd 9e86 b73d
00000310: 39c4 8d3d 10fa 243d cb17 03bd e121 833c
00000320: 133b 00bd c796 7d3d d994 253e e4bc 28bd
00000330: d665 bc3d 6479 b53d fbb5 27bc c3c6 f9bc
00000340: 5f86 78bc af47 bf3c a7b0 e23d b46a dc3d
00000350: a59a 1dbb ac69 223d e89b 1c3d a56f 3bbd
00000360: 6f91 a4bc a407 d4bc d648 d73d 0b35 713d
00000370: 47b0 a23d 7401 26bd cafd 893d 8ecd 343d
00000380: 80c4 68bd afc2 1a3d 71bc cc3c a9b7 81bb
00000390: 0300 783c 38ae 34bb 4e42 723d 2105 203d
000003a0: 4218 b8bc c4fa c23d d6f8 003e d21d 4dbd
000003b0: f059 633d a234 a5bc 62fd 84bc c974 5a3d
000003c0: 74dd 583d 4c5f 963d a3c7 c73d dd4f 913d
000003d0: 27ec 9c3d 0395 ab3d af9f fb3c f1eb 42bd
000003e0: 8e88 d63d f3e4 0ebc ecee 5b3d efc7 a3bb
000003f0: bac2 e43d f2a4 d13c 6478 bf3c c012 83bd

rnn.bias_hh_l0 f4 [384]
0.06994398 0.1748085 -0.039900374 0.004534526 0.054707006 0.021490773 0.05388332 -0.14504114
0.076970756 -0.09266673 -0.017331054 0.043077894 -0.11135203 -0.06693593 -0.029152945 -0.0049968483
-0.0068088085 -0.050788485 0.028049292 -0.09727572 -0.014525065 -0.020970121 -0.123095095 -0.01648115
-0.004603483 0.0909442 -0.037218638 0.07420319 -0.01825794 -0.008025399 -0.009299248 0.04111501
-0.07767853 -0.03161423 0.15293607 0.01134551 0.039237987 0.07896373 -0.053253934 -0.013138872
-0.07746235 0.022748325 -0.119003944 0.064086005 -0.07042049 -0.0048063626 0.033355307 -0.029585889
-0.09685311 0.05985092 0.041257933 -0.045429002 -0.060664613 0.035518568 -0.036989354 -0.048919134
0.06536144 -0.040541545 -0.04800048 0.06729001 -0.115161374 0.06384607 -0.031383287 -0.040409148
-0.016033402 -0.12095042 -0.041771874 -0.14199723 0.03438114 0.034689642 0.002904557 -0.04721548
-0.062672645 0.04613753 0.052249923 0.00832955 -0.034637176 -0.084914856 0.04699243 -0.023260152
0.025130583 0.024634778 0.020998832 -0.021895302 0.0826275 -0.041251652 0.060050447 -0.061187923
0.17090358 0.20989747 0.10849117 -0.0019946496 0.057938684 -0.0029115686 0.02161151 -0.0053823856
-0.06078322 -0.11605569 -0.08903898 -0.028200498 0.103593834 0.045028124 -0.04975235 -0.04062048
0.04179484 -0.0413899 0.08250293 0.014893998 -0.026512887 -0.06416453 0.07157893 7.2899566e-05
-0.000994903 -0.023730043 0.04882325 0.07761865 -0.06314965 0.073454656 0.12226187 -0.0753876
-0.0019465598 -0.031966794 0.04680124 -0.006611331 -0.086961485 0.04076761 -0.0405674 -0.07544639
0.017270813 0.01254593 0.05601877 0.123726524 0.029777085 0.03601199 0.063048996 0.0107172225
0.08310626 -0.028819362 -0.028816052 0.016956417 0.05666097 0.09797934 0.07680215 -0.036685772
0.10639708 0.014519279 -0.074935324 -0.009753544 -0.0041780435 -0.048422158 0.02179737 -0.027930275
0.06323375 0.022307437 0.05736361 -0.03590241 -0.077450685 0.0885908 0.003041436 0.020372378
-0.0070966333 0.03204955 0.0021172152 0.076090895 -0.028954979 0.09290637 0.063477434 0.04548817
0.019745775 0.055898957 -0.06283605 0.024943262 -0.06989507 0.06323058 -0.024029864 -0.025397114
-0.027976472 0.0070881224 0.07103712 0.02360222 -0.012643095 0.07710639 0.0037222744 0.08546867
-0.03169516 0.06743324 0.120196104 0.030132083 0.0005936788 -0.002103512 -0.012232556 0.058667265
-0.0022819727 0.0017723993 0.069972016 -0.020110052 0.04300141 0.04787948 0.09823104 0.081738085
0.0706282 -0.080310926 0.009243816 0.05052915 0.09149915 -0.06749433 0.055079315 0.056291666
-0.018945467 -0.042496696 0.014379826 0.08485908 0.02829091 0.1056073 -0.04899129 0.050483778
-0.04497338 0.065688565 0.050818354 0.098897554 -0.039042123 -0.036684446 0.007556944 0.066424355
-0.062112547 0.026203034 -0.00069237844 0.03123961 0.065143734 0.052705005 0.062413353 0.04275805
0.07564423 -0.010736357 -0.023610108 0.088134944 -0.037535835 0.057508584 -0.048933312 0.009969063
0.06423224 0.023087665 -0.045006927 -0.028166259 0.00052516634 0.003008654 0.09238855 -0.004377686
0.022412889 0.013096027 0.064922005 0.024251206 0.11468009 0.05201181 0.10398901 -0.06367035
00000000: ca3e 8f3d 0001 333e 936e 23bd 5c96 943b
00000010: 7414 603d 6b0d b03c c2b4 5c3d aa85 14be
00000020: d8a2 9d3d 0ec8 bdbd dbf9 8dbc 7272 303d
00000030: 880c e4bd b415 89bd 28d2 eebc 9abc a3bb
00000040: 6d1c dfbb 9607 50bd a1c7 e53c 7e38 c7bd
00000050: 8afa 6dbc 88c9 abbc 4819 fcbd 7a03 87bc
00000060: d0d8 96bb f440 ba3d 9272 18bd d8f7 973d
00000070: ad91 95bc f77c 03bc e05b 18bc 3668 283d
00000080: ec15 9fbd ec7d 01bd 469b 1c3e 85e2 393c
00000090: 03b8 203d bcb7 a13d cc20 5abd 6c44 57bc
000000a0: 95a4 9ebd b25a ba3c 57b8 f3bd 863f 833d
000000b0: 9e38 90bd b17e 9dbb 939f 083d 1b5e f2bc
000000c0: ec5a c6bd 3d26 753d 14fe 283d c313 3abd
000000d0: 757b 78bd eb7b 113d 2682 17bd 6e5f 48bd
000000e0: 38dc 853d e40e 26bd 279c 44bd 58cf 893d
000000f0: bad9 ebbd bac1 823d c38b 00bd 1084 25bd
00000100: 7b58 83bc dbb4 f7bd fc18 2bbd b967 11be
00000110: 3dd3 0c3d ba16 0e3d 615a 3e3b 0565 41bd
00000120: 845a 80bd b5fa 3c3d 0404 563d aa78 083c
00000130: b6df 0dbd d7e7 adbd 227b 403d 138c bebc
00000140: a7de cd3c e0ce c93c be05 ac3c c75d b3bc
00000150: 9b38 a93d 7ef7 28bd 75f7 753d 30a0 7abd
00000160: 5901 2f3e 5def 563e 9e30 de3d abb8 02bb
00000170: 1d51 6d3d 04d0 3ebb 9f0a b13c b95e b0bb
00000180: d3f7 78bd 9bae edbd 125a b6bd bb04 e7bc
00000190: 0129 d43d 696f 383d 1fc9 4bbd a961 26bd
000001a0: 1131 2b3d 7588 29bd 4cf7 a83d f505 743c
000001b0: 8e31 d9bc b168 83bd f997 923d a8e1 9838
000001c0: 6867 82ba 8265 c2bc e3fa 473d 87f6 9e3d
000001d0: 9b54 81bd 656f 963d 6e64 fa3d d064 9abd
000001e0: b523 ffba 9def 02bd a8b2 3f3d dda3 d8bb
000001f0: dd18 b2bd f0fb 263d 012a 26bd a383 9abd
00000200: 857b 8d3c 728d 4d3c f073 653d 5564 fd3d
00000210: 13ef f33c 4f81 133d d51f 813d 4a97 2f3c
00000220: 9d33 aa3d 9516 ecbc a40f ecbc 2fe8 8a3c
00000230: 5515 683d 64a9 c83d 724a 9d3d d243 16bd
00000240: b6e6 d93d 45e2 6d3c b177 99bd 54cd 1fbc
00000250: f8e7 88bb 5056 46bd 6690 b23c 08ce e4bc
00000260: b280 813d 16be b63c 1bf6 6a3d 680e 13bd
00000270: 779e 9ebd 186f b53d d452 473b f9e3 a63c
00000280: e08a e8bb 6446 033d fac0 0a3b 8bd5 9b3d
00000290: fe32 edbc b245 be3d 7500 823d ce51 3a3d
000002a0: e4c1 a13c 4ef6 643d 30b0 80bd d055 cc3c
000002b0: 2525 8fbd 097f 813d 47da c4bc 9c0d d0bc
000002c0: ea2e e5bc 7b43 e83b e97b 913d 7159 c13c
000002d0: fc24 4fbc f4e9 9d3d 67f1 733b 330a af3d
000002e0: c9d2 01bd 701a 8a3d 6029 f63d 8fd7 f63c
000002f0: 1ca1 1b3a 13db 09bb 0f6b 48bc 164d 703d
00000300: 268d 15bb da4f e83a 7d4d 8f3d d6bd a4bc
00000310: 3f22 303d 461d 443d 5b2d c93d 4c66 a73d
00000320: 85a5 903d 0e7a a4bd 6073 173c a7f7 4e3d
00000330: e863 bb3d 783a 8abd d99a 613d 1792 663d
00000340: 8633 9bbc 0411 2ebd 5d99 6b3c 99ca ad3d
00000350: 57c2 e73c a448 d83d 17ab 48bd 14c8 4e3d
00000360: 0236 38bd ba87 863d e826 503d cd8a ca3d
00000370: a2ea 1fbd 6e42 16bd 3ea0 f73b 7e09 883d
00000380: ba69 7ebd bfa7 d63c bb80 35ba 36ea ff3c
00000390: 146a 853d 34e1 573d 25a5 7f3d 1123 2f3d
000003a0: 5deb 9a3d 8ce7 2fbc fc69 c1bc 1880 b43d
000003b0: 2dbf 19bd 1f8e 6b3d 4c6e 48bd 4855 233c
000003c0: 318c 833d 5822 bd3c 2f59 38bd edbc e6bc
000003d0: 51ab 093a d72c 453b 3536 bd3d b172 8fbb
000003e0: 3c9b b73c b890 563c d4f5 843d 77aa c63c
000003f0: 65dd ea3d 560a 553d 31f8 d43d 9a65 82bd

predict.1.weight f4 [24, 128]
0.05975957 -0.032150295 0.06616964 0.006264384 -0.018109791 0.02701823 0.08669147 0.04218789
0.06046559 -0.06276338 -0.045900594 0.06793177 0.0709763 -0.00040922046 0.028060362 0.07754402
0.059260372 0.017331472 0.13852692 0.08824748 -0.048282694 0.091812104 0.016020184 0.00787257
0.048697226 0.053951997 0.04392071 0.07244284 -0.03748542 0.023084262 -0.027112894 0.08282682
-0.12839623 0.046211757 0.121775135 -0.057025842 -0.0101143215 0.081882745 -0.057856698 -0.020731797
0.07055968 0.033556525 -0.025052331 0.086528026 0.079452455 -0.068717495 0.028914101 -0.03902934
0.065925695 0.06892485 -0.05642715 -0.076369554 -0.07419556 -0.08599173 0.041740198 -0.037203595
0.10953616 0.08012557 -0.08149365 0.046725523 0.044165704 -0.041199144 -0.032557264 -0.032198966
0.08514963 -0.11373705 -0.007476785 0.06662833 -0.093013324 -0.029543009 0.026168091 -0.016006535
0.011469315 0.09817702 -0.03011676 -0.162371 0.079329476 0.14463401 -0.034464482 0.086322635
0.03710538 0.067701966 -0.06796729 0.015617768 0.015592808 0.02089349 -0.09171548 -0.0086360695
0.022571675 -0.019528642 0.06042507 0.017141534 -0.008161031 0.025067626 0.0573387 -0.056571715
-0.025699403 0.037809514 0.05215276 -0.06179775 -0.03721672 -0.07756144 -0.041474644 -0.029157186
-0.037201457 -0.06139666 0.091106765 -0.0506017 0.0001918225 0.07611184 0.06029835 -0.0857064
-0.047084972 0.053835668 0.051198784 0.013043203 0.037718702 -0.052685495 -0.056721963 0.0049654855
0.03325436 -0.023495466 0.03854852 -0.0032652305 0.0055548428 0.0605109 0.062221933 0.08396222
0.061972953 0.08980838 -0.045422226 0.08325824 0.01411009 0.033696685 0.049798153 -0.0746161
-0.06921456 -0.10629442 -0.082936116 -0.049572617 -0.00088770903 -0.023866657 -0.019657822 0.061563008
-0.021540118 0.017939081 0.094071925 -0.033542916 0.011428575 0.031648647 0.06636235 0.030133326
0.06754127 -0.052297167 -0.030876864 0.052336864 -0.019876163 -0.027612656 -0.049620647 -0.038978886
0.06305181 -0.009927452 -0.051101968 -0.020002792 -0.046041515 0.05182078 -0.021732995 -0.029874075
0.045620807 0.054687086 -0.0037441703 0.062212184 -0.013052084 0.008039995 0.0080397315 -0.019634837
0.05404088 0.10841971 -0.006357245 -0.020370878 -0.046984464 0.04222922 -0.0027336634 -0.0009335929
-0.001286369 0.051039353 -0.11034133 0.033795238 -0.0058284597 -0.04293083 0.06568226 0.029373195
0.04476084 0.033453166 -0.030850092 0.011264994 0.030898266 0.057064716 -0.009226485 -0.017151318
-0.07569492 -0.07460548 0.072385006 -0.07292374 0.030189985 0.06470719 -0.06322131 0.040342227
-0.03123261 0.022827625 0.039940473 0.003284865 0.0926915 0.008561509 0.07809635 -0.053812142
0.018853547 0.07710076 -0.04269749 -0.0582599 -0.016931279 0.0030189436 0.052197903 0.07292301
0.009153525 -0.022044087 0.08382947 -0.033248972 -0.013483229 0.044236176 0.012076911 -0.011217693
0.04708633 0.027316624 0.066976935 0.11580312 0.022277597 -0.04200883 -0.027382014 -0.0030374653
-0.068831705 0.09700369 -0.0986684 -0.047956575 -0.03113266 -0.013622393 0.00080448395 -0.076244175
-0.06055581 0.023260219 0.023705453 -0.076080635 0.018658593 0.08447636 0.053450096 -0.05102326
00000000: 73c6 743d 07b0 03bd f383 873d 7645 cd3b
00000010: fc5a 94bc 5655 dd3c 4c8b b13d 35cd 2c3d
00000020: c4aa 773d 168a 80bd 4302 3cbd d01f 8b3d
00000030: 065c 913d a48c d6b9 d8de e53c 66cf 9e3d
00000040: 01bb 723d bbfa 8d3c 00da 0d3e 18bb b43d
00000050: 13c4 45bd fc07 bc3d c33c 833c f4fb 003c
00000060: be76 473d c5fc 5c3d 34e6 333d e95c 943d
00000070: 508a 19bd 351b bd3c dc1b debc 1ca1 a93d
00000080: 4d7a 03be 8a48 3d3d 3e65 f93d ee93 69bd
00000090: 8ab6 25bc 24b2 a73d 25fb 6cbd bbd5 a9bc
000000a0: 9881 903d 9172 093d 8c3a cdbc 9b35 b13d
000000b0: f8b7 a23d c2bb 8cbd 44dd ec3c 3bdd 1fbd
000000c0: 0d04 873d 7928 8d3d 2820 67bd a467 9cbd
000000d0: d7f3 97bd 6f1c b0bd c5f7 2a3d cc62 18bd
000000e0: 7f54 e03d e018 a43d 25e6 a6bd 4363 3f3d
000000f0: 19e7 343d 6fc0 28bd c45a 05bd 10e3 03bd
00000100: ee62 ae3d f8ee e8bd d2ff f4bb 6f74 883d
00000110: c57d bebd 2e04 f2bc 775e d63c 2320 83bc
00000120: cbe9 3b3c 0911 c93d 6cb7 f6bc 9544 26be
00000130: 7e77 a23d f01a 143e a12a 0dbd ecc9 b03d
00000140: d0fb 173d 54a7 8a3d 6f32 8bbd abe1 7f3c
00000150: fa78 7f3c d328 ab3c 53d5 bbbd 4d7e 0dbc
00000160: 3ce8 b83c 88fa 9fbc 4780 773d 676c 8c3c
00000170: d8b5 05bc 9f5a cd3c fcdb 6a3d beb7 67bd
00000180: 8e87 d2bc 26de 1a3d 229e 553d a31f 7dbd
00000190: 8f70 18bd 88d8 9ebd 51e1 29bd 0ddb eebc
000001a0: 8e60 18bd 107b 7bbd 2f96 ba3d ba43 4fbd
000001b0: f623 4939 86e0 9b3d 67fb 763d d686 afbd
000001c0: 2cdc 40bd ca82 5c3d d1b5 513d 29b3 553c
000001d0: ed7e 1a3d bfcc 57bd 4a55 68bd 83b5 a23b
000001e0: b935 083d 9079 c0bc 0ee5 1d3d 7afd 55bb
000001f0: 6605 b63b 47da 773d 6ddc 7e3d 62f4 ab3d
00000200: 5ad7 7d3d 75ed b73d a80c 3abd 4c83 aa3d
00000210: 022e 673c 8905 0a3d 26f9 4b3d 53d0 98bd
00000220: 5dc0 8dbd e4b0 d9bd 69da a9bd a80c 4bbd
00000230: 25b5 68ba 0284 c3bc 7109 a1bc 7e29 7c3d
00000240: e774 b0bc fbf4 923c c8a8 c03d 4c64 09bd
00000250: eb3e 3b3c 03a2 013d fce8 873d 2ada f63c
00000260: 1453 8a3d 8e35 56bd 7af1 fcbc 2e5f 563d
00000270: 56d3 a2bc f033 e2bc 053f 4bbd 53a8 1fbd
00000280: 4f21 813d c0a6 22bc 4c50 51bd e5dc a3bc
00000290: 0796 3cbd 0742 543d 6509 b2bc 7aba f4bc
000002a0: e2dc 3a3d 91ff 5f3d c160 75bb 34d2 7e3d
000002b0: 68d8 55bc 2fba 033c 14b9 033c 3dd9 a0bc
000002c0: f859 5d3d 270b de3d 7050 d0bb d4e0 a6bc
000002d0: c872 40bd 8cf8 2c3d 4327 33bb 5cbc 74ba
000002e0: 629b a8ba a40e 513d a3fa e1bd e06c 0a3d
000002f0: aafc bebb 3dd8 2fbd 6c84 863d 0ea0 f03c
00000300: 2457 373d 3006 093d 55b9 fcbc cf90 383c
00000310: 5c1e fd3c b1bc 693d af2a 17bc ec80 8cbc
00000320: f005 9bbd c2ca 98bd 973e 943d 0b59 95bd
00000330: fd50 f73c 3485 843d 2d7a 81bd e43d 253d
00000340: 88db ffbc 0001 bb3c 9f98 233d e446 573b
00000350: 0bd5 bd3d 9245 0c3c fbf0 9f3d 1f6a 5cbd
00000360: c172 9a3c 01e7 9d3d 90e3 2ebd efa1 6ebd
00000370: 77b3 8abc 78d9 453b 78cd 553d a958 953d
00000380: abf8 153c cd95 b4bc c9ae ab3d 1330 08bd
00000390: c3e8 5cbc fe30 353d 3cde 453c 6aca 37bc
000003a0: 98dd 403d 1dc7 df3c 342b 893d 302a ed3d
000003b0: 827f b63c 7311 2cbd 3f50 e0bc 3610 47bb
000003c0: a3f7 8cbd dfa9 c63d a812 cabd 1d6e 44bd
000003d0: ec09 ffbc 7530 5fbc 01e4 523a e825 9cbd
000003e0: 5e09 78bd 378c be3c f031 c23c 2ad0 9bbd
000003f0: e8d9 983c f101 ad3d 7dee 5a3d c4fd 50bd
