results/traffic_DLinear/3/checkpoint.pth (torch, 20840 bytes, 4 tensors)

Linear_Seasonal.weight f4 [24, 96]
000000 a5 d1 6f 3c de 65 d4 3c 08 2d 93 bb 54 a6 1e bc
       0.0146373855 0.02592748 -0.004491452 -0.00968321
000010 f3 6c 24 3b dd 5d 97 3c 7b 7d 46 3c f3 4e 93 3c
       0.0025089353 0.018477375 0.012114878 0.017981982
000020 c2 86 ee 3b fd 8a 24 3c 0b bb 34 3c b4 56 26 3c
       0.007279248 0.010042903 0.011030923 0.010152508
000030 d4 42 b1 ba a6 d1 2a 3b 8a 3f 23 3c 31 19 34 3c
       -0.0013523945 0.0026064902 0.009963879 0.010992334
000040 f2 71 95 3b 82 e3 0a 3c 7b 9f 06 ba 12 c4 ad 3c
       0.0045607025 0.008477094 -0.0005135459 0.021211658
000050 f5 11 82 3c c4 de c5 bb 01 fb d1 bc 4c e5 33 bc
       0.015877703 -0.0060385186 -0.025632383 -0.010979962
000060 42 b4 47 3d c9 ee 1f 3d f5 a0 2b 3c 8b 89 73 3a
       0.04875589 0.039046083 0.010475387 0.000929021
000070 b4 43 3b 3c 54 b3 c0 3c b0 e4 90 3c c9 e8 89 3c
       0.011429716 0.02352301 0.017687172 0.016834633
000080 fe af 50 3c 90 8f 38 3c a7 95 4a 3c 65 3e 6f 3c
       0.012737272 0.011264697 0.012364781 0.014602278
000090 1d d5 91 3a 6b dd 3e bb fc fe 1b 3b 8e 49 27 3c
       0.0011126135 -0.0029123675 0.0023803106 0.010210408
0000a0 5f d1 51 3b b8 2e 3e 3c 59 51 93 3c de 6e b7 3c
       0.0032015664 0.011607818 0.017983126 0.022391733
0000b0 06 af ad 3c 81 df 4a bb 91 48 bf bc e4 61 be bb
       0.021201622 -0.0030955973 -0.023350032 -0.0058100093
0000c0 b4 bb 52 3d 74 2e 1e 3d 9c c0 d9 3b e6 ed 1c bc
       0.05144854 0.03861852 0.0066452753 -0.009578204
0000d0 af 51 08 3c aa 99 a0 3c ff 19 16 3c a3 08 ad 3b
       0.008320256 0.019604523 0.009161471 0.0052805706
0000e0 fc b9 6c bb d2 9e 52 bb 99 ae 39 3a 16 fc 6c 3b
       -0.0036121598 -0.0032138121 0.0007083207 0.0036160997
0000f0 7f 82 26 bc b2 d9 89 bb 29 a2 41 3a 2e ea 8a 3b
       -0.010162949 -0.0042068595 0.00073865295 0.004239342
000100 98 f8 b2 3a 24 ae bb 3b d7 7f c5 3b cb ae 9c 3c
       0.0013654409 0.0057275463 0.0060272026 0.019126317
000110 5c 0f 8a 3c 48 40 cf bb 42 ca 82 bc c1 c2 f8 3c
       0.016853027 -0.0063248016 -0.015965585 0.030366303
000120 25 79 fa 3d 47 35 db 3d 5d 58 5f 3d 4e 98 37 3c
       0.12230138 0.10703521 0.05452763 0.011205746
000130 48 32 86 38 49 d4 39 bc 85 eb 0e bd 27 40 25 bd
       6.3989835e-05 -0.011342117 -0.034892578 -0.040344384
000140 b9 bd 66 bd 41 cc 69 bd 0a 3f 52 bd d2 68 23 bd
       -0.056333277 -0.057079557 -0.05132965 -0.039894886
000150 0b f5 26 bd 18 73 db bc 80 86 e6 bc a6 3f 0a bd
       -0.040761035 -0.02678828 -0.028140306 -0.033752106
000160 6a cf 5d bd 0f f7 6a bd 0b a1 ad bd 86 8c ac bd
       -0.054152884 -0.05736452 -0.08477982 -0.0842524
000170 08 6f 84 bd d6 b1 8e bd 1a 2e 9e bc 0a 7a 03 3e
       -0.0646649 -0.06967513 -0.019309092 0.12839523
000180 38 8c fe ba ac 8f a6 3d 7e 04 2d 3d 61 ff ca ba
       -0.001942045 0.08132872 0.042240612 -0.0015487486
000190 bd 0c 14 bb cd f8 70 3c 02 86 e8 3c 11 8b a7 3c
       -0.00225906 0.014707756 0.028384212 0.020452054
0001a0 34 6a 9e 3c 5b f1 61 3c 97 2f 86 3c 23 80 81 3c
       0.019337751 0.013790454 0.016380114 0.01580817
0001b0 e3 b8 01 3c 84 97 35 bb 90 5c 58 3b 0c 1a 1c 3c
       0.007917616 -0.0027708719 0.0033014156 0.009527694
0001c0 21 df 91 3b 27 a3 4f ba f0 ac af ba e7 90 be b9
       0.004451648 -0.0007920735 -0.001340298 -0.00036347585
0001d0 6a 7a 8b 3c 59 1f 0f 3a 8f 5c e5 bc 78 4a 0b bd
       0.017026145 0.0005459688 -0.027998237 -0.034006566
0001e0 9e 91 93 3c 5d 1b 8a 3d 40 15 17 3d 1f 2c 70 3b
       0.018013772 0.067435004 0.0368855 0.0036647392
0001f0 4e dc 16 3b 94 c3 83 3c e8 d9 cc 3c 76 e6 d4 3c
       0.0023019495 0.01608447 0.02500625 0.025988799
000200 a7 20 8a 3c e6 09 5b 3c 8b b4 4c 3c b4 0f 6a 3c
       0.016861273 0.013369059 0.012494217 0.0142859705
000210 79 fa eb 3b a7 2a e2 bb 59 15 f0 bb 6e 28 cb 3a
       0.0072014895 -0.006902057 -0.0073267636 0.001549972
000220 44 41 6a 3b 0b 2d b2 3a 8e 54 50 3c e9 e4 8e 3c
       0.0035744468 0.0013593746 0.012715472 0.017443137
000230 94 59 d5 3c 20 ef 1b 3c 07 9f c7 bc 70 b9 fc bc
       0.02604369 0.009517461 -0.024367822 -0.030850142
000240 a5 8a bf 3c a0 d4 8b 3d 84 f2 12 3d d4 b4 5a bb
       0.02338154 0.068276644 0.035875812 -0.0033371942
000250 c3 85 bc bb 6f 6c 6e 3c 31 19 c0 3c 3f 7d 47 3c
       -0.0057532503 0.01455222 0.023449512 0.012175857
000260 ce 14 a3 3a b4 1d 49 bb 15 f5 47 ba ba 19 5a 3b
       0.0012442113 -0.003068787 -0.00076277676 0.0033279494
000270 fb 8f 24 bb af 74 50 bc b5 89 dd bb de 3c 75 bb
       -0.0025110233 -0.012723132 -0.0067608007 -0.0037420313
000280 e1 32 d3 bb 07 7c 14 bc 32 d9 00 bc 84 fd 11 bc
       -0.006445274 -0.009062774 -0.007864283 -0.0089105405
000290 6c 17 cb 3b 3e af f8 bb 99 fb 00 bd d5 5c 3b bc
       0.0061978605 -0.00758925 -0.031489942 -0.011435707
0002a0 23 fe b6 3d 81 19 26 3e 09 81 f1 3d 46 51 36 3d
       0.089351915 0.16220666 0.1179219 0.044511102
0002b0 7c 23 2b 37 d8 32 5a bc 01 b7 e4 bc 11 fe 47 bd
       1.0200656e-05 -0.013317786 -0.027919294 -0.04882628
0002c0 77 55 89 bd 06 3c 91 bd 4f 2f 76 bd 36 ae 37 bd
       -0.06705754 -0.07091527 -0.06010371 -0.044843875
0002d0 d4 50 f5 bc ec c8 92 bc d8 1a 4c bb 9c 84 af bb
       -0.029945768 -0.017918073 -0.003114393 -0.0053563844
0002e0 0e c6 b4 bc 1d 6f 26 bd 4e dd 46 bd 73 fd 93 bd
       -0.022067096 -0.04063331 -0.048550896 -0.07226076
0002f0 58 8f 5c bd 4a f7 3d bd e4 3f a6 bc f6 04 c5 3d
       -0.05384764 -0.04637841 -0.020294137 0.09620087
000300 c0 e7 87 bc 92 62 53 3d fa 4a b2 3d e9 e4 2a 3d
       -0.01659 0.051607676 0.08705707 0.041722212
000310 e5 84 b9 3b 0e c6 ef 3b 92 2c 9d 3c e7 66 16 3d
       0.005661594 0.007317311 0.019186292 0.03671923
000320 ab 98 d6 3c 5f d1 c3 3c e0 db 9d 3c 7d a9 aa 3c
       0.026195845 0.023903547 0.019269884 0.020832771
000330 d0 23 71 3c 2b 7a da 3b de cb 5a bb 13 a7 d2 3a
       0.014718011 0.0066673956 -0.0033385674 0.001607152
000340 87 c2 70 3b 0b cf 41 ba 7e b6 06 bc 63 cb 6f bb
       0.003673704 -0.00073932175 -0.00822222 -0.0036589734
000350 b4 5e 34 bb 31 86 8c 3b 2d 08 6e bc b6 e1 ef bc
       -0.0027522268 0.004288458 -0.014528316 -0.029282432
000360 06 24 f9 bb 59 64 03 3d 38 49 80 3d f1 1b fb 3c
       -0.0076031713 0.03207812 0.06263965 0.030652972
000370 a1 76 9f 3b 25 2a c7 3b e6 16 8f 3c 7f 22 e5 3c
       0.0048664366 0.006078022 0.017466974 0.02797055
000380 1e 0a d7 3c 49 c5 83 3c 87 40 63 3c 59 1a 6c 3c
       0.026249941 0.016085284 0.013870365 0.014410579
000390 c5 5f 0b 3c 60 23 1f 3b 34 1b 27 bc 71 a5 0e bc
       0.00850672 0.002428256 -0.010199357 -0.0087064365
0003a0 9c cd 60 bb 7d 27 2d 3b df 4f 0d 3b 99 eb 69 3c
       -0.003430224 0.0026421242 0.00215625 0.014277362
0003b0 c6 af a4 3c 0c 1c 84 3c 09 e2 d2 bb 7d 12 e4 bc
       0.020103347 0.016126655 -0.006435637 -0.027840847
0003c0 94 d3 ca bb a8 5e 0c 3d 6f d2 83 3d 7d 62 e5 3c
       -0.006189773 0.03426996 0.064366214 0.028001064
0003d0 f1 4c 34 ba 7d b6 bb ba 06 08 9a 3c b2 7a c3 3c
       -0.000687792 -0.0014321354 0.018802654 0.023862217
0003e0 13 7e 34 3c 2e 8e bb 3a 75 c1 cc ba a4 11 80 3a
       0.011016387 0.0014309341 -0.001562162 0.0009770882
0003f0 9a ca c1 ba bd 80 80 bb f1 3a 6b bc 53 bd 2b bc
       -0.0014785111 -0.003921597 -0.014357314 -0.01048215

Linear_Seasonal.bias f4 [24]
000000 94 89 94 3d d4 7f 68 3d 93 d3 f8 3c e4 43 7d 3c
       0.072528034 0.05676253 0.030374324 0.015458081
000010 45 f8 0a bd 63 81 c8 bc 30 93 ed 3c 7c 2f 87 bc
       -0.033928175 -0.024475759 0.029000849 -0.016502135
000020 0d b9 67 3d 35 32 9b bd 0e 08 07 bd 91 39 dc 3c
       0.056572963 -0.075779356 -0.032966666 0.026882919
000030 58 20 af 3d 87 9f ce 3b 17 44 5b 3d e2 cb 14 3c
       0.08551091 0.0063056382 0.053531732 0.009081813
000040 09 57 2c bc 4b 62 30 3d 33 d3 b8 3c c8 c6 6d 3c
       -0.010518798 0.04306249 0.022561645 0.014512725
000050 fa 31 4c bc b6 0c b5 bc 2e ef af bd b9 7d 7b bd
       -0.012463087 -0.022100788 -0.08590542 -0.061399195

Linear_Trend.weight f4 [24, 96]
000000 3f 8b 65 3c 7e e7 65 3c 88 9d 71 3c f7 5e 81 3c
       0.01401025 0.014032243 0.014747031 0.015792353
000010 a3 28 87 3c c7 fd 92 3c 48 c4 94 3c cf 3f 6e 3c
       0.01649887 0.017943276 0.01816 0.01454158
000020 0b 29 0e 3c c7 dd 80 bb b2 fd a2 bc 3c 31 ec bc
       0.008676778 -0.003932688 -0.019896362 -0.02883207
000030 6b 65 a1 bc e8 e3 5f bc a4 28 90 bc 7d 43 90 bc
       -0.01970168 -0.013665177 -0.017597504 -0.017610306
000040 f5 98 60 bc 5a 1c 1d bc a1 e2 ef bb ee 10 9c bb
       -0.013708343 -0.009589279 -0.0073207174 -0.0047627604
000050 5c d7 87 bb 43 61 0d bb 1b 02 12 ba 71 f3 c2 3a
       -0.004145546 -0.0021572865 -0.0005569772 0.0014873577
000060 42 5b a0 3a 2c 0c 11 3b 3f 77 44 3b b2 4c 64 3b
       0.0012234228 0.00221325 0.0029978303 0.0034835753
000070 cb 63 20 3b b2 7f 8f 3b b6 90 c1 3b 1d 0e ce 3b
       0.0024473544 0.004379236 0.0059071435 0.0062883035
000080 c0 2f ce 3b 27 52 15 3b 9f b5 40 b8 47 3b 10 3c
       0.0062923133 0.0022784562 -4.5945515e-05 0.008803195
000090 aa 84 e7 3c 77 3d ca 3c a5 29 5a 3c 3a 18 b5 3b
       0.028261501 0.024687512 0.013315593 0.0055265697
0000a0 b3 27 85 3b 1e 66 43 3b 5c 9d a0 3a 33 e6 02 ba
       0.0040635704 0.0029815505 0.0012253928 -0.0004993409
0000b0 6c 95 bf bb 5d 27 2f bc 01 7b 68 bc 3c f2 87 bc
       -0.00584667 -0.010690537 -0.014189483 -0.016594999
0000c0 d7 f7 b2 bc b6 01 b6 bc 28 8a a9 bc 1e 9e a3 bc
       -0.021846695 -0.022217613 -0.02069576 -0.019972857
0000d0 2e 80 b2 bc c0 fb a6 bc 54 69 9f bc 1d 46 a4 bc
       -0.021789636 -0.020383716 -0.019459404 -0.020052964
0000e0 22 17 93 bc 89 5c 9f bc 93 11 88 bc e7 f6 90 3b
       -0.017955367 -0.019453304 -0.016609943 0.0044239643
0000f0 70 96 34 3d cc 0c 75 3d 6d 29 7c 3d 83 d0 71 3d
       0.04408878 0.059826657 0.061562944 0.059036743
000100 f4 dd 65 3d 3d 5b 46 3d 37 53 1b 3d 50 c2 cd 3c
       0.056119874 0.048426855 0.037921157 0.02511707
000110 47 30 e8 3b cb 20 1e bc 0c 69 c3 bc 29 83 0b bd
       0.0070858332 -0.009651373 -0.023853801 -0.03406063
000120 f1 fc 34 bd 9c 20 44 bd 93 0e 5a bd 20 8d 72 bd
       -0.044186536 -0.04788266 -0.053236555 -0.05921662
000130 c1 e3 88 bd 41 8e 8d bd fd 6d 8e bd 2f 45 8b bd
       -0.066840656 -0.069118984 -0.06954572 -0.06800305
000140 8e a9 81 bd 47 cd 63 bd 08 8b 02 bd b7 2d 76 3c
       -0.06331168 -0.05561569 -0.03187087 0.015025548
000150 e1 fc 40 3d 2e 35 6b 3d f4 10 93 3d 9e 1c c2 3d
       0.047116164 0.057423763 0.07180968 0.094781145
000160 56 c6 f1 3d ef ce 08 3e 5d 66 10 3e 08 e2 11 3e
       0.11805408 0.13360189 0.14101548 0.1424638
000170 da dc 10 3e 99 cf 0f 3e 43 34 0e 3e 25 fe 0b 3e
       0.14146748 0.14044036 0.13887124 0.13671167
000180 e3 51 e0 3b a6 31 d6 3b 9a f5 db 3b 64 98 f9 3b
       0.006845699 0.0065366803 0.0067126276 0.0076170433
000190 6c ba 09 3c c8 ad 14 3c eb 7d 26 3c 7f 70 0a 3c
       0.008406263 0.009074636 0.010161857 0.008449673
0001a0 6b f5 e8 3b d1 88 b0 3a 50 dd 21 bc 2e 25 aa bc
       0.007109334 0.0013468509 -0.009879425 -0.020769682
0001b0 ff bf 88 bc d4 33 10 3b ce 36 3c b8 6d b4 db bb
       -0.016693113 0.0022003548 -4.4873734e-05 -0.006704858
0001c0 4d e5 ed bb 32 be 7e bb bd 12 84 ba a4 8e 93 39
       -0.007260001 -0.003887069 -0.0010076385 0.000281443
0001d0 f3 b5 84 3a 28 99 95 3a 99 f2 ea 3a 9f 5d 11 3b
       0.0010125026 0.0011413442 0.0017925083 0.0022181047
0001e0 b2 f7 ee 3a a2 90 43 b8 a7 67 b9 b9 af 2a f5 b9
       0.0018231778 -4.6626323e-05 -0.00035363177 -0.00046761843
0001f0 74 88 be ba b2 17 ea ba ac 98 9a 3a 89 21 82 3b
       -0.0014536516 -0.0017859845 0.0011794767 0.003971283
000200 1f 85 ba 3b a6 41 82 3b 25 50 71 ba 15 32 1a 3a
       0.005692139 0.003975111 -0.0009205363 0.00058820966
000210 e0 db 9b 3c d6 29 1a 3d 7a b2 f3 3c 39 89 8b 3c
       0.019025743 0.037637554 0.02974819 0.017033206
000220 ec f8 0d 3c 14 d3 ed 3b 6e 78 97 3b 10 09 1c 3b
       0.008665305 0.0072578285 0.0046225106 0.0023809113
000230 9d 96 14 ba 6d 15 d3 bb 4b a9 3a bc 3d f6 71 bc
       -0.0005668195 -0.006441763 -0.011392902 -0.01476818
000240 a0 12 9a bc e6 aa bb bc 97 eb b5 bc b5 df ac bc
       -0.01880771 -0.02290864 -0.022207065 -0.021102766
000250 cb fd bd bc cf 41 d6 bc 63 3a e2 bc 8f 0e ff bc
       -0.023192307 -0.026154427 -0.027615732 -0.031134872
000260 75 0b 15 bd ab 4c 21 bd 0a 15 31 bd e3 d6 02 bd
       -0.03638788 -0.039379757 -0.043232955 -0.031943213
000270 5a d3 01 3c 82 e2 52 3d 08 6d 86 3d a7 e3 85 3d
       0.007923925 0.051485546 0.06563765 0.06537562
000280 9c 54 7c 3d 6c 7e 65 3d f0 c4 37 3d 6e 0e 01 3d
       0.061604127 0.05602877 0.04486555 0.0315079
000290 2c c2 80 3c 62 4e 89 bb d9 59 95 bc 15 4c df bc
       0.015717588 -0.004190252 -0.01823132 -0.027257958
0002a0 7a f4 03 bd 9d 98 08 bd db 30 fa bc 66 f1 f6 bc
       -0.032215573 -0.03334867 -0.030540874 -0.030144405
0002b0 47 54 07 bd 25 cb 15 bd e3 f1 16 bd 8c 4d 0b bd
       -0.033039358 -0.036570687 -0.036851775 -0.0340095
0002c0 8a bd ff bc 94 14 d0 bc 50 2c 35 bc 6f 75 d7 3c
       -0.031218309 -0.025400437 -0.011057928 0.026301114
0002d0 98 c1 64 3d 98 4d 7c 3d bf 2a 4e 3d 34 e4 4c 3d
       0.055848688 0.061597437 0.050333735 0.05002232
0002e0 51 59 80 3d 60 f0 ad 3d 9b 0f d2 3d ef 17 e4 3d
       0.06267036 0.084931135 0.10256883 0.111373775
0002f0 30 dd ea 3d 6f 9e ec 3d 47 a6 ec 3d 6a e8 e9 3d
       0.114679694 0.11553656 0.115551524 0.114212826
000300 44 31 b5 3a b2 b6 d3 3a 7b 49 91 3a 8d 5a 84 3a
       0.0013823886 0.001615247 0.0011084521 0.0010097787
000310 51 04 a5 3a 59 b3 b1 3a 88 86 85 3a 37 8d 58 b9
       0.0012589787 0.0013557478 0.0010187188 -0.00020651972
000320 d4 38 6c b9 be 68 ee ba 3e 0c c4 bb 41 c4 42 bc
       -0.00022527884 -0.0018189175 -0.0059829047 -0.011887611
000330 22 9c 3a bc 28 67 bd 3a 29 65 52 3c 49 89 f9 3b
       -0.011389764 0.0014450299 0.012841501 0.0076152426
000340 df 50 23 3a 7d 66 ab 38 5a ff 20 3b e3 0f 9f 3b
       0.0006230007 8.173005e-05 0.0024566264 0.0048541888
000350 c8 99 a8 3b 24 db c8 3b 38 c5 b1 3b 58 ae a8 3b
       0.0051452853 0.006129639 0.0054251216 0.0051477365
000360 d4 d6 5f 3b 91 ca d2 3a cc de ad ba 42 3c 16 bb
       0.0034155147 0.0016082098 -0.0013265251 -0.00229241
000370 46 b3 57 bb 34 b2 6a bb 79 91 3b bb 23 8f af 3a
       -0.0032913252 -0.0035811784 -0.0028620644 0.0013394098
000380 99 d6 a2 3b cb e1 a5 3b 19 3e f3 3a 51 22 85 ba
       0.0049694297 0.005062317 0.0018557935 -0.0010157322
000390 ce c1 db 3b 98 44 bf 3c 2c 74 0d 3d d3 f9 d5 3c
       0.006706453 0.023348138 0.03453462 0.026120102
0003a0 5f b6 74 3c be 85 12 3c f7 27 b5 3b d6 19 8b 3b
       0.014936059 0.008943019 0.005528446 0.0042450232
0003b0 1c 60 cd 3a 5c 8f c2 ba 0d 25 e5 bb 29 f3 3d bc
       0.0015668902 -0.001484375 -0.006992942 -0.011593618
0003c0 95 85 84 bc c7 f3 9b bc 0f fb b4 bc 8a 96 b0 bc
       -0.016176978 -0.01903714 -0.02209237 -0.021556158
0003d0 e6 77 b1 bc d0 6c c1 bc 81 07 e2 bc d9 8e f9 bc
       -0.021663617 -0.023611456 -0.027591469 -0.030463623
0003e0 44 99 13 bd 92 51 3b bd a2 6a 55 bd 42 9f 59 bd
       -0.036034837 -0.04573209 -0.052103646 -0.053130396
0003f0 1f 55 00 bd 82 55 0d 3c 01 f3 47 3d 6d a8 7a 3d
       -0.031331178 0.008626344 0.04881573 0.06119578

Linear_Trend.bias f4 [24]
000000 89 ea 92 bd 9c 40 66 bd ba d9 ee bc 89 c6 6f bc
       -0.0717364 -0.05621396 -0.029156554 -0.014634737
000010 a3 fd 0e 3d b2 e6 d3 3c 73 94 e0 bc 4a c0 94 3c
       0.034909856 0.02586684 -0.027414536 0.018158097
000020 26 ca 61 bd 4a 4e 9e 3d 3b be 0c 3d 8a 99 d1 bc
       -0.055124424 0.07729776 0.034361105 -0.025585908
000030 f5 f4 ab bd a4 b2 a3 bb c9 19 53 bd 72 9e f2 bb
       -0.08396331 -0.004995661 -0.051538263 -0.007404142
000040 79 38 50 3c 28 68 28 bd 4b da aa bc dd 56 43 bc
       0.012708777 -0.041114956 -0.020856043 -0.011922565
000050 45 95 75 3c 7b 46 d0 3c af 9b b6 3d 36 c3 84 3d
       0.014989202 0.025424233 0.08916413 0.06482546
