results/mimic_iii_SegRNN/3/checkpoint.pth (torch, 445795 bytes, 12 tensors)

pos_emb f4 [2, 64]
0.5955182 1.2476822 -1.1424193 0.12532002 0.22441873 -1.2247517 -0.83587885 0.15549512
-0.21098156 0.5289044 0.681517 -0.55429703 0.6564001 -1.8867761 0.016832156 -1.0957109
0.88686585 0.782273 0.10625257 1.7224407 1.0763699 0.29132006 -0.5929609 -0.8090118
-0.8581901 0.88960654 -0.56095004 0.82074493 0.47427413 -0.55011183 -0.49967134 1.7234728
1.3383262 -0.31938082 0.07123399 0.2287075 -0.054613017 1.4774209 0.41512743 -1.2723217
0.21343084 0.9177005 0.7193759 -1.2223325 -1.6967363 0.53832054 -0.846797 1.5566125
-0.12847964 -0.76830304 -0.23901813 -0.07075638 -0.43481383 -1.6309404 0.12206057 -1.0781652
1.1357943 -0.24885394 -1.5970945 1.3060585 0.70736885 -0.1992252 0.29224494 -0.11801369
1.3286574 1.7381066 0.26055628 0.5616681 0.16779406 0.8259573 -0.947618 0.5599669
-0.15062317 0.61195815 0.6271638 -0.33790928 -0.27067629 -0.75777555 -0.32531095 -0.6176628
-1.3187722 1.3741785 1.0769578 -0.2553923 -1.1932268 -0.36889678 2.1706595 1.1667953
-0.2567064 0.1086434 0.3135294 -1.1721237 -0.49471986 0.015686784 0.06409367 0.47791758
-0.94140995 -0.9147039 0.3419903 -0.13891862 0.046915125 -0.54033357 -0.1258112 0.36365303
-0.3983259 0.054003313 0.9181763 -1.1613978 -1.0971093 -1.1437054 2.248569 0.9750647
1.082603 0.011761936 1.3810135 -0.31326506 0.41645932 0.76237494 0.4705931 -1.0622956
0.20528287 -0.010871491 -0.6005719 -1.341871 -0.23868974 -0.69031054 -0.44273543 -0.018440299
00000000: e173 183f 0db4 9f3f cc3a 92bf e453 003e
00000010: 06ce 653e aac4 9cbf 28fc 55bf 1d3a 1f3e
00000020: 8d0b 58be 4766 073f e677 2e3f 69e6 0dbf
00000030: d609 283f e181 f1bf 97e3 893c 4140 8cbf
00000040: a409 633f 0b43 483f f39a d93d f078 dc3f
00000050: 7dc6 893f e727 953e 49cc 17bf 661b 4fbf
00000060: 59b2 5bbf 41bd 633f 6c9a 0fbf 571c 523f
00000070: 0fd4 f23e 21d4 0cbf ecd4 ffbe c29a dc3f
00000080: 464e ab3f e285 a3be 20e3 913d 4d32 6a3e
00000090: e6b1 5fbd 211c bd3f 958b d43e 70db a2bf
000000a0: 9d8d 5a3e 6cee 6a3f 0529 383f 6475 9cbf
000000b0: a82e d9bf 60cf 093f b0c7 58bf 143f c73f
000000c0: 2b90 03be 82af 44bf 2bc1 74be b9e8 90bd
000000d0: eb9f debe a8c2 d0bf e4fa f93d 5101 8abf
000000e0: b561 913f 91d3 7ebe 986d ccbf ed2c a73f
000000f0: 2016 353f b101 4cbe 21a1 953e 29b1 f1bd
00000100: 7211 aa3f 477a de3f a267 853e 7bc9 0f3f
00000110: 35d2 2b3e f071 533f 1897 72bf fe59 0f3f
00000120: f63c 1abe 4aa9 1c3f cf8d 203f 7202 adbe
00000130: 1596 8abe 94fd 41bf 288f a6be 261f 1ebf
00000140: 87cd a8bf 15e5 af3f c1d9 893f c8c2 82be
00000150: a8bb 98bf 0ae0 bcbe 16ec 0a40 8c59 953f
00000160: 056f 83be 6e80 de3d ed86 a03e 2608 96bf
00000170: ec4b fdbe 9281 803c 8b43 833d 9db1 f43e
00000180: 3e00 71bf 092a 6abf 5a19 af3e af40 0ebe
00000190: 132a 403d 4d53 0abf a7d4 00be bb30 ba3e
000001a0: 5ff1 cbbe 9432 5d3d 9a0d 6b3f afa8 94bf
000001b0: 146e 8cbf f064 92bf 8ee8 0f40 d79d 793f
000001c0: bc92 8a3f 23b5 403c 0dc5 b03f 4764 a0be
000001d0: 283a d53e 012b 433f 94f1 f03e 4df9 87bf
000001e0: ac35 523e 571e 32bc 14bf 19bf 6ec2 abbf
000001f0: 156b 74be 31b8 30bf 38ae e2be 1c10 97bc

channel_emb f4 [31, 64]
-0.34435958 -0.6401071 0.6810386 0.052125562 -0.8843786 0.7688261 0.65327585 1.1583024
0.73688114 -0.77931774 1.4325736 0.22600487 -0.473473 -2.437232 -1.8459202 0.3944216
0.7963908 -0.96356773 0.46193072 1.5334983 1.4692429 -1.0548017 0.24578099 -0.5450804
-0.0983492 -0.15377711 -1.7557805 0.8514119 0.6316668 -0.040067587 -1.1172874 1.43295
0.11230663 -0.09138629 0.278441 0.38065872 -0.88399506 0.40383944 0.55343026 1.2718558
1.3907942 0.89068025 -0.72013265 -0.70512646 -0.5277915 1.4085617 -0.17622542 -1.6061898
0.07598304 1.4401165 -1.1185151 -1.594618 -1.7862865 -0.28279898 0.5882394 -0.35754395
-0.40198132 -1.7807723 -1.087399 0.8927802 1.8835623 1.2268443 1.6326572 -0.4318858
1.4705408 0.16943005 0.44363356 -1.813692 -0.0012966276 0.15363935 0.49050453 0.26882502
1.2388817 1.4467944 -0.26049832 1.058243 0.37065497 0.53837925 0.4169729 0.4300919
-0.1937261 -0.35375342 -1.1325116 0.54158396 1.7238175 1.2647526 -0.1730865 -1.2293022
-0.19290541 -0.4930915 -1.0458844 -0.3458849 0.69974715 0.20425475 -0.3458172 -0.33887762
-0.8531689 -0.49252224 -0.3058371 -0.719623 0.7493144 -0.7452541 -1.7999576 0.9849037
0.026436038 0.27230102 -0.8565032 0.035647605 -1.1733521 -0.3170107 -2.1933322 -0.2784461
1.7086413 2.466842 1.4425148 1.2301733 -0.46830812 -1.30024 -0.73081076 1.9177765
0.34158474 0.07624293 1.5497018 -0.32692605 0.8174419 -0.73856884 -0.9042217 0.7228825
0.4592824 -0.042225074 0.26769376 -0.4839298 -1.8343911 -1.0245807 0.021157708 0.512947
0.91702753 0.03521405 0.94233006 -0.25288218 -0.23953126 1.3288901 -0.0945264 -0.9192532
-1.3301406 0.27800408 -0.8493391 1.8194504 1.1664814 0.45822635 -0.53036577 -1.0379944
-0.37168998 0.03181517 -0.20847023 0.120581605 -0.74509776 0.06670991 -1.3184096 -0.12681703
-1.2664764 -0.028959293 0.95174843 -0.13358256 -1.1723852 2.7024488 -0.25073898 -1.525777
0.66415197 -0.39400116 -0.08616033 -0.62119913 -1.1230193 0.6714947 1.5885692 1.1304803
-0.3346556 -0.75444144 0.7305613 -0.070763886 0.21681277 -0.26349452 1.7508107 -0.19404674
0.31547922 -0.19206141 -0.17320456 0.18665037 0.84868795 -0.7150155 0.028175471 1.974872
1.1526439 -0.91451913 -0.94241905 -0.5536685 -1.054828 1.3351904 -1.1601006 0.010429413
1.8888575 0.0925847 -1.281016 1.4491342 -1.1405479 1.3760523 0.116027854 -0.6335682
-0.59204865 0.13655473 0.9205606 2.9414396 -0.30216637 -0.0029793975 -0.39341167 -0.390915
1.0427276 -0.118469626 0.74557847 -0.5273661 -0.1507621 -0.012537996 -0.45304933 -0.6984918
-1.703679 0.66612935 -0.79565376 -0.5479177 -0.4643748 0.43237522 1.6010749 0.7834745
0.9741005 -0.13141085 0.6790958 0.640491 0.33209327 1.2121263 1.0040361 0.5480493
-0.027383428 1.6033387 0.9520596 -0.01705769 -0.6229271 -0.504288 1.2047002 -0.72570205
-0.3456418 1.3313475 1.5195968 -0.8314966 0.9285036 -1.0011346 0.68985504 0.049319092
00000000: e64f b0be 0fde 23bf 8c58 2e3f 9d81 553d
00000010: a366 62bf cad1 443f 163d 273f 4143 943f
00000020: 3ea4 3c3f 5e81 47bf 925e b73f d26d 673e
00000030: 0e6b f2be 9cfb 1bc0 1d47 ecbf a1f1 c93e
00000040: 44e0 4b3f 60ac 76bf 2f82 ec3e ac49 c43f
00000050: 2710 bc3f be03 87bf 03ae 7b3e 648a 0bbf
00000060: 4e6b c9bd bf77 1dbe 6abd e0bf 21f6 593f
00000070: eab4 213f e91d 24bd 4603 8fbf e86a b73f
00000080: 0501 e63d bc28 bbbd d28f 8e3e b3e5 c23e
00000090: 804d 62bf 0bc4 ce3e 9bad 0d3f 2ccc a23f
000000a0: 8b05 b23f 9f03 643f 9d5a 38bf 2b83 34bf
000000b0: 581d 07bf c04b b43f 7074 34be a197 cdbf
000000c0: ff9c 9b3d bd55 b83f 812b 8fbf 711c ccbf
000000d0: 09a5 e4bf 07cb 90be db96 163f 0010 b7be
000000e0: 7fd0 cdbe 59f0 e3bf e42f 8bbf 3e8d 643f
000000f0: 9218 f13f 3c09 9d3f e9fa d03f 2320 ddbe
00000100: ae3a bc3f 127f 2d3e f023 e33e 0f27 e8bf
00000110: 9af3 a9ba a253 1d3e 6923 fb3e 6fa3 893e
00000120: ad93 9e3f 8f30 b93f 0960 85be 8274 873f
00000130: 7dc6 bd3e 39d3 093f 797d d53e 0135 dc3e
00000140: 2260 46be 2b1f b5be 24f6 90bf 3fa5 0a3f
00000150: 0da6 dc3f 6ae3 a13f 963d 31be c659 9dbf
00000160: ff88 45be 7d76 fcbe 8adf 85bf d317 b1be
00000170: a122 333f 2828 513e f40e b1be 5e81 adbe
00000180: 4769 5abf e02b fcbe ae96 9cbe 3739 38bf
00000190: 12d3 3f3f f9c8 3ebf 0365 e6bf a622 7c3f
000001a0: 6490 d83c 0a6b 8b3e cb43 5bbf 3903 123d
000001b0: 6730 96bf 3a4f a2be 8e5f 0cc0 7d90 8ebe
000001c0: c2b4 da3f bde0 1d40 53a4 b83f 5276 9d3f
000001d0: 15c6 efbe 446e a6bf 6a16 3bbf b379 f53f
000001e0: 32e4 ae3e 4125 9c3d a15c c63f da62 a7be
000001f0: df43 513f d912 3dbf 137b 67bf d40e 393f
00000200: 1027 eb3e 33f4 2cbd 280f 893e a6c5 f7be
00000210: 54cd eabf 7625 83bf ee52 ad3c 7f50 033f
00000220: 51c2 6a3f 9c3c 103d 8b3c 713f c679 81be
00000230: af47 75be 1219 aa3f 0f97 c1bd 2d54 6bbf
00000240: 0c42 aabf 8d56 8e3e 4a6e 59bf c0e3 e83f
00000250: 434f 953f a59c ea3e 0dc6 07bf 00dd 84bf
00000260: 264e bebe a050 023d 3879 55be 7df3 f63d
00000270: babe 3ebf 359f 883d a5c1 a8bf 53dc 01be
00000280: e61b a2bf 0a3c edbc c9a5 733f dec9 08be
00000290: b810 96bf ecf4 2c40 dc60 80be a94c c3bf
000002a0: dd05 2a3f 85ba c9be d474 b0bd e806 1fbf
000002b0: 19bf 8fbf 14e7 2b3f 3c56 cb3f 94b3 903f
000002c0: fb57 abbe 1323 41bf 1106 3b3f a8ec 90bd
000002d0: 2b04 5e3e c1e8 86be 911a e03f 30b4 46be
000002e0: 7e86 a13e bfab 44be 895c 31be 4621 3f3e
000002f0: 9d43 593f 410b 37bf 3fd0 e63c 9bc8 fc3f
00000300: d689 933f ed1d 6abf 6042 71bf 38bd 0dbf
00000310: 9b04 87bf 85e7 aa3f 2d7e 94bf 21e0 2a3c
00000320: 15c6 f13f 0c9d bd3d 55f8 a3bf 3b7d b93f
00000330: 79fd 91bf 7b22 b03f 03a0 ed3d 8731 22bf
00000340: 8090 17bf 01d5 0b3e dca9 6b3f 8c40 3c40
00000350: 8db5 9abe ff41 43bb 416d c9be 0326 c8be
00000360: 1978 853f 34a0 f2bd 3bde 3e3f 7701 07bf
00000370: 6161 1abe 2b6c 4dbc 15f6 e7be 5cd0 32bf
00000380: 2712 dabf 7487 2a3f f7af 4bbf 5644 0cbf
00000390: 89c2 edbe 4960 dd3e 06f0 cc3f c991 483f
000003a0: a65e 793f 9190 06be 39d9 2d3f 38f7 233f
000003b0: 2108 aa3e f426 9b3f 4184 803f f54c 0c3f
000003c0: 3653 e0bc 343a cd3f 2eba 733f 92bc 8bbc
000003d0: 2778 1fbf 0519 01bf 9e33 9a3f 9cc7 39bf
000003e0: f6f7 b0be 9869 aa3f 2682 c23f f6dc 54bf
000003f0: 69b2 6d3f 2e25 80bf 579a 303f d102 4a3d

valueEmbedding.0.weight f4 [128, 24]
0.09256649 0.07478034 -0.10837546 -0.06321216 -0.16484205 0.031885028 0.15868978 0.019101718
-0.12028907 -0.18900324 0.115142375 0.004750145 -0.015215209 0.07634361 -0.14138995 0.14729625
-0.2101217 0.06328499 0.12189597 0.007951891 -0.11334496 -0.07551147 0.12994844 0.13246474
-0.06609058 0.13394512 0.1651734 -0.046129357 0.07495105 -0.07664273 0.03560072 -0.084343225
0.12669274 -0.2152648 -0.112313434 0.07912154 -0.12758711 0.08308745 -0.09823819 -0.0667246
0.119440705 0.027571816 -0.002688563 0.07031922 -0.065274045 -0.004372994 0.11736598 -0.20804459
-0.07760807 -0.09409866 0.06194584 0.17448543 -0.03584198 -0.0113615645 -0.18173967 -5.372461e-05
-0.23973782 0.02411072 -0.108061455 0.051383704 0.11584558 0.069508694 -0.047267437 0.068197615
-0.11663881 -0.224773 -0.06760164 -0.25463986 0.19662718 0.20313326 0.2502124 -0.01296571
0.14875203 0.02000563 -0.107360154 -0.056542374 0.18383063 0.0960717 -0.10075098 -0.2451032
-0.09426069 -0.17732896 0.20957173 0.15701902 -0.15336062 -0.078968674 -0.015720427 0.10336706
-0.16246153 0.12591109 0.034268368 -0.009595278 -0.13066393 0.1115475 -0.0058641504 0.0041688755
-0.09615222 0.008630969 -0.18804069 0.19523661 0.026196618 0.09604746 0.19187765 -0.1338695
0.06828517 -0.07219873 0.0063910712 0.1691067 -0.17406872 -0.28095117 0.11713996 -0.054311648
0.12694252 -0.1758615 -0.05933958 -0.08956999 -0.031990338 -0.069583096 -0.20783436 0.095744506
-0.14702454 -0.18360181 0.030203843 -0.15246598 -0.076166995 0.17315923 0.18060824 0.024529388
0.12321017 0.16301015 -0.124232724 -0.10887581 0.024438407 -0.25858027 0.014866158 0.1494035
0.011121363 -0.23817652 -0.15223105 -0.05052253 -0.10547931 -0.08425137 -0.20784152 0.06266488
-0.13698485 0.097932786 -0.086144894 -0.10264266 0.0073395222 -0.09486655 -0.082071 -0.22851017
0.15074022 0.13690025 -0.09859311 0.077744305 -0.085821316 -0.08940388 -0.16504581 0.049449448
-0.123257935 -0.21400496 -0.12461164 -0.15635294 -0.13015537 0.12015728 -0.07163497 0.022969836
-0.08930556 -0.12325882 0.010113226 -0.1388227 0.07887906 -0.033561632 0.10927906 -0.070797585
-0.2229179 -0.12949121 0.23099042 0.23334411 0.0031985526 0.11437623 0.0033410524 -0.09110574
0.053253166 -0.16196673 -0.013949653 0.08142094 -0.17960861 -0.08193189 0.028538613 0.16230524
0.10790636 0.0018602826 -0.09363242 -0.2523895 -0.10127201 0.0899757 0.12003719 -0.13364166
-0.040291246 -0.053099483 -0.09073069 -0.03623158 -0.007604078 -0.13388586 0.12133739 -0.11625856
-0.22414224 -0.17340812 0.11926721 -0.05455012 -0.14670058 -0.07097047 0.20143391 0.03274978
0.025713041 -0.052039128 -0.11329346 -0.1480734 -0.13623871 -0.19244662 0.045489945 -0.22850154
0.056790974 -0.08451631 0.13946424 0.13354029 0.054596346 -0.20296274 0.097391136 0.0668936
-0.026906662 -0.23918189 0.06728022 -0.15319921 0.1618445 -0.21994945 0.11121378 -0.038123116
-0.13549699 0.06309458 0.004517602 0.043291543 -0.05262963 0.06685709 -0.0054365103 0.12495684
0.19039834 -0.06448976 -0.06683127 0.0019839543 0.09261177 -0.1478236 0.081326865 0.0075396635
00000000: 8093 bd3d 6f26 993d f4f3 ddbd 6075 81bd
00000010: 5bcc 28be e099 023d 937f 223e 357b 9c3c
00000020: 1e5a f6bd 118a 41be c4cf eb3d 1ba7 9b3b
00000030: 3649 79bc 0a5a 9c3d 87c8 10be d4d4 163e
00000040: 252a 57be 909b 813d 98a4 f93d a648 023c
00000050: 6721 e8bd c2a5 9abd 3411 053e d6a4 073e
00000060: 7f5a 87bd e928 093e 3723 293e 23f2 3cbd
00000070: f07f 993d ddf6 9cbd 10d2 113d 24bc acbd
00000080: bebb 013e 606e 5cbe 9604 e6bd 790a a23d
00000090: 32a6 02be c129 aa3d 1b31 c9bd e8a6 88bd
000000a0: 549d f43d 4ade e13c 9a32 30bb 8603 903d
000000b0: 66ae 85bd 554b 8fbb 935d f03d a409 55be
000000c0: fbf0 9ebd ccb6 c0bd ecba 7d3d 4fac 323e
000000d0: 0acf 12bd db25 3abc f719 3abe 5c56 61b8
000000e0: d57d 75be d883 c53c 534f ddbd b877 523d
000000f0: 7340 ed3d 935a 8e3d 809b 41bd 31ab 8b3d
00000100: 54e0 eebd e52a 66be bb72 8abd 2860 82be
00000110: a358 493e 2a02 503e d71b 803e 216e 54bc
00000120: 7452 183e d9e2 a33c a4df dbbd fa98 67bd
00000130: 193e 3c3e 3dc1 c43d 8856 cebd 55fc 7abe
00000140: c00b c1bd b995 35be f999 563e 98c9 203e
00000150: 910a 1dbe 54ba a1bd 20c8 80bc 1cb2 d33d
00000160: 515c 26be d6ee 003e fd5c 0c3d 8335 1dbc
00000170: c4cc 05be 0473 e43d 0f28 c0bb 109b 883b
00000180: 75eb c4bd e868 0d3c bd8d 40be 1bec 473e
00000190: 4a9a d63c 88b4 c43d 937b 443e 1615 09be
000001a0: 18d9 8b3d eedc 93bd 316c d13b 4f2a 2d3e
000001b0: 123f 32be d5d8 8fbe 13e7 ef3d e475 5ebd
000001c0: 38fd 013e 0915 34be 0f0e 73bd 7970 b7bd
000001d0: 4d08 03bd 9581 8ebd 88d2 54be b215 c43d
000001e0: 9a8d 16be 1d02 3cbe 0d6e f73c 0b20 1cbe
000001f0: 71fd 9bbd a750 313e 5ef1 383e dbf1 c83c
00000200: 9d55 fc3d 22ec 263e ba6d febd 48fa debd
00000210: 0e33 c83c a264 84be 3091 733c 3bfd 183e
00000220: 6136 363c 8ce4 73be 75e2 1bbe b6f0 4ebd
00000230: 8905 d8bd fb8b acbd 68d4 54be 7256 803d
00000240: c245 0cbe fc90 c83d bc6c b0bd 5136 d2bd
00000250: 6080 f03b 6549 c2bd d714 a8bd 92fe 69be
00000260: a55b 1a3e 942f 0c3e 2feb c9bd 6838 9f3d
00000270: 16c3 afbd 6219 b7bd c501 29be 818b 4a3d
00000280: a86e fcbd 1e24 5bbe 6334 ffbd fc1a 20be
00000290: 7347 05be 0515 f63d 5bb5 92bd 3d2b bc3c
000002a0: d5e5 b6bd 1f6f fcbd f2b1 253c 8a27 0ebe
000002b0: 588b a13d ec77 09bd b3cd df3d 53fe 90bd
000002c0: 9744 64be 5899 04be c188 6c3e c2f1 6e3e
000002d0: cf9e 513b 163e ea3d 8ff5 5a3b a595 babd
000002e0: fe1f 5a3d 9bda 25be 168d 64bc 06c0 a63d
000002f0: 52eb 37be e8cb a7bd cfc9 e93c 5833 263e
00000300: 02fe dc3d bad4 f33a 5bc2 bfbd 3239 81be
00000310: b367 cfbd 2e45 b83d 0fd6 f53d 5cd9 08be
00000320: 6f08 25bd d87e 59bd 03d1 b9bd 9167 14bd
00000330: a12b f9bb 6019 09be bd7f f83d f818 eebd
00000340: 8b85 65be e691 31be 5e42 f43d f26f 5fbd
00000350: ad38 16be f758 91bd b144 4e3e a224 063d
00000360: 28a4 d23c fb26 55bd 6706 e8bd 8ea0 17be
00000370: 2982 0bbe ba10 45be aa53 3a3d 4ffc 69be
00000380: a79d 683d e316 adbd b7cf 0e3e c9be 083e
00000390: 6ba0 5f3d 77d5 4fbe 0175 c73d 83ff 883d
000003a0: 5c6b dcbc 19ec 74be 36ca 893d 41e0 1cbe
000003b0: 91ba 253e 6e3a 61be 0dc4 e33d fc26 1cbd
000003c0: b9bf 0abe bb37 813d 6408 943b 7952 313d
000003d0: 2b92 57bd 5fec 883d c124 b2bb 5fe9 ff3d
000003e0: c8f7 423e 3513 84bd d5de 88bd 3b05 023b
000003f0: 3dab bd3d 125f 17be b38e a63d 480f f73b

valueEmbedding.0.bias f4 [128]
0.11845778 -0.12599042 0.029136281 -0.024893658 0.012256713 -0.15126911 0.13243327 0.013654229
-0.031981517 -0.17934862 0.057332262 0.047987185 0.03874314 0.024381684 -0.033767175 0.11159384
-0.13344526 0.080446206 0.035019953 -0.123670615 0.026188124 -0.031982288 0.01263947 -0.10240605
0.007535707 -0.026477152 -0.010855523 -0.18125248 -0.13532299 0.21100776 0.009208979 -0.09327308
-0.008302306 -0.004894596 -0.0034310562 0.010330288 0.0747333 -0.09394108 0.091373675 -0.1171524
-0.045775034 0.06152389 -0.11974661 -0.11883798 -0.04494462 0.13952555 -0.082685806 -0.14922541
-0.13748915 0.1300275 -0.13484986 -0.02339311 0.053555056 0.0030069149 -0.059801154 -0.09434587
-0.04498157 0.044257134 0.026844662 0.025783703 -0.004598606 -0.056609146 0.053267576 -0.012313108
-0.21247283 0.0734943 -0.12767762 -0.04166148 0.024356214 -0.080095485 0.079086214 -0.13200302
0.1102328 0.0152532095 -0.20610964 -0.11076765 -0.056539077 -0.037571788 -0.24367864 0.031456865
-0.025621055 -0.11155776 -0.113600835 0.047909558 -0.20500347 0.1749969 -0.054392982 0.06278883
0.101590745 -0.19813366 -0.07330915 -0.12411401 -0.01439245 -0.12492699 0.010698859 -0.142741
0.042761773 0.20593394 0.17086276 -0.111062296 0.01693022 -0.1447867 0.09596071 -0.085800126
-0.1269969 -0.08536651 0.06726063 0.13961364 0.059998628 -0.061090548 -0.12097879 -0.1268426
-0.089363955 0.049228452 0.14523262 0.07614063 0.058112677 0.14431223 0.18917048 0.14077014
-0.18030135 0.035812333 -0.16327208 0.018485455 0.0023580776 0.0798681 0.06816956 -0.034043424
00000000: fe99 f23d a203 01be 36af ee3c c9ed cbbc
00000010: 61d0 483c 4ae6 1abe 969c 073e fdb5 5f3c
00000020: 0dff 02bd 2aa7 37be 3cd5 6a3d 368e 443d
00000030: 20b1 1e3d 19bc c73c 734f 0abd 508b e43d
00000040: e0a5 08be fbc0 a43d 1571 0f3d 0547 fdbd
00000050: 7a88 d63c dcff 02bd c815 4f3c 43ba d1bd
00000060: 18ee f63b 9de6 d8bc 5ddb 31bc 409a 39be
00000070: 1c92 0abe 6b12 583e 42e1 163c f505 bfbd
00000080: 6506 08bc d962 a0bb 92db 60bb 5e40 293c
00000090: c60d 993d 2e64 c0bd 1f22 bb3d 99ed efbd
000000a0: 9a7e 3bbd 7900 7c3d b63d f5bd 5461 f3bd
000000b0: da17 38bd c9df 0e3e 2d57 a9bd 8cce 18be
000000c0: f5c9 0cbe ee25 053e 1516 0abe e8a2 bfbc
000000d0: 8c5c 5b3d a90f 453b 0ef2 74bd 6838 c1bd
000000e0: 983e 38bd f846 353d 56e9 db3c 5838 d33c
000000f0: e7af 96bb fede 67bd 1a2f 5a3d ebbc 49bc
00000100: 7a92 59be 2e84 963d ecbd 02be 3aa5 2abd
00000110: af86 c73c 1a09 a4bd f4f7 a13d cd2b 07be
00000120: bcc1 e13d 99e8 793c 680e 53be 26da e2bd
00000130: 8595 67bd e0e4 19bd e586 79be ead8 003d
00000140: 3fe3 d1bc 6578 e4bd 8ea7 e8bd d03c 443d
00000150: 6eec 51be 6332 333e 2dcb 5ebd 6e97 803d
00000160: cf0e d03d 8de3 4abe 1c23 96bd 7c2f febd
00000170: 50ce 6bbc b9d9 ffbd 444a 2f3c b22a 12be
00000180: f826 2f3d 59e0 523e a6f6 2e3e a174 e3bd
00000190: 3fb1 8a3c f742 14be 0c87 c43d fab7 afbd
000001a0: 7a0b 02be a3d4 aebd f1bf 893d e1f6 0e3e
000001b0: 1fc1 753d 153a 7abd bac3 f7bd 07e3 01be
000001c0: 7304 b7bd c6a3 493d dcb7 143e 9eef 9b3d
000001d0: 8f07 6e3d 96c6 133e e8b5 413e 0c26 103e
000001e0: eba0 38be f4af 123d cc30 27be cf6e 973c
000001f0: fa89 1a3b e391 a33d 7b9c 8b3d 1e71 0bbd

rnn.weight_ih_l0 f4 [384, 128]
0.024959574 -0.08186136 0.0522686 -0.06725258 -0.13088842 -0.011662096 -0.07354014 -0.098400116
0.012684609 0.050060496 -0.024882201 -0.057265468 -0.027064245 -0.00019594976 0.027137168 -0.037644506
-0.07500059 0.026383022 -0.094500184 -0.049607884 0.031012844 -0.011747547 -0.0495912 0.023933902
0.018570162 -0.044191282 -0.08007032 0.025847709 0.020519333 0.055100124 -0.047796115 -0.034872457
-0.037282784 0.027049532 -0.08529951 -0.04508477 -0.09679344 -0.015566595 -0.0643162 -0.05828333
-0.037194498 0.068512544 0.036258485 -0.06561747 -0.037890825 -0.11023469 -0.008143604 0.009589592
-0.07037023 0.06531148 -0.033424076 -0.10416395 -0.08516316 0.03086279 -0.03773887 -0.054365385
-0.0465447 0.029073967 -0.0024270297 0.04061728 -0.10448727 0.0024267395 -0.04490303 0.01929468
-0.038436778 -0.07458351 -0.004860056 0.009061853 -0.008700428 -0.10204515 0.015500756 -0.041194744
0.009148853 0.060472984 -0.036817085 0.05268792 -0.094056904 -0.069425166 -0.015662441 -0.07035371
0.051727466 -0.022536078 -0.090927206 0.054928537 0.037888482 0.0023474032 0.010428432 -0.010190132
-0.076955006 0.054789014 -0.05503447 -0.034736626 0.08140809 -0.053326 -0.09626578 -0.08626279
0.023720007 -0.009889528 -0.034125157 -0.008922404 0.000112295114 0.040940583 -0.047920875 -0.025107928
-0.03812913 0.09731155 -0.081780024 -0.054597963 0.032957535 0.017311918 -0.02577411 0.04154829
-0.12935863 -0.023367643 0.026143797 -0.030753277 0.039392963 0.010350053 -0.028006548 -0.12700532
0.13501179 -0.08494371 0.02470791 -0.026639778 -0.0024834268 -0.029298596 -0.08610342 0.023872972
-0.08837109 0.016500883 0.025890287 0.017083282 -0.0035182259 0.020021943 0.040875096 0.02705849
0.07220352 -0.047525637 -0.049975704 0.08176835 -0.08554792 0.019576048 0.039028678 -0.025167141
-0.022099974 0.063202314 0.069709346 -0.101474784 -0.11312053 -0.13739823 -0.016124494 0.07668182
0.06758749 -0.028785458 0.07811454 -0.100139655 -0.10752769 -0.041097745 -0.069516145 -0.025966963
0.0018379268 0.03415384 0.013162416 -0.038827445 -0.039269645 -0.08134359 0.012737384 0.13236152
-0.006020956 -0.026251098 -0.07017631 0.0494864 -0.050613437 -0.077784896 -0.07250913 -0.01847337
0.039289836 0.130185 -0.020092305 0.05008665 0.064414024 0.09998644 0.036060803 -0.021707263
0.033224493 0.0276299 0.065637276 0.050726905 -0.048230458 0.027453922 0.018688882 -0.08843901
-0.05411939 -0.11328952 0.006157135 -0.066592224 -0.09033246 0.052424286 -0.076618135 0.016763758
0.05331533 -0.08188011 -0.05645384 0.02646591 -0.07658581 0.042293094 -0.068629235 0.046330117
0.04064348 0.07862754 0.051039048 0.045924835 -0.0109722 -0.041129883 0.0360158 0.040880885
-0.06288507 0.023714226 0.018008577 -0.037934344 0.02762977 0.08495527 -0.012824458 -0.058659058
0.033303823 -0.005472698 0.009342684 -0.01630184 -0.07471086 0.030002153 0.00080082787 -0.03280204
-0.02695179 0.030085973 0.048148718 -0.037070945 -0.05390129 -0.07157095 -0.0025995332 0.0038692353
-0.03281181 0.0657223 0.031937756 0.087140664 -0.035036545 0.04825586 0.007866931 -0.017837971
-0.08264532 -0.0038288513 -0.020382702 0.030990446 -0.12484251 0.019241467 -0.00732001 -0.06593513
00000000: 0578 cc3c eea6 a7bd 9917 563d b8bb 89bd
00000010: 9d07 06be 6012 3fbc 379c 96bd 0086 c9bd
00000020: 1bd3 4f3c 3c0c 4d3d c2d5 cbbc 328f 6abd
00000030: d6b5 ddbc dd77 4db9 c44e de3c 2031 1abd
00000040: e999 99bd 3521 d83c 5089 c1bd a331 4bbd
00000050: a60e fe3c c978 40bc 2420 4bbd 0811 c43c
00000060: 7420 983c eb01 35bd e8fb a3bd 93be d33c
00000070: 2918 a83c abb0 613d dcc5 43bd 6cd6 0ebd
00000080: d5b5 18bd fb96 dd3c 82b1 aebd cfaa 38bd
00000090: a43b c6bd 080b 7fbc 36b8 83bd 80ba 6ebd
000000a0: 4259 18bd 4e50 8c3d c783 143d 7462 86bd
000000b0: 6933 1bbd bac2 e1bd c06c 05bc aa1d 1d3c
000000c0: 441e 90bd 06c2 853d afe7 08bd e953 d5bd
000000d0: 066a aebd f6d3 fc3c 1394 1abd 3dae 5ebd
000000e0: a8a5 3ebd 872c ee3c cd0e 1fbb 4e5e 263d
000000f0: 6cfd d5bd ef09 1f3b 3dec 37bd e00f 9e3c
00000100: e26f 1dbd 3dbf 98bd 1b41 9fbb 2b78 143c
00000110: 3d8c 0ebc 0cfd d0bd e2f6 7d3c d2bb 28bd
00000120: 12e5 153c 85b2 773d 83cd 16bd 4acf 573d
00000130: e8a0 c0bd c82e 8ebd 854e 80bc 9b15 90bd
00000140: 2ee0 533d 959d b8bc 0b38 babd bffc 603d
00000150: f430 1b3d e4d6 193b 04dc 2a3c 83f4 26bc
00000160: 969a 9dbd 726a 603d d36b 61bd fe47 0ebd
00000170: 49b9 a63d 5d6c 5abd fe26 c5bd 8caa b0bd
00000180: 7650 c23c b007 22bc d2c6 0bbd 462f 12bc
00000190: fb7f eb38 50b1 273d ae48 44bd 24af cdbc
000001a0: 4a2d 1cbd 474b c73d 497c a7bd 1da2 5fbd
000001b0: 7bfe 063d b9d1 8d3c 3a24 d3bc 8a2e 2a3d
000001c0: 9776 04be 806d bfbc 842b d63c 4cee fbbc
000001d0: 845a 213d 4593 293c fd6d e5bc af0d 02be
000001e0: 8840 0a3e f8f6 adbd 3e68 ca3c aa3b dabc
000001f0: fdc0 22bb 9c03 f0bc fd56 b0bd 4091 c33c
00000200: e7fb b4bd dc2c 873c de17 d43c 3df2 8b3c
00000210: 0992 66bb 0f05 a43c a56c 273d c4a9 dd3c
00000220: 70df 933d 3eaa 42bd 53b3 4cbd 2a76 a73d
00000230: bf33 afbd f35d a03c 89dc 1f3d 522b cebc
00000240: 010b b5bc 3770 813d c6c3 8e3d 03d2 cfbd
00000250: bdab e7bd 1fb2 0cbe 8417 84bc 5c0b 9d3d
00000260: 4f6b 8a3d 7bcf ebbc 84fa 9f3d 0516 cdbd
00000270: 7a37 dcbd 1c56 28bd 7b5e 8ebd abb8 d4bc
00000280: 97e6 f03a e6e4 0b3d 2da7 573c 8709 1fbd
00000290: 35d9 20bd 7897 a6bd 76b0 503c c789 073e
000002a0: 714b c5bb 8b0c d7bc 99b8 8fbd 40b2 4a3d
000002b0: 0950 4fbd b04d 9fbd ab7f 94bd 7755 97bc
000002c0: 61ee 203d 374f 053e 9e98 a4bc a927 4d3d
000002d0: 80eb 833d b1c5 cc3d 7eb4 133d 6ed3 b1bc
000002e0: 6816 083d 1a58 e23c d66c 863d 04c7 4f3d
000002f0: 4d8d 45bd 0ce7 e03c 6d19 993c 831f b5bd
00000300: 4bac 5dbd 5604 e8bd cbc1 c93b 8161 88bd
00000310: 3a00 b9bd d9ba 563d f8e9 9cbd 2654 893c
00000320: 2d61 5a3d c2b0 a7bd 243c 67bd 09cf d83c
00000330: 05d9 9cbd 863b 2d3d 7c8d 8cbd a6c4 3d3d
00000340: c779 263d 7a07 a13d 520e 513d ae1b 3c3d
00000350: bec4 33bc cf77 28bd 4e85 133d b772 273d
00000360: e3c9 80bd 5644 c23c b986 933c 0b61 1bbd
00000370: d457 e23c 07fd ad3d ad1d 52bc 7b44 70bd
00000380: 9769 083d 5154 b3bb 0f12 193c 708b 85bc
00000390: 0202 99bd 13c7 f53c a6ee 513a 6f5b 06bd
000003a0: 00ca dcbc dc76 f63c 9737 453d b4d7 17bd
000003b0: 99c7 5cbd ca93 92bd ee5c 2abb ff92 7d3b
000003c0: ad65 06bd 6a99 863d 2ad1 023d ce76 b23d
000003d0: 7b82 0fbd f0a7 453d 4de4 003c f020 92bc
000003e0: f341 a9bd 77ed 7abb a0f9 a6bc addf fd3c
000003f0: 6ead ffbd 48a0 9d3c b2dc efbb ff08 87bd

rnn.weight_hh_l0 f4 [384, 128]
-0.09382283 0.016077137 -0.03455631 -0.03206632 -0.03331475 -0.006910882 -0.03502236 0.09812996
0.079284646 0.03541684 0.04321323 0.059390724 0.031570304 0.085556105 -0.053964302 -0.07143554
-0.03952362 0.0055339676 0.013962112 -0.09482951 0.08512949 0.007487449 0.09600348 0.025457485
0.07327568 0.09033519 -0.00025167404 -0.029132737 -0.028813278 -0.00399264 -0.0034957621 0.11405498
0.07098258 0.13594645 0.030397773 -0.013741167 -0.040988326 -0.027280515 -0.027988542 -0.09824678
0.13473062 -0.08570367 0.013701658 -0.11084659 0.1417142 -0.03016165 0.0024435634 -0.0045480044
0.054452598 -0.11182044 -0.048407074 -0.06998438 0.09647805 -0.0758804 0.1482444 -0.10113495
-0.0025505077 -0.04956181 0.04941338 -0.0544609 0.06302337 -0.07855128 -0.06710573 -0.017783191
-0.118472785 0.067863524 -0.043630887 0.02111006 0.036123306 0.0954027 0.01400011 -0.054425023
-0.08333452 -0.05040795 -0.06592222 0.048500665 0.05496111 -0.00969769 0.03637427 -0.07190932
0.0051744957 0.052112184 -0.10529209 -0.08529372 -0.057925824 0.00346044 -0.007404045 -0.06359434
0.017333142 -0.054582085 0.06779341 0.13101822 0.10925148 -0.09963198 0.055697534 0.05229026
-0.043557767 0.048581693 -0.097060174 0.08932389 -0.048987307 -0.06498813 0.10981853 -0.023139123
0.0105352225 0.099962614 -0.14763996 -0.18080223 -0.016134147 0.023223478 -0.043633252 0.05385786
0.0309591 0.11642699 0.08522096 0.06145679 -0.031449255 0.010988086 -0.11778957 -0.10439463
0.120046616 -0.016176354 0.09780462 0.08114749 -0.04407739 0.013853702 -0.035268888 -0.011177841
0.009461384 0.09209984 -0.07235779 0.010425627 0.040543295 0.096790135 0.014514048 0.0018003966
0.10769678 -0.08911966 0.015994089 0.07415706 -0.07011224 0.13186541 0.06308792 -0.07110136
0.03269616 -0.016095435 0.009886321 -0.023495192 -0.0033236325 0.036281165 0.033227116 0.12943667
-0.04380294 0.08314376 -0.010909154 -0.057119995 0.032832038 -0.00195104 -0.045247234 0.0064960415
0.028174432 0.013752315 -0.052066237 0.08349731 -0.10586222 0.07777786 0.060791846 0.028287131
-0.0092841685 -0.05412432 0.04060833 -0.09246184 -0.0098253125 -0.053730763 0.0059302133 0.021168951
0.031480327 0.02528648 -0.113709174 -0.06999211 -0.0070648347 0.063583 0.027125088 0.047580168
-0.0879876 0.07333491 0.030567873 0.008564243 0.072185546 0.07603596 -0.005095416 0.040208012
0.10691149 0.0007134625 -0.08789894 -0.061642922 -0.030941235 0.109015964 -0.055529445 0.01271687
-0.033040524 -0.012491598 0.060911488 -0.027197717 0.0906281 -0.09772528 -0.087078296 0.011100064
-0.05809134 -0.12158374 -0.036659423 -0.040579557 -0.04906952 -0.07624979 0.088798605 -0.023594055
-0.09324875 0.06119671 -0.1178462 -0.08930518 -0.027494093 -0.031700693 -0.059762772 0.07363441
-0.09439131 0.13554424 0.1099136 -0.09270906 0.0277533 -0.04766717 -0.08267322 -0.003311813
-0.086471744 -0.062387932 -0.055716965 -0.042171825 0.05002362 -0.0143501535 -0.037255272 -0.005789587
0.019409114 0.023540804 -0.012266456 -0.025308501 -0.11840259 -0.08771443 0.0724276 -0.024512315
-0.017220672 -0.07999082 0.09221611 0.011787526 0.051081214 0.013240088 0.08437278 -0.059703194
00000000: 2f26 c0bd 33b4 833c eb8a 0dbd f957 03bd
00000010: 0c75 08bd ae74 e2bb 9b73 0fbd 5cf8 c83d
00000020: fd5f a23d 4011 113d 5b00 313d b043 733d
00000030: dd4f 013d 0a38 af3d ac09 5dbd cc4c 92bd
00000040: 85e3 21bd 4956 b53b 58c1 643c f935 c2bd
00000050: 5f58 ae3d 4659 f53b 799d c43d 378c d03c
00000060: 8f11 963d a801 b93d 1ef3 83b9 c7a7 eebc
00000070: d309 ecbc b1d4 82bb 2819 65bb a895 e93d
00000080: 515f 913d 8c35 0b3e c004 f93c a222 61bc
00000090: 60e3 27bd 637b dfbc 3a48 e5bc 9c35 c9bd
000000a0: d3f6 093e 6885 afbd eb7c 603c 8903 e3bd
000000b0: 871d 113e 9115 f7bc 3124 203b 6d07 95bb
000000c0: b009 5f3d 1d02 e5bd 7f46 46bd f853 8fbd
000000d0: 4996 c53d 2f67 9bbd 61cd 173e d71f cfbd
000000e0: 6b26 27bb 5301 4bbd af65 4a3d 6512 5fbd
000000f0: 6612 813d 7edf a0bd bb6e 89bd 0eae 91bc
00000100: dca1 f2bd 08fc 8a3d 4db6 32bd 01ef ac3c
00000110: 08f6 133d 7e62 c33d b860 653c c6ec 5ebd
00000120: 4aab aabd 9178 4ebd 3b02 87bd a2a8 463d
00000130: e71e 613d 0fe3 1ebc 30fd 143d 3245 93bd
00000140: d18e a93b 9673 553d 61a3 d7bd 79ae aebd
00000150: a143 6dbd 8dc8 623b a29d f2bb c03d 82bd
00000160: 3cfe 8d3c 7791 5fbd 45d7 8a3d a429 063e
00000170: 3dbf df3d da0b ccbd 1923 643d 502e 563d
00000180: a169 32bd 99fd 463d 7cc7 c6bd 72ef b63d
00000190: eaa6 48bd 7f18 85bd 8ae8 e03d 428e bdbc
000001a0: ed9b 2c3c 33b9 cc3d ee2e 17be 3824 39be
000001b0: c22b 84bc 2a3f be3c c8b8 32bd 0f9a 5c3d
000001c0: f09d fd3c 4671 ee3d 5488 ae3d 1dba 7b3d
000001d0: efd0 00bd 6007 343c a83b f1bd dacc d5bd
000001e0: 00db f53d 4684 84bc ca4d c83d a830 a63d
000001f0: 7e8a 34bd a3fa 623c 1c76 10bd 4323 37bc
00000200: ec03 1b3c d79e bc3d 5230 94bd 40d0 2a3c
00000210: ba10 263d e839 c63d 54cc 6d3c 49fb eb3a
00000220: 2190 dc3d 5e84 b6bd 0906 833c a8df 973d
00000230: 0297 8fbd ba07 073e 3d34 813d 979d 91bd
00000240: 69ec 053d 93da 83bc 3cfa 213c fd78 c0bc
00000250: 4dd1 59bb 8f9b 143d 2819 083d 0c8b 043e
00000260: b66a 33bd 4747 aa3d 4fbc 32bc a8f6 69bd
00000270: e37a 063d 0aba ffba 2a55 39bd bfdc d43b
00000280: 11ce e63c 6451 613c 6843 55bd a300 ab3d
00000290: 4bce d8bd 004a 9f3d df00 793d 6aba e73c
000002a0: a01c 18bc 77b1 5dbd ec54 263d a25c bdbd
000002b0: 59fa 20bc ca14 5cbd 3c52 c23b 826a ad3c
000002c0: 84f1 003d 9825 cf3c 5be0 e8bd 0658 8fbd
000002d0: 2180 e7bb ce37 823d 6f35 de3c 6ce3 423d
000002e0: d832 b4bd 9d30 963d 7a69 fa3c 0a51 0c3c
000002f0: 04d6 933d beb8 9b3d 73f7 a6bb 28b1 243d
00000300: 69f4 da3d a807 3b3a 5c04 b4bd 4a7d 7cbd
00000310: 7978 fdbc c343 df3d d872 63bd 6b5a 503c
00000320: 8055 07bd 8fa9 4cbc 537e 793d bfcd debc
00000330: 3a9b b93d 3124 c8bd 1b56 b2bd 0bdd 353c
00000340: 2ff1 6dbd e500 f9bd 3128 16bd c036 26bd
00000350: 1ffd 48bd da28 9cbd 0bdc b53d 5248 c1bc
00000360: 33f9 bebd 67a9 7a3d 5959 f1bd a2e5 b6bd
00000370: 4b3b e1bc 96d8 01bd cfc9 74bd a3cd 963d
00000380: 3b50 c1bd 1ccc 0a3e 621a e13d 3fde bdbd
00000390: e35a e33c a73e 43bd 9450 a9bd 010b 59bb
000003a0: 1918 b1bd 7d8a 7fbd 7937 64bd 5dbc 2cbd
000003b0: 91e5 4c3d e81c 6bbc fc98 18bd 93b6 bdbb
000003c0: ddff 9e3c a5d8 c03c 3ff9 48bc c653 cfbc
000003d0: 0f7d f2bd a0a3 b3bd ec54 943d 0dce c8bc
000003e0: 5e12 8dbc 3ad2 a3bd cddb bc3d 7820 413c
000003f0: 893a 513d f4ec 583c a3cb ac3d 568b 74bd

rnn.bias_ih_l0 f4 [384]
0.026339121 -0.059983637 -0.00051309896 -0.08863807 -0.10027596 -0.04371376 0.062883615 0.03553513
-0.022231119 0.071335964 0.096214525 -0.071637325 0.0015409699 0.02303104 -0.0027672835 -0.05151497
-0.10265383 0.017107084 0.041049708 0.013719995 -0.08628789 0.04197505 0.019236181 0.02853982
0.06781321 -0.066916555 -0.12176155 0.042461652 -0.07768006 0.095698126 -0.0326407 -0.049680285
0.03098658 0.04814484 0.03596804 -0.0045064003 0.0065573277 -0.031804558 -0.041820902 -0.11514782
-0.033210404 0.1197972 -0.03342421 0.058313683 0.07309182 -0.0828513 -0.060355857 0.04587761
0.021088198 -0.0661621 -0.064926155 -0.0805301 0.055365097 -0.08914329 -0.026588425 -0.00877199
0.09016836 -0.02768134 -0.017037796 -0.050643947 0.012909901 -0.01424882 -0.010456125 -0.017490497
0.016534204 0.018415296 -0.086256094 0.061633587 0.046682805 -0.05228581 -0.0127588445 0.045570582
-0.014197198 -0.0017610902 -0.051185403 -0.03220332 0.024174338 -0.0633525 0.07909196 0.09661067
-0.06778757 0.057384077 0.0104753915 -0.042643916 -0.062571764 0.05100489 0.008567545 0.018945584
-0.031423267 -0.029986162 -0.0010964415 -0.025539821 0.036843598 -0.09722771 0.02652356 -0.078153744
0.05610594 0.008170409 -0.034301095 0.07326034 -0.029441655 -0.084552266 -0.08327442 -0.0023501373
-0.006140796 -0.021762483 0.11432485 -0.017146919 -0.035835177 -0.09747396 0.012720917 -0.009464797
-0.032884896 0.011350897 -0.012511114 0.015815895 0.06522889 -0.00042366193 -0.013041537 0.032865267
0.011422097 0.038094006 -0.07749049 -0.0052125854 -0.08802196 -0.09048618 -0.020281803 -0.08973996
-0.026100397 -0.027615752 0.066830315 -0.022740016 0.034527812 -0.017086187 0.022223348 0.13641182
0.07628585 0.06650197 0.07626096 -0.0030384127 0.06095838 -0.052656382 0.08660485 0.08704087
0.079212084 -0.01859904 -0.05996846 0.060377136 0.06412412 0.032594487 0.041402727 -0.03891995
0.026876928 0.020859296 -0.004021551 0.10432105 -0.026700864 -0.008631442 0.08915108 0.09184679
-0.005261019 -0.07565635 -0.049055506 0.09166514 0.103755884 0.052216135 0.07798947 0.035805814
0.028374316 -0.012502998 0.09881173 0.09124318 0.03233341 -0.07767695 0.10101906 0.09050189
0.09439924 -0.01403053 0.0032336835 0.14357446 0.002554119 0.0038377303 0.072679766 -0.015335453
0.06463005 0.064358704 0.088317044 -0.01880314 0.059405986 -0.060150713 -0.0073518367 0.101091884
0.013966326 -0.06215113 0.006248247 -0.005315155 0.10287495 0.07641379 -0.029442705 0.001326887
0.0032237228 2.4268955e-05 0.0164672 0.07305258 0.15293863 -0.029883511 0.007981862 -0.044832494
0.05591518 0.034787644 0.05829754 0.014851573 0.0027609747 0.11010585 -0.06431302 -0.014124467
0.06075773 -0.045164336 0.024909275 0.030269843 0.08357886 0.03532513 -0.010309098 0.15902206
0.009161475 -0.015442577 0.11239813 0.015046815 -0.029771216 0.030715404 -0.02110247 -0.038277272
0.064011045 0.030027602 -0.016571831 0.075406305 0.116136685 -0.004725687 0.11573475 -0.06628584
0.04228829 0.0971403 0.08417362 -0.05135023 -0.03204119 -0.0684673 -0.060059607 0.06278783
0.07981859 0.011054329 0.013571606 -0.05948747 0.03315497 -0.0036961595 -0.0023988432 0.022767382
00000000: 24c5 d73c 67b1 75bd 7d81 06ba e087 b5bd
00000010: 7c5d cdbd 330d 33bd 20c9 803d 498d 113d
00000020: 091e b6bc 9718 923d 1f0c c53d 97b6 92bd
00000030: 5ffa c93a 97ab bc3c 505b 35bb 5c01 53bd
00000040: 2c3c d2bd 2824 8c3c bd23 283d d4c9 603c
00000050: b5b7 b0bd 08ee 2b3d 3295 9d3c 57cc e93c
00000060: a7e1 8a3d 8c0b 89bd 1f5e f9bd 45ec 2d3d
00000070: b916 9fbd 61fd c33d 41b2 05bd 8e7d 4bbd
00000080: 91d7 fd3c 8633 453d 3953 133d 6daa 93bb
00000090: dade d63b 7f45 02bd 654c 2bbd 9fd2 ebbd
000000a0: a207 08bd 3c58 f53d d3e7 08bd 54da 6e3d
000000b0: 2ab1 953d f1ad a9bd b437 77bd 29ea 3b3d
000000c0: 28c1 ac3c ff7f 87bd 01f8 84bd f7ec a4bd
000000d0: 83c6 623d c290 b6bd f8cf d9bc 65b8 0fbc
000000e0: 30aa b83d fac3 e2bc d992 8bbc 0770 4fbd
000000f0: 0d84 533c e273 69bc 2b50 2bbc 3b48 8fbc
00000100: bd72 873c addb 963c 09a7 b0bd 8073 7c3d
00000110: 7836 3f3d a529 56bd 790a 51bc 38a8 3a3d
00000120: 5d9b 68bc 62d4 e6ba c9a7 51bd a1e7 03bd
00000130: 4309 c63c f5be 81bd f7fa a13d d1db c53d
00000140: 36d4 8abd 910b 6b3d faa0 2b3c 63ab 2ebd
00000150: a025 80bd 81ea 503d e35e 0c3c c533 9b3c
00000160: afb5 00bd 8aa5 f5bc 79b6 8fba e338 d1bc
00000170: 50e9 163d 521f c7bd f047 d93c 120f a0bd
00000180: 58cf 653d 2edd 053c 4e7f 0cbd 8409 963d
00000190: a02f f1bc bd29 adbd c78b aabd c304 1abb
000001a0: bb38 c9bb 3c47 b2bc 2623 ea3d b277 8cbc
000001b0: e8c7 12bd 6da0 c7bd 656b 503c 3c12 1bbc
000001c0: 50b2 06bd 1df9 393c 6afb 4cbc 5690 813c
000001d0: b996 853d f11e deb9 2cac 55bc bb9d 063d
000001e0: bf23 3b3c 7608 1c3d 56b3 9ebd 56ce aabb
000001f0: db44 b4bd d150 b9bd 0626 a6bc 96c9 b7bd
00000200: 80d0 d5bc 6e3a e2bc 55de 883d 4549 babc
00000210: 096d 0d3d 55f8 8bbc bd0d b63c 8aaf 0b3e
00000220: c13b 9c3d 2f32 883d b52e 9c3d 1b20 47bb
00000230: 7faf 793d 38ae 57bd e25d b13d 7c42 b23d
00000240: f239 a23d 045d 98bc 7da1 75bd 044e 773d
00000250: 8253 833d cc81 053d e895 293d 876a 1fbd
00000260: 012d dc3c 1de1 aa3c 37c7 83bb 46a6 d53d
00000270: c5bb dabc e46a 0dbc d794 b63d 2b1a bc3d
00000280: a064 acbb b7f1 9abd 6dee 48bd efba bb3d
00000290: f77d d43d 96e0 553d f1b8 9f3d 1ea9 123d
000002a0: 4171 e83c 60d9 4cbc ce5d ca3d b4dd ba3d
000002b0: 0a70 043d 1815 9fbd 15e3 ce3d 0e59 b93d
000002c0: 6454 c13d 4fe0 65bc 35ec 533b 2f05 133e
000002d0: 0263 273b 6e82 7b3b 21d9 943d 8d41 7bbc
000002e0: c25c 843d 7fce 833d 91df b43d 0b09 9abc
000002f0: b153 733d 9860 76bd ade7 f0bb 4309 cf3d
00000300: 04d3 643c 2f92 7ebd 18be cc3b c02a aebb
00000310: 1ab0 d23d d57e 9c3d d431 f1bc f1ea ad3a
00000320: 1845 533b 2f95 cb37 39e6 863c 979c 953d
00000330: f29b 1c3e 44ce f4bc 5bc6 023c 47a2 37bd
00000340: 5107 653d 7d7d 0e3d 67c9 6e3d 0354 733c
00000350: 78f1 343b 2d7f e13d 8bb6 83bd 4f6a 67bc
00000360: 19dd 783d 3dfe 38bd 890e cc3c 76f8 f73c
00000370: 652b ab3d 15b1 103d 7ee7 28bc aed6 223e
00000380: 031a 163c dd02 7dbc fe30 e63d eb86 763c
00000390: c4e2 f3bc df9e fb3c 16df acbc a1c8 1cbd
000003a0: 3918 833d 72fc f53c a6c1 87bc 9f6e 9a3d
000003b0: 12d9 ed3d f0d9 9abb 5706 ed3d dfc0 87bd
000003c0: 7c36 2d3d 7ef1 c63d 3863 ac3d 9e54 52bd
000003d0: 9f3d 03bd 9538 8cbd 1001 76bd e896 803d
000003e0: ee77 a33d 371d 353c 715b 5e3c 22a9 73bd
000003f0: 81cd 073d 443b 72bb e935 1dbb a982 ba3c

rnn.bias_hh_l0 f4 [384]
-0.020506285 -0.07063158 0.06063606 0.04007578 0.03157526 0.0042711874 0.056806102 -0.02223037
0.09679296 0.027739532 0.02354398 -0.004574254 -0.0417764 0.04194352 -0.0042757494 -0.018369505
-0.01010176 0.032747872 0.00284492 -0.10346803 -0.09136102 -0.05930584 0.009039683 -0.06861924
-0.021634385 -0.07524659 -0.12849574 0.08126568 -0.16307381 -0.053081322 -0.020436166 -0.082697034
0.03997384 -0.031054014 -0.07351155 -0.037609607 -0.043467738 0.03644045 0.07213288 -0.08824896
-0.07319646 0.0033910691 0.004114822 -0.0020948055 0.025796501 -0.05641241 -0.053026292 -0.07390515
0.04458375 0.073087856 -0.14537393 -0.013358994 0.14221911 -0.12023273 -0.0031821062 -0.036237296
0.046920177 -0.011235938 0.040153578 -0.004239115 0.0092334 -0.13253996 -0.031984493 0.003429601
0.01667588 0.030062163 -0.05397738 0.048085235 -0.082633056 -0.090908855 -0.07934507 0.041239265
0.09033157 0.033303715 -0.10583442 -0.05466461 0.018639121 0.021266421 0.12732606 0.008591398
0.038191557 0.062139604 0.07376243 -0.12877665 0.022061931 0.0143820215 -0.07960543 -0.014637257
0.0052721025 0.009895897 0.0034067926 -0.07775739 -0.028536402 -0.06470267 -0.051050443 -0.09031316
0.08053551 -0.031442042 0.011548175 -0.04108308 -0.078647755 -0.04159538 -0.044333696 0.019555885
-0.088680685 -0.069982536 -0.052499603 -0.0870367 -0.018031277 -0.053894192 -0.07782436 -0.018316235
-0.045541864 0.015831158 -0.0012740804 -0.07096395 0.120947085 0.050044406 0.052754745 0.024655025
-0.09415071 -0.027090205 -0.04147232 -0.046089556 0.03260165 -0.035750594 -0.037266616 -0.019665299
-0.031538475 0.07071893 -0.025107268 0.05855953 0.004678532 0.020700336 0.012681081 0.014490611
0.07553054 -0.047019973 0.09365168 0.10110761 -0.08128373 0.05794048 0.08962532 0.03017609
0.05255763 0.09481544 0.07880722 0.005387197 -0.00705327 -0.014673917 -0.03161672 0.03618777
-0.056414537 0.09383186 0.106880516 0.07298977 -0.0057749683 -0.04893279 0.03513849 -0.022831842
0.100159615 -0.013528856 -0.011850872 0.09195834 0.000412682 -0.025657617 0.098791145 0.07165446
-0.06999746 0.027245121 -0.007670259 -0.013016085 0.028898532 -0.042104915 -0.061454 -0.068963766
0.09868205 0.014275806 0.036836073 0.09229238 0.051026396 0.10850582 -0.028318485 0.09794543
0.037733816 -0.045555215 0.03170976 0.0560339 0.028634517 0.016133497 0.11571517 -0.018143807
-0.0074018403 0.039659854 -0.029279495 -0.019472968 0.028985431 0.0022391898 0.06863144 -0.026538298
0.09147058 0.10087988 0.0018872942 0.077876166 0.046023227 0.032831196 -0.06395991 0.07788142
0.020402575 0.05481604 -0.04308272 0.08586209 0.14602964 0.038436588 0.064616464 -0.00036759535
0.044307962 0.056724384 0.022959845 0.082182966 -0.011588794 0.07997583 0.115358524 0.16931748
0.045826375 -0.0031061112 0.08719535 0.028545557 0.045542408 0.002216118 -0.05984569 0.07034855
-0.025774846 0.004598892 -0.057772476 0.03084974 0.10195864 0.061756615 0.015601699 -0.067138165
0.13484477 0.013687553 0.07806648 0.03271902 0.07572539 0.015739072 -0.044696633 0.11878358
0.069291376 0.10034431 0.11289622 0.06723794 0.0047352887 0.010773174 -0.0029850472 -0.017250182
00000000: ccfc a7bc 4aa7 90bd 845d 783d 8026 243d
00000010: 0f55 013d 51f5 8b3b 84ad 683d 771c b6bc
00000020: 633b c63d 043e e33c 4edf c03c a0e3 95bb
00000030: bb1d 2bbd f8cc 2b3d 961b 8cbb a57b 96bc
00000040: da81 25bc a222 063d d671 3a3b 0ce7 d3bd
00000050: 7d1b bbbd aeea 72bd 2e1b 143c 3e88 8cbd
00000060: 983a b1bc e21a 9abd 6394 03be 9f6e a63d
00000070: d2fc 26be cd6b 59bd bf69 a7bc 105d a9bd
00000080: 9cbb 233d fd64 febc 398d 96bd 880c 1abd
00000090: 3a0b 32bd 9542 153d 67ba 933d dfbb b4bd
000000a0: 07e8 95bd b33c 5e3b a1d5 863b 0149 09bb
000000b0: 2f53 d33c b310 67bd 1932 59bd 955b 97bd
000000c0: 739d 363d 16af 953d e7dc 14be afdf 5abc
000000d0: e3a1 113e 943c f6bd e28a 50bb 8f6d 14bd
000000e0: 5f2f 403d f116 38bc 1478 243d 46e8 8abb
000000f0: b047 173c 8eb8 07be 2c02 03bd 28c3 603b
00000100: db9b 883c ed44 f63c 6317 5dbd 06f5 443d
00000110: 853b a9bd 6c2e babd ab7f a2bd 81ea 283d
00000120: c2ff b83d 7a69 083d b7bf d8bd 00e8 5fbd
00000130: 12b1 983c eb36 ae3c c361 023e efc2 0c3c
00000140: c06e 1c3d 1986 7e3d c210 973d 07de 03be
00000150: 39bb b43c 92a2 6b3c 2c08 a3bd 1bd1 6fbc
00000160: 9ac1 ac3b 6622 223c 7f44 5f3b 443f 9fbd
00000170: 2cc5 e9bc d582 84bd 451a 51bd 1bf6 b8bd
00000180: cdef a43d 5fc9 00bd 8e34 3d3c bb46 28bd
00000190: 1312 a1bd eb5f 2abd 4097 35bd aa33 a03c
000001a0: 389e b5bd 0153 8fbd d309 57bd 4c40 b2bd
000001b0: 54b6 93bc 28c0 5cbd 6162 9fbd ee0b 96bc
000001c0: 1b8a 3abd 58b0 813c 0bff a6ba 8c55 91bd
000001d0: 1bb3 f73d 5dfb 4c3d 5c15 583d 56f9 c93c
000001e0: 16d2 c0bd 47ec ddbc e1de 29bd 67c8 3cbd
000001f0: 4f89 053d 376f 12bd e1a4 18bd 1f19 a1bc
00000200: 7d2e 01bd 16d5 903d c2ad cdbc 1edc 6f3d
00000210: 5f4e 993b c093 a93c 4fc4 4f3c 076a 6d3c
00000220: c1af 9a3d 0498 40bd 74cc bf3d 8211 cf3d
00000230: 1678 a6bd ff52 6d3d 7b8d b73d d933 f73c
00000240: ab46 573d 992e c23d ae65 a13d 1587 b03b
00000250: 1e1f e7bb de6a 70bc 8980 01bd a139 143d
00000260: ee12 67bd eb2a c03d 2ce4 da3d a97b 953d
00000270: f23b bdbb c06d 48bd 61ed 0f3d d809 bbbc
00000280: 7c20 cd3d 23a8 5dbc 292a 42bc a754 bc3d
00000290: 3e5d d839 ec2f d2bc 0353 ca3d 93bf 923d
000002a0: d45a 8fbd 2931 df3c cc56 fbbb 6b41 55bc
000002b0: 9dbc ec3c 3476 2cbd 31b7 7bbd e03c 8dbd
000002c0: d119 ca3d 12e5 693c 6ce1 163d ca03 bd3d
000002d0: 0e01 513d 4d38 de3d 2bfc e7bc 9d97 c83d
000002e0: c68e 1a3d 1b98 3abd 18e2 013d cd83 653d
000002f0: ef92 ea3c 652a 843c 13fc ec3d 52a2 94bc
00000300: 238b f2bb 5f72 223d 8ddb efbc c685 9fbc
00000310: db72 ed3c 5fbf 123b a48e 8c3d d866 d9bc
00000320: ed54 bb3d 1c9a ce3d 165f f73a 8a7d 9f3d
00000330: da82 3c3d 017a 063d 6afd 82bd 4b80 9f3d
00000340: 4d23 a73c c986 603d 8277 30bd 77d8 af3d
00000350: cb88 153e af6f 1d3d a355 843d d0b9 c0b9
00000360: 447c 353d d457 683d 4916 bc3c 8b4f a83d
00000370: edde 3dbc 5eca a33d 1741 ec3d 9061 2d3e
00000380: 70b4 3b3d e68f 4bbb 7a93 b23d 5fd8 e93c
00000390: ad8a 3a3d 4a3c 113b c120 75bd e712 903d
000003a0: c525 d3bc 4db2 963b d5a2 6cbd 98b8 fc3c
000003b0: b1cf d03d 81f4 7c3d 459e 7f3c bc7f 89bd
000003c0: bf14 0a3e c241 603c 52e1 9f3d 6104 063d
000003d0: ea15 9b3d 3aef 803c d113 37bd ce44 f33d
000003e0: a3e8 8d3d 5181 cd3d 2236 e73d 0cb4 893d
000003f0: 7b2a 9b3b f881 303c c8a0 43bb 4150 8dbc

predict.1.weight f4 [24, 128]
-0.023694187 -0.055786934 -0.0028725108 -0.016109724 -0.037385773 -0.026606457 -0.08437956 0.07102502
-0.08916928 0.059375443 0.0771284 0.014486679 -0.023788225 -0.03146237 -0.071901165 -0.07558471
-0.016193723 0.049489133 0.0497837 0.019574568 0.09747552 0.07265942 -0.07340518 -0.06742827
0.076166555 -0.008297118 -0.029956507 -0.036799397 -0.012308647 0.06786952 0.052451763 0.06484277
0.053998634 0.0605424 -0.07252983 0.023712201 0.09496855 0.012836856 -0.011767643 -0.09624493
-0.09304839 -0.009206145 -0.0059823296 -0.0500449 -0.044696134 -0.029715853 0.04126477 -0.008535991
-0.05774178 0.04268101 -0.09069851 -0.07036983 -0.050724585 -0.047355875 0.007942933 0.03560307
-0.1172367 0.020609874 0.0322962 0.031021167 0.07182481 0.06816494 -0.05689333 -0.028886775
0.0041653966 0.0058246134 0.041995995 0.016967744 0.079165794 -0.04181441 -0.0008366624 0.042219825
-0.05342598 -0.0780472 -0.031303782 0.06542606 0.024171421 -0.056336097 -0.03158243 -0.06416132
0.02256381 0.024007738 0.029029774 0.007970502 -0.016933031 0.09302742 0.0397248 -0.0053570024
-0.04610482 0.065629534 0.06272556 -0.012741839 0.06329684 -0.08951106 -0.029383263 -0.0069034
0.13035458 0.04897325 0.004267978 0.066365145 -0.011805546 0.05186568 -0.03134803 -0.057262108
-0.056357063 0.027153756 -0.022078075 -0.0024252352 -0.13372718 -0.07054666 0.0066180183 0.057864655
-0.025648985 0.016912824 -0.07572777 -0.034267567 0.028773393 -0.042074144 -0.033184785 0.027523188
0.01574912 0.09049416 0.02545492 0.024961194 0.039062336 -0.05553433 -0.03726959 0.09478445
0.08666075 0.00718235 0.014503686 -0.05935733 0.0065529407 0.11018828 0.033233516 0.0471754
0.07742726 -0.05917772 0.027578779 -0.0721237 -0.066898875 0.07139641 0.07372234 -0.06188096
-0.052674815 0.039624203 -0.04677405 0.03336418 -0.0074559776 -0.08243806 0.050895125 0.07733854
-0.049356975 -0.018205281 0.09880083 0.05079483 -0.06133126 -0.07867326 0.070108145 -0.034474786
-0.02203706 0.068598114 0.03938436 -0.09379449 -0.07292328 0.07084087 -0.04627783 -0.0638559
0.06574399 0.038868714 0.0057275607 0.0064585423 0.0038255241 -0.08376859 0.022006461 -0.042670015
0.0071997778 0.08069754 0.054027293 0.064485095 0.048946273 0.024287969 0.09050914 0.07331018
-0.017798182 -0.009161964 0.059236806 -0.0021325594 0.08952949 0.03086845 0.013257385 -0.05542828
0.065748565 0.02278472 0.023709837 -0.021331066 -0.015207997 -0.0020343172 0.0775852 0.05737758
-0.0102869775 -0.031303372 0.06775105 0.0015982937 -0.052831855 0.032336943 0.043698676 0.020335091
-0.053128164 -0.05726018 -0.07748722 -0.053689852 0.09019708 -0.01790307 0.10325786 0.067223325
-0.07774006 0.0059845843 0.054896902 -0.0711214 0.07186579 -0.048671406 -0.10463604 0.10270466
-0.02182791 0.11974193 0.02470202 -0.06665695 -0.00023688204 0.0027819178 -0.067192525 -0.041317493
0.012266702 -0.017287081 0.0047090948 -0.046001613 0.038246002 -0.010462115 0.030702263 -0.05994464
-0.037628468 0.008049014 0.07767522 0.008906992 -0.10531874 0.049334552 -0.050184455 0.036707725
0.057286456 0.015681677 0.01795222 -0.060431924 -0.0031450957 0.003969426 -0.08438399 -0.025594182
00000000: 501a c2bc d780 64bd bc40 3cbb 8af8 83bc
00000010: d321 19bd c9f5 d9bc 31cf acbd 9175 913d
00000020: 629e b6bd aa33 733d 7ff5 9d3d 8959 6d3c
00000030: 86df c2bc b0de 00bd eb40 93bd 28cc 9abd
00000040: b3a8 84bc 1eb5 4a3d fee9 4b3d d85a a03c
00000050: 3fa1 c73d 76ce 943d 7455 96bd d517 8abd
00000060: 36fd 9b3d a3f0 07bc 5967 f5bc f7ba 16bd
00000070: 35aa 49bc 2dff 8a3d a9d7 563d 49cc 843d
00000080: ac2d 5d3d 4ffb 773d 858a 94bd 1740 c23c
00000090: df7e c23d ad51 523c 12cd 40bc 101c c5bd
000000a0: 2790 bebd 5fd5 16bc 6b07 c4bb e2fb 4cbd
000000b0: 4b13 37bd a96e f3bc 3f05 293d 8bda 0bbc
000000c0: a582 6cbd 48d2 2e3d 24c0 b9bd 0f1e 90bd
000000d0: 95c4 4fbd 3cf8 41bd 1323 023c 86d4 113d
000000e0: cc19 f0bd 0ad6 a83c 0549 043d 1a20 fe3c
000000f0: e318 933d 0f9a 8b3d fb08 69bd f5a3 ecbc
00000100: e17d 883b 66dc be3b fe03 2c3d f0ff 8a3c
00000110: ad21 a23d 9645 2bbd 7753 5bba b2ee 2c3d
00000120: 33d5 5abd 36d7 9fbd 6538 00bd 19fe 853d
00000130: 2503 c63c aec0 66bd 945c 01bd 0367 83bd
00000140: bdd7 b83c e0ab c43c d9cf ed3c b596 023c
00000150: 24b7 8abc 2985 be3d 79b6 223d cb89 afbb
00000160: 68d8 3cbd c768 863d 4276 803d 25c3 50bc
00000170: c6a1 813d 9351 b7bd 2bb5 f0bc eb35 e2bb
00000180: ac7b 053e 2d98 483d 65da 8b3b 73ea 873d
00000190: 0c6c 41bc 1b71 543d cb66 00bd ac8b 6abd
000001a0: aad6 66bd 8e71 de3c 14dd b4bc b2f0 1ebb
000001b0: c7ef 08be c47a 90bd f6db d83b 7d03 6d3d
000001c0: d21d d2bc c38c 8a3c 2917 9bbd 265c 0cbd
000001d0: 2eb6 eb3c f055 2cbd c5ec 07bd 4f78 e13c
000001e0: 4c04 813c 0155 b93d d686 d03c 6b7b cc3c
000001f0: d4ff 1f3d f777 63bd ffa7 18bd 5a1e c23d
00000200: 317b b13d eb59 eb3b dea0 6d3c ac20 73bd
00000210: 0dba d63b 65aa e13d de1f 083d fe3a 413d
00000220: 2f92 9e3d 5664 72bd e4ec e13c 97b5 93bd
00000230: 4702 89bd 4838 923d bdfb 963d e476 7dbd
00000240: 8cc1 57bd fd4c 223d 2596 3fbd e1a8 083d
00000250: 4651 f4bb 49d5 a8bd 6877 503d ab63 9e3d
00000260: 8a2a 4abd 3e23 95bc 1758 ca3d 3d0e 503d
00000270: 7d36 7bbd 721f a1bd dc94 8f3d 6f35 0dbd
00000280: 1087 b4bc 2b7d 8c3d 7f51 213d 5317 c0bd
00000290: cd58 95bd 0515 913d d28d 3dbd e2c6 82bd
000002a0: c9a4 863d cd34 1f3d 43ae bb3b 2ea2 d33b
000002b0: a5b5 7a3b de8e abbd e546 b43c c1c6 2ebd
000002c0: 1dec eb3b c044 a53d b94b 5d3d c310 843d
000002d0: e37b 483d 90f7 c63c db5c b93d a623 963d
000002e0: 7ecd 91bc 101c 16bc 4ba2 723d 69c2 0bbb
000002f0: 3d5b b73d d5df fc3c 8135 593c c408 63bd
00000300: 2fa7 863d 05a7 ba3c 223b c23c 7dbe aebc
00000310: f62a 79bc 2e52 05bb fde4 9e3d c104 6b3d
00000320: b68a 28bc f737 00bd 10c1 8a3d d67d d13a
00000330: 3766 58bd be73 043d 62fd 323d c795 a63c
00000340: eb9c 59bd a789 6abd 9fb1 9ebd e4e9 5bbd
00000350: 3fb9 b83d 76a9 92bc db78 d33d 62ac 893d
00000360: 2e36 9fbd 551a c43b 93db 603d 19a8 91bd
00000370: 5f2e 933d ab5b 47bd 6c4b d6bd d256 d23d
00000380: 72d0 b2bc 423b f53d e45b ca3c 7083 88bd
00000390: 8a63 78b9 d650 363b 3c9c 89bd 883c 29bd
000003a0: 47fa 483c a39d 8dbc c04e 9a3b 306c 3cbd
000003b0: d7a7 1c3d 4a69 2bbc 5083 fb3c 8388 75bd
000003c0: 4f20 1abd 03e0 033c 3014 9f3d a2ee 113c
000003d0: 5ab1 d7bd 0713 4a3d 378e 4dbd d75a 163d
000003e0: 34a5 6a3d dc76 803c 8910 933c 7787 77bd
000003f0: f31d 4ebb f511 823b 83d1 acbd e4aa d1bc
