results/traffic_SegRNN/3/checkpoint.pth (torch, 425317 bytes, 10 tensors)

pos_emb f4 [1, 64]
00000000: 6671 1e3f 453b a33f e3d4 95bf 5cc9 1b3e
00000010: e24c 833e 15d0 99bf 261e 5ebf 3745 0f3e
00000020: b3e2 53be 047f 0a3f 4f86 3c3f 2125 15bf
00000030: 221c 373f 3a43 f3bf 3db4 74bc ff7d 8ebf
00000040: 6457 633f a915 4f3f 5be2 a63d cc78 e23f
00000050: 2de5 883f 243f 963e 57c9 13bf 62e5 51bf
00000060: db02 60bf e57e 643f 3c2e 1abf 3da7 543f
00000070: 78ee cc3e ffe3 10bf 5bbb 03bf e400 e23f
00000080: 43a4 ad3f 83f8 afbe 8ff2 ae3d da9d 923e
00000090: 7b58 47bd 1711 c43f bd13 ed3e 0652 a6bf
000000a0: 6723 4b3e 44d6 6e3f ef11 3c3f 9577 a0bf
000000b0: 3ddf debf 0a16 ff3e cffb 5abf 87b2 c53f
000000c0: 03ff d1bd 5317 53bf f78a 62be fd7a a2bd
000000d0: 42d2 d3be dbd0 d3bf 1afc 043e 6f9b 8abf
000000e0: a99e 983f fd30 90be 8cf0 cfbf 0270 a83f
000000f0: 3fc4 383f 6ae6 6fbe 4ba0 863e 4bae f4bd
0.6189178 1.2752463 -1.1705593 0.15213531 0.25644594 -1.2016627 -0.8676475 0.13991247
-0.20691948 0.5410006 0.7364244 -0.5825978 0.715273 -1.9004891 -0.01493555 -1.1132201
0.8880522 0.80892426 0.08148643 1.7693114 1.0694939 0.29345047 -0.57729095 -0.81990635
-0.8750436 0.89256126 -0.602268 0.83067685 0.40025687 -0.56597894 -0.51457757 1.7656522
1.3565754 -0.34369287 0.08542358 0.28636056 -0.048668366 1.5317715 0.46304122 -1.2993782
0.19837724 0.93295693 0.73464864 -1.2536494 -1.7411877 0.49821502 -0.8554048 1.5445107
-0.10253718 -0.82457465 -0.22123323 -0.079336144 -0.4137135 -1.6548113 0.12986794 -1.0828685
1.1923419 -0.28162375 -1.6245284 1.3159182 0.7217445 -0.2342774 0.2629417 -0.11947306

channel_emb f4 [1, 64]
00000000: df6d ad3f f76b e13f f08e 5d3e 70a7 073f
00000010: 694f 393e 8e14 4d3f 7aea 7ebf 9c2a 203f
00000020: 3f54 43be 77a8 203f d10f 263f 8dd9 b9be
00000030: 88e6 99be 30d2 4abf 0375 a6be 13b5 26bf
00000040: dd9a a5bf 14b3 b83f e026 8d3f 96a8 7fbe
00000050: 127f 9bbf 2568 c3be 7c47 0c40 b310 923f
00000060: 51d1 8dbe 43e3 d33d 737c 933e 0d14 9bbf
00000070: 9e3c 16bf a421 87bc ceef 153d 294b f83e
00000080: 61f3 76bf 03cb 74bf ec15 b23e 4c02 edbd
00000090: 2d6c 32bc 6313 0fbf 7167 e3bd 4976 ac3e
000000a0: 8e73 dcbe 7fa1 3f3d 7344 6b3f ae1e a0bf
000000b0: d5eb 8abf f4c3 91bf 2f6a 0f40 c153 7f3f
000000c0: a4bb 873f cf85 46bc 77b2 af3f e758 aebe
000000d0: d361 c13e a287 453f 8c82 de3e 61d7 90bf
000000e0: f58d 423e eb2c 5bbc 0219 1dbf b12b adbf
000000f0: 6cf9 87be 33e2 2dbf 1558 e5be 1503 37bd
1.3549155 1.7611073 0.21636558 0.52989864 0.18096699 0.8010949 -0.9957653 0.62565017
-0.19075106 0.62757057 0.64867884 -0.3629879 -0.30058694 -0.7922697 -0.32511148 -0.6512005
-1.2937886 1.442965 1.1027489 -0.24966654 -1.2148154 -0.38165393 2.191863 1.1411346
-0.27698758 0.10346081 0.28805885 -1.2115494 -0.58686244 -0.016495533 0.03660565 0.48494843
-0.96465117 -0.9562227 0.3478235 -0.11572704 -0.010890049 -0.55888957 -0.11103714 0.33683994
-0.4305691 0.046784874 0.9190132 -1.2509363 -1.085322 -1.1387925 2.240856 0.99737173
1.0604138 -0.012116863 1.3726338 -0.34052202 0.37769946 0.77160084 0.43458974 -1.1315728
0.18999465 -0.0133774085 -0.61366284 -1.3528959 -0.2655748 -0.6792328 -0.44793764 -0.044680674

valueEmbedding.0.weight f4 [128, 24]
00000000: 4b16 c73d 160c 1a3d 69dd e4bd 286d 04bd
00000010: f2ff 8abd 293b bb3d 241b 653e badc c03c
00000020: 6af9 cabd 24ad 31be 7d13 d83d ceb3 263c
00000030: 7eb4 fdbc d0d9 b73d 96e5 0abe a2f1 1a3e
00000040: e1fe 16be 528f 103e 1b5c 293e 0741 12ba
00000050: 9b42 58be 695b 56be a8e9 fdbb ab6a 843d
00000060: 291f 95bd 137e 2a3e 195b 4c3e 0448 7d3b
00000070: 7e45 9f3d 2e1a d1bd 1ec2 81ba 19a3 dfbd
00000080: ff06 e33d 4344 5bbe 8286 0fbe 302d 733c
00000090: 5f16 3abe a65d 883d 17d0 ecbd 0544 a1bd
000000a0: fe71 d83d aec1 4a3d 6533 a6bc 038b bbba
000000b0: 6ad3 24be b911 c7bd e851 7a3d 91bd 2dbe
000000c0: 9f92 a73d ebba e23d 6e29 413e d92e 5f3e
000000d0: c851 15bb 0653 cd3c 75e9 fcbd c4cb 9c3d
000000e0: 3b1b 79bd 2133 a53d be5d acbd 7f84 ea3d
000000f0: f9e1 263e a799 cf3d a43d 46bd fa5c 453d
00000100: 4349 febd 8ebf 4bbe a754 d7bd cf2b 47be
00000110: ac4e 753e dd6d 8d3e f0e0 833e 2ac7 92bc
00000120: 464c 003e c02d 293b d2f5 22be 3817 09be
00000130: 9ed0 cb3d 31c4 293c b868 f6bd 2fba 5dbe
00000140: c804 74bd abb3 09be 30d7 413e 4b3d 413e
00000150: 5b3c a8bd 0cc5 ae39 795d 2d3d 4946 083e
00000160: 7cae 0fbe a27b 453e 3241 ae3d 7dfb fa3c
00000170: 0120 a4bc 835f 553e 1460 c73d a74d 393b
00000180: cc5f 2ebe 61d5 88bc 3221 52be b614 3c3e
00000190: af3c e03a 0346 b73d 4084 3f3e 758f dabd
000001a0: 2369 0f3e 7594 2cbc bebf 733c b015 293e
000001b0: 62e3 20be 0c87 58be cd31 893d 338c 8ebd
000001c0: 4860 023e dfe2 0fbe 12d6 93bd 18c4 febd
000001d0: d7ad 6abc 20c8 84bd 352f 7fbe 2c3a debd
000001e0: 8471 81be 1365 38be a5ae b73c 3a6c 15be
000001f0: 47c7 93bd 1310 363e 9bcb 4b3e 8fbb b13d
00000200: 44f1 413e 947d 393e 0720 07be 7d80 dfbd
00000210: 8f25 7b3c 8d42 46be 5a71 89bc 1afe 073e
00000220: 0887 943c a67b 5abe b5a8 24be 4a31 ddbd
00000230: c156 e0bd d85b 71bd c5e6 9bbe 8db7 fabd
00000240: adf1 d2ba 5af3 183e 7c4d b3bd e82d abbd
00000250: d46f 093b 0091 a7bd dd2b b6bd 36aa 4ebe
00000260: fa93 263e b827 1e3e 378c 80bd 1edc 243e
00000270: a84b b83a 70a9 5cbc 4fa3 f1bd 4f91 0d3d
00000280: 7cf6 18be 1c11 34be 1470 15be 7608 01be
00000290: 9761 e8bd 3b01 b73d 5533 1abe 5380 bb3d
000002a0: a313 3ebe a697 75be 361c bebd e6fb 41be
000002b0: bc29 1a3d 2fbd a5bd 1745 653d f143 2cbd
000002c0: 6fb3 38be d82c 0abe f0b8 1f3e e46d 3e3e
000002d0: 7862 11bd 8d84 bf3d fd39 13bd 4435 0cbe
000002e0: d0c6 47bd facc 6cbe e9e0 d3bd b458 5fbd
000002f0: 7ecd 8ebe e8a2 71be 5ae6 dbbd 57c5 05bd
00000300: 2160 6f3e 97e6 563d f036 23bd 4292 20be
00000310: 6f09 12bd 58ac 1b3e 5525 393e a41e 37bd
00000320: b2e3 773d b656 cd3c 6efe 7c3b 82d3 d23c
00000330: 14e1 913d fa21 48bd f386 ba3d b6b5 b8bd
00000340: 8872 5ebe adcd 20be 9eab a73d 1682 d2bd
00000350: d950 71be 47d6 4bbe 13d4 d03b c02f b43d
00000360: 4d92 6abd a600 b3bd 7e6e 35be 5cab 49be
00000370: 58da 07be 3e14 30be 8265 b93d 298e 4cbe
00000380: 9267 e03d cf68 d0bc f164 3e3e affd 1e3e
00000390: 5645 c53d f24d 13be cca0 f53d 74a1 723d
000003a0: 6361 21bc 9071 27be b78b 513d e2e4 12be
000003b0: 07e2 213e 5187 b9bd 837a f53d dfc8 43be
000003c0: 08b8 0cbe 79d8 c53d 906f 2ebc f802 9a3c
000003d0: de84 e7bd 99f4 6d3d 32ec 0fbd 5075 ef3d
000003e0: 45d0 4b3e f9ca cdbc 6aeb 5cbd cf42 01bd
000003f0: e0af ce3d 859c 08be 58cb 403e da1c 953d
0.09721049 0.037609182 -0.11175043 -0.032330662 -0.06787099 0.09142143 0.22373635 0.02354275
-0.09910853 -0.17351204 0.10550592 0.010174705 -0.030969854 0.08977091 -0.13564143 0.15131238
-0.14745666 0.14117172 0.16539042 -0.0005579148 -0.21119158 -0.20933308 -0.0077488013 0.06465658
-0.07281334 0.16649656 0.19956626 0.003864766 0.077769265 -0.102100715 -0.000989977 -0.1091978
0.11085319 -0.21412759 -0.14016154 0.0148423165 -0.18172596 0.06658487 -0.115631275 -0.07874302
0.10568617 0.049501114 -0.020288179 -0.0014308396 -0.16096273 -0.09720177 0.061113268 -0.16966845
0.08182263 0.11070808 0.1886346 0.21795215 -0.002278434 0.025064003 -0.12349216 0.07656053
-0.060816985 0.08066393 -0.084163174 0.11451053 0.16297139 0.10136729 -0.04839863 0.048184372
-0.12416317 -0.19897291 -0.10514193 -0.19450305 0.23955792 0.27622882 0.2575755 -0.017917234
0.12529096 0.0025814623 -0.15914086 -0.13387764 0.099519 0.010361717 -0.12031692 -0.21653055
-0.059574872 -0.13447444 0.18929744 0.18871038 -0.08214637 0.00033334678 0.04232547 0.13308062
-0.14031404 0.19285443 0.08508529 0.030637497 -0.020034792 0.20837216 0.09735122 0.0028275044
-0.17028731 -0.01670331 -0.20520476 0.18367276 0.0017107929 0.089489006 0.18702793 -0.106718935
0.1400495 -0.010533442 0.014877258 0.1651218 -0.1571174 -0.21145266 0.06698952 -0.06960335
0.12732041 -0.14051388 -0.07218565 -0.12439746 -0.014323673 -0.06483483 -0.24920352 -0.10850939
-0.25281918 -0.18007307 0.022422144 -0.14592066 -0.072157435 0.1777957 0.19901888 0.08678352
0.18939692 0.1811431 -0.13195811 -0.10913179 0.015328779 -0.19361325 -0.016777683 0.13280526
0.018130794 -0.2133623 -0.16079982 -0.10800417 -0.10954047 -0.05892548 -0.304495 -0.12242041
-0.0016093754 0.14936581 -0.08755013 -0.08358365 0.0020971196 -0.081819534 -0.08895085 -0.20182118
0.16267386 0.15444839 -0.06276744 0.16099593 0.0014060633 -0.013468131 -0.11798727 0.034562405
-0.14937776 -0.17584652 -0.14593536 -0.12600884 -0.11346739 0.089357816 -0.15058644 0.09155335
-0.18562178 -0.2398363 -0.092827246 -0.18943748 0.037637457 -0.080927245 0.055974092 -0.04205698
-0.18037198 -0.13493669 0.15597892 0.18596607 -0.035494298 0.09351454 -0.035943974 -0.13692194
-0.048773587 -0.23125067 -0.103456326 -0.054527953 -0.27891153 -0.235973 -0.107372954 -0.0326589
0.23376514 0.052466 -0.039847314 -0.15680793 -0.035653528 0.15202463 0.18080647 -0.044706956
0.06051988 0.025065761 0.00386038 0.02573562 0.07123008 -0.048860528 0.09107771 -0.090190336
-0.21723378 -0.15703459 0.0818703 -0.10278718 -0.23565997 -0.19905959 0.0063729375 0.0879817
-0.05726843 -0.08740358 -0.1771793 -0.19694275 -0.13266885 -0.17195222 0.09052564 -0.19976105
0.109572545 -0.025440602 0.18593194 0.1552646 0.096323654 -0.14385203 0.1199356 0.059236005
-0.009849879 -0.16351914 0.051158633 -0.14345124 0.15808879 -0.09059013 0.11986258 -0.19119595
-0.13742077 0.096604295 -0.010646716 0.018800244 -0.11304639 0.058094595 -0.035137363 0.116922975
0.19903667 -0.025121199 -0.053935446 -0.031557854 0.10092139 -0.13340957 0.1882757 0.072808936

valueEmbedding.0.bias f4 [128]
00000000: ad9e 303e d092 01be 285d f93d 7d4a 703d
00000010: 84b7 0bbd ced6 fbbd 2ada c63d 0af5 3c3d
00000020: 9ded abbd 88c0 52be 6018 273d f331 d73c
00000030: 6213 993b eebb 3c3d 5748 d3bd 02a7 a63d
00000040: 720a 60be 8002 fb3d 5a9c f73d ff69 e0bc
00000050: f52c 24bd c9a7 ecbd eac7 b23c e49d 3dbe
00000060: 4911 d8bc d8a6 893c 00d3 0dbd 1cbe b1bd
00000070: 3221 37be 7894 3b3e 39ba 59bd 85a1 a7bd
00000080: 0d33 fc3b ecd4 aabd 9ce2 36bc 63d7 2b3d
00000090: f57b 163e be0e fcbd 9d71 5f3d b966 3dbe
000000a0: ed9c a7bd c8f1 8a3d b57b f5bd 086d fcbd
000000b0: 9282 fabd 13fe b53d 64e1 74bd 8a7f 63be
000000c0: b4a4 05be 5214 a43d 8fc6 4dbe 52cc 81bd
000000d0: 4de2 1f3e b375 923c 0363 e0bd 72eb e6bd
000000e0: 74ea 893c 78bf 87bc 4d47 65bc 8bd4 f3bb
000000f0: 7d32 a6bd fc3a c3bd 2d49 c23d b9fa 223d
00000100: 66f2 58be f49c 833d af19 3dbe 20d1 c9bd
00000110: 10c4 be3c 9c56 fabd 1ed5 053e 4a5b 30be
00000120: ff3b 3d3e f9fc 883c 129e 17be df97 bcbd
00000130: 2cc7 92bd 6da1 d43b 2b4f 42be 350b 843d
00000140: 6fc0 72bc 9833 d7bd 2608 94bd 1d30 a03c
00000150: 305e 55be 1948 5d3e ea52 f3bd a97e f23b
00000160: aa96 023e 6974 4bbe f9fc cfbd 9ed9 1bbe
00000170: a686 2cbd ae25 c4bd ff06 abbd 14a6 3bbe
00000180: 2fe2 673a 9aa7 0e3e b9dc 753e d3c8 3abe
00000190: 740e e63c 061d efbd b976 873e 8904 4dbe
000001a0: f6d1 06be 9bcb 28bd 7ab3 493d 2c9e b33d
000001b0: bc22 f33d 1337 9b3c 9114 3dbe 91f8 eebd
000001c0: 1820 c4bd 6942 683d 0c82 f93d 2eb1 e23d
000001d0: 8d33 543d 01aa 0f3e 42a4 243e 3187 083e
000001e0: 12b6 5cbe fa29 6ebd d9e8 83be 8fa2 273d
000001f0: 8b81 aebc 4e34 303e 3ed1 533c cb98 0bbd
0.1724803 -0.12653661 0.12175971 0.058664788 -0.03411056 -0.1229683 0.0970958 0.046132125
-0.083949305 -0.20581257 0.04079473 0.026268935 0.0046715 0.04607766 -0.10316532 0.08137323
-0.21878985 0.12256336 0.120903686 -0.027394293 -0.040081937 -0.1155544 0.021823842 -0.18517262
-0.02637543 0.01680319 -0.034625053 -0.086788386 -0.17883757 0.18318355 -0.05315611 -0.08185104
0.0076965154 -0.08341393 -0.011162426 0.041953456 0.14695723 -0.12307499 0.05455171 -0.18496217
-0.08184228 0.06784397 -0.11986486 -0.123254836 -0.122319356 0.088863514 -0.05978526 -0.22216621
-0.1305111 0.08011688 -0.20095275 -0.06337799 0.1561367 0.017878389 -0.10956385 -0.112753764
0.016835429 -0.016570792 -0.01399405 -0.0074411086 -0.081150986 -0.09532735 0.094866134 0.03978989
-0.21186218 0.06426421 -0.18466829 -0.098543406 0.02328685 -0.12223551 0.13069579 -0.17222324
0.18479918 0.01672219 -0.14806393 -0.092086546 -0.07166895 0.00648897 -0.18975513 0.0644745
-0.014816388 -0.105078876 -0.07228117 0.019554192 -0.20836711 0.21609534 -0.11881049 0.007400353
0.12752786 -0.19868626 -0.101556726 -0.15219733 -0.0421206 -0.09577499 -0.08350944 -0.18325073
0.00088456547 0.13931122 0.2400998 -0.18240671 0.028083064 -0.11675458 0.26457766 -0.20021261
-0.13166031 -0.0412098 0.049243428 0.08770403 0.118718594 0.01894716 -0.18464877 -0.11668504
-0.09576434 0.05670396 0.121830076 0.110689506 0.051806975 0.14029695 0.16078284 0.13332821
-0.2155383 -0.0581455 -0.25763586 0.040926512 -0.021302005 0.17207453 0.012928305 -0.03408126

rnn.weight_ih_l0 f4 [384, 128]
00000000: b237 1fbb 9926 a5bd 2c0c 923d 9818 fbbd
00000010: d5d1 f3bd 0643 24bd ba3d 3dbd c825 80bd
00000020: f54c ec3a 6004 3b3a c72c c6bc 4eef 70bd
00000030: 886a 5ebd a30e 7fbb fe02 b33c fb0a 31bd
00000040: 53af f6bd 840e 4f3c 46b5 cbbd a9c6 8abd
00000050: 0fa4 37bc 9919 3ebc e2f1 78bd b46b dcbc
00000060: ba07 7d3c 8536 64bd b1d1 81bd 0b97 1d3b
00000070: 3028 f6bc 9240 a3bb 59ba 05bd ade3 75bd
00000080: ac7e 8abd a00c 84bc 1d2b 42bd 1a64 a9bd
00000090: d93b 28be 7ff2 74bc f366 13bd 6d21 f3bd
000000a0: ae84 4a3c f076 913d 5c6d bc3c 4969 4cbd
000000b0: 0196 4cbd 0cf3 a9bd 6e86 92bc 139d f339
000000c0: 9874 58bd a97e 4c3c a956 f4bb 5001 b1bd
000000d0: 71c2 abbd 6388 eebc 3dec 64bd 1c93 0bbe
000000e0: 20ab 98bd 81b1 d0bd 24e2 45bd 5b54 203d
000000f0: 597e 26be 9f4b 153d 88a5 09bd bea5 d4bd
00000100: 1187 85bd 2247 8abd 15e9 babd 2065 21bd
00000110: 8187 f9bc 18b1 d6bd d3ff 6f3c 55a7 c7bd
00000120: 0e51 69bd 8064 333d b32d 31bd bb17 1e3c
00000130: fa3b d8bd 1481 e8bd e01b aabc 3b2c b6bd
00000140: 5b99 ca3c a1e8 66bd 182a dabd b76f 083d
00000150: c0bc 343c 8d4b 10bd 818a 5dba 2cee 3cbd
00000160: 36ed 20bd a6fb 6ebc 6631 4cbd eb01 f4bc
00000170: a3fd e63c f05c dfbd 274b 04be b929 a8bd
00000180: 9304 9c3b 40ab 84bc c9e2 47bd 7c9c 893b
00000190: fe2b 61bd 866f 9bbd 1eb6 4abd ad30 acbd
000001a0: a197 b1bd 1f8b 003d 1721 afbd a2aa 84bd
000001b0: 57d6 653d cc1b e9bc 2946 5fbb dc75 e83c
000001c0: 0585 01be d067 f03a a93c 9a3d e56d d2bc
000001d0: 3a21 20bb d3c6 5ebb 81c9 a3bd 4485 b0bd
000001e0: cef8 ba3b d18c adbc 8146 cabc 0fc5 c6bd
000001f0: 6bb4 65bd 3474 ebbc f817 53bd e0e5 8bbc
00000200: e79a b3bd 666c 1a3d d2d9 8f3b 3a26 c2ba
00000210: 6b62 d8bc 4997 f2b9 2084 603d b290 0c3d
00000220: bc45 183c e3a0 a7bc ac0b 37bd ac8c 913d
00000230: fe93 e6bc 1e62 a93c f508 093e 62a2 4fba
00000240: 3c6b eabc 0107 8c3d c420 3c3d dfc0 87bd
00000250: 8cf4 9ebd 36e1 d2bc f45d b43c c9f0 db3d
00000260: 597d 9b3d aa67 d8bc f477 903d 1c56 91bd
00000270: 35c7 e2bd 7e20 a1bd a3f1 853b 13f1 823b
00000280: d0f0 003d 8377 1ebb 712b 503c 65b4 093d
00000290: 5a2a 48bc 4e2c 4bbd 816b 223d a50b 133e
000002a0: a7c7 913d 59bb 98bc 5e07 a9bd 9754 563d
000002b0: ebb3 30bd bc94 1dbd f56a 97bd c5b5 d53c
000002c0: 18f3 203e fb19 943d 74bd db3c 7236 533e
000002d0: 4d4b 323e 1edd 9f3d 9d7b bdbc 30d4 5ebd
000002e0: 28f6 893c d608 303d 58af 823d 7fa2 963d
000002f0: ac89 393c be2e 033e 986e fd3d 848a cdbd
00000300: 267b cabd 9c36 cabd a35b 71bc 26e3 13bd
00000310: f76e b0bd d42e 533d 6df4 56bb ce28 debc
00000320: 13bf e23d a9b3 94bd f16b 8cbd b4c9 903d
00000330: 7d68 afbd 9413 a13d 404b 92bc d7bc 1c3e
00000340: f8b0 883d fbad 4a3d fcf7 493d 284f 2c3e
00000350: 3fd7 ff3c 94ea 583c f18c 5c3d 3dc9 fc3b
00000360: 3d48 203d 5a18 583d 25b5 41bd d8b5 4b3d
00000370: afc5 2c3d 8ff0 da3d 8c21 713a e05d debd
00000380: a495 713c abcf 993a 3a97 033d c811 ee3d
00000390: f68e 92bd 7c37 9c3d 4d38 243e b7d3 88bd
000003a0: 750c 2c3d 7e97 cd3d 769f 1dbc f3fe 83bc
000003b0: 5260 39bd df7a 68bd 2d49 bfbc 9a32 4fbc
000003c0: 610b 26bd 2405 913d ae8a 93bb 51cb 9c3d
000003d0: 5b39 9b3b 01a2 093d fffe 2d3d 4611 9d3d
000003e0: 728c debd 231e f93d b8ac 623d 988e d43d
000003f0: ebe0 93bd b5d3 9c3d 708f 18bd ee38 023b
-0.0024294672 -0.080640025 0.07131228 -0.1226055 -0.11905257 -0.04010298 -0.046201445 -0.06257206
0.0018028306 0.0007134136 -0.024191273 -0.05882197 -0.054300815 -0.0038918636 0.021852013 -0.043223362
-0.12045159 0.012637738 -0.099466845 -0.06776173 -0.011208548 -0.011602783 -0.060777552 -0.026906826
0.015443737 -0.055716056 -0.063388236 0.0024046327 -0.03004846 -0.0049820626 -0.032648418 -0.06003158
-0.06762442 -0.016119301 -0.047404397 -0.08271046 -0.1642908 -0.014950394 -0.035986852 -0.1187161
0.012360735 0.07102764 0.023001365 -0.049905095 -0.049947742 -0.08298311 -0.017886367 0.000464656
-0.052845567 0.01248137 -0.0074566198 -0.086428285 -0.08386696 -0.029117769 -0.055889357 -0.13630337
-0.074545145 -0.10190106 -0.048311368 0.039142948 -0.16259135 0.03644907 -0.03360513 -0.10383175
-0.065199025 -0.06751849 -0.09126488 -0.03940308 -0.030460121 -0.10482997 0.014648396 -0.09748713
-0.056962065 0.043797016 -0.043256473 0.0096492125 -0.105583146 -0.11352745 -0.020765245 -0.08895155
0.024731329 -0.056374196 -0.1065256 0.033309665 0.01103133 -0.0352283 -0.00084511196 -0.046125576
-0.039288722 -0.014586365 -0.049851798 -0.02978607 0.028197115 -0.10906398 -0.12919293 -0.08211083
0.0047612875 -0.01619494 -0.048800264 0.0041995626 -0.054973595 -0.07589631 -0.049490087 -0.08407722
-0.08671499 0.031382676 -0.08551233 -0.06477858 0.056112614 -0.028455637 -0.0034068918 0.028376512
-0.12648399 0.0018341485 0.07531101 -0.025687167 -0.0024433867 -0.003399302 -0.07997418 -0.086191684
0.0057059294 -0.02118531 -0.024691822 -0.09705555 -0.056080263 -0.028741933 -0.05153653 -0.017077386
-0.0876978 0.037701033 0.00438998 -0.0014812418 -0.026414117 -0.00046270553 0.054813504 0.03431768
0.00929397 -0.020462459 -0.044688866 0.07106909 -0.02814674 0.020676669 0.13382323 -0.000792062
-0.028615586 0.068372734 0.045929685 -0.06628584 -0.07761487 -0.025742155 0.022017457 0.107392855
0.075922675 -0.026416618 0.07054129 -0.07096502 -0.11073152 -0.078675255 0.004087643 0.0039960234
0.031479657 -0.0024180121 0.01270567 0.033619303 -0.012217129 -0.0496028 0.039653305 0.14359911
0.07118159 -0.018644022 -0.08253358 0.052326765 -0.043140333 -0.038471922 -0.07393447 0.026087651
0.15717733 0.07231518 0.026823737 0.20626238 0.17411537 0.07805847 -0.023130232 -0.054401577
0.01684101 0.042977177 0.063811004 0.073552124 0.011324327 0.128108 0.1237461 -0.100361854
-0.0988677 -0.09873697 -0.014731321 -0.036105298 -0.08614915 0.05155833 -0.0032799498 -0.027119067
0.11071601 -0.0726083 -0.06856526 0.07069722 -0.085648514 0.07865062 -0.017858148 0.15306412
0.06674379 0.049482327 0.049308762 0.1682707 0.031230567 0.0132395215 0.05384535 0.007714419
0.03913139 0.0527576 -0.047291894 0.049733967 0.042180713 0.10690414 0.0009198419 -0.10857749
0.01474515 0.0011734864 0.032126643 0.11624485 -0.07156174 0.0762777 0.16037102 -0.066810064
0.042004067 0.100386605 -0.009620538 -0.01611278 -0.045257874 -0.056757804 -0.023350323 -0.012646342
-0.040538196 0.070810586 -0.004502616 0.07655967 0.004737062 0.033601765 0.04247951 0.0766931
-0.108666316 0.12163951 0.0553405 0.1037876 -0.07220634 0.076575674 -0.037246168 0.0019870359

rnn.weight_hh_l0 f4 [384, 128]
00000000: 7064 82bd 6b80 6b3c e5bc 15be 8a0b 723c
00000010: d0b7 e03a ee66 2e3c fc03 853b 1a43 713d
00000020: f19d ec3c f863 163d a86e 4b3d d8ff 853d
00000030: eb4e d93d 5f77 b43c 56af e83c 82e3 83bd
00000040: 1cc2 acbb 6878 67bd 0fb3 13bc 8bee 45be
00000050: 57dc f63d 60af ec3c 31bb d23d 5626 4a3c
00000060: 9d48 6f3d a4ac 093e e7b5 8fbc 179c afbc
00000070: 3c0c 043c 0f9f 43bb e02b 70bd 9a97 913c
00000080: a83d a23d 7c29 8e3d ba00 0dbc b3bc 2e3d
00000090: b8dd 9fbd 4ae8 b73c 74db 7abd dcd2 0dbe
000000a0: 4bdf 963d 92f7 d3bd 25c2 3b3d 190c a5bd
000000b0: 2e9e d93d 14ca 11bd 6c57 e0bd 184a 54bd
000000c0: 6539 f93c 81fc 9ebd 45c3 30bc 30ea b5bd
000000d0: 411f af3d 0af9 d9bd 5f50 c03d 40d2 c1bd
000000e0: 1ef5 17bd 1319 45bd 5f33 a83c a751 da3c
000000f0: 45ed d9bc a5ea f3bc a790 81bd 7644 d7bb
00000100: 0c9a 0ebe 6a4d 1f3c e264 c3bd b99d ab3d
00000110: cea0 92bd 12b6 903d daa3 84bc 1624 fdbc
00000120: a818 b2bd de01 8f3b e3ef 40bd aff0 043e
00000130: 7bc6 1d3d 2121 83bc 8959 373d 0527 4dbd
00000140: 72dd e93d 0f43 8a3d ae31 81bd 2236 a4bb
00000150: 6144 7bbd 9246 0bbd 8e85 b2bd 69c7 02bd
00000160: 45bd 813d 10e1 3c3c aa55 3bbd 502f 833d
00000170: 03cd 6c3d 70bf 1ebe 6a19 913d 9123 123c
00000180: 8ff3 a13d f883 6d3e 23eb 11bd e353 383d
00000190: cff1 74bd ae88 4bbc 1409 cc3d ae14 dabc
000001a0: aa02 773d 1d04 643c 0e31 9dbd 0160 05be
000001b0: 72e5 2dbc f9a3 52bd 2904 82bd 28b6 f53c
000001c0: 59e2 c3bd 224d a93d 94c6 7cbd 923d 933d
000001d0: 648d 2ebc 4a41 05bd 349c f6bd 69c7 8cbc
000001e0: c91b d43d ce24 89bc 52cd dc3d a110 353d
000001f0: 73e3 65bd 66cd 2b3d 0615 a1bc 075e be3c
00000200: 6a5d 31bd 5ec5 033e bafa 76bd 8510 943c
00000210: ceb1 4f3d 1aa0 e2bc 47e5 b5bd 1291 02be
00000220: 5e61 4f3d ac3a 0ebe aa99 663d 03b9 073e
00000230: 87c7 ffba 60a5 9e3d 67d1 2f3d 5744 97bd
00000240: c0f8 8d3d a186 793d 8851 4d3d c316 1b3d
00000250: 658c 913d b11f 9d3d 9d43 8e3d ebe6 473d
00000260: e5cf 07bc 80b1 bb3d 8f93 a13c 612c cebd
00000270: 26ac a73d fc25 533d f9ad b1bc 4139 273d
00000280: cc50 41bd 5583 013c b1a3 fabb b5e6 973c
00000290: 8dee 6ebd 2b23 813d a2b7 693d 37e9 e8bc
000002a0: 4846 54bd 752c b7bd a980 483d f0aa a5bd
000002b0: 65b1 80bc 391e ffbb 895e eb3c eba9 383d
000002c0: 71c5 923c adb3 2f3d 7522 a9bd 0121 44bc
000002d0: b7f5 b23c 0d8c a4bc 0f62 623d 14d7 7fbd
000002e0: a880 d0bc 2bd9 0a3d 1824 12bd 0d7a 893c
000002f0: ae9d 563d b9cc a13d 510c a9bc 6f97 383d
00000300: fee9 a43d 5b61 d1bb 8c98 12be 5ad0 2abe
00000310: 9227 0b3d adb0 ae3d 66a5 fa39 32c5 36bb
00000320: 846f 09be 2f79 cbbb b762 bb3d f51d 41bb
00000330: 9e8b a13d 5423 40bd a292 863b 0850 a13c
00000340: 5c37 90bc 75fb 6fbd 40df a7bd 48af b7bd
00000350: 99c3 9cbd f423 ecbc b14c 983c e039 d8bd
00000360: 876b 82bd 4cad fb3c d0c6 ccbd 4053 1fbd
00000370: 7a9a 06bd b305 1abd cbfe a03c 9c93 323d
00000380: fb79 58bd ec52 e33d b03c 853d 75a1 1cbd
00000390: 6d16 a3bd b9ae 16bc 4cd4 a4bd f626 843c
000003a0: 27d2 88bc 9a47 d6bc ce88 55bd e1b5 87bd
000003b0: 7170 bc3a b30f ebbc a1fd 293d d872 2dbb
000003c0: d2ce 103d e61b d13d e19d c9bc 6606 3bbd
000003d0: c8e7 9bbd e646 17bd 8283 783d e52a 57bd
000003e0: 8a65 703d a86c d1bd 2f72 e93d c24b 613d
000003f0: 2b4d c03d c26a 0abb 3bd4 c13d 5884 82bd
-0.06366813 0.014373879 -0.14622839 0.014773259 0.0017144624 0.010644658 0.004059313 0.058901884
0.028883906 0.03671643 0.049666077 0.06542939 0.106107555 0.022029577 0.02840392 -0.06439878
-0.005272163 -0.056511313 -0.009014859 -0.19329278 0.12053745 0.028892219 0.1028961 0.012338242
0.05841886 0.13444763 -0.017542792 -0.021436734 0.0080595575 -0.0029849445 -0.058635592 0.017772485
0.07921916 0.06941506 -0.00860613 0.042660426 -0.07805961 0.022449631 -0.061244443 -0.13849968
0.073668085 -0.10349955 0.045839448 -0.08058948 0.106258735 -0.035593107 -0.109541744 -0.051828474
0.030422876 -0.07763005 -0.010788743 -0.08882558 0.08550883 -0.106432036 0.093903296 -0.0946393
-0.037098996 -0.048119616 0.020532308 0.026650263 -0.026602397 -0.029774973 -0.06326418 -0.0065694405
-0.13925952 0.009723047 -0.09540726 0.083796926 -0.07159577 0.07065977 -0.016191412 -0.030900996
-0.08696109 0.0043642363 -0.047103774 0.12982439 0.038519364 -0.016007008 0.04476312 -0.05008604
0.114191905 0.06751072 -0.06308304 -0.005011336 -0.061344508 -0.034002848 -0.0871688 -0.031928454
0.063349284 0.011528268 -0.045735992 0.064055085 0.057812702 -0.15502715 0.070849255 0.0089196125
0.07907783 0.23194873 -0.035624634 0.045001876 -0.05980092 -0.012422724 0.09962669 -0.026621189
0.060305275 0.013916996 -0.07675372 -0.13024904 -0.010613786 -0.051425908 -0.0634845 0.029994085
-0.09564657 0.08266665 -0.061712816 0.07189478 -0.010653827 -0.032532968 -0.12041512 -0.01718493
0.10356862 -0.016741183 0.10781349 0.04420531 -0.056125116 0.04194393 -0.019663345 0.023238195
-0.043301977 0.12868258 -0.060297705 0.018074283 0.050706677 -0.027664233 -0.08881622 -0.12750652
0.050629966 -0.13889569 0.05629889 0.1325417 -0.001951442 0.077463865 0.04292431 -0.07386082
0.06932211 0.060919408 0.050126582 0.037863504 0.07106856 0.0767206 0.0694649 0.048804205
-0.008289312 0.09164715 0.019723682 -0.10067058 0.081871316 0.051549897 -0.021689402 0.040826086
-0.047196195 0.007904847 -0.007648908 0.018542627 -0.05833297 0.06305536 0.05705989 -0.028431518
-0.051824838 -0.089440264 0.048950825 -0.08089244 -0.015709588 -0.0077855852 0.028731601 0.04508392
0.017916413 0.04289596 -0.08258525 -0.011970759 0.021845682 -0.020086313 0.055269297 -0.062460974
-0.025451973 0.033898514 -0.035678953 0.016781831 0.05239647 0.07900376 -0.020635756 0.045066293
0.08052443 -0.0063897795 -0.14316005 -0.16681042 0.033973284 0.08529792 0.00047806947 -0.0027888534
-0.13421446 -0.0062095146 0.09149688 -0.0029467319 0.07887958 -0.04690869 0.0041068355 0.019691482
-0.017604522 -0.058589417 -0.081968784 -0.08968979 -0.07654495 -0.028825738 0.018591257 -0.10557914
-0.063681655 0.030722283 -0.09998858 -0.038897753 -0.032862164 -0.03760309 0.019652745 0.043597803
-0.052850705 0.110998005 0.06505716 -0.038239915 -0.07963262 -0.009196931 -0.08048305 0.01613186
-0.016701771 -0.02615719 -0.05213242 -0.066264875 0.0014376772 -0.02869401 0.041501645 -0.0026466157
0.03535349 0.10210399 -0.024611415 -0.0456604 -0.07612568 -0.03693285 0.06067229 -0.05253114
0.058690585 -0.10225803 0.11398732 0.05500389 0.093897186 -0.0021120762 0.09464308 -0.06372899

rnn.bias_ih_l0 f4 [384]
00000000: aeab 7c3c 9f1a cabc 7c34 b63c b961 8dbd
00000010: 809b 9dbd 0073 96bd 9a1c 2f3d f031 fa3d
00000020: a71f 10bd efeb 963c 681f d33c 9ae0 8ebd
00000030: 1ad0 73bc 30f0 67ba c5bb 8a3c c508 903c
00000040: 1c35 78bd 69b2 4b3d 1822 ba3d 4cc9 9a3d
00000050: d743 42bd f8a4 903c eef0 e93c 040e e0bb
00000060: 326e 1abc 9c3d cebb b229 93bd 25bc 2d3b
00000070: eb12 7b3c 6f41 be3d b578 db3b 2b02 61bd
00000080: 1945 873d 8793 fa3c 17b8 b53c 8a8d 673c
00000090: 40bb f23c 4073 1fbd 0da9 91bd ce0b 92bd
000000a0: 3c0e 31bc 475c 913d 6ee4 863c d736 4b3d
000000b0: d838 7d3d 1bc8 aabd 4b02 b8bb b701 fd3d
000000c0: fcd5 643d 5a0b 93bc 6ac2 0f3d debf c0bd
000000d0: 8948 3fbc 5870 683c 2fb6 a8bc d391 e8bc
000000e0: 7c3b fb3c c541 afbd 6aef a63c 1293 69bd
000000f0: b1cc b9bc 8920 363d 3b56 2cbd 6154 743d
00000100: 7d21 2c3d dd1d ba3c 5667 8cbd 6657 b33d
00000110: 4ac0 9c3d aaca 5ebc 0b04 1a3d c263 0a3d
00000120: 114c 7abd 1e2a 123c f7ea 5abd 20b5 de3c
00000130: ba61 2fbb 12d3 1fbd 464d 2dbd c265 053b
00000140: 1377 93bd b028 993d e1a7 0abc 4409 5abc
00000150: bb88 86bd 52a9 9e3d a44f aa3b c5c4 a23c
00000160: c62a 863c 3e7d bbbd 3422 cebc a4b6 36bd
00000170: 814d 8c3d 55f3 a7bd ae15 483c 4d9a 95bd
00000180: 1d2e 1c3d 6603 9e3d 1f33 b4bd ccef 6b3d
00000190: ddbd 27bc 42f8 4abd d8ac 69bd 3916 963d
000001a0: d451 943b ad2a 703d ec4a 893d 844d 783c
000001b0: 151f 2bbd f54d b5bd e27c 963c 2788 99bd
000001c0: e07c 4e3b d020 603d b3f6 763d d159 7f3d
000001d0: 673a 66bd 379e d03b 6b6a 8fbd 216f ddbb
000001e0: 0f54 1c3d 0932 bc3d f6e8 b1bd 5c6a 96bb
000001f0: 3743 33bd 60c0 03bd d3d3 47bd 5677 5abd
00000200: 8851 1a3d 33de bbbd 34e6 893d c49e 29bc
00000210: b026 91bc 4493 45bc 0cb1 30bd ec33 4a3d
00000220: d107 533d 02f0 b83d d1a6 0a3e 8203 29bd
00000230: 1437 403e 2a9e 9cbc 7872 a53d 830e ab3d
00000240: 92c4 033d 5957 7f3a 2fce d7bd 0a2f 6c3d
00000250: 9f9c af3d ba0b ca3d ab52 d23c 97da a4bd
00000260: 2b5a 453d 84f3 9d3d 8abe 293c 816d a93b
00000270: 0d43 afbd 5c5d 233d ec0f b63d 5444 033e
00000280: cab8 8ebc 9065 c0bd e6fe c43c 80b3 8b3d
00000290: ff94 153d 0243 333d ca4d 003e 555c a73d
000002a0: 6ac2 353d 67e0 0e3d c47a 5e3d e8d9 bf3d
000002b0: 62c0 393d af90 acbd d770 c13d ce06 a23c
000002c0: 9b39 173d da5a f0bc b042 a7bc e7a0 cb3d
000002d0: 071a f53b 39a6 16bd 4f01 443c f242 343d
000002e0: 7b76 483d ff4f 463d c6c2 333d 250d 9b3d
000002f0: 76fd fa3c cf98 c9bd ea99 edbc 5cff c93d
00000300: 8a4d 8abd 00db 33bd fb49 8a3d 85c4 5a3d
00000310: 4cf8 043e ab31 ef3d a5aa 4ebc 8742 4b3c
00000320: 27c1 14bd 6442 a73c 135b 40bc b62d dcba
00000330: 58d2 af3d 5ba1 10bd a679 6a3d 2a2f 95bc
00000340: 6e9e 1bbc e633 aa3d 9a55 c13d dd4b 233d
00000350: 28fd bcbd b7b4 0b3e 56be 1cbd 96f5 243c
00000360: 2da4 5c3c 88e6 d5b9 ec3c 923d 2f22 90bc
00000370: b590 873d bc99 163c 1f59 cdbd 9df7 043e
00000380: 92f8 ab3d 2a8d f7bd eee0 a83d b460 293d
00000390: 1c13 8ebd 7fb4 7a3c 1778 693c 8233 00bc
000003a0: e563 b93d 4225 93bd be39 04bd 1667 bb3d
000003b0: 8efb c53d 96f7 2f3d 3f90 df3d ac38 cbbc
000003c0: 87af 15be 3cda 863d b0d5 533e 106c c1bc
000003d0: c3e1 fabb 751e e8bd cd22 3ebd ae6d 513d
000003e0: ddab a63d 5dcf 923c c543 cbbc 7555 c2bc
000003f0: f69c 8e3d 5cee 4dbc d056 943b eee0 243d
0.015421791 -0.024670897 0.022241823 -0.06903405 -0.07695675 -0.07346153 0.042751886 0.12216556
-0.035186436 0.018423049 0.025771812 -0.06976433 -0.014881158 -0.00088477414 0.016935239 0.017582307
-0.060597524 0.049730692 0.09088534 0.075579256 -0.04742798 0.017656788 0.028557267 -0.0068376083
-0.009425687 -0.0062939655 -0.07185687 0.0026509848 0.015324335 0.09289824 0.006697739 -0.05493371
0.06604976 0.030587925 0.022182507 0.014132867 0.029630303 -0.03892827 -0.07112322 -0.07131158
-0.010806616 0.07097679 0.016466346 0.049612846 0.06182179 -0.08338948 -0.0056155077 0.12353843
0.055868134 -0.017949749 0.035097517 -0.09411596 -0.011675009 0.014186941 -0.020594684 -0.028389847
0.030668013 -0.085574664 0.020377833 -0.057025023 -0.022680612 0.04446462 -0.042074423 0.059650782
0.042024124 0.022719318 -0.06855647 0.08756904 0.07653864 -0.013598124 0.037601512 0.033786543
-0.0611077 0.008921174 -0.053446736 0.027185977 -0.002676113 -0.03901965 -0.04231002 0.0020354842
-0.07200446 0.07478464 -0.008462877 -0.013307873 -0.06569048 0.07747139 0.005197482 0.019869218
0.016377818 -0.091547474 -0.025162794 -0.044607773 0.0685072 -0.08200709 0.0122122 -0.07304821
0.038129915 0.07715492 -0.08798813 0.057601735 -0.010238138 -0.049553163 -0.057049602 0.073284574
0.0045263562 0.05863445 0.06703743 0.0151552 -0.04177769 -0.0885276 0.018370096 -0.07496672
0.0031507537 0.054718792 0.060293864 0.062341515 -0.05620804 0.006366517 -0.070027195 -0.0067576324
0.038166102 0.09189231 -0.08687012 -0.0045903157 -0.043765273 -0.032165885 -0.048785996 -0.053336464
0.03767541 -0.091732405 0.06733361 -0.010352794 -0.017718643 -0.012059037 -0.043137595 0.049365923
0.051521126 0.09030153 0.13540198 -0.04126311 0.1877101 -0.019118387 0.08078474 0.08352377
0.032169886 0.0009740494 -0.10537373 0.057662047 0.08574795 0.09865518 0.025674185 -0.08049505
0.048181694 0.077124625 0.010360369 0.0051705246 -0.08557711 0.039883956 0.088897556 0.12819034
-0.017422099 -0.093943715 0.024047326 0.06821346 0.036519047 0.043765076 0.12529674 0.08171908
0.04437486 0.034881976 0.054316297 0.09367734 0.045349486 -0.08426034 0.094453506 0.019778635
0.03692017 -0.029340196 -0.020417541 0.09942799 0.0074799093 -0.036779616 0.011963203 0.044009157
0.048941117 0.048416134 0.043886922 0.075708665 0.030638438 -0.09843599 -0.029004056 0.09863159
-0.06753071 -0.043910027 0.06752392 0.053410072 0.12985343 0.11679395 -0.012613927 0.012405998
-0.036317017 0.0204174 -0.011740464 -0.0016798291 0.08585042 -0.03531013 0.05724492 -0.018210966
-0.009498222 0.0831068 0.09440155 0.03986727 -0.09227973 0.13643156 -0.038267456 0.010068318
0.013466877 -0.00040798285 0.07140526 -0.017594425 0.066193976 0.009191927 -0.10026764 0.12985082
0.083970204 -0.12087472 0.08246027 0.04135199 -0.069372386 0.015301823 0.014249823 -0.00782478
0.090522565 -0.07184841 -0.03228163 0.091505215 0.09667121 0.042960726 0.10916185 -0.024807297
-0.1461774 0.06584594 0.20686984 -0.023611099 -0.0076563074 -0.11333934 -0.046419907 0.05112999
0.08138249 0.017921144 -0.024812588 -0.02372239 0.06963532 -0.012569036 0.0045269504 0.040253572

rnn.bias_hh_l0 f4 [384]
00000000: 09b6 00bd 5caa 10bd f8c8 aa3d b272 743d
00000010: d4d8 603d 8db4 d0bc d437 163d 0ee4 833d
00000020: 41b3 ab3d 5838 cebc 0519 40bd 8106 31bb
00000030: 8e61 6ebd d7ae 933c 7ac0 7c3c d3c7 4f3d
00000040: a0e2 023d 8ce1 853d a9c7 573d d56d 2abd
00000050: 6c0b 57bd 0c43 abbd 5c69 963c 34fc d4bd
00000060: 107e cabd 7299 6fbc 62f4 a0bd a9cc 293d
00000070: 5580 8fbd ebe3 64bd fdd8 9a3c 4f1f b4bd
00000080: 05ad 993d 401c 47bd b7c8 b2bd 8067 9bbc
00000090: d812 a7bc 8e29 f03c 2b6f 2f3d 2dea 35bd
000000a0: 050c 50bd 0114 3abd bd34 5d3d 5bdf 30bc
000000b0: 1100 6e3c 5b45 69bd fcac e03a a81e 763b
000000c0: 5e89 a23d 416c f83d 91c1 39bd 78bb dcbc
000000d0: 65f7 993d 2377 8abc 8a43 383b 4dc8 64bd
000000e0: 811c 4ebc af93 8dbd aadc 9e3d ab00 2ebc
000000f0: d5ea d7bc 6332 97bd 3342 82bd 5302 a53d
00000100: 0cb6 2c3d 8ac3 0c3d 1a98 14bd 2898 973d
00000110: 202d 58bd efe5 55bd 7671 edbc e24b f13c
00000120: 16da 313d 992a 343d 8661 ddbd ccd0 9a3b
00000130: cb88 06bc 59c6 3a3d 8020 c23b 4918 b0bd
00000140: 0929 0b3d f4e5 a23d 768f 603d 8ba7 cbbd
00000150: 412f 9b3c 1951 273d 0fef a9bd 29af 60bc
00000160: 3e63 593d f39e 53bd 443e a9bc 524c c6bd
00000170: 51f1 4c3b baad 4abd 5ddc 85bd 4981 aebd
00000180: 4f1f 803d fac5 193d 8d99 2cbd cf69 68bd
00000190: c27b 73bd 4f25 d8bb 0c59 94bc 37f3 c23d
000001a0: 96c5 9fbd d4a0 2a3c 335d ccbd 7a31 60bd
000001b0: 8d64 c4bc 871b 38bd b3d0 93bd cda8 abbd
000001c0: e3bf 1bbc b57a 723d cf7e 923d c532 c8bc
000001d0: d769 00ba 67cb 683d 28a3 8abb 763b 75bc
000001e0: 660c 8abd 17cb da3c 244a 50bd f03b 3abd
000001f0: e767 9d3d 3ce4 b83c c6b2 86bd ae1e 893c
00000200: 5a0b 043d a757 d83b 008e c9bc 814c 913d
00000210: 8fd6 42bd a9c2 d23c dbc6 57bd a997 94bd
00000220: d1ef 4f3d a538 bebc b875 1c3e c9c8 803d
00000230: fd3c 3a3d fe58 bb3d 12a2 ab3d 1064 da3c
00000240: 86bb b43b 8644 ea3d 6cd0 083d 451e 2f3b
00000250: 1eb9 6e3c e17a 523d 2eed 41bd f386 b0bb
00000260: 4dcf 0fbd 28b3 193e 8f58 f83d 0d4f d6bc
00000270: b267 84bd 82d6 dab9 bfe3 0e3d 735f 5d3c
00000280: a738 b43d bd51 02bd 51e3 7a3d 384d 8c3d
00000290: 26db 88bd 8ab5 0bbd d89a 153e 4dc7 f03d
000002a0: cb2b 5dbd b5d7 983d 9aab 55bd 5c60 2dbc
000002b0: aaae 2b3d 6b6d 47bd da4d 8bbd 2c0a 0fbe
000002c0: 80c4 283d ef80 87ba 3705 583c 7a34 453d
000002d0: 282e 653d 1a09 8b3d 1158 b6bd a510 213e
000002e0: 8097 b43c 06e5 7bbd 2f68 50bc b028 1a3e
000002f0: 297c 0bb9 b177 b5bc 06a4 c03d 55ca a8bc
00000300: 9910 b6bd 9f29 6d3d 3e0e 033d fdc6 203d
00000310: b53a 653d b791 2e3d c005 af3d 3b48 7dbc
00000320: 69b4 543d 165e f83d c99d d7bc a506 4e3b
00000330: 9490 acbc 227f e03c a8ca 70bc 9f05 d63d
00000340: 4f5d 38bd 8538 d33d c2ad e4bb ef13 e33d
00000350: 9bd9 503d 30a2 843d 2dad b93d 292d c33c
00000360: e87c 43bb 1bd5 cf3d de3e 8e3d f591 0c3d
00000370: 7a5a edbc 328a 5c3d 4b13 d03c 7c82 0f3e
00000380: 860f f73d 4f49 debd a186 6a3d 24ab 603d
00000390: 32af c23b 2e3a 58bc 5ea6 c8bc d570 ce3d
000003a0: f218 413a 3839 c7bd e67d 96bd 4f4d 403d
000003b0: 1ff2 a83d c823 e03d 78ec 133c 2834 d2bc
000003c0: 36a2 5bbd ed3b 90bc bb94 4d3e e1a2 773d
000003d0: 9206 cd3d c5a7 eebc 386b febc a864 db3d
000003e0: 911c 913d 7d91 db3d c699 983d 52f3 d23d
000003f0: a2d1 283d 9114 f93a 6621 813b 6060 7739
-0.031423602 -0.035318717 0.08339113 0.059679694 0.054894283 -0.025476718 0.036674336 0.06439982
0.08383799 -0.025173351 -0.04689886 -0.0027011933 -0.058198504 0.018027706 0.015426749 0.050727677
0.031954408 0.0653716 0.052680645 -0.04160865 -0.052501127 -0.083623976 0.018360786 -0.103996664
-0.09887326 -0.014623987 -0.07859112 0.041454945 -0.07006899 -0.055881422 0.018902296 -0.08795034
0.07503704 -0.048610926 -0.087296896 -0.018970251 -0.020394728 0.02931669 0.042830627 -0.04441278
-0.050792713 -0.045429233 0.054005373 -0.01079544 0.014526383 -0.05695091 0.0017141397 0.0037554894
0.07936357 0.12130023 -0.045350615 -0.02694486 0.0751789 -0.016902512 0.0028116428 -0.055855084
-0.012580038 -0.06912934 0.07756932 -0.010620276 -0.026357094 -0.073826574 -0.06360283 0.08057084
0.0421658 0.034366168 -0.036277868 0.074020684 -0.05277741 -0.052221235 -0.028984766 0.029455129
0.043420874 0.043985937 -0.10809617 0.0047245976 -0.008211325 0.045599315 0.0059242845 -0.08598382
0.03397468 0.07954016 0.054824315 -0.09944066 0.01894343 0.040848825 -0.0829755 -0.013713636
0.05307316 -0.051665258 -0.020659573 -0.09682526 0.0031271765 -0.049482085 -0.065361716 -0.08520753
0.06255972 0.03754232 -0.042138625 -0.056741532 -0.059444197 -0.0065962444 -0.018108867 0.09519046
-0.078013584 0.010414321 -0.09978714 -0.054734685 -0.023973728 -0.044948127 -0.072175406 -0.083818056
-0.009506199 0.059199054 0.07153093 -0.024438271 -0.0004898584 0.056834605 -0.0042308755 -0.01496779
-0.06740646 0.026708169 -0.050851956 -0.045467317 0.076858334 0.022569768 -0.06577067 0.016738262
0.03223739 0.006602246 -0.024603844 0.0709467 -0.0475679 0.025727587 -0.052679878 -0.072554894
0.050765816 -0.02322037 0.15279281 0.06288297 0.04546832 0.09147833 0.08380522 0.026659042
0.0055155186 0.11438851 0.03340189 0.0026720923 0.014570503 0.051386718 -0.047345333 -0.005387181
-0.035109807 0.15009749 0.12126266 -0.026160741 -0.06465091 -0.0004174002 0.034885164 0.013511526
0.08799868 -0.031816233 0.061251942 0.06850666 -0.06682424 -0.034108676 0.1460985 0.117567636
-0.053996842 0.07463018 -0.052165605 -0.010582056 0.04191462 -0.048688333 -0.068019584 -0.13968724
0.041203022 -0.0010338108 0.013184837 0.04814575 0.05595222 0.06788845 -0.08903516 0.15729006
0.022044897 -0.06149771 -0.012720152 0.15054584 -0.00013302326 -0.0221518 0.09406285 -0.020604292
-0.088898845 0.05790102 0.031996004 0.03925227 0.05596419 0.042619433 0.085460186 -0.015459116
0.051929865 0.121273205 -0.026320355 0.0031437066 -0.021065034 0.027404372 -0.0146967545 0.10450291
-0.04501086 0.103135146 -0.0069787214 0.110877864 0.050988775 0.06476247 0.09066234 0.023825245
-0.0029829089 0.101480685 0.06945585 0.034318883 -0.028973807 0.05384273 0.025399825 0.1401462
0.12063508 -0.10853826 0.0572573 0.054850712 0.005941295 -0.013197465 -0.024493393 0.10080115
0.0007366083 -0.097277105 -0.07348232 0.046948727 0.08249306 0.10944325 0.0090285465 -0.025659636
-0.053621493 -0.0176067 0.20076267 0.060458068 0.10011019 -0.029132733 -0.031056985 0.10712558
0.07085527 0.10721109 0.07451205 0.10300316 0.041215546 0.0019003322 0.003940749 0.00023591658

predict.1.weight f4 [24, 128]
00000000: 3774 e638 ebba ccbc fd03 843a bb2f 71bd
00000010: 5f95 9fbc 1936 863d 6f8c ff3c ded7 08bc
00000020: 3932 ccbb b594 11bb 8fca fbbc 67cb 19bc
00000030: 0182 cc3c c9c0 933d 0f6e 653c 5204 c5bc
00000040: b53b afba 3900 eebc 3820 b83c 1d8d 1f3d
00000050: 0744 103d 3158 cfbc 7ca5 3fbc a1de f53b
00000060: 2c38 853d 8020 ae3c aea0 2d3b ea39 63bc
00000070: 5893 10bd 6d96 9e3b 6aff 083d 9eb8 7ebc
00000080: e655 9b3c 9ca9 0fbb 8abf dabb 6832 923b
00000090: 42d5 003c 6ae0 8c3b 330c ae3c cd51 353d
000000a0: 7627 41bd 34ba e2bb 4728 133d 4245 5f3c
000000b0: 2b6a 2b3d 57d5 6fbd 42f9 453d 5dca c0bb
000000c0: 5009 d0bb e9e2 863d b422 7d3c dd2a 4c3c
000000d0: cd4b 913c ea48 9abd 24a5 c43d 0cb6 4b3b
000000e0: 6c46 a8bb 3a61 c8bb ab60 533d 1c93 ebbb
000000f0: 367b a4bc 2833 f0bc 44de 4abc ae68 f7bb
00000100: 1a8f 5e3d 74a3 5c3c b8ad f2bc 4cdc 8e3d
00000110: 0c0d 23bc e6af f5bc 5656 b43c 2964 69bd
00000120: 37c7 5fbd c706 373c 2505 9a3d a775 c9bc
00000130: c61a 9c3c ee2f f6bc 1337 55bc e33a 5abd
00000140: 88c4 bdbc 9851 adbc 8916 dcbb 04c0 c5bc
00000150: a644 e33c 3e34 a83a ec76 47bd 952a dcbb
00000160: 73b9 30bc 8ee5 d03b 5e51 c83c a341 283d
00000170: d992 05bd d521 d6bc 2a90 c3bc 64a2 cebb
00000180: 527f 07bc bfec 2fbd 6500 5abc 5eb7 07bc
00000190: 9b46 b03c 5e64 ebbc 2caf 113d c7d7 e93a
000001a0: a41b 823c c20b 903b 9f9b bf3b b3ae ec3b
000001b0: c2c1 243d f8b2 65bb ada7 543d 6fac 913c
000001c0: 26ff 3abd 98c5 853c 521d fa3c 4a64 57bc
000001d0: 8a51 10bd 9772 aa3c 9e92 74bb 8618 a83c
000001e0: 5de7 01ba 3566 2dbd a77c 80bb 1639 a93d
000001f0: 3ffe 13bd 67b1 10bc a8f5 f3ba c096 12bd
00000200: d8e4 8a3b 6e7c a6bd 2437 d9bc c4d3 1ebc
00000210: 4092 c6bb 853c a73d dd90 47bc e2e4 5cbc
00000220: c0a6 cebc 20e9 233c 8c5d 40bd 5304 e93c
00000230: b5a2 0c3d bfa4 793d b558 cb3c 5f48 423c
00000240: d775 e23c 8061 84bd de44 d63c 5ffa 483d
00000250: 5755 253d 9fd1 3cbd 4cf6 113d 52e9 223b
00000260: 382d 3c3c ad67 babb 3c7e bbbc c1a8 09bd
00000270: 663f 833d 920a 6abc e4d6 c33c c415 d53a
00000280: da86 043d bbb8 d3bc 73bc 793c 9e7e 06bb
00000290: 288d e23b 421a 483d 4ef2 7c3d 2b60 673d
000002a0: cc6a 19bd cc0e 94bc 9cef 7c3d ee6a cc3b
000002b0: 00f5 563d 4433 98bd fe8b d63b c76c 9a3c
000002c0: e46c 88bc 7322 fc3b 0eea d3bc c7e0 08bc
000002d0: a3cd 803b 44ac d9bd a9f2 eb3d b22d ab3c
000002e0: de41 8cbc 36de 5abc a6f3 8c3d 1ce6 a1bc
000002f0: e92b 6fbd 4087 a9bb 901b b7bc 177c a5bc
00000300: 0852 f53d d529 d93c d8e2 10bd e6bc 173d
00000310: f098 a53c 03cb b1bb 16e2 f13c 4f0c 43bd
00000320: afb1 e2bd 5c2f b33c ea6a 943d 7c9d 69bd
00000330: 6371 a53c e6ed 25bd 7346 0f3c db0a 8e3b
00000340: c8dd 1d3c 8975 8ebd a9ad 16bc 5b4b 153d
00000350: 22ad bdbd e6a4 96bd a38d 5fbd 6e62 88bc
00000360: 2c01 8fbc a347 6c3d 9a3f cabc 3d2d 803d
00000370: 9c82 2b3c 8d28 bf3b a2ff 11bc a4a0 b13b
00000380: 6124 da3c 8aaa 6dbd 6a69 2dbc 6641 7d3b
00000390: c08c 0138 0ffa 9abc d659 923d f31b 533c
000003a0: 8778 2c3c 7580 193d 47e1 293c 4ed8 49bc
000003b0: 9ced bb3c 2b76 dfbc ed24 e0ba dcec a6bc
000003c0: e6cb 7ebd 1019 cf3c 5681 dc3c 2169 d5bc
000003d0: 0ca8 57bc 8ed5 67bb e0ea 9d3c 12ea 20bd
000003e0: c96b 753d dacf 2abd 0a06 b03c 458b ae3d
000003f0: 53ca 2fbd 691e 2b3d 0fc9 72bd 5df5 72bc
0.00010988901 -0.024991473 0.0010071989 -0.05888341 -0.019480405 0.06553287 0.031194894 -0.008352248
-0.006231573 -0.002221388 -0.030736236 -0.009386874 0.024964334 0.07214505 0.014003291 -0.024049912
-0.0013369235 -0.02905284 0.0224763 0.038952935 0.035221126 -0.025310608 -0.011697169 0.007503346
0.065048546 0.021255732 0.0026493478 -0.013868788 -0.035296768 0.0048397095 0.033446707 -0.015546946
0.018961858 -0.0021921163 -0.0066756653 0.0044615753 0.007863345 0.004299213 0.021246051 0.044267464
-0.047156774 -0.00691917 0.035927083 0.013627352 0.041849297 -0.058553066 0.048333414 -0.0058834986
-0.0063487664 0.065862484 0.015450168 0.012461391 0.01773634 -0.075334385 0.096018106 0.003108385
-0.005135348 -0.006115106 0.05160586 -0.0071891677 -0.020078283 -0.029321268 -0.012382094 -0.0075503206
0.05433569 0.013466705 -0.029623851 0.06975612 -0.009951841 -0.029991101 0.022013824 -0.056980286
-0.054633345 0.011171049 0.075205125 -0.024592234 0.019055735 -0.030052152 -0.013013619 -0.053278815
-0.023165002 -0.021157071 -0.0067165536 -0.024139412 0.027742695 0.0012832952 -0.048697397 -0.0067189434
-0.010786402 0.0063750213 0.024452861 0.04107822 -0.032610748 -0.02613918 -0.023872454 -0.0063059796
-0.008270102 -0.042950388 -0.013305758 -0.008283464 0.021518042 -0.028734382 0.035567448 0.0017840796
0.01588232 0.004395933 0.005847409 0.007222974 0.040223844 -0.00350493 0.05191772 0.017782418
-0.045653485 0.016329572 0.03053156 -0.013146469 -0.03523401 0.020806594 -0.0037318836 0.020519506
-0.0004955435 -0.0423338 -0.0039211097 0.082628414 -0.03613114 -0.0088313585 -0.001861264 -0.035788298
0.004238706 -0.08129202 -0.02651555 -0.009694044 -0.006059915 0.0816584 -0.012180534 -0.013482304
-0.025225997 0.010004312 -0.046964213 0.028444445 0.034334857 0.06094813 0.024822572 0.011858075
0.027644081 -0.06463909 0.026155885 0.049066897 0.04036459 -0.046098348 0.035635278 0.0024858308
0.01148539 -0.0056886286 -0.022887342 -0.033608202 0.06408577 -0.014284747 0.023906179 0.0016257097
0.032355167 -0.025844922 0.015242684 -0.0020522247 0.0069138 0.048853166 0.061754517 0.056488197
-0.037455365 -0.018073462 0.061751947 0.006238333 0.052479744 -0.07431653 0.00654745 0.018850697
-0.016653486 0.0076945364 -0.025868442 -0.008354372 0.003930764 -0.1062856 0.11520893 0.020895813
-0.017121252 -0.013358643 0.0688241 -0.019763045 -0.058391485 -0.0051735938 -0.02235201 -0.020200772
0.11978537 0.026509205 -0.035372585 0.037045382 0.020214528 -0.005425812 0.029526751 -0.04761916
-0.11069047 0.021873169 0.07246955 -0.057034954 0.020195669 -0.04051008 0.008744824 0.00433479
0.009635396 -0.06956012 -0.009196677 0.036448818 -0.09261538 -0.07355671 -0.054578435 -0.016648497
-0.017456613 0.057685506 -0.02468853 0.062586285 0.010468151 0.0058336915 -0.008911045 0.005420761
0.026628675 -0.058023967 -0.010584215 0.0038643717 3.088708e-05 -0.018918065 0.07146041 0.012885082
0.010526783 0.03747602 0.010368652 -0.012319637 0.02294045 -0.027278027 -0.0017100848 -0.020376615
-0.06220617 0.025280505 0.02691714 -0.026051106 -0.013162624 -0.0035375091 0.019277036 -0.039285727
0.059917245 -0.04170213 0.021487255 0.08522657 -0.04291756 0.04177705 -0.059273776 -0.014829007

predict.1.bias f4 [24]
00000000: 5bc7 ac3c 8d2b 0abd e084 503c 169e 24bc
00000010: d184 ecbc 2427 c5bc 7500 e73c 0a3f 1fbc
00000020: 67ee 35bd c000 2bbd 9158 e6bc 4499 43bd
00000030: 5971 50bd 7c2c abbc e88f 1a3d e71f b63c
00000040: 7a26 fa3b bad9 cc3b 2899 f6bc 9df9 d53a
00000050: 7f2a 0f3c 59ed 1bbd 5511 aabc 8bd4 f5bc
0.021091154 -0.03373294 0.012726992 -0.010047456 -0.028871926 -0.024066515 0.02819846 -0.0097196195
-0.04441681 -0.041748762 -0.028118404 -0.047753587 -0.050889347 -0.020895235 0.037734896 0.02223201
0.0076339813 0.006251541 -0.030102327 0.0016325001 0.008738159 -0.03806815 -0.020760218 -0.030008575
