results/traffic_DLinear/1/checkpoint.pth (torch, 20840 bytes, 4 tensors)

Linear_Seasonal.weight f4 [24, 96]
0.016210321 0.026957622 -0.003782437 -0.010538474 0.00026450804 0.01617149 0.0134181995 0.014997108
0.007261674 0.00930777 0.011202756 0.011749778 -0.0004569681 0.003908927 0.011836086 0.012024978
0.003783666 0.0073792753 0.0016395779 0.018388536 0.017293839 -0.0058520865 -0.027178725 -0.012283387
0.05010582 0.040212877 0.012878901 0.0032364272 0.0114460625 0.021017415 0.016873559 0.018114386
0.012652728 0.013612863 0.01421854 0.016394876 0.0022439274 -0.0027737238 0.0021223428 0.0107524535
0.0019248205 0.010285099 0.017459035 0.02313567 0.024376653 -0.0022665265 -0.02622676 -0.006637349
0.052847963 0.038838092 0.006705646 -0.00939416 0.0066616815 0.020480277 0.014453204 0.008627207
-0.003171701 -0.0022458192 0.0009138729 0.0052870074 -0.0087444745 -0.0037139251 -0.000984559 0.0033136269
0.0019070981 0.0072156433 0.013032366 0.020548008 0.017884925 -0.004956651 -0.01725857 0.030720238
0.1272493 0.11049169 0.05763923 0.012601573 0.0023328045 -0.008101103 -0.029920578 -0.03842292
-0.05665038 -0.057475638 -0.05207305 -0.039373077 -0.04074158 -0.026555682 -0.028617049 -0.034550894
-0.054745123 -0.055893086 -0.08278843 -0.08379585 -0.070899256 -0.0745856 -0.02464235 0.13222669
-0.0015917222 0.084288865 0.04477976 -0.0026021767 -0.0045066415 0.012588625 0.027188137 0.023824079
0.017202452 0.012323939 0.01705118 0.018131226 0.008623483 -0.0028456983 0.0043758615 0.01061347
0.004582392 -0.0017437625 -0.0022431687 -0.00087849586 0.017576272 0.0017050075 -0.029702162 -0.03653633
0.018615667 0.06925065 0.03841625 0.0046898145 0.0017113453 0.016525058 0.024157712 0.022609195
0.017279018 0.015755415 0.015121379 0.016921012 0.009617221 -0.0068194577 -0.0080087045 0.0018098828
0.0036088112 -0.00060356915 0.012477831 0.018321488 0.027286295 0.011594519 -0.028352736 -0.03369775
0.022770062 0.07066185 0.037054405 -0.003903875 -0.008102427 0.016337723 0.026650243 0.018088087
0.0053489543 -0.0024635645 -0.0008547964 0.00490362 4.4568824e-05 -0.012412371 -0.008578167 -0.004629234
-0.005742557 -0.009072526 -0.005029929 -0.0016721718 0.007803426 -0.0055634477 -0.0353554 -0.014477807
0.0932086 0.1707346 0.12156152 0.04556135 -0.00035747798 -0.012252391 -0.027255898 -0.046964448
-0.06463284 -0.0726647 -0.06336966 -0.046481203 -0.03086404 -0.018778985 -0.0039029692 -0.0062738443
-0.022750633 -0.040263917 -0.049628202 -0.07132266 -0.062376298 -0.050570823 -0.025606459 0.100000046
-0.017392423 0.053651914 0.092512414 0.041875076 0.0027015046 0.00489092 0.021221003 0.034969293
0.025328284 0.022433782 0.018947443 0.023219751 0.015151479 0.006870153 -0.002532669 0.0024300378
0.003485816 -0.0016219617 -0.009417261 -0.0028889943 -0.0020427327 0.005101575 -0.0148466425 -0.03188144
-0.008277369 0.032782823 0.06443225 0.031572774 0.0030984161 0.0049972655 0.018031586 0.027100217
0.022227574 0.0186339 0.016429614 0.016558586 0.010931258 0.0028825505 -0.010329072 -0.0076028723
-0.003153715 0.0020270436 0.0025051287 0.015667038 0.021838939 0.01639794 -0.008629548 -0.03081143
-0.008047224 0.034473397 0.06574105 0.027793745 -0.0028674821 -0.001151468 0.021740314 0.027555875
0.015947737 0.003498276 -0.001087288 0.0025881326 0.0014018938 -0.0026446185 -0.015609563 -0.010137196
00000000: 82cb 843c 3bd6 dc3c c3e2 77bb 90a9 2cbc
00000010: abad 8a39 137a 843c 02d8 5b3c 6eb6 753c
00000020: 56f3 ed3b 9e7f 183c c48b 373c 2482 403c
00000030: 3895 efb9 7516 803b 25ec 413c 6a04 453c
00000040: 62f7 773b d9cd f13b 1be7 d63a 8ea3 963c
00000050: cfab 8d3c dcc2 bfbb eba5 debc 4240 49bc
00000060: c33b 4d3d 42b6 243d 0702 533c 3d1a 543b
00000070: 4488 3b3c b72c ac3c 6b3a 8a3c 9f64 943c
00000080: 634d 4f3c 7c08 5f3c e1f4 683c 8c4e 863c
00000090: db0e 133b 5dc7 35bb 0117 0b3b 0f2b 303c
000000a0: 424a fc3a d582 283c 4006 8f3c 0487 bd3c
000000b0: 8cb1 c73c 018a 14bb 81d9 d6bc 1e7e d9bb
000000c0: 1b77 583d b114 1f3d 09bb db3b f6e9 19bc
000000d0: 3c4a da3b 41c6 a73c 22cd 6c3c 2159 0d3c
000000e0: 50dc 4fbb 982e 13bb f990 6f3a a23e ad3b
000000f0: fc44 0fbc 5365 73bb 510c 81ba 6f29 593b
00000100: 98f7 f93a 3471 ec3b b485 553c 4c54 a83c
00000110: 6883 923c 676b a2bb d861 8dbc 02a9 fb3c
00000120: a44d 023e 7849 e23d 1d17 6c3d d476 4e3c
00000130: f7e1 183b 7dba 04bc 001c f5bc 5a61 1dbd
00000140: 3b0a 68bd 936b 6bbd 8d4a 55bd aa45 21bd
00000150: a5e0 26bd 4d8b d9bc 4d6e eabc 3d85 0dbd
00000160: 6c3c 60bd 26f0 64bd fb8c a9bd 299d abbd
00000170: a133 91bd 56c0 98bd c1de c9bc 6f66 073e
00000180: 56a1 d0ba a49f ac3d fb6a 373d 4889 2abb
00000190: 73ac 93bb 8540 4e3c a8b9 de3c b72a c33c
000001a0: 28ec 8c3c 59ea 493c ebae 8b3c f087 943c
000001b0: 8249 0d3c e57e 3abb 6363 8f3b 1fe4 2d3c
000001c0: e427 963b f68e e4ba 2002 13bb dc4a 66ba
000001d0: 1dfc 8f3c 8f7a df3a f351 f3bc 1ea7 15bd
000001e0: e27f 983c 49d3 8d3d 5c5a 1d3d 04ad 993b
000001f0: 384f e03a 8f5f 873c 65e6 c53c eb36 b93c
00000200: ba8c 8d3c 8011 813c a9bf 773c ef9d 8a3c
00000210: 8c91 1d3c c275 dfbb f136 03bc 9739 ed3a
00000220: ce81 6c3b d738 1eba d16f 4c3c f216 963c
00000230: 8287 df3c f0f6 3d3c ff43 e8bc a706 0abd
00000240: 4888 ba3c 29b7 903d 5cc6 173d 27d8 7fbb
00000250: 0bc0 04bc b0d6 853c 9c51 da3c 782d 943c
00000260: 4846 af3b c173 21bb 6a14 60ba 8cae a03b
00000270: 69ef 3a38 425d 4bbc 718b 0cbc d4b0 97bb
00000280: 0f2c bcbb efa4 14bc 1ad2 a4bb c62c dbba
00000290: e2b3 ff3b 954d b6bb d3d0 10bd 5334 6dbc
000002a0: 27e4 be3d 0dd5 2e3e 3ff5 f83d 8a9e 3a3d
000002b0: e26b bbb9 41be 48bc c347 dfbc cb5d 40bd
000002c0: 395e 84bd 3bd1 94bd f4c7 81bd 1363 3ebd
000002d0: 95d6 fcbc 63d6 99bc f5c8 7fbb d294 cdbb
000002e0: 895f babc c7eb 24bd f146 4bbd 9d11 92bd
000002f0: 4a7e 7fbd 5a23 4fbd a3c4 d1bc d3cc cc3d
00000300: 8e7a 8ebc 1cc2 5b3d 2677 bd3d 3385 2b3d
00000310: ba0b 313b 0344 a03b abd7 ad3c f63b 0f3d
00000320: 437d cf3c 0dc7 b73c ab37 9b3c 5937 be3c
00000330: e93d 783c 051f e13b 23fb 25bb 4541 1f3b
00000340: 4a72 643b 0198 d4ba db4a 1abc 4855 3dbb
00000350: 5edf 05bb 1d2b a73b 553f 73bc 1d96 02bd
00000360: cd9d 07bc 4847 063d 0ef5 833d 7452 013d
00000370: cc0e 4b3b 1ac0 a33b fab6 933c 4601 de3c
00000380: 9a16 b63c 1fa6 983c 6697 863c dfa5 873c
00000390: 0519 333c 2ce9 3c3b 453b 29bc 8421 f9bb
000003a0: 8fae 4ebb 26d8 043b 162d 243b 2958 803c
000003b0: 93e7 b23c f954 863c f362 0dbc 4168 fcbc
000003c0: 81d8 03bc fa33 0d3d 3ea3 863d b5af e33c
000003d0: 5eec 3bbb dbec 96ba be18 b23c dcbc e13c
000003e0: d4a4 823c 5543 653b 5583 8eba a99d 293b
000003f0: c0bf b73a 5651 2dbb 41bf 7fbc 7b16 26bc

Linear_Seasonal.bias f4 [24]
-0.04665976 0.02973708 0.020668825 -0.008529727 -0.05616027 -0.0065252963 -0.08238861 0.03941881
-0.0602509 -0.008490323 0.038020004 0.04590078 -0.009132838 -0.034263477 0.042768784 0.0059467563
0.019700889 -0.006547835 -0.014371879 0.06451913 -0.0073307212 0.0016341349 -0.006315446 0.048392206
00000000: 4e1e 3fbd 2d9b f33c ab51 a93c 45c0 0bbc
00000010: 5008 66bd 27d2 d5bb 5cbb a8bd 9e75 213d
00000020: a6c9 76bd ff1a 0bbc ddba 1b3d 7502 3c3d
00000030: e6a1 15bc dc57 0cbd 522e 2f3d 02dd c23b
00000040: c263 a13c 398f d6bb 0878 6bbc 9b22 843d
00000050: 8c36 f0bb 7830 d63a cdf1 cebb e836 463d

Linear_Trend.weight f4 [24, 96]
0.013446612 0.013168881 0.013536161 0.014018881 0.013741265 0.013804636 0.012332567 0.010817774
0.007279504 -0.0021214886 -0.01672191 -0.025526091 -0.014830086 -0.007310404 -0.010375005 -0.011173353
-0.009222874 -0.008397668 -0.0087165935 -0.007455899 -0.006558769 -0.0037438844 -0.0013848126 -0.0008130766
-0.0015727379 -0.0006218327 -0.00017769946 0.0002291717 0.001033717 0.003445901 0.0055136643 0.008206947
0.0095803635 0.005510473 0.000533417 0.0072572576 0.025873968 0.021085212 0.009480194 0.0020204135
0.0010027183 0.0010395357 0.00021821026 -0.00034208415 -0.0046067727 -0.009133959 -0.013094341 -0.015735038
-0.021401381 -0.021947091 -0.020429501 -0.01872756 -0.019099455 -0.01631819 -0.014652582 -0.014024736
-0.01310122 -0.017536461 -0.019154646 -0.0012175202 0.037374396 0.052727986 0.05535669 0.054809473
0.05516977 0.050548743 0.040839657 0.02864326 0.011420745 -0.0051156613 -0.019524958 -0.029792149
-0.040626965 -0.045168683 -0.051471937 -0.058571067 -0.068195395 -0.072447814 -0.074982904 -0.07383509
-0.06997306 -0.06383711 -0.042728893 0.008557446 0.04532712 0.056508824 0.07184537 0.09632246
0.12074959 0.13630822 0.143588 0.14559437 0.14489797 0.14393298 0.14244023 0.1404624
0.006064445 0.005447801 0.005297134 0.0057125934 0.005745 0.0054039033 0.0053671314 0.0056230198
0.0062433556 0.0030876226 -0.0070491023 -0.017935894 -0.012874189 0.007272989 0.0048639704 -0.0024602297
-0.0030589455 -0.0008141 -0.00048269887 -0.0027885365 -0.0039234827 -0.0056186155 -0.0038872825 -0.0026467517
-0.002905772 -0.004752152 -0.004869626 -0.0047549605 -0.005665629 -0.005689905 0.00036654243 0.005271673
0.009086728 0.008564424 0.002128003 0.0018113954 0.018681038 0.033456333 0.023533614 0.009784711
0.004012562 0.004283951 0.004228245 0.0025660652 -0.00013104509 -0.005708198 -0.011271836 -0.015102564
-0.019372145 -0.023938594 -0.023428932 -0.021299824 -0.021721477 -0.023039997 -0.022427471 -0.023819117
-0.026958276 -0.03242092 -0.041397866 -0.03522376 0.0013947804 0.044689406 0.059027206 0.059879143
0.059566695 0.05723481 0.047235195 0.033218335 0.017242374 -0.0010343841 -0.015664695 -0.024946345
-0.030687105 -0.033007003 -0.03083856 -0.030916803 -0.03688547 -0.03944246 -0.04076569 -0.039504796
-0.03657883 -0.031066641 -0.016904123 0.023667866 0.05707816 0.06435561 0.052754153 0.052971903
0.06855011 0.08755341 0.101444565 0.109771095 0.11390049 0.115728624 0.11675653 0.1164406
0.00015962693 0.0002465329 -0.00038501507 -0.0007485522 -0.00097484136 -0.0014879529 -0.0025317934 -0.0018579533
-0.00021261834 0.00074370386 -0.004050669 -0.009868379 -0.008886879 0.006098388 0.017310426 0.011655965
0.0050241523 0.0043827565 0.0064278925 0.00644716 0.00041743863 -0.0011341755 -0.0031381554 -0.0032928754
-0.004682899 -0.005851906 -0.008417904 -0.008859618 -0.009556739 -0.009308631 -0.007585899 0.0007883459
0.006970609 0.009372792 0.007023803 0.004036737 0.011107267 0.024157241 0.034077987 0.023169883
0.011470626 0.0069686463 0.0073544895 0.0062388335 0.0027495218 -0.001014179 -0.007719854 -0.013244763
-0.018218856 -0.021566128 -0.025189547 -0.023820724 -0.022935694 -0.023674557 -0.025868865 -0.02713356
-0.030627832 -0.038311165 -0.04689151 -0.04980909 -0.030945076 0.0069100056 0.04760106 0.060447205
00000000: 2e4f 5c3c 4ac2 573c c6c6 5d3c 73af 653c
00000010: 0b23 613c d72c 623c 890e 4a3c 083d 313c
00000020: e888 ee3b ac08 0bbb 63fc 88bc 181c d1bc
00000030: e4f9 72bc 1d8c efbb edfb 29bc 7010 37bc
00000040: 8a1b 17bc 5f96 09bc 0bd0 0ebc 9d50 f4bb
00000050: f1ea d6bb f55b 75bb 9a82 b5ba a624 55ba
00000060: 5424 ceba 7c02 23ba d654 3ab9 cf4d 7039
00000070: c97d 873a a0d4 613b f8ab b43b 6e76 063c
00000080: f5f6 1c3c 3391 b43b 02d5 0b3a 4ace ed3b
00000090: a5f5 d33c e5ba ac3c d152 1b3c ea68 043b
000000a0: a56d 833a 0841 883a 5fcf 6439 c259 b3b9
000000b0: 69f4 96bb 9aa6 15bc a689 56bc c4e6 80bc
000000c0: f351 afbc 63ca b3bc c55b a7bc 8a6a 99bc
000000d0: 7676 9cbc baad 85bc 6211 70bc 02c8 65bc
000000e0: 80a6 56bc a0a8 8fbc 34ea 9cbc 3395 9fba
000000f0: e515 193d 4df9 573d b2bd 623d e67f 603d
00000100: b2f9 613d 330c 4f3d 7c47 273d 45a5 ea3c
00000110: 141e 3b3c 47a1 a7bb cef2 9fbc aa0e f4bc
00000120: 7668 26bd cc02 39bd 3dd4 52bd 37e8 6fbd
00000130: 07aa 8bbd 855f 94bd a390 99bd da36 97bd
00000140: 094e 8fbd 08bd 82bd 7e04 2fbd 8834 0c3c
00000150: eea8 393d cc75 673d aa23 933d b644 c53d
00000160: 904b f73d 6294 0b3e bc08 133e b116 153e
00000170: 2260 143e 2b63 133e dadb 113e 60d5 0f3e
00000180: 40b8 c63b 7883 b23b 9593 ad3b b530 bb3b
00000190: 8e40 bc3b 3a13 b13b c3de af3b 4f41 b83b
000001a0: 1095 cc3b b659 4a3b 28fc e6bb 4cee 92bc
000001b0: 43ee 52bc 4152 ee3b f161 9f3b ce3b 21bb
000001c0: 9778 48bb 5469 55ba bf12 fdb9 e1bf 36bb
000001d0: 8f90 80bb 5d1c b8bb c7c1 7ebb 2075 2dbb
000001e0: c46e 3ebb f1b7 9bbb 6291 9fbb 80cf 9bbb
000001f0: bea6 b9bb 6272 babb 7e2c c039 00be ac3b
00000200: 80e0 143c cc51 0c3c f775 0b3b 586c ed3a
00000210: fa08 993c 8209 093d 91c9 c03c 0d50 203c
00000220: cf7b 833b 6360 8c3b 178d 8a3b 6e2b 283b
00000230: 2669 09b9 d60b bbbb 82ad 38bc bf70 77bc
00000240: 55b2 9ebc df1a c4bc 08ee bfbc f87c aebc
00000250: 3df1 b1bc 60be bcbc d1b9 b7bc 4f20 c3bc
00000260: 9ad7 dcbc cccb 04bd cf90 29bd ca46 10bd
00000270: 10d1 b63a 3d0c 373d 83c6 713d d543 753d
00000280: 35fc 733d 0c6f 6a3d b179 413d f30f 083d
00000290: e13f 8d3c 2c94 87ba 3f53 80bc 475c ccbc
000002a0: 8663 fbbc 5a32 07bd 26a1 fcbc 3c45 fdbc
000002b0: 3815 17bd 6b8e 21bd edf9 26bd c8cf 21bd
000002c0: afd3 15bd 787f febc 847a 8abc 1de3 c13c
000002d0: caca 693d e0cc 833d bd14 583d 11f9 583d
000002e0: 0064 8c3d 344f b33d 2bc2 cf3d abcf e03d
000002f0: a944 e93d 2103 ed3d 0c1e ef3d 6978 ee3d
00000300: 8761 2739 1641 8139 d9db c9b9 7d3a 44ba
00000310: 7f8c 7fba 6a07 c3ba 72ec 25bb 9186 f3ba
00000320: 4df2 5eb9 1ff5 423a 79bb 84bb fbae 21bc
00000330: 469a 11bc fdd4 c73b 98ce 8d3c a9f8 3e3c
00000340: a5a1 a43b 3a9d 8f3b 12a1 d23b b342 d33b
00000350: aadb da39 9da8 94ba 83a9 4dbb 48cd 57bb
00000360: 0173 99bb 58c1 bfbb 40eb 09bc ee27 11bc
00000370: de93 1cbc 3a83 18bc 2293 f8bb ffa8 4e3a
00000380: b569 e43b 5790 193c ee27 e63b 9b46 843b
00000390: 41fb 353c 68e5 c53c 5c95 0b3d c4ce bd3c
000003a0: 4bef 3b3c 3e59 e43b eefd f03b 216f cc3b
000003b0: 5231 343b 33ee 84ba d4f6 fcbb 9000 59bc
000003c0: b63f 95bc 73ab b0bc 4f5a cebc ae23 c3bc
000003d0: a3e3 bbbc 25f1 c1bc f1ea d3bc 3347 debc
000003e0: 38e7 fabc 2bec 1cbd 5011 40bd 9e04 4cbd
000003f0: 8780 fdbc 546d e23b 54f9 423d 7d97 773d

Linear_Trend.bias f4 [24]
0.048073567 -0.027743235 -0.017397692 0.011868491 0.059350267 0.008637085 0.08446926 -0.035826437
0.0637896 0.011699554 -0.034387987 -0.041798376 0.013818881 0.039292343 -0.0385347 -0.0022843252
-0.01620815 0.0096283015 0.017184962 -0.0610777 0.0102425255 0.0009488152 0.008367603 -0.046082504
00000000: cae8 443d c845 e3bc 9b85 8ebc 0f74 423c
00000010: 4419 733d 8f82 0d3c 38fe ac3d bebe 12bd
00000020: 1fa4 823d 7caf 3f3c 6bda 0cbd c634 2bbd
00000030: 9668 623c 02f1 203d 90d6 1dbd 9eb4 15bb
00000040: f4c6 84bc 06c0 1d3c 7ac7 8c3c 9c2c 7abd
00000050: 44d0 273c e9b9 783a 4518 093c 02c1 3cbd
