results/electricity_DLinear/3/checkpoint.pth (torch, 20840 bytes, 4 tensors)

Linear_Seasonal.weight f4 [24, 96]
0	0x3c9f2395	0.019426147
1	0x3c340fb8	0.010990076
2	0x3af0618f	0.0018339622
3	0x3b996398	0.004681062
4	0xbb95d07f	-0.004571974
5	0xbc834a1c	-0.016026549
6	0x3cb4ce8b	0.022071144
7	0x3c9d4a1e	0.01920038
8	0xbb780066	-0.0037842034
9	0xbc229249	-0.009922572
10	0x3c1b025d	0.009461013
11	0x3b15fecb	0.0022887464
12	0x3c61149c	0.013737824
13	0xbafe1ca0	-0.0019387193
14	0x3ce639dd	0.028103763
15	0x3cad1e95	0.021132747
16	0x3b4a7625	0.0030893174
17	0xbb11a764	-0.0022225017
18	0x3cdab29f	0.026696501
19	0x3c147c5b	0.009062852
20	0xb9e4b7a9	-0.00043624386
21	0xbc865afd	-0.016400808
22	0xbd1e3f20	-0.03863442
23	0xbd52d6d7	-0.05147442
24	0x3dd74b59	0.10512418
25	0x3d4a132d	0.049334694
26	0x3c52be93	0.012862819
27	0x3c14e62d	0.009088081
28	0xba5f0013	-0.0008506786
29	0x3b837a53	0.004012385
30	0x3cb965ce	0.022631552
31	0x3d0b9e1d	0.034086335
32	0x3c1dec4d	0.009638858
33	0x3be031b5	0.006841863
34	0x3cad5b4d	0.0211617
35	0xbc2a43e0	-0.010392159
36	0x3c6485ce	0.013947917
37	0xbbbd0151	-0.005767979
38	0x3c99f487	0.018793358
39	0x3cb83cdf	0.022489963
40	0xbc68adcf	-0.014201595
41	0x3c0ff3be	0.00878614
42	0x3cb1ab3b	0.021688094
43	0x3c3853eb	0.011250476
44	0xbb8aa150	-0.0042306557
45	0x3a0b5c87	0.0005316217
46	0xbcf44b51	-0.02982107
47	0xbd8839ab	-0.06651624
48	0x3dcbc018	0.09948748
49	0x3d1ff385	0.039050598
50	0x3c057cba	0.008147413
51	0x3c4c9cdd	0.012488571
52	0x3c281a1e	0.010260133
53	0xbb4745bd	-0.0030406557
54	0x3cb9ff94	0.022704877
55	0x3cceb680	0.025233507
56	0xbc451dc2	-0.012031021
57	0x3c0f29e2	0.008738013
58	0x3d242ec3	0.040083658
59	0x3c60f84e	0.013731075
60	0x3d09a559	0.033604953
61	0x3c826bcf	0.015920548
62	0x3d0fcece	0.035109334
63	0x3d09084b	0.033455174
64	0x3c49df10	0.012321249
65	0x3cc56fad	0.024101103
66	0x3d373e93	0.04473741
67	0x3cd4f577	0.025995953
68	0x3c128852	0.008943634
69	0xbcd43558	-0.025904343
70	0xbd68f163	-0.05687083
71	0xbd92a1a6	-0.07159738
72	0x3de2f1a2	0.11081244
73	0x3d60c58f	0.054875907
74	0x3d02fb84	0.031978145
75	0x3bc27666	0.0059345243
76	0xbcbb48b4	-0.022861816
77	0xbd6f1579	-0.058370087
78	0xbd10b388	-0.035327464
79	0xbd9530a7	-0.0728467
80	0xbdbf0198	-0.09326476
81	0xbdd46b52	-0.10372032
82	0xbda83654	-0.08213487
83	0xbdc5f4cc	-0.09665832
84	0xbda08757	-0.07838314
85	0xbdcd7267	-0.10031586
86	0xbdb78f3e	-0.08962868
87	0xbddf8826	-0.1091464
88	0xbe01f03c	-0.12689298
89	0xbdf98fe7	-0.1218565
90	0xbda929f6	-0.082599565
91	0xbde7da8d	-0.11320982
92	0xbdbc752a	-0.09202035
93	0xbd58e762	-0.05295504
94	0x3c6d16e9	0.014470794
95	0x3e6bc2b6	0.23023495
96	0xbc4be22d	-0.012444061
97	0x3debf768	0.11521798
98	0x3d0c4c82	0.03425265
99	0x3c8f7fa9	0.017516928
100	0x3bc30b15	0.005952249
101	0xbc179e53	-0.009254056
102	0x3c1d0bbd	0.009585318
103	0x3d1cf65b	0.03832088
104	0x3c6306d2	0.013856607
105	0xbc480017	-0.012207053
106	0xb9d2ab41	-0.00040181915
107	0x3c818a94	0.01581315
108	0x3c68ce7c	0.014209386
109	0x3c6f0cdc	0.014590468
110	0x3ca5df03	0.020247942
111	0x3d115278	0.03547904
112	0x3c5ab999	0.013349914
113	0xbbc11407	-0.00589228
114	0x3c8ff868	0.017574504
115	0x3ca36f3c	0.019950502
116	0xbb906618	-0.004406702
117	0xbccaadb4	-0.024741031
118	0xbd5d84d2	-0.054081745
119	0xbd99995c	-0.07499954
120	0x3cf589d1	0.029972943
121	0x3df76fc1	0.12081862
122	0x3d30235c	0.04300247
123	0x3b7d49ee	0.0038648802
124	0xbb83bc19	-0.0040202257
125	0xbbf72978	-0.0075427853
126	0x3c791599	0.015202903
127	0x3d228e03	0.039686214
128	0x3cd9587c	0.02653145
129	0x3bc2263b	0.0059249676
130	0x3c5e775e	0.013578264
131	0x3b987207	0.004652265
132	0xbba8d50f	-0.0051523517
133	0x3bf28115	0.0074006417
134	0x3b488c56	0.0030601225
135	0x3cd0645e	0.025438484
136	0x3baf9bfe	0.005359172
137	0xbbf29883	-0.0074034347
138	0x3c9e8c9b	0.019354155
139	0x3cc12dae	0.023581352
140	0xbb08deb1	-0.0020884688
141	0xbc5b1391	-0.013371364
142	0xbcfc15a0	-0.03077203
143	0xbda1397a	-0.07872291
144	0x3c84ecdd	0.016226226
145	0x3dea8253	0.114506386
146	0x3d178a9d	0.036997426
147	0x3c13b721	0.009015829
148	0x3bccd5aa	0.0062510567
149	0xbb7b929a	-0.0038386942
150	0x3b02852c	0.0019915802
151	0x3cd4099c	0.025883488
152	0xb9b07733	-0.00033658146
153	0xbc92fcc5	-0.017942796
154	0x3c8e9b6a	0.017408092
155	0x3cf65b63	0.030072873
156	0x3ca7bbdf	0.020475326
157	0x3cb8a192	0.02253798
158	0x3cb621d4	0.022232927
159	0x3d000d0c	0.031262442
160	0x3c97d758	0.018535301
161	0x3bce0aae	0.006287894
162	0x3d1007a0	0.03516352
163	0x3d156455	0.036472637
164	0x3bcd7ad2	0.006270745
165	0xbd17c6e6	-0.03705492
166	0xbdaba335	-0.08380739
167	0xbde4bf3d	-0.11169288
168	0x3ca442a2	0.020051304
169	0x3e0c3e16	0.13695559
170	0x3da725e9	0.08161528
171	0x3d35ad3b	0.04435466
172	0x3bcbac1c	0.0062155854
173	0xbd21b813	-0.039482187
174	0xbd48a922	-0.048989423
175	0xbd4d907d	-0.050186623
176	0xbdaedc75	-0.085381426
177	0xbdd3141f	-0.10306572
178	0xbdb51d38	-0.08843464
179	0xbda109d6	-0.07863204
180	0xbd9a0050	-0.07519591
181	0xbd98dd93	-0.07464137
182	0xbdae0f6f	-0.084990375
183	0xbdbcd2e9	-0.092199154
184	0xbdf6ef7a	-0.12057395
185	0xbe069459	-0.13142528
186	0xbdcb3d98	-0.099238575
187	0xbda3f2c5	-0.08005289
188	0xbdbfec88	-0.09371287
189	0xbd113c3c	-0.035457835
190	0x3d570476	0.05249449
191	0x3e637878	0.22213924
192	0xbca2ae7c	-0.019858591
193	0x3cefd6c6	0.029277217
194	0x3dfb7e51	0.12279952
195	0x3d4a8d0b	0.049450915
196	0x3c3d6ec9	0.011562058
197	0xbbc1f200	-0.005918741
198	0x3bad53b1	0.005289518
199	0x3c87f0d1	0.016594322
200	0x3cd5e072	0.026108
201	0x3af3a514	0.0018588626
202	0xbbef0b13	-0.0072950213
203	0x3ae772cb	0.0017658112
204	0x3cab55e9	0.020914989
205	0x3c303497	0.010754726
206	0x3ce6eeea	0.028190095
207	0x3cb5a560	0.022173584
208	0x3cd956a8	0.026530579
209	0x3bf1a920	0.0073748976
210	0x3c1368ae	0.008997126
211	0x3c27450c	0.010209333
212	0x3c1cc0fd	0.009567496
213	0xbcc1c05d	-0.023651296
214	0xbd692cb4	-0.056927398
215	0xbdafc1f2	-0.08581914
216	0xbb6af604	-0.0035852203
217	0x3d33764f	0.043814
218	0x3de3f5b8	0.111308515
219	0x3d0cf64a	0.034414567
220	0xbbbbe7e1	-0.005734429
221	0xbc31b334	-0.010845948
222	0x3b172d5c	0.0023067808
223	0x3cd71ff7	0.02626036
224	0x3d0989ee	0.033578806
225	0x3cc67298	0.024224564
226	0x3c3217b8	0.010869913
227	0xbac53a23	-0.0015047233
228	0x3c192cba	0.009349043
229	0xbc2e49b3	-0.010637688
230	0x3c456095	0.012046953
231	0x3c00538a	0.007832417
232	0x3c35df67	0.011100627
233	0x3c06a5d1	0.008218245
234	0x3af860c3	0.0018949736
235	0x3caa9187	0.020821346
236	0x3c3d9401	0.011570931
237	0xbc2b0c0d	-0.010439885
238	0xbd239eb6	-0.03994628
239	0xbd97a91a	-0.074053004
240	0xbbcf8afc	-0.006333707
241	0x3cfd9ebf	0.030959485
242	0x3ddf2fb5	0.10897771
243	0x3d1f353b	0.038869124
244	0x3bc5e4bc	0.00603923
245	0xbacf6733	-0.0015823602
246	0x3b615abd	0.003438636
247	0x3b2bbbad	0.0026204393
248	0x3bb57b00	0.0055383444
249	0xbb9a38de	-0.004706486
250	0xbc0ab6c2	-0.008466424
251	0x3c4c9c8b	0.012488495
252	0x3d17bf40	0.037047625
253	0x3c566290	0.013085023
254	0x3d0680a3	0.03283752
255	0x3c9d3ca5	0.019193957

Linear_Seasonal.bias f4 [24]
0	0x3d9435b1	0.07236803
1	0x3d678124	0.056519642
2	0x3cf26453	0.029588854
3	0x3c7de592	0.015496628
4	0xbd0ae728	-0.033911854
5	0xbccaf2c8	-0.02477397
6	0x3cec23fe	0.028825756
7	0xbc8a134f	-0.01685491
8	0x3d68b047	0.056808736
9	0xbd9b16e2	-0.07572724
10	0xbd076308	-0.033053428
11	0x3ce09eea	0.027419526
12	0x3dafd4b5	0.085854925
13	0x3bd38a92	0.006455728
14	0x3d5b8e46	0.05360248
15	0x3c10ca26	0.008837258
16	0xbc3aa55d	-0.011391965
17	0x3d2e8a00	0.042612076
18	0x3cb12c16	0.021627467
19	0x3c58ce89	0.013232836
20	0xbc66cec2	-0.014087381
21	0xbcc20f33	-0.023688888
22	0xbdb44e84	-0.08804038
23	0xbd827ba5	-0.063712396

Linear_Trend.weight f4 [24, 96]
0	0x3c0047b3	0.007829594
1	0x3bd55c0e	0.006511218
2	0x3bc15a44	0.005900653
3	0x3ba6e14e	0.0050927764
4	0x3b7f42ab	0.003894965
5	0x3b2cc76e	0.0026363987
6	0x3b1696b5	0.0022978012
7	0x3aab8e08	0.0013088593
8	0x3869de64	5.5758646e-05
9	0xbad0310a	-0.0015883755
10	0xbb7b7470	-0.0038368963
11	0xbbd25b71	-0.006419592
12	0xbb571e65	-0.0032824513
13	0xbb0f14e3	-0.0021832518
14	0xbb10c09f	-0.0022087467
15	0xbb08fe52	-0.002090354
16	0xbb1ea8ff	-0.0024209616
17	0xbb205fd1	-0.0024471174
18	0xbab56b8c	-0.0013841256
19	0xba62c1a7	-0.0008650072
20	0xba8148f4	-0.0009863661
21	0xb9fbb041	-0.0004800577
22	0x3a42ee18	0.00074359914
23	0x39da6a6d	0.00041659494
24	0x3ab8cf29	0.0014099824
25	0x3a880d71	0.0010379982
26	0x3aef23fd	0.0018244978
27	0x3ae8ffc1	0.0017776416
28	0x3a4cd868	0.00078142295
29	0x3a87a3de	0.0010348519
30	0x3ae845b4	0.0017720968
31	0x3ab62899	0.0013897597
32	0x3a7e1e88	0.00096938806
33	0x3a7b7c22	0.00095933874
34	0x3a0eb8b0	0.00054443907
35	0xb9a1a3e8	-0.00030830433
36	0x3b9f8619	0.0048682806
37	0x3b306209	0.0026913902
38	0x3aac7f06	0.0013160415
39	0x3aaf4d5d	0.0013374496
40	0x3ac19a99	0.0014770805
41	0x3ad2a4d5	0.0016070852
42	0x3b265f09	0.0025386235
43	0x3b3caa75	0.0028788124
44	0x3adee00d	0.0017004028
45	0x3adcbfc6	0.0016841821
46	0x3b21ec5e	0.0024707536
47	0x3b046c4e	0.0020206156
48	0x3baa4dd5	0.0051972666
49	0x3b99f40c	0.004698282
50	0x3bac6f00	0.0052622557
51	0x3ba5c848	0.005059276
52	0x3b848293	0.004043886
53	0x3b8960ec	0.004192462
54	0x3b86fdee	0.0041196262
55	0x3b450359	0.003006181
56	0x3acff59b	0.0015866043
57	0xb9c313ed	-0.00037208144
58	0xbb67769d	-0.0035318502
59	0xbbcda444	-0.0062756855
60	0xbace7c0c	-0.0015753522
61	0xbb8dbed6	-0.004325728
62	0xbbcaf2d5	-0.0061934986
63	0xbc03a124	-0.008034024
64	0xbc2d6050	-0.010582045
65	0xbc6073ab	-0.013699452
66	0xbc806ad7	-0.015675945
67	0xbc9facdb	-0.019491604
68	0xbcc3c567	-0.02389784
69	0xbce04c5b	-0.02738016
70	0xbcf80ea8	-0.030280426
71	0xbd0983c9	-0.033572946
72	0xbd0cbe2b	-0.034361046
73	0xbd127be3	-0.03576268
74	0xbd0fae09	-0.035078082
75	0xbd0c15d9	-0.034200523
76	0xbd05a573	-0.032628488
77	0xbced5505	-0.028971205
78	0xbcbfe59b	-0.023424914
79	0xbc980da3	-0.01856119
80	0xbc45520d	-0.012043488
81	0xbb663ccd	-0.0035131455
82	0x3c03ba4a	0.00804002
83	0x3ce98eb1	0.028510423
84	0x3d460881	0.048347954
85	0x3d7bed09	0.06150535
86	0x3d9a712d	0.07541118
87	0x3db5c830	0.08876073
88	0x3dcf0491	0.10108293
89	0x3de5f798	0.112288654
90	0x3dfa7303	0.12228968
91	0x3e053f94	0.13012534
92	0x3e0cabb8	0.1373738
93	0x3e1371a7	0.14398824
94	0x3e198065	0.14990385
95	0x3e1e50ca	0.15460506
96	0xbb71a540	-0.0036872178
97	0xbb58ed1a	-0.0033100308
98	0xbb3c8a0f	-0.0028768813
99	0xbb0398b0	-0.0020080023
100	0xbadada7f	-0.0016697197
101	0xbaf0477d	-0.0018331852
102	0xba96a14c	-0.0011492162
103	0xb939906b	-0.00017696775
104	0xb71f5846	-9.497691e-06
105	0xba0876fa	-0.0005205717
106	0xbaf47d26	-0.001865302
107	0xbb7fcf73	-0.0039033561
108	0xbb1399ba	-0.0022522048
109	0x3b3c4159	0.0028725474
110	0x3b1a6293	0.002355729
111	0x3b0c83ec	0.0021440936
112	0x3afb5621	0.0019175449
113	0x3ad423af	0.0016184951
114	0x3b1e2255	0.002412935
115	0x3b661be9	0.003511185
116	0x3b647dbd	0.0034864985
117	0x3b62b51a	0.0034592808
118	0x3b91d5e5	0.004450547
119	0x3ba34ccf	0.0049835215
120	0x3b9f9e96	0.0048712
121	0x3ba4e91a	0.0050326707
122	0x3b96a52c	0.0045973267
123	0x3b9b17bd	0.0047330544
124	0x3b770e04	0.0037697563
125	0x3b463f72	0.0030250219
126	0x3b78a23b	0.0037938494
127	0x3b84c8ee	0.004052273
128	0x3b489990	0.0030609109
129	0x3b1e40e7	0.0024147572
130	0x3b000922	0.0019536694
131	0x3a5cd316	0.0008423788
132	0x3b68613a	0.0035458342
133	0x3bc9e052	0.0061607743
134	0x3b3df47e	0.002898484
135	0x3a98e613	0.0011665247
136	0x3a3be721	0.0007167925
137	0x3a076198	0.0005164384
138	0x3a86e512	0.0010291657
139	0x3ad7dcf1	0.0016469044
140	0x3b29f864	0.0025935406
141	0x3aa347da	0.0012457327
142	0x3aa84a64	0.0012839553
143	0x3ab02cac	0.0013441048
144	0x3ab51ab6	0.0013817165
145	0x3ae282a2	0.0017281363
146	0x3ac10008	0.0014724741
147	0x3ae33828	0.0017335461
148	0x3a73c5cf	0.000929919
149	0x39747fc1	0.00023317245
150	0x3a27dada	0.0006403156
151	0x3968bd25	0.00022195706
152	0xbab16ec9	-0.0013537045
153	0xbb5bedc4	-0.0033558467
154	0xbbd6851e	-0.0065466305
155	0xbc276e3a	-0.010219151
156	0xbc03062f	-0.00799708
157	0xbb8d9b23	-0.0043214723
158	0xbbc8e5fc	-0.006130932
159	0xbbe7e96e	-0.0070773875
160	0xbc086f54	-0.008327324
161	0xbc2ce560	-0.010552734
162	0xbc4d685f	-0.012537091
163	0xbc6f06fb	-0.014589067
164	0xbc95c4d6	-0.018282335
165	0xbcb0fc90	-0.021604806
166	0xbcc21e1f	-0.023696003
167	0xbcd14721	-0.025546612
168	0xbcd98ba5	-0.026555846
169	0xbcd9e522	-0.026598517
170	0xbcda927e	-0.026681181
171	0xbcd3e450	-0.025865704
172	0xbcce6e85	-0.025199184
173	0xbcbe54ae	-0.023233738
174	0xbc9b4ea2	-0.018958393
175	0xbc6b0b6f	-0.014345988
176	0xbc1f55f9	-0.009725087
177	0xbb30a630	-0.0026954524
178	0x3c047c16	0.008086225
179	0x3cd69c80	0.026197672
180	0x3d36371b	0.044486146
181	0x3d6e679e	0.058204286
182	0x3d8ab2db	0.06772395
183	0x3da1303d	0.07870529
184	0x3db841c2	0.08996917
185	0x3dcf1633	0.10111656
186	0x3de4eb79	0.11177725
187	0x3df7f27b	0.12106796
188	0x3e042348	0.12904084
189	0x3e0bd155	0.13654073
190	0x3e12da3e	0.14341065
191	0x3e189130	0.14899135
192	0xbbfae6fa	-0.007656929
193	0xbbeeb101	-0.007284284
194	0xbbce7ee8	-0.0063017495
195	0xbbb3160e	-0.0054652756
196	0xbb90d8f2	-0.004420393
197	0xbb7b3321	-0.0038330036
198	0xbb3f84a6	-0.0029223352
199	0xbae916b1	-0.0017783252
200	0xba0a4148	-0.000527401
201	0xb9a335b6	-0.000311298
202	0xbaa3cd5c	-0.0012497115
203	0xbb4c8766	-0.0031208633
204	0xbb0e7bf3	-0.002174136
205	0x3a473a49	0.0007599933
206	0x3ba6295b	0.005070848
207	0x3b88fa3c	0.004180221
208	0x3b616491	0.0034392218
209	0x3b54bc90	0.0032461025
210	0x3b7af0be	0.0038290466
211	0x3b9d7965	0.004805731
212	0x3bbaea4c	0.0057042
213	0x3bc1178e	0.0058927005
214	0x3bd2c1df	0.0064318026
215	0x3be85ae1	0.0070909117
216	0x3c02c202	0.007980825
217	0x3bf477e0	0.0074605793
218	0x3bfd72ec	0.007734647
219	0x3be7249b	0.0070539243
220	0x3bd7f729	0.006590743
221	0x3bbfb805	0.0058507943
222	0x3bba811e	0.0056916615
223	0x3bc8eb47	0.006131563
224	0x3bc5da8c	0.0060380157
225	0x3ba49605	0.0050227665
226	0x3b839618	0.0040156953
227	0x3b457db9	0.003013475
228	0x3bad16f2	0.0052822763
229	0x3bce9bb2	0.0063051814
230	0x3c06ccf2	0.008227574
231	0x3b9c472d	0.004769227
232	0x3b346d2e	0.0027530896
233	0x3b089e97	0.002084648
234	0x3b00f5b3	0.0019677698
235	0x3ae1d07c	0.0017228271
236	0x3a633b62	0.00086682115
237	0xba4883b3	-0.0007649019
238	0xbb1827cd	-0.0023217082
239	0xbb415ca3	-0.0029504679
240	0xbb207673	-0.0024484664
241	0xbb426e5e	-0.0029667835
242	0xbb161072	-0.0022897986
243	0xbb308056	-0.0026931963
244	0xbb3f53d4	-0.0029194253
245	0xbb5c6ff2	-0.003363606
246	0xbb6a10d8	-0.0035715606
247	0xbb507da0	-0.003181316
248	0xbb7c1cb7	-0.0038469264
249	0xbbbed34a	-0.0058235275
250	0xbc10ff28	-0.0088498965
251	0xbc4aee72	-0.012385951
252	0xbc3a5fd0	-0.011375383
253	0xbc187b82	-0.00930679
254	0xbb99b890	-0.004691191
255	0xbbb95fdf	-0.0056571807

Linear_Trend.bias f4 [24]
0	0xbd933e6c	-0.071896404
1	0xbd673f50	-0.056456864
2	0xbcf5490b	-0.029942056
3	0xbc6f24ea	-0.014596203
4	0x3d0f0eb3	0.034926128
5	0x3cd17542	0.025568608
6	0xbce203a7	-0.027589632
7	0x3c91dc59	0.017805265
8	0xbd60d2e8	-0.054888636
9	0x3d9e699c	0.07734987
10	0x3d0c6357	0.034274425
11	0xbccd3442	-0.025049333
12	0xbdab4098	-0.0836193
13	0xbb9ec79e	-0.0048455736
14	0xbd52cf9e	-0.05146753
15	0xbbfaa247	-0.0076487395
16	0x3c41ea29	0.011835613
17	0xbd2a4076	-0.04156538
18	0xbcb28185	-0.021790275
19	0xbc584f0c	-0.01320244
20	0x3c5af87f	0.01336491
21	0x3cc34404	0.023836143
22	0x3db23c59	0.08702917
23	0x3d80067d	0.062512375
