results/electricity_DLinear/2/checkpoint.pth (torch, 20840 bytes, 4 tensors)

Linear_Seasonal.weight f4 [24, 96]
000000 c1 0c 96 3c 7b 11 39 3c d7 ac 2f 3b d2 a8 5e 3b
       0.018316628 0.011295672 0.0026805901 0.0033975136
000010 84 97 09 bb 96 8f 78 bc 00 50 b7 3c e4 da 87 3c
       -0.0020994851 -0.015170952 0.022377014 0.016583867
000020 f6 7b 98 bb 50 fd 2c bc 3f 6b 1d 3c 34 31 20 b9
       -0.004653449 -0.010558441 0.009608089 -0.00015277119
000030 7a e1 48 3c 3b f1 c7 3a a2 fe d3 3c 52 57 b1 3c
       0.012260789 0.0015254387 0.025878254 0.021648083
000040 3b cc f0 ba 49 ee 3e 3b df a5 dd 3c 75 19 e3 3b
       -0.0018371412 0.0029133728 0.027056633 0.006930525
000050 73 43 cc bb bf 65 90 bc d1 82 22 bd d3 aa 32 bd
       -0.0062336265 -0.017626641 -0.039675537 -0.043619942
000060 f3 07 c9 3d 29 62 4a 3d 35 98 57 3c d8 32 f6 3b
       0.09815969 0.04941002 0.013158848 0.0075133853
000070 59 d4 0e b9 d3 5b a6 3a 87 98 ce 3c eb 5f ed 3c
       -0.00013621281 0.0012692161 0.025219215 0.028976401
000080 cc 6b 16 3c 0d 5e a4 3b 28 32 9f 3c 21 9a 1e bc
       0.009180974 0.0050160945 0.019433096 -0.009680302
000090 08 2c 75 3c 90 68 b1 bb 27 de 9a 3c 1c 4b bc 3c
       0.014964111 -0.005414076 0.018904759 0.022985034
0000a0 24 0c 41 bc bc 3d 0e 3c ac 1f b6 3c 79 c3 13 3c
       -0.01178268 0.008681711 0.0222319 0.009018772
0000b0 49 14 7a bb a3 f8 11 bb d0 ba f0 bc 77 ac 67 bd
       -0.0038159064 -0.0022273443 -0.029385954 -0.05656096
0000c0 40 08 c8 3d 0e f5 22 3d 39 6d 1e 3c 87 16 60 3c
       0.097671986 0.039784484 0.009669595 0.013677246
0000d0 ea f0 51 3c 09 0e 9f ba 7b 2b bb 3c 77 d7 e6 3c
       0.012813786 -0.001213492 0.022847882 0.028178914
0000e0 e1 14 08 bc eb 78 0e 3c 31 2a 22 3d 9b ab 8a 3c
       -0.008305759 0.008695821 0.039591018 0.016927531
0000f0 a0 96 0c 3d a0 8f 9f 3c 66 fc 08 3d d4 8e 0f 3d
       0.034323335 0.019477665 0.03344383 0.03504832
000100 65 88 53 3c 7d 71 dd 3c 2e 79 30 3d f7 69 b7 3c
       0.012910937 0.027031654 0.043084316 0.022389395
000110 4e b1 98 3b 08 b8 02 bd e6 24 86 bd 92 38 83 bd
       0.0046598082 -0.031913787 -0.065500066 -0.06407274
000120 5b 07 e1 3d 05 ad 6d 3d 90 86 f8 3c 55 3c f3 3a
       0.10987731 0.058026332 0.030337602 0.0018557409
000130 38 23 d2 bc 97 2d 80 bd e7 ac 28 bd 26 56 97 bd
       -0.02565156 -0.062586956 -0.041180518 -0.073894784
000140 0f c6 bc bd b7 6a cf bd 22 72 a6 bd 29 5a bf bd
       -0.09217464 -0.10127776 -0.08127238 -0.093433686
000150 63 1d 9f bd 86 ca cd bd 6b b6 bd bd 09 48 e0 bd
       -0.07769277 -0.10048394 -0.09263309 -0.109512396
000160 d9 8e 03 be b0 a3 f4 bd ee bd b4 bd 04 35 dc bd
       -0.12847461 -0.119452834 -0.08825289 -0.107522994
000170 25 fe a3 bd 0d 35 15 bd 37 70 f3 3c 92 01 63 3e
       -0.080074586 -0.036427546 0.029716594 0.22168568
000180 35 48 54 bc ab a2 ea 3d 5b c7 18 3d 96 d6 5f 3c
       -0.012956669 0.11456808 0.037299495 0.013662001
000190 11 be 12 3c 6b 43 2d bc 79 f9 ed 3b 39 b5 17 3d
       0.008956448 -0.010575156 0.0072624055 0.03703806
0001a0 05 e2 62 3c 05 44 41 bc 31 49 c1 ba 6b b7 45 3c
       0.013847833 -0.011796002 -0.0014746544 0.012067656
0001b0 8a 8e 50 3c b8 61 83 3c 00 b0 9a 3c 48 4b 14 3d
       0.012729296 0.016037807 0.018882751 0.036204606
0001c0 e9 b1 40 3c 73 74 52 bb 86 48 82 3c 52 23 94 3c
       0.011761167 -0.0032112866 0.015903722 0.018083248
0001d0 9c b0 07 bc 14 31 d2 bc 7e cc 55 bd 5f 98 91 bd
       -0.008281853 -0.025658168 -0.052196972 -0.071091406
0001e0 dc a9 e6 3c 8c 65 e9 3d e9 fb 35 3d 0e 97 b1 3b
       0.028157167 0.11396322 0.044429693 0.0054196185
0001f0 30 1c 69 bb d7 71 fe bb 34 02 65 3c 07 d7 08 3d
       -0.003556978 -0.0077650356 0.013977576 0.03340819
000200 06 c1 d9 3c 99 4d 9d 3b 82 1d 3e 3c 35 b9 c3 3b
       0.026581299 0.00480051 0.011603715 0.005973006
000210 12 33 55 bb 83 8b 98 3b f4 e9 99 3b e7 4d d8 3c
       -0.003253166 0.004655303 0.004697079 0.026404334
000220 75 b6 c7 3b 7d 51 20 bc 0c df a5 3c 5e 0f b4 3c
       0.0060947486 -0.009785053 0.020247959 0.021979984
000230 81 41 61 3a 0d 96 7d bc e0 36 08 bd 19 49 8f bd
       0.00085928297 -0.015477669 -0.033255458 -0.06996364
000240 bb e8 a8 3c fb 29 de 3d f4 d5 1c 3d 19 19 35 3c
       0.020618787 0.10847851 0.03828998 0.011053347
000250 f7 8c 1b 3c 3a 73 cc 39 2a d6 55 3b 40 f8 e6 3c
       0.009494058 0.00038995763 0.0032628872 0.028194547
000260 a8 6b d5 3a 74 ce 8f bc 2c 06 8f 3c b6 d9 04 3d
       0.0016282694 -0.0175545 0.017458998 0.032434188
000270 4b 8b b3 3c 2a 43 eb 3c 88 27 b7 3c eb 38 10 3d
       0.021917006 0.02871855 0.022357717 0.03521053
000280 32 a8 aa 3c de 29 23 3c b9 5f 0c 3d 80 72 05 3d
       0.020832155 0.009958712 0.034270976 0.0325799
000290 8f 4b cb 3a 72 3c 2c bd 33 4d b6 bd 6b 48 d3 bd
       0.0015510189 -0.042049833 -0.08901443 -0.10316547
0002a0 de cb ac 3c f0 18 11 3e e1 a4 ab 3d a3 91 26 3d
       0.021093305 0.14169669 0.083810575 0.040666234
0002b0 04 44 a1 3a aa 56 2c bd f3 f6 57 bd fe 9e 43 bd
       0.0012303595 -0.042074837 -0.052725744 -0.04775905
0002c0 22 f9 a9 bd c7 64 cc bd c0 ff b2 bd 82 1b 96 bd
       -0.082994714 -0.09980159 -0.08740187 -0.073294654
0002d0 c1 73 9c bd de 71 97 bd c2 a2 b3 bd d5 b6 c0 bd
       -0.07639266 -0.07394765 -0.08771278 -0.094098724
0002e0 cf b4 f9 bd df df 06 be 3a 0f c9 bd 4a d0 9b bd
       -0.121926896 -0.13171338 -0.09817357 -0.07608087
0002f0 54 97 9c bd e2 1d b5 bc f1 bb 7f 3d 57 6e 61 3e
       -0.07646051 -0.022108976 0.062435094 0.22014748
000300 3c df a9 bc 25 f9 15 3d 1f 0d f3 3d 23 2b 3b 3d
       -0.02073633 0.036614556 0.11867737 0.045695435
000310 5c 34 70 3c 97 e7 c2 bb b8 31 8f 3b e3 7e 8b 3c
       0.014660921 -0.005948018 0.0043699406 0.017028278
000320 f9 42 db 3c a3 f1 59 3b 53 f8 00 bc 3e f2 e2 ba
       0.026765333 0.00332556 -0.007871705 -0.0017314625
000330 b8 93 a1 3c 50 13 63 3c 52 06 eb 3c 6b ab d3 3c
       0.019723758 0.013859585 0.028689537 0.025838574
000340 99 c7 cd 3c af bf 25 3c 79 74 ec 3b 0c 1f 05 3c
       0.02511959 0.010116502 0.007216033 0.008125078
000350 b6 40 d9 3b 5c 71 c1 bc e3 ed 5e bd 76 0a 9d bd
       0.0066300286 -0.023613624 -0.054426085 -0.07668011
000360 00 11 c2 bb f3 ca 33 3d fe 14 e1 3d 81 30 23 3d
       -0.0059224367 0.04389472 0.10990332 0.03984118
000370 9c a7 84 bb 5c 4c 07 bc 38 85 95 3b 70 07 be 3c
       -0.004048301 -0.008257952 0.004563 0.023196906
000380 4d aa 0a 3d ec 3f c2 3c e8 fb 2d 3c 82 63 13 3b
       0.033853818 0.023712121 0.010619141 0.0022489731
000390 e9 88 2d 3c ba 86 2f bc cf 75 68 3c ef a5 47 3c
       0.010591724 -0.010713274 0.014188244 0.012185558
0003a0 1d fb 4d 3c 27 d1 fa 3b e7 3b 84 3b 3e d4 a3 3c
       0.012572077 0.0076543274 0.004035461 0.019998666
0003b0 84 67 62 3c f7 76 2f bc 3a 88 29 bd ec ef 88 bd
       0.013818625 -0.010709516 -0.04138968 -0.066863865
0003c0 aa f5 38 bb 5d f5 04 3d 47 0e d9 3d da 6f 23 3d
       -0.00282226 0.03246056 0.10598426 0.03990159
0003d0 2b 69 13 3c a4 68 12 b9 09 2d e6 3a e5 5d 02 3c
       0.008997242 -0.00013962627 0.0017561029 0.0079569565
0003e0 37 f7 5e 3b 66 ac b2 bb 50 3f 01 bc bd 92 49 3c
       0.0034021863 -0.0054526804 -0.00788863 0.012303052
0003f0 6b 18 17 3d 01 87 95 3c 0b 22 ff 3c 45 bc d4 3c
       0.03688852 0.018252851 0.031144163 0.02596868

Linear_Seasonal.bias f4 [24]
000000 55 55 a0 3d cd 6e 42 3c 4c d3 6f bc 1b ed 33 3d
       0.07828776 0.011867237 -0.014637779 0.043927293
000010 53 ad ac bd 8b a2 bb 3c 81 a5 a6 bc 5a 89 15 3d
       -0.084314965 0.022904655 -0.02034259 0.03650794
000020 94 47 46 bd 2c 6d 79 3d 54 75 92 3c 8c c3 ae 3b
       -0.048408106 0.06089513 0.017878212 0.0053333696
000030 0d 87 e3 bc 33 3f a6 3d 84 37 0a 3c 31 4c b6 bc
       -0.027774358 0.08117523 0.0084360875 -0.022253128
000040 59 35 ff 3b 17 fd 9e 3d fe 83 0c 3d e1 4c 8b bd
       0.007788342 0.07763117 0.034305565 -0.06801773
000050 84 3e da 3c 9d 60 5e bd 75 e9 98 3c d7 64 12 3d
       0.026641138 -0.054291356 0.018666008 0.0357407

Linear_Trend.weight f4 [24, 96]
000000 e3 10 1d 3c 9c 8a f3 3b 32 e0 c4 3b aa fb 9a 3b
       0.009586546 0.007432295 0.0060081715 0.0047297077
000010 6b a2 44 3b be da d6 3a 32 ec a1 3a 64 07 98 39
       0.0030004035 0.0016392095 0.0012353717 0.00028997206
000020 4a f0 80 ba 5a c1 28 bb 4b a9 96 bb d3 2f d4 bb
       -0.0009837237 -0.0025750012 -0.004597818 -0.0064754277
000030 bf fa 55 bb 67 2d f5 ba 57 b3 e2 ba 0e 5d d4 ba
       -0.0032650677 -0.0018705548 -0.0017295879 -0.0016202049
000040 aa 30 ec ba 6e ae ef ba 61 b9 5c ba 22 f0 f9 b9
       -0.0018019874 -0.0018286237 -0.00084199576 -0.00047671894
000050 93 96 09 ba 6e d8 e0 b8 7f 96 86 3a 4b 67 35 3a
       -0.00052485726 -0.000107214655 0.001026824 0.0006919994
000060 68 2c cc 3a 19 f4 a3 3a 20 d5 f6 3a 73 27 fc 3a
       0.0015577199 0.001250866 0.0018831827 0.0019237831
000070 4d 3a 82 3a 6e 9a b6 3a cf bd 05 3b 44 a2 ce 3a
       0.0009935588 0.0013931522 0.0020407324 0.0015764912
000080 67 75 aa 3a f2 ca c0 3a 06 05 bd 3a de 26 9f 3a
       0.0013004959 0.001470892 0.0014421053 0.0012142321
000090 74 14 bf 3b e9 cf 75 3b 16 05 19 3b 2c 44 13 3b
       0.0058312956 0.0037507957 0.0023348979 0.0022471054
0000a0 5b 43 22 3b 7c d3 32 3b a7 3e 66 3b 0a a9 71 3b
       0.0024759385 0.00272867 0.0035132559 0.0036874437
0000b0 3e 99 27 3b f8 b6 18 3b c5 42 47 3b 47 44 24 3b
       0.0025573517 0.0023302417 0.0030404788 0.002506511
0000c0 ba 41 64 3b b7 ff 4c 3b 3e 03 70 3b e5 32 67 3b
       0.0034829215 0.0031280348 0.0036623026 0.0035278138
0000d0 b0 0e 24 3b 34 82 30 3b 4c 42 1f 3b 9d 1d a3 3a
       0.0025033168 0.0026933076 0.002430099 0.0012444739
0000e0 06 44 11 b9 5f ef 0f bb ca ce a3 bb 0d 86 e5 bb
       -0.00013853618 -0.0021962745 -0.0049990164 -0.0070045055
0000f0 d6 fd 4e bb f2 4a c3 bb 50 e5 ff bb 12 9f 1a bc
       -0.0031584403 -0.005959862 -0.0078093186 -0.009437339
000100 b3 82 3e bc 3a 6f 6c bc 91 c9 85 bc 59 52 a3 bc
       -0.011627841 -0.014430815 -0.016331466 -0.019936727
000110 9b 46 c5 bc 7d ee dc bc 18 66 ef bc 86 52 02 bd
       -0.024081519 -0.026969189 -0.029223487 -0.03181698
000120 b4 58 03 bd d5 e8 06 bd 66 80 02 bd de 50 fb bc
       -0.032067016 -0.03293689 -0.03186073 -0.030678209
000130 e3 1c ed bc 79 89 cf bc 45 b7 a3 bc 7b 74 76 bc
       -0.028944438 -0.025334107 -0.01998485 -0.01504242
000140 83 aa 0c bc 07 f8 16 b9 3d 73 38 3c f6 59 fa 3c
       -0.008585575 -0.00014397512 0.011257944 0.030560475
000150 d2 42 50 3d 8e aa 81 3d 2d f7 9b 3d 6d d6 b4 3d
       0.050844975 0.06331359 0.076155044 0.08829961
000160 41 0a cc 3d e7 55 e1 3d 08 b6 f4 3d 46 1a 02 3e
       0.09962893 0.11002713 0.11948782 0.12705335
000170 9d 4f 09 3e 8b e2 0f 3e a5 c3 15 3e 1f 81 1a 3e
       0.13409276 0.14051263 0.14625414 0.15088318
000180 3b 33 bf ba 81 df 08 bb e8 58 25 bb 3e 17 07 bb
       -0.0014587411 -0.0020885172 -0.0025229994 -0.0020613219
000190 5a 75 0a bb a6 63 0f bb 65 1e b8 ba 9f e4 f1 b9
       -0.0021127076 -0.0021879463 -0.0014047144 -0.00046137438
0001a0 ac 1d ae b9 0f 03 69 ba c6 07 14 bb cb da 80 bb
       -0.00033209973 -0.00088887004 -0.002258764 -0.003932332
0001b0 2b fd 06 bb c1 a7 3f 3b 19 15 25 3b 3a 17 12 3b
       -0.0020597677 0.0029244276 0.0025189577 0.0022291676
0001c0 91 f9 07 3b b7 5e f3 3a 2d d9 30 3b 0c 84 72 3b
       0.0020748118 0.0018567656 0.0026984916 0.0037004976
0001d0 0e 80 70 3b 6e c6 66 3b 60 d0 8f 3b 94 96 9c 3b
       0.003669742 0.0035213488 0.004388854 0.0047786925
0001e0 02 6c 9a 3b d2 37 9e 3b 84 33 94 3b 74 e2 9b 3b
       0.0047125826 0.0048284316 0.0045227427 0.00475722
0001f0 d3 92 76 3b d8 53 4d 3b b2 0d 77 3b 48 74 76 3b
       0.0037624135 0.0031330492 0.0037697372 0.003760593
000200 22 cc 45 3b d7 ea 25 3b 96 8a 1b 3b df 05 01 3b
       0.0030181487 0.0025316977 0.0023733727 0.0019687337
000210 fb 2e 9c 3b 0a 94 ed 3b c7 36 91 3b f2 e1 3d 3b
       0.0047663427 0.0072503136 0.004431579 0.0028973785
000220 f2 ae 2d 3b ba 28 2b 3b 84 b0 3e 3b 3b 5a 5b 3b
       0.002650198 0.0026116804 0.002909691 0.003347053
000230 48 94 0f 3b 7c e2 0d 3a 89 83 ec 39 92 ad c8 39
       0.002190845 0.0005412472 0.0004511143 0.00038276293
000240 b9 b7 af 39 c2 f5 52 3a 6f 1c 2a 3a 63 94 59 3a
       0.00033515485 0.0008047485 0.0006489222 0.00083000044
000250 a1 ae 09 b9 c9 f9 6e ba 4a 64 56 ba fe 14 da ba
       -0.00013130392 -0.00091162004 -0.00081783964 -0.0016638336
000260 ba 35 5d bb 60 68 b9 bb fb 6a 0c bc 6a 54 3b bc
       -0.0033753947 -0.0056581944 -0.008570428 -0.0114337
000270 7a c4 1b bc e7 68 d2 bb 7d c3 06 bc 4a f0 14 bc
       -0.009507293 -0.0064211967 -0.008225319 -0.0090904925
000280 e0 1a 24 bc be ab 41 bc 1f 3a 5e bc 95 a3 7a bc
       -0.010016173 -0.011820732 -0.013563662 -0.01529779
000290 c4 b0 99 bc ad 98 b0 bc 53 95 bb bc 5d 19 c4 bc
       -0.018761046 -0.021557176 -0.022898352 -0.023937875
0002a0 ca 0f c6 bc 0e dd bf bc 7c f0 ba bc 61 b3 b0 bc
       -0.02417745 -0.023420837 -0.02281975 -0.02156991
0002b0 75 40 a9 bc 08 15 99 bc 0b 4a 70 bc 96 dc 28 bc
       -0.020660618 -0.018686786 -0.014666091 -0.010306498
0002c0 6c 60 ba bb 06 37 ab 3a d1 17 42 3c e8 4a eb 3c
       -0.005687764 0.0013062663 0.011846499 0.028722242
0002d0 d7 83 3a 3d 0c 58 6f 3d c7 d0 89 3d 96 28 9e 3d
       0.04553589 0.058433577 0.06729274 0.07722585
0002e0 f6 4f b3 3d 1f 77 cc 3d 3b 69 e0 3d 14 f8 f1 3d
       0.08755486 0.09983658 0.10957571 0.11814895
0002f0 73 82 00 3e ec bf 07 3e dd 52 0e 3e 22 b1 13 3e
       0.12549762 0.13256806 0.13898797 0.1442304
000300 58 29 e1 bb dd ae de bb 48 20 c1 bb 0c 8e 9f bb
       -0.0068713836 -0.0067957477 -0.005893741 -0.004869228
000310 d7 e8 7b bb a2 ea 46 bb e7 8c 06 bb 3c 30 5e ba
       -0.0038438344 -0.0030352254 -0.0020530762 -0.00084758154
000320 4a e0 a2 39 7c 7f 8f 39 04 02 7b ba 11 ac 33 bb
       0.00031066156 0.0002737007 -0.00095751905 -0.0027415792
000330 80 c4 f4 ba 6b 83 87 3a f3 22 a4 3b 2c 13 89 3b
       -0.0018674284 0.0010338848 0.005009049 0.0041831937
000340 f5 c6 60 3b 57 ba 4e 3b 80 9a 77 3b a5 0b 9a 3b
       0.0034298275 0.0031544173 0.0037781298 0.004701095
000350 c5 0c b4 3b b5 92 b7 3b 8a d1 c4 3b d0 7f d6 3b
       0.0054946863 0.0056022056 0.0060064243 0.006545998
000360 f1 bd f2 3b c2 c6 e2 3b ad a8 ed 3b 54 49 db 3b
       0.0074078967 0.0069206664 0.0072527737 0.006692091
000370 70 49 ca 3b 3b 19 b7 3b f2 47 af 3b 37 42 b5 3b
       0.006173305 0.0055877245 0.0053491527 0.005531575
000380 67 d4 af 3b 09 4a 8f 3b b8 0f 67 3b 1c c7 44 3b
       0.0053658965 0.0043728394 0.0035257172 0.0030025905
000390 7b 0a a9 3b a9 d2 c9 3b 51 f0 01 3c 5a c7 a2 3b
       0.00515872 0.006159146 0.007930831 0.004967612
0003a0 29 40 58 3b 69 00 33 3b eb 82 2c 3b a3 ca 21 3b
       0.0032997227 0.0027313477 0.002632315 0.0024687431
0003b0 03 ae c5 3a ad 68 1b b9 04 19 dd ba c5 51 19 bb
       0.0015081767 -0.00014820947 -0.0016868417 -0.0023394686
0003c0 e1 25 ff ba 06 93 18 bb f0 f4 d9 ba 32 2d 09 bb
       -0.0019466245 -0.0023280992 -0.0016628783 -0.002093148
0003d0 5c 2c 21 bb b7 2e 43 bb 78 9a 67 bb 51 1d 7a bb
       -0.002459309 -0.0029782483 -0.0035339873 -0.0038164447
0003e0 b8 94 a0 bb 45 4d ef bb c7 12 2a bc 85 82 59 bc
       -0.004900541 -0.0073029124 -0.010380453 -0.013275747
0003f0 dd 13 4d bc 1d 98 34 bc 83 73 e5 bb c7 c9 00 bc
       -0.012516943 -0.011022595 -0.0070022955 -0.0078606075

Linear_Trend.bias f4 [24]
000000 c3 34 a1 bd 18 aa 49 bc 5f 18 67 3c 76 48 3a bd
       -0.078713916 -0.01230862 0.014104932 -0.04547926
000010 83 8e aa 3d af b7 b3 bc 3f a5 a7 3c e6 98 16 bd
       0.08327963 -0.021938173 0.020464538 -0.03676691
000020 1b 52 42 3d 60 2f 7c bd 91 cf 9c bc 8b 7c c8 bb
       0.047441583 -0.061568618 -0.019141944 -0.0061183623
000030 21 10 de 3c df 26 a6 bd c8 b7 ff bb 7c 7d c2 3c
       0.0271073 -0.08112883 -0.007803891 0.023741476
000040 2d 78 dc bb 7c 09 9b bd c0 05 05 bd 0b f2 8f 3d
       -0.0067281933 -0.075701684 -0.032476187 0.07028588
000050 6a 8f cb bc 76 da 63 3d 9c fd 86 bc 8f 6b 07 bd
       -0.024848659 0.055628262 -0.016478352 -0.03306156
