results/mimic_iii_SegRNN/2/checkpoint.pth (torch, 445795 bytes, 12 tensors)

pos_emb f4 [2, 64]
0.79949284 0.2656839 0.37877017 0.67960197 2.1458805 -0.82693535 1.3187746 -1.5578413
-0.63022447 0.4459169 -0.8143735 -0.78615034 0.20786999 -2.3112786 -0.6499233 -1.3225926
1.0162247 0.92753416 -0.61769575 1.0451593 0.9860745 1.2367326 -0.36316597 1.4825397
0.7303578 -1.270013 -0.4586058 -0.4977452 0.061235484 0.016378732 -0.09230502 -0.78307664
-0.7475767 -3.0314155 0.83889854 0.27731714 -0.7468372 0.38741362 1.2938677 0.8415253
1.918384 -1.4160584 0.013798528 -0.49976748 0.79808474 0.19710892 0.74135536 1.4430969
-0.12469816 -0.71123403 -0.47856998 -0.48950124 -1.245925 0.6687701 -0.24055971 0.37435082
-0.47604477 0.082697 -0.26800904 -0.6487695 -0.9399479 0.5219084 -0.04997764 0.57275087
-0.34073815 0.46799088 0.8700673 -1.2706847 -0.8524844 1.3276607 2.1074386 -0.8279283
-1.1075021 0.102287084 1.093904 0.098270886 -0.39104488 1.9884622 1.3072879 -0.06173565
0.5337202 -0.57245666 -0.54201716 0.07867877 0.0637572 -0.9558405 -2.1128292 0.46148944
0.8209569 -0.85569483 -1.9349942 0.7037466 0.8934387 -0.083871774 0.34761626 -0.6970672
0.41823187 -0.1060521 -0.49235153 -0.1267363 -1.0808114 1.5259935 0.3830288 1.1506271
-0.5946487 0.8780397 -1.0284339 1.0373061 1.4245913 -0.930324 0.8785191 -0.13057739
-0.19429441 1.1145295 0.79308796 -0.27898476 2.2833147 0.4035118 0.12777723 -0.10442835
0.47214702 1.8112724 -1.229218 -0.65624815 -0.13061434 -0.3580388 0.562885 1.8649879
00000000: 90ab 4c3f b807 883e 2aee c13e 65fa 2d3f
00000010: 1b56 0940 09b2 53bf 9bcd a83f 5867 c7bf
00000020: 6456 21bf 384f e43e c87a 50bf 2641 49bf
00000030: dfdb 543e fdeb 13c0 6061 26bf b74a a9bf
00000040: a713 823f e172 6d3f 4f21 1ebf c8c7 853f
00000050: 616f 7c3f 414d 9e3f e4f0 b9be dcc3 bd3f
00000060: bbf8 3a3f c98f a2bf 61ce eabe 75d8 febe
00000070: 0fd2 7a3d b12c 863c 6a0a bdbd b677 48bf
00000080: 3061 3fbf b602 42c0 0ec2 563f 83fc 8d3e
00000090: b930 3fbf 145b c63e 759d a53f 346e 573f
000000a0: 9b8d f53f 6741 b5bf 3913 623c 86e1 ffbe
000000b0: 484f 4c3f ecd6 493e 77c9 3d3f 66b7 b83f
000000c0: c061 ffbd 6f13 36bf 2007 f5be e89f fabe
000000d0: 787a 9fbf 8434 2b3f 4955 76be e9aa bf3e
000000e0: 24bc f3be 0b5d a93d 7b38 89be c215 26bf
000000f0: 6da0 70bf ca9b 053f 5bb5 4cbd cd9f 123f
00000100: 3b75 aebe 809c ef3e bbbc 5e3f cca5 a2bf
00000110: 6b3c 5abf c9f0 a93f 46e0 0640 1cf3 53bf
00000120: a1c2 8dbf e47b d13d 0c05 8c3f 3f42 c93d
00000130: 0937 c8be ee85 fe3f 3655 a73f 85de 7cbd
00000140: e3a1 083f 858c 12bf a3c1 0abf 5622 a13d
00000150: 2393 823d f7b1 74bf 9838 07c0 5848 ec3e
00000160: 3b2a 523f d10e 5bbf e4ad f7bf bd28 343f
00000170: 66b8 643f f7c4 abbd c2fa b13e ff72 32bf
00000180: 7d22 d63e d831 d9bd 8015 fcbe 29c7 01be
00000190: 0758 8abf c153 c33f 5a1c c43e c047 933f
000001a0: e63a 18bf 36c7 603f b9a3 83bf 72c6 843f
000001b0: 0259 b63f b729 6ebf a1e6 603f 14b6 05be
000001c0: 1df5 46be e7a8 8e3f d007 4b3f 17d7 8ebe
000001d0: d421 1240 1999 ce3e 09d8 023e 88de d5bd
000001e0: 41bd f13e c6d7 e73f 0457 9dbf e1ff 27bf
000001f0: c4bf 05be dd50 b7be 3b19 103f ecb7 ee3f

channel_emb f4 [31, 64]
1.532616 0.28786373 0.069477275 0.18732053 0.4159275 0.3648509 0.13460933 -1.5662093
-0.24644764 -0.13040471 -0.8480329 0.24429035 -1.3281648 -0.20219588 -0.0024847726 1.4627883
-1.1192976 0.14633688 0.8996805 0.31598416 1.1449677 1.6246407 -0.6868375 2.4131699
-2.2547464 -1.4025736 -0.933643 1.3804604 0.28024426 1.140499 -1.5329261 -0.05114125
0.49359703 0.2826279 -0.6772093 -1.1005296 0.4775909 0.46833017 0.18252555 -0.93391675
0.5959195 0.62444305 -0.66401833 -0.03153625 -1.2470636 0.8144854 1.278616 -1.8180455
2.3650937 -0.06905381 -0.43124783 -0.5863026 -0.94928235 -0.3135486 0.89842343 2.2097735
0.8478293 -0.19364673 -0.20105334 -1.4282076 -1.1737887 0.9689146 -0.8828972 -0.5182209
-0.70623 -1.0616573 -0.82541656 -0.80538934 1.0706823 -0.7207727 0.6847107 -0.9203147
-1.168107 0.9571893 1.4811907 -0.8360616 -0.47658312 -0.44447145 0.80776495 0.33770332
0.036034837 0.6546902 0.076171115 -0.60903925 -0.39237234 1.4492183 -1.375111 -0.306693
1.2049811 1.0049535 1.0009335 -0.8833524 1.0157064 -0.8954857 1.1941204 0.2851242
1.003789 0.54317176 0.903276 0.089680865 2.2745883 -0.75773174 -0.7980334 1.137024
0.3376429 -0.056242295 0.5231184 -0.26489487 2.6966836 -0.73431474 0.3276548 -1.2287291
0.75049 0.4958111 -0.19278465 0.2606141 0.7480956 1.473871 0.8566943 0.22249345
-0.31419194 1.2221681 -0.41888732 -0.5512736 -0.4775785 2.620501 0.33181456 0.19133925
-0.30876157 -1.8279911 -1.5073133 -0.002476921 0.73802614 -0.1915822 -0.4989707 0.36705592
-0.13010584 -0.107842006 -0.92543894 -1.1936512 0.6579605 0.8123255 -0.92783713 0.37905967
-1.0900614 0.387457 1.6522913 0.42197296 -1.219808 1.0401753 1.005555 2.6148071
-0.53138334 1.9624752 0.05112581 1.4101045 1.2997025 0.71518177 -0.43164262 2.4731667
-0.37460855 -0.4468709 -0.54246026 -1.283237 0.29353395 -0.20504986 0.4543878 -1.282591
0.8024256 -1.1507491 -0.28399944 0.79300225 -0.64721704 0.24681476 0.97815466 -0.46880546
-1.0866214 -0.121979035 -0.44684437 2.1657007 -1.322953 0.15072836 1.5637045 -1.01998
-0.5870784 0.92129624 -0.987561 -0.7492978 -0.3972882 -0.9594639 -0.31492758 -0.237096
-2.3756533 1.2303822 -1.4437641 0.004483625 0.69078195 -0.27564192 0.1351034 0.9526987
-0.7786136 0.28187943 0.86043566 -0.3002326 0.1376484 1.2025545 -1.4475183 -0.46155488
-0.16360538 -1.6420329 -0.19338122 -0.018115034 -0.24306163 -0.6868456 0.9802711 -0.028139738
0.24077438 -0.118782245 0.92796457 1.398326 2.004536 1.0813748 0.15031473 -1.0138282
1.1427147 0.059725113 0.43398902 1.614022 0.5659375 -1.1519924 0.3313652 -2.4611983
0.55595106 -0.82194537 -0.29010215 -0.740069 -0.57164806 0.23771498 -0.21341673 -1.0562322
-0.38701352 0.6712186 -0.16263746 0.39784327 0.34768322 3.2733335 0.9857982 -0.25883052
-0.5358491 0.110059895 -0.7820439 0.10286643 -0.35345155 0.9173976 -0.05290967 0.18591568
00000000: c32c c43f e062 933e 1a4a 8e3d f4d0 3f3e
00000010: 73f4 d43e bdcd ba3e 07d7 093e 8c79 c8bf
00000020: c55c 7cbe d088 05be af18 59bf 4027 7a3e
00000030: 4e01 aabf 700c 4fbe 91d7 22bb a63c bb3f
00000040: 2545 8fbf 56d9 153e 7651 663f adc8 a13e
00000050: 4d8e 923f 3af4 cf3f 95d4 2fbf 6071 1a40
00000060: c44d 10c0 8887 b3bf 3a03 6fbf edb2 b03f
00000070: 2d7c 8f3e dffb 913f ec36 c4bf 7d79 51bd
00000080: c0b8 fc3e 9bb4 903e 975d 2dbf 27de 8cbf
00000090: cb86 f43e f9c8 ef3e fae7 3a3e 2b15 6fbf
000000a0: 2e8e 183f 80db 1f3f 1bfd 29bf 282c 01bd
000000b0: c89f 9fbf 1d82 503f b0a9 a33f b7b5 e8bf
000000c0: b25d 1740 156c 8dbd 84cc dcbe ed17 16bf
000000d0: 2b04 73bf 7189 a0be 14ff 653f ee6c 0d40
000000e0: 570b 593f 544b 46be ede0 4dbe 82cf b6bf
000000f0: b53e 96bf ca0a 783f 8d05 62bf 20aa 04bf
00000100: 7dcb 34bf 63e4 87bf 804e 53bf ff2d 4ebf
00000110: 1e0c 893f 8f84 38bf 3349 2f3f bf99 6bbf
00000120: 8884 95bf 5c0a 753f a897 bd3f 2208 56bf
00000130: b402 f4be c391 e3be afc9 4e3f 73e7 ac3e
00000140: 4499 133d c799 273f 9aff 9b3d ffe9 1bbf
00000150: 07e5 c8be fc7f b93f a303 b0bf dd06 9dbe
00000160: d23c 9a3f 51a2 803f 971e 803f 6223 62bf
00000170: ab02 823f 8d3e 65bf f0d8 983f cdfb 913e
00000180: 287c 803f 4e0d 0b3f 193d 673f 9aaa b73d
00000190: db92 1140 b5fa 41bf eb4b 4cbf 018a 913f
000001a0: 88df ac3e 525e 66bd 16eb 053f 4da0 87be
000001b0: 7796 2c40 0dfc 3bbf 5fc2 a73e ff46 9dbf
000001c0: 1d20 403f f4da fd3e 5769 45be 366f 853e
000001d0: 3183 3f3f cea7 bc3f 5150 5b3f 53d5 633e
000001e0: c4dd a0be 0170 9c3f 6678 d6be 4420 0dbf
000001f0: 2b85 f4be 4ab6 2740 99e3 a93e 70ee 433e
00000200: ff15 9ebe 9dfb e9bf a4ef c0bf d753 22bb
00000210: 48ef 3c3f 202e 44be 1679 ffbe c1ee bb3e
00000220: 773a 05be 45dc dcbd 91e9 6cbf 90c9 98bf
00000230: 1970 283f 90f4 4f3f bc86 6dbf 1c14 c23e
00000240: 2287 8bbf c460 c63e 487e d33f d70c d83e
00000250: ab22 9cbf 7724 853f 07b6 803f 0059 2740
00000260: bd08 08bf 6332 fb3f 4c69 513d 4e7e b43f
00000270: a75c a63f 2716 373f 4300 ddbe 5d48 1e40
00000280: b1cc bfbe 43cc e4be adde 0abf 1c41 a4bf
00000290: 154a 963e 97f8 51be 85a5 e83e f12b a4bf
000002a0: c46b 4d3f bf4b 93bf 6068 91be 3202 4b3f
000002b0: 04b0 25bf 02bd 7c3e 5868 7a3f 4507 f0be
000002c0: 6916 8bbf 25d0 f9bd c9c8 e4be d79a 0a40
000002d0: 8656 a9bf 8958 1a3e 7827 c83f b48e 82bf
000002e0: c54a 16bf 12da 6b3f ccd0 7cbf fbd1 3fbf
000002f0: 5c69 cbbe 6d9f 75bf 303e a1be 4bc9 72be
00000300: b40a 18c0 2a7d 9d3f 43cd b8bf 5feb 923b
00000310: 16d7 303f f020 8dbe 8c58 0a3e 10e4 733f
00000320: 3953 47bf 8052 903e 8345 5c3f 16b8 99be
00000330: b4f3 0c3e 4eed 993f 4848 b9bf ec50 ecbe
00000340: 2b88 27be 222e d2bf ba05 46be fb65 94bc
00000350: 26e5 78be 1dd5 2fbf 0cf3 7a3f 4f85 e6bc
00000360: 8f8d 763e 1b44 f3bd 168f 6d3f 59fc b23f
00000370: 514a 0040 7d6a 8a3f 1bec 193e 1fc5 81bf
00000380: 7a44 923f 52a2 743d cf33 de3e 4698 ce3f
00000390: 48e1 103f 7d74 93bf b3a8 a93e 4684 1dc0
000003a0: cf52 0e3f 036b 52bf 4588 94be 2975 3dbf
000003b0: 8757 12bf 8e6b 733e ea89 5abe 9e32 87bf
000003c0: a326 c6be fbd4 2b3f 6f8a 26be 1db2 cb3e
000003d0: 8903 b23e 4c7e 5140 455d 7c3f 6f85 84be
000003e0: 682d 09bf 1567 e13d 0734 48bf a3ab d23d
000003f0: 9af7 b4be 92da 6a3f cfb7 58bd ae60 3e3e

valueEmbedding.0.weight f4 [128, 24]
-0.19480748 0.09133505 0.023313122 0.13671562 0.008552107 0.18661729 0.17638288 -0.19556363
-0.1237775 -0.036605157 0.013883557 0.17133956 0.13526909 0.0633799 -0.16862035 -0.13104579
-0.20144792 0.053980928 0.071667105 0.12227207 0.011898812 0.10566493 -0.014899012 -0.13778904
-0.0040209377 -0.08148787 0.14485164 0.15172546 0.07776668 -0.10556317 -0.09688172 0.0758264
-0.16167368 0.1849828 0.047917053 -0.14266862 0.20911801 -0.17488496 -0.20151806 0.030241597
0.0731312 0.15085968 0.0019456975 -0.080352575 0.07765313 -0.1692324 -0.012951738 0.006478238
-0.083786204 0.2023956 0.0721503 0.068185255 -0.1484911 -0.011895605 0.082578175 -0.11345482
0.020238012 0.10796197 -0.19686586 0.13609089 0.17709598 -0.03249999 -0.036236346 -0.17433335
0.049760737 0.08042092 -0.051072482 -0.029888587 -0.16512467 0.037047524 0.02409337 0.15489459
0.20923677 -0.11785988 0.12851563 0.021186085 0.050450306 -0.12324603 -0.23546726 -0.06748771
-0.10873881 -0.13594589 0.1084852 0.12643133 0.14113179 0.08085335 0.034150064 -0.08320729
0.02521316 -0.13345923 -0.20591436 -0.033113252 -0.18135518 0.026235076 0.18217328 0.029040843
0.06086285 -0.051145647 -0.08484047 0.1202501 0.047530934 -0.14907838 -0.120784424 0.09858515
-0.1616261 0.13739179 0.080693506 0.08295115 -0.10245488 0.18090065 0.13988064 -0.021471482
-0.07672782 -0.016390862 0.08507332 0.045159057 0.028583355 0.16339026 -0.117751196 0.07128349
-0.051445626 -0.044339035 -0.16347474 -0.14090633 -0.18703718 0.22510962 0.0021302667 0.08647965
-0.03157292 0.015926002 -0.099665605 0.12470379 -0.0033673355 -0.044534553 0.04335667 0.09660763
-0.18874095 -0.196058 -0.076381564 -0.117531106 0.07451936 0.106065735 -0.043050177 0.039540514
0.14801906 0.07408556 -0.1095253 -0.16523574 0.14863254 -0.12551416 0.14435074 0.15260471
0.058099322 0.03231845 0.057424616 -0.11669644 -0.09872598 0.19448707 0.1923984 0.12029579
0.17168508 0.07739503 -0.07865312 -0.037010014 0.17642887 0.16547342 0.057005625 -0.20430483
-0.08988702 -0.23480524 -0.1484762 -0.17229982 0.028466683 -0.12003965 0.15016867 0.006308705
-0.18896608 -0.23172073 -0.17420013 0.06317632 0.1291192 -0.22034645 0.026680354 0.1398765
0.14575557 -0.07809156 0.10191965 -0.14177112 0.09064161 -0.218959 -0.045485187 -0.16837546
0.12535365 -0.112891085 -0.1615516 0.21150948 -0.14602326 0.1373288 -0.1396798 -0.087667406
-0.009750148 0.05520357 0.17970055 0.22237648 0.07877745 0.23711935 0.08100421 0.13737229
-0.12384283 0.18545955 0.14032984 0.23216768 -0.060599227 0.18845338 0.06259098 -0.24562642
0.1857015 0.15353276 -0.043322477 -0.030003058 0.0016704563 -0.05013377 0.09030357 0.16003752
0.0647134 0.017822808 -0.084350936 0.11815703 0.13432316 0.08155707 0.12883876 -0.16872583
-0.017881222 0.20297536 -0.16853954 0.06522334 0.122092225 0.121607475 0.024673508 -0.13435154
0.15649605 0.024066288 0.062730245 -0.048393615 0.01298001 0.059583403 0.10161471 -0.040740594
0.1408463 -0.0950514 -0.08471117 -0.1657421 0.1247349 0.14188737 -0.20323518 -0.071844466
00000000: 9d7b 47be df0d bb3d 29fb be3c 2eff 0b3e
00000010: 231e 0c3c 9a18 3f3e b79d 343e d541 48be
00000020: 0f7f fdbd 4aef 15bd dc77 633c a373 2f3e
00000030: fb83 0a3e 52cd 813d d0aa 2cbe de30 06be
00000040: 5d48 4ebe 1b1b 5d3d 34c6 923d c769 fa3d
00000050: 3cf3 423c db66 d83d fc1a 74bc 9218 0dbe
00000060: 12c2 83bb 1de3 a6bd fd53 143e eb5d 1b3e
00000070: 2344 9f3d 8131 d8bd ec69 c6bd df4a 9b3d
00000080: c98d 25be 226c 3d3e ac44 443d b917 12be
00000090: 0823 563e 0b15 33be c05a 4ebe 3abd f73c
000000a0: d0c5 953d f67a 1a3e c606 ff3a e48f a4bd
000000b0: 9b08 9f3d 424b 2dbe 8733 54bc 6647 d43b
000000c0: 1a98 abbd cb40 4f3e 89c3 933d b6a4 8b3d
000000d0: 0d0e 18be c9e5 42bc bf1e a93d 005b e8bd
000000e0: 30ca a53c 2a1b dd3d 3497 49be 695b 0b3e
000000f0: a658 353e b61e 05bd 906c 14bd 7184 32be
00000100: ead1 4b3d b9b3 a43d 6131 51bd e9d8 f4bc
00000110: 7116 29be 25bf 173d 765f c53c b09c 1e3e
00000120: 2a42 563e 8560 f1bd 9a99 033e 718e ad3c
00000130: fba4 4e3d 6a68 fcbd 541e 71be ff36 8abd
00000140: 74b2 debd 6635 0bbe 7d2d de3d 3777 013e
00000150: da84 103e 7196 a53d f0e0 0b3d 9568 aabd
00000160: d48b ce3c 89a9 08be 37db 52be c3a1 07bd
00000170: 2cb5 39be f1ea d63c a28b 3a3e 10e7 ed3c
00000180: 534b 793d 197e 51bd d7c0 adbd af45 f63d
00000190: ccaf 423d 01a8 18be d35d f7bd 03e7 c93d
000001a0: 5081 25be 6fb0 0c3e a342 a53d 4be2 a93d
000001b0: ddd3 d1bd 053e 393e df3c 0f3e f6e4 afbc
000001c0: 7a23 9dbd 2146 86bc ec3a ae3d b4f8 383d
000001d0: a427 ea3c c74f 273e 8a27 f1bd 14fd 913d
000001e0: a6b8 52bd d99c 35bd ec65 27be c049 10be
000001f0: ad86 3fbe 2383 663e f29b 0b3b 3e1c b13d
00000200: 9b52 01bd 3f77 823c 7b1d ccbd b364 ff3d
00000210: 84ae 5cbb dd69 36bd c396 313d 39da c53d
00000220: 4f45 41be 6ec3 48be f06d 9cbd 26b4 f0bd
00000230: 9b9d 983d fe38 d93d 6255 30bd 3cf5 213d
00000240: 4f92 173e 2cba 973d cd4e e0bd 8f33 29be
00000250: 2133 183e c986 00be aed0 133e 6944 1c3e
00000260: 8ef9 6d3d 5a60 043d 1336 6b3d 8bfe eebd
00000270: d930 cabd 9e27 473e 1604 453e a45d f63d
00000280: 37ce 2f3e 4981 9e3d e314 a1bd d097 17bd
00000290: c5a9 343e dd71 293e bb7e 693d 4935 51be
000002a0: b016 b8bd c970 70be 250a 18be 5d6f 30be
000002b0: f632 e93c 59d7 f5bd d1c5 193e 41b9 ce3b
000002c0: 5380 41be 3348 6dbe 8561 32be 9662 813d
000002d0: d337 043e 80a2 61be c290 da3c c93b 0f3e
000002e0: f340 153e 78ee 9fbd 40bb d03d 732c 11be
000002f0: 4fa2 b93d ca36 60be ad4e 3abd 9e6a 2cbe
00000300: b55c 003e 7133 e7bd c86d 25be f195 583e
00000310: 1f87 15be ec9f 0c3e 3908 0fbe f88a b3bd
00000320: 16bf 1fbc 231d 623d 6c03 383e a9b6 633e
00000330: 1256 a13d 6acf 723e 89e5 a53d 52ab 0c3e
00000340: 4fa1 fdbd 1ce9 3d3e a0b2 0f3e 5dbd 6d3e
00000350: e536 78bd ecf9 403e b32f 803d 7e85 7bbe
00000360: 8928 3e3e b137 1d3e e972 31bd f9c8 f5bc
00000370: 36f3 da3a 1159 4dbd 14f1 b83d e0e0 233e
00000380: 7688 843d 2301 923c 2fc0 acbd 50fc f13d
00000390: 038c 093e 6507 a73d 4fee 033e 77c6 2cbe
000003a0: a47b 92bc c6d8 4f3e a195 2cbe d193 853d
000003b0: 7d0b fa3d 570d f93d 1920 ca3c 7393 09be
000003c0: 8040 203e aa26 c53c b778 803d 6238 46bd
000003d0: 1caa 543c ba0d 743d 601b d03d 9cdf 26bd
000003e0: 033a 103e 4faa c2bd 0d7d adbd 4cb8 29be
000003f0: 0375 ff3d ec4a 113e e21c 50be 3123 93bd

valueEmbedding.0.bias f4 [128]
0.023554077 -0.15659857 0.15842073 -0.01695933 0.07000677 -0.16594644 -0.09502021 -0.063762
0.120893486 0.059646916 -0.1692953 0.027927222 -0.08219544 -0.14573292 -0.019258423 -0.17018893
-0.05791096 -0.074779876 0.09897947 -0.03792473 -0.099474385 0.09784784 0.110825755 0.111560345
0.12540138 -0.010504531 -0.20489311 -0.005072812 -0.21968369 0.02119883 -0.021539306 0.1223098
0.110910565 -0.18239696 -0.14383902 -0.14764813 -0.1258099 0.065855935 0.08454438 0.07663706
-0.030821064 0.12333036 -0.17914912 -0.113870315 0.012208389 0.13841633 0.08316302 -0.19016649
0.111341596 0.06948965 -0.08981863 0.13689853 0.050819796 -0.17701939 -0.15097797 -0.15392183
-0.08192199 -0.008621818 -0.22020108 0.12955655 0.26380336 0.1106464 -0.13885188 -0.18049978
0.09389015 0.021556897 -0.19901623 -0.18518177 -0.14959371 0.06277178 0.10960986 -0.13220736
-0.14432786 -0.14926694 -0.14007138 -0.086260796 0.1471881 -0.08274359 0.04499882 0.0008332168
-0.0729093 -0.070775226 -0.11471733 -0.015237275 -0.017146962 0.05651337 -0.123669565 -0.016141837
-0.18639344 -0.05226412 -0.028839368 -0.11187412 -0.17589608 -0.206583 0.01814273 0.06435558
0.1439096 -0.15571132 -0.24285962 0.064481 0.06434797 -0.16065745 0.15582 0.11663069
0.05745715 -0.059207566 -0.0044431505 0.20109554 -0.16242698 0.16905129 0.071794145 0.1928939
0.121473 -0.01710327 0.10511091 0.10205469 0.067312345 0.18554617 0.018551063 -0.08718749
-0.21834694 -0.035094246 -0.20990619 -0.20952624 0.112966 0.032533843 -0.039030675 -0.0236431
00000000: 7bf4 c03c 605b 20be 0b39 223e 4bee 8abc
00000010: b65f 8f3d dded 29be f599 c2bd a795 82bd
00000020: 0197 f73d 5350 743d bf5b 2dbe a1c7 e43c
00000030: 1556 a8bd 033b 15be d7c3 9dbc 0246 2ebe
00000040: 0b34 6dbd 3126 99bd c0b5 ca3d f656 1bbd
00000050: 3ab9 cbbd 7364 c83d 9df8 e23d c079 e43d
00000060: 3869 003e 321b 2cbc 80cf 51be d539 a6bb
00000070: c3f4 60be 2ba9 ad3c 3373 b0bc 8f7d fa3d
00000080: 1425 e33d 45c6 3abe 894a 13be 1231 17be
00000090: 4fd4 00be 7adf 863d 9b25 ad3d e4f3 9c3d
000000a0: 757c fcbc a194 fc3d de72 37be d734 e9bd
000000b0: b205 483c 03bd 0d3e 6051 aa3d 01bb 42be
000000c0: 1007 e43d 9750 8e3d d4f2 b7bd 212f 0c3e
000000d0: 6b28 503d 9244 35be f899 1abe af9d 1dbe
000000e0: b7c6 a7bd 8742 0dbc 647c 61be 79aa 043e
000000f0: 3c11 873e 949a e23d 302f 0ebe efd4 38be
00000100: 7b49 c03d 1798 b03c e9ca 4bbe 4aa0 3dbe
00000110: 182f 19be 7e8e 803d 227b e03d 5e61 07be
00000120: afca 13be 6fd9 18be df6e 0fbe 80a9 b0bd
00000130: 7ab8 163e 7975 a9bd af50 383d 3c6c 5a3a
00000140: 7951 95bd 9af2 90bd ebf0 eabd c3a5 79bc
00000150: c977 8cbc 907a 673d 7846 fdbd e33b 84bc
00000160: ecdd 3ebe e712 56bd 8a40 ecbc 421e e5bd
00000170: 1a1e 34be 7e8a 53be 10a0 943c dccc 833d
00000180: 0a5d 133e ca72 1fbe 31b0 78be 9d0e 843d
00000190: dec8 833d 6383 24be 478f 1f3e 12dc ee3d
000001a0: 3058 6b3d a283 72bd d997 91bb fdeb 4d3e
000001b0: 4253 26be c81b 2d3e cf08 933d fb85 453e
000001c0: d6c6 f83d 281c 8cbc 6444 d73d 0d02 d13d
000001d0: 0edb 893d d1ff 3d3e 66f8 973c 5b8f b2bd
000001e0: 5796 5fbe fcbe 0fbd a6f1 56be 0c8e 56be
000001f0: b85a e73d 3542 053d a1de 1fbd 2daf c1bc

rnn.weight_ih_l0 f4 [384, 128]
-0.03400483 -0.09699088 0.057293847 -0.09991948 -0.022292411 -0.054256715 0.020533163 0.068503946
-0.059216794 -0.084438615 -0.057409734 -0.042858187 0.0632478 -0.030039223 0.006246413 -0.027385067
-0.1231283 0.028171044 0.041033395 -0.03514903 3.681507e-05 0.017687479 0.016624512 -0.10514183
0.010201703 0.12364921 0.092690594 0.091762714 -0.052510474 -0.056442577 0.01423897 -0.04735446
-0.017454201 0.0636108 0.014245429 0.02058185 0.100564465 -0.04323508 0.0047341324 -0.09076255
-0.037831277 0.0448553 0.0043283417 -0.059511118 0.06979635 0.008653375 0.017002113 -0.103287965
0.03392802 0.05709636 -0.045051634 0.06752525 -0.00095674844 -0.050884593 0.016714564 -0.01702245
0.029068457 0.024021057 -0.027941966 0.071787864 0.043232415 0.04440752 0.011591516 -0.06318486
-0.020068888 0.15379438 -0.14557496 -0.11429205 -0.0014815821 0.012088051 0.042857498 0.07921607
-0.04789571 -0.06842349 0.079846315 -0.07872542 0.0062770247 -0.027215846 -0.021348422 -0.053064156
0.049167905 0.014926902 0.051098295 0.11082514 -0.15165164 -0.0450363 0.032102197 -0.017137727
0.10056711 0.045194764 0.005870292 0.12734254 0.06787433 -0.019959362 0.056434557 -0.048737492
-0.08737088 0.040669397 -0.069259666 -0.04268147 0.07393633 0.093681656 -0.035616748 -0.11278638
0.046055328 -0.048038978 -0.0491143 -0.047683075 0.017501758 -0.07014854 -0.028320428 0.047086228
0.0028812704 0.1691417 -0.02308104 0.07386744 -0.015744029 0.024918959 0.1326743 -0.09450972
0.032458518 -0.119242676 -0.04511374 -0.030810857 -0.06966481 0.08445694 0.06718234 0.09366408
0.004959461 -0.057726208 -0.081405625 -0.059725504 -0.101104334 0.029926108 -0.06316347 0.003258149
-0.075376585 0.02271359 -0.045584925 0.094724305 -0.09696093 0.03639008 0.067944385 -0.035932098
-0.10896374 -0.07885251 -0.0023952625 -0.028283056 0.011654261 0.028845904 -0.056834523 -0.09471032
-0.04153375 0.047129754 -0.034148667 0.09897071 -0.07641437 -0.10017286 0.056681886 -0.019333087
0.12017169 0.008393814 -0.03047513 0.036168884 -0.082981996 0.052165538 0.010510557 0.07378913
-0.06156442 0.043013066 -0.04278123 -0.02171667 -0.045429923 0.0025717213 -0.027731847 -0.008672035
-0.006693312 -0.06715696 0.05121198 -0.06240093 0.09207452 0.013725873 0.025519496 0.015758203
0.042245522 0.006704021 0.08193749 -0.08237936 0.011651849 -0.029868618 -0.05134367 0.014947067
-0.037656862 0.06809619 0.002992451 -0.1384948 -0.114185445 0.099353105 -0.02874571 -0.06424351
-0.07142181 0.060838595 -0.08021827 -0.022780776 0.09462507 -0.08653927 -0.027928445 -0.16182993
0.11548698 -0.053706322 -0.027683048 -0.028688816 0.022656625 0.052094556 -0.0377412 -0.08526657
0.20420615 0.03276129 0.16690198 -0.08839001 0.025510775 -0.07993627 -0.055251386 -0.090245485
0.002630648 -0.07712576 0.052852396 0.070445456 0.0010070059 -0.0028661871 0.15962596 -0.11804888
-0.02008708 -0.0036739195 -0.0064031472 0.035885956 -0.0050281994 0.08316839 -0.103158765 -0.07023864
0.111348964 0.09675085 -0.008842017 0.038303506 0.014347815 0.17122103 -0.100107804 -0.10438755
-0.062470578 0.024017638 -0.09262419 0.042390104 0.079463184 0.07470691 0.017197432 -0.01713063
00000000: a648 0bbd 28a3 c6bd f4ac 6a3d 96a2 ccbd
00000010: 939e b6bc 4a3c 5ebd 2a35 a83c cc4b 8c3d
00000020: 4f8d 72bd 27ee acbd 7826 6bbd 118c 2fbd
00000030: 1088 813d d114 f6bc b6ae cc3b a656 e0bc
00000040: b12a fcbd f6c6 e63c a212 283d 6ef8 0fbd
00000050: e169 1a38 55e5 903c 2130 883c 9a54 d7bd
00000060: 0b25 273c cc3b fd3d 91d4 bd3d 17ee bb3d
00000070: 3915 57bd 5530 67bd 924a 693c c0f6 41bd
00000080: 1dfc 8ebc 6146 823d a965 693c 459b a83c
00000090: bef4 cd3d 4417 31bd c820 9b3b b7e1 b9bd
000000a0: f8f4 1abd 31ba 373d c3d4 8d3b eec1 73bd
000000b0: 64f1 8e3d e3c6 0d3c 0448 8b3c a488 d3bd
000000c0: 1cf8 0a3d dfdd 693d 1088 38bd ae4a 8a3d
000000d0: 4dce 7aba 5d6c 50bd fbec 883c aa72 8bbc
000000e0: f920 ee3c cfc7 c43c 8de6 e4bc 8405 933d
000000f0: 7914 313d a9e4 353d 58ea 3d3c 1067 81bd
00000100: 8267 a4bc 467c 1d3e 9a11 15be f311 eabd
00000110: a531 c2ba f60c 463c 588b 2f3d 093c a23d
00000120: 4b2e 44bd 9d21 8cbd 7786 a33d cb3a a1bd
00000130: 80af cd3b c4f3 debc e3e2 aebc cd59 59bd
00000140: 4964 493d f78f 743c 724c 513d 4af8 e23d
00000150: 914a 1bbe fc77 38bd 987d 033d 6b64 8cbc
00000160: 21f6 cd3d 251e 393d 945b c03b 1566 023e
00000170: b201 8b3d d181 a3bc ec27 673d f7a0 47bd
00000180: 81ef b2bd f494 263d 03d8 8dbd c4d2 2ebd
00000190: ee6b 973d 2bdc bf3d dee2 11bd 8cfc e6bd
000001a0: 83a4 3c3d 85c4 44bd 142c 49bd 544f 43bd
000001b0: d95f 8f3c 0aaa 8fbd 3e00 e8bc 7ddd 403d
000001c0: b2d3 3c3b 7b33 2d3e 7314 bdbc d047 973d
000001d0: 9ff9 80bc d822 cc3c c6db 073e 508e c1bd
000001e0: 39f3 043d 8135 f4bd 2fc9 38bd 0d67 fcbc
000001f0: 6dac 8ebd c3f7 ac3d e596 893d f4d2 bf3d
00000200: f982 a23b 5172 6cbd feb7 a6bd bba2 74bd
00000210: ca0f cfbd 9927 f53c d95b 81bd ab86 553b
00000220: 0a5f 9abd da11 ba3c 42b7 3abd d1fe c13d
00000230: 7493 c6bd c40d 153d 6d26 8b3d 892d 13bd
00000240: 6228 dfbd 6d7d a1bd d6f9 1cbb deb1 e7bc
00000250: 83f1 3e3c 3f4e ec3c 51cb 68bd 7cf7 c1bd
00000260: 4b1f 2abd 210b 413d 79df 0bbd 28b1 ca3d
00000270: 237f 9cbd 6e27 cdbd 442b 683d 6c60 9ebc
00000280: 931c f63d 3586 093c fba6 f9bc d325 143d
00000290: 77f2 a9bd 88ab 553d 7934 2c3c c11e 973d
000002a0: f92a 7cbd 782e 303d 5f3b 2fbd 28e7 b1bc
000002b0: ba14 3abd 538a 283b e62d e3bc 2715 0ebc
000002c0: 9253 dbbb 9789 89bd a7c3 513d 1e98 7fbd
000002d0: 9191 bc3d 7ce2 603c 430e d13c 5917 813c
000002e0: a409 2d3d 67ad db3b d8ce a73d 83b6 a8bd
000002f0: 66e7 3e3c 08af f4bc bd4d 52bd 8be4 743c
00000300: 153e 1abd 0476 8b3d ff1c 443b 95d1 0dbe
00000310: 0fda e9bd a479 cb3d 207c ebbc 1a92 83bd
00000320: 9945 92bd e431 793d 7a49 a4bd c09e babc
00000330: caca c13d 803b b1bd 32ca e4bc bfb6 25be
00000340: 7084 ec3d 29fb 5bbd 8fc7 e2bc cf04 ebbc
00000350: 639a b93c 1a61 553d 8496 1abd 3da0 aebd
00000360: 6b1b 513e b430 063d 5ae8 2a3e d205 b5bd
00000370: f9fb d03c a1b5 a3bd 474f 62bd a0d2 b8bd
00000380: f366 2c3b 1cf4 9dbd c17b 583d b545 903d
00000390: 83fd 833a a4d6 3bbb fd74 233e 9cc3 f1bd
000003a0: a98d a4bc 24c6 70bb 7ed1 d1bb 27fd 123d
000003b0: 98c3 a4bb 3054 aa3d e744 d3bd 47d9 8fbd
000003c0: ed0a e43d 4f25 c63d 1bde 10bc 23e4 1c3d
000003d0: 1913 6b3c 9154 2f3e 5205 cdbd 24c9 d5bd
000003e0: 26e1 7fbd a3c0 c43c c0b1 bdbd 3fa1 2d3d
000003f0: 98bd a23d f0ff 983d a1e1 8c3c 8955 8cbc

rnn.weight_hh_l0 f4 [384, 128]
0.073854454 0.0133986585 -0.030224374 0.007027094 0.01768706 -0.008116735 0.038280383 -0.04910665
0.14234592 -0.0103088375 -0.052029863 0.0146117 0.07067922 -0.004980383 -0.07198296 -0.081903905
-0.038153693 0.026819304 -0.027313046 0.029240746 0.036855403 -0.02137385 0.026193606 0.05836997
-0.023931045 0.08962076 -0.03409047 0.10957954 0.095959604 0.02911976 0.026971662 0.03586393
-0.04918215 -0.058229152 -0.059543375 0.032302387 0.0015675861 0.0075854524 -0.09015641 -0.017479058
-0.026764281 0.04111071 0.040883534 -0.03888123 0.08966394 0.00012032683 0.056352198 0.050164025
-0.011408522 0.08903771 0.04240691 -0.08625967 -0.015630491 -0.026700785 -0.006831481 -0.021459036
-0.06254049 -0.09813178 0.05638 0.005124129 0.088634305 0.06522329 -0.057641637 0.062230937
-0.11969038 -0.056813244 -0.0037766802 -0.043269217 -0.08850349 0.07708309 -0.11612301 -0.02995136
0.044930376 0.05246429 -0.039089404 -0.030323971 0.04940841 -0.026423454 -0.017614178 0.019093726
-0.07296719 0.005829495 -0.061556917 -0.09921189 0.09270274 -0.0057017943 0.040971395 0.031320713
0.0739375 -0.011086701 0.06287928 -0.040892426 -0.05559526 0.02587515 -0.03846823 0.117525645
-0.09616305 0.022432227 0.06068713 -0.0902566 -0.09530675 -0.030997843 -0.009320072 -0.10228474
0.07923549 0.026924396 0.044351216 -0.08389002 0.0074141384 -0.04536158 -0.0073909685 0.02999578
-0.031080518 -0.1005308 0.09123519 0.051704504 -0.05434001 -0.025566544 -0.050782982 0.07951549
0.08089383 -0.057450842 -0.09544816 -0.0020120298 0.058664966 0.098636225 0.05147421 0.07449832
0.0016488659 -0.0922706 -0.09454154 -0.04187216 0.10456755 0.091747515 -0.10099293 0.079476304
-0.053270053 0.043732405 -0.024348538 -0.016005408 -0.016659124 0.02787186 -0.0050647375 -0.09450005
0.057185803 0.01707285 0.06162715 -0.05897271 -0.019152593 -0.07313233 -0.0050168047 -0.012457251
-0.0121357795 -0.06092947 0.015791478 0.06368041 0.09905114 0.09130612 0.008742044 0.03916852
-3.617251e-05 0.0336427 0.07332076 0.042377267 0.0070362166 -0.0072826496 -0.07362303 -0.041768413
-0.03619528 -0.04419829 0.10384324 -0.113887735 0.0008903838 -0.06506146 -0.0024747008 -0.002083363
0.046180665 0.0020414114 0.028044943 -0.014545928 0.056480817 -0.045879405 0.018001452 0.075634025
0.028580353 -0.0667364 -0.02183116 -0.059908986 -0.022611067 0.095028676 -0.081737354 -0.097625494
-0.09063861 -0.061301854 0.06343149 -0.11302279 0.032729708 -0.05051723 -0.042350832 0.014123344
0.058660094 0.02928612 0.08293563 0.07498392 0.083925106 -0.021183763 0.08411678 -0.0798978
-0.092671394 0.12015559 0.05205596 -0.09625628 0.019547692 0.026501084 -0.080123626 -0.00503737
0.039249975 0.055370715 -0.003973819 -0.012019083 -0.08301194 0.073843904 0.042937532 0.047247306
-0.07376176 -0.099565044 0.11189717 0.034715872 -0.065766826 -0.037983686 -0.103032336 0.03688803
0.035292685 -0.05898029 -0.045436125 0.05341609 -0.049285423 -0.04837156 -0.0044096964 0.015222335
-0.07582165 0.049151074 -0.03677148 -0.045576174 0.032723133 0.10474036 -0.015400948 0.05669319
0.017514732 -0.011697672 -0.05956647 0.064994395 0.057353005 0.008296106 0.0069757546 -0.0032816543
00000000: 0141 973d 0c86 5b3c 1b99 f7bc 8943 e63b
00000010: 74e4 903c 0efc 04bc e4cb 1c3d 0e24 49bd
00000020: 21c3 113e 66e6 28bc 441d 55bd e965 6f3c
00000030: 44c0 903d 7b32 a3bb cd6b 93bd 3cbd a7bd
00000040: 0c47 1cbd 28b4 db3c 9cbf dfbc 4a8a ef3c
00000050: b1f5 163d 3618 afbc f993 d63c 5a15 6f3d
00000060: 0a0b c4bc 178b b73d 73a2 0bbd 3d6b e03d
00000070: 7886 c43d 908c ee3c adf3 dc3c 0ee6 123d
00000080: 3973 49bd b181 6ebd c1e3 73bd 824f 043d
00000090: 7677 cd3a 638f f83b eda3 b8bd 3e30 8fbc
000000a0: c440 dbbc b463 283d 7e75 273d ed41 1fbd
000000b0: baa1 b73d fa57 fc38 90d1 663d cb78 4d3d
000000c0: cfea 3abc 6759 b63d deb2 2d3d e9a8 b0bd
000000d0: 840b 80bc 9bbb dabc 9eda dfbb dcca afbc
000000e0: 3a15 80bd 51f9 c8bd b7ee 663d 4fe8 a73b
000000f0: e785 b53d ca93 853d a319 6cbd dee5 7e3d
00000100: 3b20 f5bd 01b5 68bd 2e82 77bb 103b 31bd
00000110: 5141 b5bd bddd 9d3d e7d1 edbd 8e5c f5bc
00000120: ea08 383d cce4 563d 361c 20bd fa69 f8bc
00000130: 7960 4a3d 0076 d8bc 9c4b 90bc 726a 9c3c
00000140: d26f 95bd 5905 bf3b 1b23 7cbd 9a2f cbbd
00000150: efda bd3d 1ed6 babb 9fd1 273d 264a 003d
00000160: 8b6c 973d ffa4 35bc dac6 803d d17e 27bd
00000170: dbb7 63bd 1ff8 d33c dd90 1dbd 49b1 f03d
00000180: 22f1 c4bd cac3 b73c 1193 783d 74d8 b8bd
00000190: 2f30 c3bd 30ef fdbc 37b3 18bc a97a d1bd
000001a0: 3746 a23d 8d90 dc3c 9fa9 353d 88ce abbd
000001b0: 4df2 f23b 10cd 39bd f02f f2bb b6b9 f53c
000001c0: 929c febc 18e3 cdbd 84d9 ba3d 1ac8 533d
000001d0: a193 5ebd ee70 d1bc d101 50bd 04d9 a23d
000001e0: aaab a53d 9351 6bbd 537a c3bd 42dc 03bb
000001f0: ad4a 703d ca01 ca3d 9fd6 523d 9392 983d
00000200: c21e d83a 5ef8 bcbd ff9e c1bd 2482 2bbd
00000210: 8327 d63d 1fe6 bb3d 62d5 cebd 79c4 a23d
00000220: b331 5abd c020 333d 9676 c7bc c61d 83bc
00000230: b778 88bc 8753 e43c 19f6 a5bb 3e89 c1bd
00000240: a93b 6a3d 5ddc 8b3c c06c 7c3d 5e8d 71bd
00000250: e6e5 9cbc 67c6 95bd 0264 a4bb 7f19 4cbc
00000260: 26d5 46bc 2e91 79bd 215d 813c e06a 823d
00000270: 53db ca3d b4fe ba3d ca3a 0f3c 2c6f 203d
00000280: f0b7 17b8 eecc 093d 3229 963d c993 2d3d
00000290: 1090 e63b 4ba3 eebb acc7 96bd 5b15 2bbd
000002a0: 8041 14bd 4409 35bd c4ab d43d f93d e9bd
000002b0: a568 693a f13e 85bd 972e 22bb 0889 08bb
000002c0: f027 3d3d 33c9 053b 82be e53c 0b52 6ebc
000002d0: 6e58 673d 0bec 3bbd c877 933c 03e6 9a3d
000002e0: 5821 ea3c 18ad 88bd 43d7 b2bc 2063 75bd
000002f0: d83a b9bc 659e c23d ea65 a7bd e0ef c7bd
00000300: bca0 b9bd a717 7bbd 5ee8 813d 7e78 e7bd
00000310: 960f 063d 28eb 4ebd 1178 2dbd 9965 673c
00000320: 9145 703d 72e9 ef3c 28da a93d 2b91 993d
00000330: ede0 ab3d 9289 adbc 6b45 ac3d 75a1 a3bd
00000340: 80ca bdbd 2214 f63d a138 553d 0322 c5bd
00000350: 7b22 a03c cd18 d93c db17 a4bd 8610 a5bb
00000360: 95c4 203d 67cc 623d cf36 82bb b0eb 44bc
00000370: 2a02 aabd 793b 973d 44df 2f3d 6486 413d
00000380: 6810 97bd c2e8 cbbd 582a e53d 3b32 0e3d
00000390: c2b0 86bd c894 1bbd 9e02 d3bd e717 173d
000003a0: 108f 103d 5195 71bd 3b1b 3abd d4ca 5a3d
000003b0: 83df 49bd 4221 46bd 377f 90bb 1a67 793c
000003c0: 6248 9bbd a352 493d b19d 16bd 15ae 3abd
000003d0: b108 063d 1d82 d63d 4254 7cbc 1e37 683d
000003e0: 0e7b 8f3c 98a7 3fbc f9fb 73bd c81b 853d
000003f0: fcea 6a3d 64ec 073c df94 e43b 0611 57bb

rnn.bias_ih_l0 f4 [384]
-0.04987723 -0.033063184 -0.024948265 -0.077349365 -0.015876643 -0.04796388 0.038525827 -0.07252112
0.20036304 -0.052849486 0.0110677825 0.048954334 -0.058855757 -0.05855929 0.027892744 0.025018757
-0.098033644 -0.12544145 -0.018845156 -0.03597457 -0.06923308 0.017756548 0.036106497 -0.020786291
-0.0897144 0.055658076 -0.007533779 -0.029827839 -0.031030687 0.02298929 -0.07678196 -0.0008036432
-0.05348012 0.059199937 -0.09283319 -0.043715827 0.08995971 0.08852189 -0.14950244 0.093463294
0.05295945 0.014008492 -0.056642693 -0.04346445 -0.051096503 -0.023517348 0.027516203 0.064044595
-0.09799524 0.08128771 -0.026231553 -0.05806768 -0.008690303 -0.028843341 0.13738763 0.07081817
-0.016080031 0.032725703 0.060149774 -0.043159794 0.07730854 0.013288245 0.027892964 -0.10120945
-0.022840608 0.05228686 -0.10145155 -0.11311739 0.010663256 -0.071943164 0.011898735 0.05181996
0.009696509 0.00081627636 -0.084804565 0.016297758 -0.050718572 0.013676436 0.1178153 -0.04302202
-0.0073371357 0.0131619265 0.0012609272 0.017762693 0.004141278 0.0017474119 -0.033070583 -0.089202814
-0.0061656795 0.0499429 -0.07946038 0.048093803 -0.041768175 0.03371971 0.017389435 -0.0061797034
-0.07465647 0.084933795 0.03914896 0.002960396 0.019061947 -0.11354092 0.05825625 -0.01824435
-0.070072174 -0.01333574 -0.061059095 0.0046248166 0.05954749 -0.069551684 -0.10180749 0.004802406
-0.04631418 -0.079281345 0.060620144 0.09612447 -0.014687625 0.055898003 -0.14926149 -0.058943752
0.046371743 -0.0005126408 0.025112323 -0.034161657 -0.06345797 0.046104632 -0.07871913 -0.099326484
0.08132554 0.01852643 -0.010942349 0.0720658 0.044958007 -0.013356529 0.10321766 -0.022253074
-0.038833085 0.112513624 0.06882963 0.05935984 -0.07259318 0.09705431 -0.02797586 0.016090926
-0.02669619 -0.028004019 -0.06328696 0.018992731 0.0567821 -0.03210014 -0.048402164 0.09066533
0.119532704 0.043076407 0.0795913 0.013550547 0.045936022 0.0036623 0.039783962 -0.025371945
0.060268555 0.11684121 0.060203046 0.09000846 -0.059880372 0.09448781 -0.019648574 -0.07144006
0.008451949 0.09169574 -0.0008441157 0.118247576 -0.021258991 0.03025308 -0.025340855 0.02032436
0.07065444 0.006394849 0.047486734 0.033429865 0.034003604 -0.011726602 0.015774935 0.0064099757
0.0092098 0.068088025 0.12288714 0.018997349 -0.05011479 0.011609461 0.06249206 0.107311904
0.082752034 -0.008449301 0.101447724 0.030815661 0.00777046 -0.014702414 0.0062520355 -0.046378803
-0.022752456 0.09420638 -0.070423596 -0.0034964967 0.12824827 0.11188658 0.019750733 0.06278379
-0.0020019377 0.027844386 0.018905792 0.0043695886 -0.083060525 0.07637524 0.1386562 0.06892177
0.05904043 0.055339225 -0.02409647 0.0926616 0.10595816 0.05734644 0.0076685958 -0.046334572
0.098383136 0.01737157 0.11049958 0.06966389 -0.03284615 0.06410854 -0.07655923 0.0047007203
-0.032827202 0.05659299 -0.022564178 0.055486195 0.0017460762 0.012264121 -0.012319844 -0.015838327
0.07253955 0.030370483 0.04320512 -0.028129537 -0.036137357 0.0664343 0.039348625 0.06726502
-0.0608046 -0.04747437 -0.06495346 0.08304101 0.053619165 -0.06297471 0.0025715933 0.0022787172
00000000: 114c 4cbd 436d 07bd 4e60 ccbc 5869 9ebd
00000010: bc0f 82bc c675 44bd 42cd 1d3d f485 94bd
00000020: f82b 4d3e b478 58bd a555 353c 5784 483d
00000030: bc12 71bd dedb 6fbd 537f e43c 23f4 cc3c
00000040: ddc5 c8bd b973 00be 2861 9abc 125a 13bd
00000050: 13ca 8dbd 2e76 913c 68e4 133d 0348 aabc
00000060: 2fbc b7bd b9f9 633d ebdd f6bb 8359 f4bc
00000070: 1134 febc 0954 bc3c dc3f 9dbd 95ab 52ba
00000080: f80d 5bbd a27b 723d 541f bebd 5e0f 33bd
00000090: cc3c b83d f74a b53d 2b17 19be af69 bf3d
000000a0: 02ec 583d e083 653c 2b02 68bd c707 32bd
000000b0: 914a 51bd 74a7 c0bc a969 e13c d029 833d
000000c0: bab1 c8bd 2c7a a63d 8ee3 d6bc 60d8 6dbd
000000d0: c661 0ebc df48 ecbc 58af 0c3e 1e09 913d
000000e0: 45ba 83bc 630b 063d 9c5f 763d 53c8 30bd
000000f0: f153 9e3d f0b6 593c c97f e43c e646 cfbd
00000100: 3a1c bbbc bf2a 563d d5c5 cfbd 17aa e7bd
00000110: f0b4 2e3c f056 93bd e9f2 423c 2b41 543d
00000120: 1bde 1e3c 61fb 553a 04ae adbd e082 853c
00000130: 47be 4fbd 2113 603c 2649 f13d dc37 30bd
00000140: 5b6c f0bb 1fa5 573c b245 a53a 1183 913c
00000150: 8fb3 873b 6a09 e53a 0575 07bd f7af b6bd
00000160: 7809 cabb ed90 4c3d 20bc a2bd 02fe 443d
00000170: 1b15 2bbd ae1d 0a3d 4a74 8e3c 1c7f cabb
00000180: 7ee5 98bd c5f1 ad3d a95a 203d 3403 423b
00000190: cd27 9c3c 2488 e8bd 1b9e 6e3d 2d75 95bc
000001a0: 0082 8fbd 267e 5abc 1a19 7abd c68b 973b
000001b0: 12e8 733d 1d71 8ebd 7280 d0bd 805d 9d3b
000001c0: f0b3 3dbd 425e a2bd d44c 783d e8dc c43d
000001d0: 5da4 70bc 4ef5 643d 01d8 18be 016f 71bd
000001e0: 4cf0 3d3d be62 06ba 5cb8 cd3c 18ed 0bbd
000001f0: 41f6 81bd 36d8 3c3d 7f37 a1bd af6b cbbd
00000200: 018e a63d bdc4 973c 8a47 33bc 3c97 933d
00000210: e325 383d 58d5 5abc c863 d33d 144c b6bc
00000220: 710f 1fbd 8b6d e63d 8df6 8c3d 4e23 733d
00000230: bcab 94bd 69c4 c63d a12d e5bc 1ed1 833c
00000240: f8b1 dabc af68 e5bc 989c 81bd a596 9b3c
00000250: 5994 683d 707b 03bd 5941 46bd bfae b93d
00000260: 90cd f43d e370 303d c300 a33d 1d03 5e3c
00000270: 6927 3c3d 3303 703b 82f4 223d d3d8 cfbc
00000280: 29dc 763d 724a ef3d 7897 763d 5b56 b83d
00000290: 1f45 75bd d382 c13d 0cf6 a0bc 2b4f 92bd
000002a0: 0b7a 0a3c faca bb3d a547 5dba c92b f23d
000002b0: 5627 aebc 4fd5 f73c a097 cfbc 467f a63c
000002c0: 46b3 903d e28b d13b 7381 423d c1ed 083d
000002d0: 5d47 0b3d ef20 40bc 703a 813c c60a d23b
000002e0: b3e4 163c bc71 8b3d 41ac fb3d 54a0 9b3c
000002f0: 2b45 4dbd 9c35 3e3c adf7 7f3d 58c6 db3d
00000300: e679 a93d f06e 0abc d3c3 cf3d 2071 fc3c
00000310: 589f fe3b 65e2 70bc e0dd cc3b b3f7 3dbd
00000320: 5c63 babc 46ef c03d 3f3a 90bd 7b25 65bb
00000330: 8453 033e cb24 e53d 4acc a13c ca94 803d
00000340: f132 03bb e919 e43c 52e0 9a3c c42e 8f3b
00000350: a31b aabd 9f6a 9c3d e4fb 0d3e db26 8d3d
00000360: 61d4 713d 62ab 623d f665 c5bc 5dc5 bd3d
00000370: 9700 d93d 1ae4 6a3d d848 fb3b 52c9 3dbd
00000380: 197d c93d d34e 8e3c 9b4d e23d f1ab 8e3d
00000390: af89 06bd 574b 833d 16cb 9cbd 8008 9a3b
000003a0: d175 06bd 0dce 673d 83d8 b8bc 7e45 633d
000003b0: 98dc e43a 74ef 483c 2cd9 49bc 61bf 81bc
000003c0: 9e8f 943d 85cb f83c daf7 303d ea6f e6bc
000003d0: c404 14bd b50e 883d 062c 213d 3ec2 893d
000003e0: 3f0e 79bd 7c74 42bd 5206 85bd 6811 aa3d
000003f0: c59f 5b3d e2f8 80bd 2d88 283b 8856 153b

rnn.bias_hh_l0 f4 [384]
-0.10630248 0.053486887 -0.012403241 0.04970405 0.057806462 0.025536794 -0.026383888 -0.07579842
0.16032612 0.025321735 0.03212715 -0.10433948 -0.01402618 -0.049922463 0.02251607 -0.06677907
-0.034987826 0.020561395 -0.07557056 -0.042344704 -0.035719782 -0.009965739 0.029159717 -0.0017525787
-0.092538476 0.13429458 0.0030443645 0.0026503198 -0.026134487 -0.031499427 -0.04509574 -0.09641917
0.06332457 0.09734515 -0.06493869 -0.008330213 0.052113086 0.028010003 -0.0023045565 0.019557143
-0.011379825 -0.11422945 -0.083960526 -0.065771036 -0.030260302 -0.029404374 0.058198217 -0.08478571
-0.02472911 0.095473334 -0.0065283086 0.021401653 0.003583333 -0.083388105 0.04996105 -0.012194828
-0.097120896 0.1702034 0.01353335 -0.11477194 0.0978338 -0.10469674 0.029579168 -0.054428298
0.08547947 0.0010786714 -0.104958035 -0.1050464 0.011091931 -0.017051287 0.041256666 -0.10260892
-0.08445 0.031851802 -0.09329972 9.213086e-05 -0.09153383 -0.047648173 0.054132827 0.06280862
-0.0047400016 -0.029173063 0.00018437383 -0.015013243 -0.030377267 0.00558233 0.055863965 -0.070900455
-0.054849446 -0.08736558 -0.13257939 0.06367856 0.011822304 0.016088393 0.011388769 -0.030396624
-0.025871376 0.020273235 0.11462744 0.0655272 -0.058719784 0.010008192 -0.028950462 0.04332992
-0.0320941 -0.04030556 -0.013989707 -0.00097259297 0.124304935 -0.08661142 -0.11248846 0.10992585
0.020980531 -0.064733274 0.014949831 -0.003447827 0.048760556 -0.018337194 -0.00035657556 -0.12878706
-0.020414686 -0.0035814827 0.014748155 -0.007954126 -0.04021836 0.019241985 0.0050785937 -0.079493985
-0.05323405 0.0143619 0.049747642 0.092706226 -0.047943473 0.05192074 0.03804238 -0.041520864
-0.09047012 0.11905566 0.06823544 -0.047245577 -0.045795497 -0.013641718 -0.010585893 -0.043961633
-0.0802855 -0.02571961 0.04747679 -0.021814758 -0.003410719 0.055421453 0.09536073 0.013418055
0.11501463 0.048364315 0.10461255 0.12189844 -0.055060055 0.006876319 0.026124911 -0.0014115805
-0.023199426 -0.014910272 -0.06562611 -0.049587067 0.0054292236 0.042241894 0.104440175 -0.017334875
0.02145895 0.015356033 -0.06841904 0.13689479 0.0014230247 -0.06620743 0.05267119 0.10027767
0.053490587 0.104957834 0.032784346 0.016516013 0.05296019 -0.02752057 0.06978443 -0.033019375
-0.006995508 -0.03427014 0.107267685 0.082196206 0.072603166 0.03097332 -0.033650994 0.024179813
-0.0009575573 0.059214696 -0.023504145 0.12813298 0.0002211138 0.034335844 0.04657006 0.0813708
0.08901048 0.002060989 0.008763247 0.098249964 0.051403984 0.07491606 0.09126216 -0.026042245
0.045868415 -0.05402946 -0.038687225 0.021799022 -0.06996315 -0.03902375 0.029848926 -0.08914915
0.097637616 0.11229754 0.06244995 0.03654861 0.13083264 0.024636611 -0.032084476 -0.0025558537
0.111631945 -0.039933592 0.055318497 -0.06810911 0.0003846294 0.0071613844 0.009889183 0.10701552
-0.07269195 0.0714382 0.031101743 0.10526687 0.12167818 -0.04585893 0.03204926 -0.053859483
0.05935333 -0.021003664 0.09659281 0.03515601 0.06963599 0.07765508 0.06817288 0.026189297
0.024678884 -0.050274264 -0.028471792 -0.06630113 0.025100918 -0.026151594 0.10721168 0.03891657
00000000: 1db5 d9bd 1115 5b3d f736 4bbc 7996 4b3d
00000010: 78c6 6c3d 8a32 d13c 0623 d8bc 343c 9bbd
00000020: 882c 243e 876f cf3c c297 033d f0af d5bd
00000030: 10ce 65bc 7f7b 4cbd 9f73 b83c 77c3 88bd
00000040: 654f 0fbd 5f70 a83c bdc4 9abd a471 2dbd
00000050: e84e 12bd 5747 23bc 5ce0 ee3c c8b6 e5ba
00000060: d084 bdbd 8584 093e f683 473b fdb0 2d3b
00000070: fe17 d6bc 8b05 01bd 50b6 38bd 6a77 c5bd
00000080: 50b0 813d e55c c73d 93fe 84bd 727b 08bc
00000090: 8874 553d 3c75 e53c 0b08 17bb 4d36 a03c
000000a0: 7272 3abc 21f1 e9bd 7ff3 abbd f7b2 86bd
000000b0: 74e4 f7bc 71e1 f0bc 4161 6e3d 21a4 adbd
000000c0: b494 cabc 8687 c33d 6ceb d5bb 8552 af3c
000000d0: 5ad6 6a3b 62c7 aabd f5a3 4c3d d1cc 47bc
000000e0: 52e7 c6bd cd49 2e3e fcba 5d3c 8d0d ebbd
000000f0: 165d c83d 3f6b d6bd 0350 f23c 35f0 5ebd
00000100: dc0f af3d 3562 8d3a 3df4 d6bd 9122 d7bd
00000110: eeba 353c 24af 8bbc c0fc 283d a024 d2bd
00000120: 1ff4 acbd 0977 023d ec13 bfbd 6136 c138
00000130: 1776 bbbd bb2a 43bd 62ba 5d3d cea1 803d
00000140: 0452 9bbb 59fc eebc 7954 4139 1bfa 75bc
00000150: bfd9 f8bc faeb b63b 9dd1 643d 4234 91bd
00000160: d0a9 60bd baec b2bd e4c2 07be e869 823d
00000170: 56b2 413c cecb 833c f697 3a3c 5702 f9bc
00000180: 35f0 d3bc 0e14 a63c cbc1 ea3d 2033 863d
00000190: 2884 70bd 66f9 233c 8529 edbc b77a 313d
000001a0: 1a75 03bd 7117 25bd 1635 65bc 9cf5 7eba
000001b0: 9693 fe3d 5461 b1bd 5a60 e6bd ce20 e13d
000001c0: 5ddf ab3c e192 84bd 23f0 743c f0f4 61bb
000001d0: 26b9 473d e237 96bc c3f2 bab9 c1e0 03be
000001e0: b33c a7bc 4fb7 6abb 3fa2 713c 0652 02bc
000001f0: 02bc 24bd 5ea1 9d3c 556a a63b becd a2bd
00000200: f20b 5abd 2d4e 6b3c 2fc4 4b3d c3dc bd3d
00000210: 6060 44bd d8aa 543d 54d2 1b3d c811 2abd
00000220: 6648 b9bd 74d3 f33d 06bf 8b3d 9484 41bd
00000230: 0f94 3bbd 8381 5fbc 7470 2dbc 1d11 34bd
00000240: b96c a4bd eeb1 d2bc 0677 423d ddb4 b2bc
00000250: 5f86 5fbb 9b01 633d 7d4c c33d 67d7 5b3c
00000260: ca8c eb3d a919 463d 1b3f d63d e4a5 f93d
00000270: a786 61bd bf52 e13b e903 d63c c804 b9ba
00000280: b90c bebc 374a 74bc fb66 86bd cf1b 4bbd
00000290: a1e7 b13b d605 2d3d bbe4 d53d de01 8ebc
000002a0: aeca af3c df97 7b3c 481f 8cbd 262e 0c3e
000002b0: c984 ba3a c397 87bd bfbd 573d 615e cd3d
000002c0: f218 5b3d 22f4 d63d e148 063d 974c 873c
000002d0: c9ec 583d d272 e1bc 24eb 8e3d 533f 07bd
000002e0: 933a e5bb d95e 0cbd 29af db3d 7c56 a83d
000002f0: f8b0 943d c3bb fd3c a0d5 09bd be14 c63c
00000300: 9504 7bba 1c8b 723d c48b c0bc 4b35 033e
00000310: c9da 6739 bea3 0c3d 3fc0 3e3d bca5 a63d
00000320: 204b b63d a811 073b b993 0f3c 4737 c93d
00000330: fc8c 523d 976d 993d a8e7 ba3d 8c56 d5bc
00000340: 85e0 3b3d ff4d 5dbd 7f76 1ebd dd93 b23c
00000350: d748 8fbd 5ed7 1fbd bc85 f43c d493 b6bd
00000360: 3bf6 c73d 41fc e53d 85cb 7f3d ffb3 153d
00000370: fef8 053e b8d2 c93c 036b 03bd 1c80 27bb
00000380: 4a9f e43d 6891 23bd a695 623d ca7c 8bbd
00000390: 16a8 c939 0caa ea3b 3d06 223c f42a db3d
000003a0: 84df 94bd 314e 923d 15c9 fe3c 2896 d73d
000003b0: 6932 f93d 93d6 3bbd 1646 033d c39b 5cbd
000003c0: 7a1c 733d e00f acbc 73d2 c53d c0ff 0f3d
000003d0: 509d 8e3d a009 9f3d 399e 8b3d f08a d63c
000003e0: 5f2b ca3c 63ec 4dbd ad3d e9bc e3c8 87bd
000003f0: 71a0 cd3c de3b d6bc cc91 db3d fb66 1f3d

predict.1.weight f4 [24, 128]
-0.066064194 0.044011265 0.016183428 -0.0704899 0.05373153 -0.06909248 0.009135138 0.076237224
-0.02193289 0.069989815 -0.00698918 -0.022621749 -0.007318563 -0.057102453 -0.090571895 0.060774248
0.051437795 0.016464652 -0.0806449 0.06211999 0.03355836 0.03276227 -0.026117468 -0.07061064
0.096247174 -0.085299246 0.05190467 -0.115185596 -0.08846165 0.095150545 0.03234823 -0.091268174
0.037392326 0.0064688786 -0.07487622 0.03993763 -0.027043344 0.025591878 0.008893258 -0.121438354
0.023856895 0.035522606 -0.048052445 -0.07543639 0.04422621 -0.10676394 -0.019205047 -0.03676524
-0.0095552895 -0.049239706 0.10108826 0.087097265 0.030370176 0.03350964 0.079126865 0.08407985
0.03464916 0.057148155 -0.10831134 0.03444048 -0.0491195 0.062285006 -0.019690488 -0.01906362
0.021325957 -0.075091 0.057552766 0.051457394 0.08021078 -0.112358496 0.07171783 -0.0800829
0.030474955 -0.044480965 -0.0516377 0.021787984 -0.07326426 -0.049983155 0.039529406 -0.017330145
-0.018439367 -0.076434 -0.0052852253 -0.028944887 0.04782703 -0.007012943 0.1249057 0.0105353715
-0.0074906438 -0.013854634 -0.052176904 -0.061916146 -0.056026116 -0.05153242 -0.057540037 -0.04736431
0.08871975 -0.09674863 0.014954237 -0.02422829 -0.0545138 -0.08739856 0.0047429763 0.0034646294
-0.056289244 0.070656806 0.046992317 -0.014185994 -0.0929718 -0.07617119 -0.046109363 0.017457703
0.060527015 0.04908899 -0.09209105 -0.06672153 -0.03698242 -0.008902825 -0.07442491 -0.010303273
0.07151794 -0.06208674 -0.0052489606 0.04192428 0.046641324 0.0058578495 -0.06994711 -0.04717869
-0.046773132 0.072420605 -0.00033521623 0.08333987 -0.031879462 0.014275995 -0.022420269 0.024375945
-0.059545375 -0.06249201 -0.036478933 -0.004881249 -0.041647915 0.05534734 -0.03832564 0.00947312
-0.05803777 -0.057781767 0.031951856 -0.0166889 0.08782269 0.049880326 0.006154146 0.10548439
-0.033463236 0.028803365 0.010213948 -0.005424945 0.06694512 0.045434494 -0.06175877 -0.09401459
0.016765503 -0.04089399 -0.01783441 -0.06219971 0.04597012 -0.03498901 -0.035808258 -0.006317053
0.026645858 -0.028209586 -0.06715578 0.019454503 0.0033647544 0.02723996 -0.091193795 0.00039870112
-0.036678627 -0.053849664 -0.0251674 -0.014270224 -0.0371995 -0.02984216 -0.058614247 -0.013716673
0.039184477 0.055954475 -0.066000946 0.042260844 -0.03401124 0.03216733 0.05850169 -0.019463435
0.04641642 0.017811619 0.019878717 -0.024144165 -0.009342655 0.09352897 -0.054223705 0.047088902
0.058239777 -0.081990734 -0.016202563 0.04388413 -0.009342359 -0.07491126 0.059812427 0.09540385
0.04057494 0.010872368 0.04871589 -0.014965846 0.03319225 0.04258049 0.07035777 0.040720426
-0.04677194 0.06526847 -0.06050612 0.006666424 -0.05041754 -0.007577374 -0.06378489 0.06286981
0.03293516 0.06329572 0.043134283 0.022510681 0.0029168308 0.037241098 0.08839226 -0.09484351
0.02031127 -0.012204283 0.01315181 0.021624444 -0.03180292 -0.107986026 -0.004953889 0.06495145
-0.034863047 -0.033556715 0.035832882 -0.055153538 -0.025296994 0.025060702 0.06179741 0.013318777
0.03999464 -0.017480602 0.066431694 0.0065103024 -0.025578229 0.06323885 -0.045473475 0.043512892
00000000: aa4c 87bd 2845 343d 1c93 843c 025d 90bd
00000010: 9815 5c3d 5c80 8dbd 8cab 153c 4322 9c3d
00000020: 9bac b3bc d256 8f3d 7e05 e5bb 3f51 b9bc
00000030: 8ed0 efbb 43e4 69bd c27d b9bd 6bee 783d
00000040: 70b0 523d e1e0 863c 2729 a5bd 8871 7e3d
00000050: 7e74 093d bb31 063d 4df4 d5bc 509c 90bd
00000060: 3d1d c53d 5fb1 aebd fe99 543d 6de6 ebbd
00000070: 622b b5bd 4ade c23d 947f 043d cfea babd
00000080: b228 193d e3f8 d33b b458 99bd a495 233d
00000090: 018a ddbc 0fa6 d13c 07b5 113c acb4 f8bd
000000a0: 896f c33c 2780 113d a4d2 44bd 657e 9abd
000000b0: 8b26 353d 0da7 dabd e753 9dbc 2697 16bd
000000c0: ca8d 1cbc 93af 49bd 5d07 cf3d 0d60 b23d
000000d0: e0ca f83c 6741 093d 440d a23d 0e32 ac3d
000000e0: 47ec 0d3d 2f14 6a3d 56d2 ddbd 7611 0d3d
000000f0: 8731 49bd 901e 7f3d f24d a1bc 4f2b 9cbc
00000100: c6b3 ae3c 4fc9 99bd 73bc 6b3d fdc4 523d
00000110: 8d45 a43d 361c e6bd cce0 923d 8102 a4bd
00000120: 9da6 f93c ac31 36bd 0e82 53bd b77c b23c
00000130: 930b 96bd 23bb 4cbd 96e9 213d f3f7 8dbc
00000140: 280e 97bc 6e89 9cbd af2f adbb d41d edbc
00000150: 47e6 433d d4cc e5bb 8fce ff3d 8d9c 2c3c
00000160: 1374 f5bb 8cfe 62bc 73b7 55bd c99b 7dbd
00000170: a47b 65bd a913 53bd 1aaf 6bbd 1401 42bd
00000180: b3b2 b53d 2524 c6bd 9e02 753c 687a c6bc
00000190: dd49 5fbd 04fe b2bd f86a 9b3b d60e 633b
000001a0: 8d8f 66bd 84b4 903d 047b 403d 5f6c 68bc
000001b0: 0068 bebd a4ff 9bbd 2cdd 3cbd 7503 8f3c
000001c0: 2deb 773d 8911 493d 3c9a bcbd 4ca5 88bd
000001d0: e17a 17bd 28dd 11bc 166c 98bd 0fcf 28bc
000001e0: ff77 923d aa4e 7ebd 79ff abbb cbb8 2b3d
000001f0: f90a 3f3d 34f3 bf3b 6e40 8fbd 713e 41bd
00000200: 2f95 3fbd 4151 943d f6bf afb9 18ae aa3d
00000210: 0a94 02bd dde5 693c b6aa b7bc 10b0 c73c
00000220: dae5 73bd 9ff7 7fbd ef6a 15bd e2f2 9fbb
00000230: 0197 2abd e4b3 623d 59fb 1cbd 2535 1b3c
00000240: 03b9 6dbd 93ac 6cbd f3df 023d 29b7 88bc
00000250: 62dc b33d 504f 4c3d b8a8 c93b 3308 d83d
00000260: bf10 09bd 09f5 eb3c 6758 273c bdc3 b1bb
00000270: 861a 893d 8519 3a3d c4f6 7cbd b98a c0bd
00000280: cf57 893c 7580 27bd 7819 92bc 20c5 7ebd
00000290: 2a4b 3c3d a350 0fbd aeab 12bd 48ff cebb
000002a0: 6a48 da3c ca17 e7bc f888 89bd 0d5f 9f3c
000002b0: 3683 5c3b 5626 df3c d0c3 babd c208 d139
000002c0: 543c 16bd 7791 5cbd dd2b cebc a8cd 69bc
000002d0: 815e 18bd 8c77 f4bc 7e15 70bd e5bb 60bc
000002e0: e77f 203d 8530 653d 812b 87bd b519 2d3d
000002f0: 5f4f 0bbd e4c1 033d 789f 6f3d c871 9fbc
00000300: 251f 3e3d ace9 913c b1d8 a23c fcc9 c5bc
00000310: ef11 19bc 1e8c bf3d ad19 5ebd 4be0 403d
00000320: d58c 6e3d c2ea a7bd 3dbb 84bc d8bf 333d
00000330: b210 19bc 136b 99bd e0fd 743d 1863 c33d
00000340: e931 263d 0422 323c 508a 473d 4f33 75bc
00000350: 99f4 073d e168 2e3d bc17 903d 76ca 263d
00000360: ef93 3fbd 7aab 853d 44d5 77bd 0572 da3b
00000370: 9f82 4ebd 9f4b f8bb a7a1 82bd e3c1 803d
00000380: 05e7 063d 30a1 813d 93ad 303d 5268 b83c
00000390: 4d28 3f3b 1f8a 183d 0007 b53d 503d c2bd
000003a0: d263 a63c 79f4 47bc b07a 573c bf25 b13c
000003b0: c743 02bd c727 ddbd 3c54 a2bb 4405 853d
000003c0: 8ecc 0ebd c472 09bd 80c5 123d ade8 61bd
000003d0: a43b cfbc 1a4c cd3c 481f 7d3d 0037 5a3c
000003e0: 6bd1 233d 7b33 8fbc 570d 883d 6054 d53b
000003f0: 6f89 d1bc 5f83 813d 6542 3abd 933a 323d
