results/electricity_SegRNN/1/checkpoint.pth (torch, 425317 bytes, 10 tensors)

pos_emb f4 [1, 64]
00000000: 4ea4 7e3f 25ed c9bf 20f1 e1be e735 d83d
00000010: 21ff 32bf fe07 ed3e b418 f03e 76f5 e33e
00000020: b26e b1bf d8fc 5d3f d6f7 273e dcfd 243f
00000030: 939c bfbf c8f5 c3bf 72bf d33f 2733 943f
00000040: 08c3 c73e 73ff 13bf 58ba 27bf be82 4cbf
00000050: 7532 b73e eb2b c43e 5786 153f 1a85 35bf
00000060: 20c3 8cbf 5c49 cfbf da69 2cbf 7867 9f3f
00000070: 3a54 b6bf 8d25 aabd 79f2 cfbf 95e4 733f
00000080: 5e5e c2bd d234 833c eabe bbbe 1a75 e9bf
00000090: 1241 a6be 2a34 10be 01f0 29be 4fb2 2a3e
000000a0: 907d a73f c812 e6be 5275 163e 0fc5 853f
000000b0: 53bf 5a3f 8516 733f 9324 86bf bccf 013f
000000c0: 0bf7 663f 880c 8dbe 2038 ae3f b29d b13f
000000d0: 70b9 233e d9e9 25bf ffae 1ebf b963 d23f
000000e0: df81 15bf 4c7f 1d3f 3e6c d7be 7c4e f2bf
000000f0: dafc efbd ac83 563e a291 cdbd 75dc 533e
0.9946946 -1.5775496 -0.44129276 0.10557156 -0.69920546 0.4629516 0.46893847 0.4452321
-1.3861907 0.86713934 0.16403136 0.6444986 -1.4969658 -1.5309381 1.65428 1.157811
0.39015985 -0.5781166 -0.65518713 -0.79886997 0.35780683 0.38314757 0.5840811 -0.7090622
-1.0997047 -1.6194263 -0.67349017 1.2453451 -1.4244454 -0.083079435 -1.6245872 0.95270663
-0.09490655 0.016016398 -0.36669093 -1.8238862 -0.3247152 -0.14082399 -0.1659546 0.16669582
1.3085194 -0.44936204 0.14693192 1.0450763 0.8544819 0.9495624 -1.0479912 0.507076
0.9022071 -0.27548623 1.3610878 1.387625 0.15988708 -0.6480995 -0.6198577 1.6436683
-0.5840129 0.61522365 -0.4207477 -1.8930202 -0.117181495 0.20948666 -0.10037543 0.20689566

channel_emb f4 [1, 64]
00000000: 95ee 0fbf 29e6 c73f ac62 893e 0a28 7fbf
00000010: f4e9 f23f 4126 373f fa20 b63f da8b 023f
00000020: 3772 dfbe ff8d 98bf e0bc 903f e2f5 4cbe
00000030: 536b bbbe 726d 63be dffb 1d3f 97ce 2a3f
00000040: 54fe 0ec0 cda8 86bd 2c93 8abe 2da3 8bbf
00000050: 5e63 7bbf afbb 283f 2385 483e aff6 9cbf
00000060: 3fcc acbe 4030 d53e 691b 3ebf 0d6d ffbe
00000070: 0e05 773f 921e 00bf 26d6 7bbf 00d7 eebf
00000080: 6218 9cbf dd22 90bd 19a3 bdbc 1650 89bf
00000090: c714 bb3f 1773 b63e 5dc3 b13f b73f dab9
000000a0: 891e 62be ecc2 c9bf 51d2 0b40 d722 22bf
000000b0: 9888 9cbf 19ce 59be 2086 b93e 8cb7 0d3f
000000c0: bf21 f23e 4e86 e8be 7b76 b53f 079c 77bf
000000d0: 0b6d ffbf 179d 5c3f 0d5d d1be 1c1d 0040
000000e0: ce09 843f a95a a13e 1ca5 74bf bc37 773e
000000f0: 0587 353f b4af 92bf 322e be3e 0d6c f33e
-0.5622342 1.5617114 0.26833093 -0.9967047 1.8977647 0.71542746 1.4228814 0.50994647
-0.43641827 -1.1918334 1.130764 -0.20015672 -0.3660532 -0.22209719 0.6171245 0.6672148
-2.234273 -0.06575165 -0.27065408 -1.0909172 -0.981985 0.6591138 0.19582038 -1.2262782
-0.33749577 0.41638374 -0.74260575 -0.49887887 0.9649209 -0.50046647 -0.9837364 -1.8659363
-1.2194941 -0.070379 -0.02314906 -1.0727565 1.4615716 0.35634682 1.3887745 -0.0004162767
-0.2208196 -1.576261 2.1847117 -0.6333441 -1.2229185 -0.21270026 0.36235142 0.55358195
0.4729137 -0.45414966 1.4176782 -0.96722454 -1.9955152 0.861772 -0.40891305 2.0017767
1.0315492 0.3151448 -0.95564437 0.24142355 0.7090915 -1.145987 0.3714462 0.47543374

valueEmbedding.0.weight f4 [128, 24]
00000000: b80a f2bd bdde e9ba 0d09 7b3d 3ed0 e33c
00000010: 6098 5c3e d6c4 3d3e 6065 47bd 368b 58be
00000020: 5041 b6bd 594b 90be b21c 98bd 66de 65be
00000030: a80a 433e a6a8 243e 5827 6d3d 3652 90bc
00000040: c17d 49bd 80fc 84bd 798d 07be 3391 693e
00000050: 72ac 1f3e 3c98 0c3e 73c7 97bd 809c 54be
00000060: 6283 9ebe 75ee 76be 6041 7f3d 3781 f5bc
00000070: bd5b 56be c8af cbbd bb63 cdbd 45db da3d
00000080: f991 903d 6830 23be 7f04 4b3d d1af 983d
00000090: 7f77 dc3d d666 073c d4b0 e5bd 7acd 33be
000000a0: 58f5 68be 69fa fabd 60c5 f93d a9df 873e
000000b0: 26e7 063e 65c9 6b3e 1dc5 993d 73e4 d0bb
000000c0: c272 363e 360a 6abd 87b0 7c3d c15d f73c
000000d0: 9e10 bcbc 8ba8 28be 80df b6bc 60cc 14be
000000e0: d2e5 a2bd bdd2 283e bb95 1dbe 9678 003e
000000f0: 8373 b33d efec 303e a0b8 253e b9c2 0e3e
00000100: b8ab 523e 20c6 94bc 2a3c 3bbe c057 893c
00000110: 5892 fcbd fcef 9bbe 1778 64bc 75c0 78bd
00000120: aa6b 8ebe f64f 0ebd 43be 91bd 7abb f83d
00000130: 746c fa3d dfd4 9c3d 530a 0cbe 963f 353e
00000140: 2bde e83d b20c 543e 1666 c3bd d234 1cbe
00000150: 5d85 323d ce5d ef3d 91b3 b63c db67 b33d
00000160: a472 15be 2701 a73d 42a1 98bd 4f81 0e3e
00000170: 1ab0 e7bd 6bda 40bd c84f 233e da22 d73c
00000180: 5b25 c53b 7ff1 443e 16eb 803c f19a 2c3e
00000190: 9852 9cbc 079d 59be 678a 28be 9030 13bd
000001a0: 3d33 c7bd bda1 e4bd ec67 4e3e 5721 563e
000001b0: 760b 813e 4af8 8c3e 1cfb 04be fea2 ccbd
000001c0: 8958 01be 10c5 553d a2ea bebd 7a3e 00be
000001d0: a906 d8bd d0cc 37be 0fdc 9ebd d245 ffbd
000001e0: 327b 7d3e 912e 1c3e 39d5 26be 902a 31be
000001f0: f1f3 6d3e a787 0f3e bd19 4a3e c8eb c03d
00000200: 693f 073e cf1c afbd b437 2bbe 0895 bebd
00000210: 20e0 abbd 2789 3fbe f672 0fbe 33fc 5cbd
00000220: e79f fc3d 07f9 503e f874 b73d 8539 553e
00000230: 7881 4d3e f2a5 003e 4b34 1ebe b0c1 923e
00000240: 8d7a 61be c6c1 23be 8fea 2dbc 3b8d 80be
00000250: e6e1 36be a377 dabc 893c 04be 3f36 3e3e
00000260: f17c 003e 5900 c83d 9b27 be3d c101 c2bd
00000270: e80e 4d3d 4862 03be 310e 6a3e 85e6 6a3d
00000280: 9d4a 493d c9d7 10bd 7654 9cbd f525 bc3d
00000290: b021 06be 060b 0fbd fc79 373e e083 223e
000002a0: 1930 ebbd addb 7dbb b7b3 3a3e b1bc ae3b
000002b0: 1b44 3f3e f377 6a3d 1b34 3a3c a668 00bd
000002c0: 8abf 7bbc b272 a33d 2706 1b3e 99be d23d
000002d0: 5e80 163e 0644 273e 1eca 183e 282b 0a3e
000002e0: 87cf 3b3b f41a bf3d 0b82 833c 79fb aabd
000002f0: db03 16be 9208 11be ec1f 373e d66b 963d
00000300: 61af 8a3e 106e 463e 4ad4 853c 50b0 85bd
00000310: b83c 1dbe e416 5dbe 915e 0dbe 70b5 9cbd
00000320: 022b 69be a0d0 803d cccb d5bd 7797 ee3b
00000330: d904 a6bd 1e40 3c3e 3f45 9cbd 3259 b0bd
00000340: a180 003e c157 0a3e d602 5abd a231 343e
00000350: ccef e83d aa8e 163e 3139 d93d 0454 6f3e
00000360: 279d 5f3e fb7d 493e 681b e33d 5141 8f3d
00000370: 5a15 2e3e 643a 5c3e 61c9 13be e4f1 583e
00000380: 6416 313e 0547 03be e75c 43be 6ddf bdbc
00000390: bdd6 98bd e0ad c43d 1f2a 683d 8cbb cc3d
000003a0: 2524 a53d 8dfb 433e 8ca7 f3bb 7e20 bb3a
000003b0: 1d8f 3d3e 3fbf 0cbe 60ec 223e ce0e 6bbd
000003c0: c3b8 8cbe 672c 153e dc55 743d 2e12 683e
000003d0: c6c5 043d 79c1 423e 454b e8bd 5801 943d
000003e0: 4339 833e 1a15 ac3c d009 70bd 466a 013e
000003f0: 9ebb 6f3d 6b70 88bd fd56 5d3d 4cf5 f4bc
-0.11818451 -0.001784287 0.06128793 0.027809259 0.21542501 0.18532118 -0.048680663 -0.21146855
-0.08899176 -0.28182486 -0.07427348 -0.2244812 0.19047034 0.1607996 0.05789885 -0.017617326
-0.049192194 -0.06493473 -0.13237561 0.22809295 0.15593126 0.13729948 -0.07411089 -0.20762825
-0.30959612 -0.24114402 0.062318206 -0.029968841 -0.20933433 -0.09945637 -0.10028788 0.106863536
0.07059092 -0.15936434 0.049564835 0.07455409 0.107649796 0.008264264 -0.11215368 -0.17558852
-0.22749841 -0.12254793 0.121958494 0.26537827 0.13174114 0.23026045 0.075082995 -0.0063748895
0.17817214 -0.057138644 0.061691787 0.030196073 -0.022957142 -0.16470544 -0.02232337 -0.14531088
-0.07953991 0.1648664 -0.15389149 0.12546 0.087622665 0.17277883 0.1618371 0.13941468
0.20573318 -0.01816088 -0.1828467 0.016765475 -0.123326 -0.3045653 -0.013944647 -0.060730416
-0.27816516 -0.034744225 -0.07116368 0.12145133 0.12227717 0.076577894 -0.13675813 0.17700037
0.113705 0.20707968 -0.09540956 -0.15254524 0.043584216 0.11687814 0.02230242 0.08760043
-0.14594513 0.08154517 -0.074526325 0.13916515 -0.113128856 -0.0470833 0.15948403 0.026261736
0.006016416 0.19232748 0.015737098 0.1685598 -0.019082353 -0.21251307 -0.16459046 -0.035934985
-0.0972657 -0.11163662 0.2015683 0.20911156 0.25204057 0.2753318 -0.12986416 -0.09992026
-0.1263143 0.052189887 -0.093220964 -0.12523833 -0.10548145 -0.17949224 -0.077568166 -0.12464489
0.24754027 0.15252139 -0.16292275 -0.17301393 0.23237588 0.14016591 0.19736381 0.09419972
0.13207783 -0.08550417 -0.16720468 -0.09305769 -0.08392358 -0.18704663 -0.14008698 -0.053951453
0.123351865 0.20407496 0.08957857 0.20822723 0.2006892 0.12563303 -0.15449636 0.28663397
-0.22019406 -0.15991887 -0.010615005 -0.2510775 -0.17859611 -0.026668375 -0.12913717 0.1857538
0.12547661 0.09765691 0.09284898 -0.09472991 0.050063044 -0.1283046 0.22856976 0.057348747
0.049143422 -0.03536204 -0.07633297 0.09186927 -0.13098788 -0.034922622 0.17917627 0.15870619
-0.11483783 -0.0038735673 0.18232618 0.0053325524 0.18678324 0.0572433 0.011364962 -0.0313498
-0.015365491 0.07980861 0.15139066 0.1029026 0.14697406 0.16334543 0.14920852 0.13493025
0.0028657631 0.09331313 0.01605322 -0.08348746 -0.14649908 -0.14163426 0.17883271 0.07344787
0.27086928 0.19377923 0.016336579 -0.065277696 -0.15355194 -0.21590763 -0.13805605 -0.07651794
-0.22770312 0.06289792 -0.10439262 0.0072812396 -0.08106393 0.18383834 -0.07630395 -0.08610763
0.12549068 0.13510038 -0.05322536 0.17597058 0.113738626 0.1470286 0.106066115 0.23371893
0.21837293 0.19676964 0.11089212 0.0699488 0.17000332 0.2150665 -0.14432289 0.21186024
0.17293698 -0.1282006 -0.19078408 -0.023177827 -0.07462833 0.096034765 0.056680795 0.09996709
0.08063535 0.19138928 -0.0074357446 0.0014276651 0.18511625 -0.1374483 0.15910482 -0.057387166
-0.27484712 0.1456772 0.059652194 0.22663185 0.032415174 0.19019116 -0.113424815 0.07226819
0.25629625 0.021006156 -0.058603108 0.12638196 0.058528535 -0.06662067 0.054038037 -0.029902123

valueEmbedding.0.bias f4 [128]
00000000: 4cdd 31be 9bac 05be ef6e 0abd d304 b33c
00000010: 90f1 1e3e a09a c03d 0f16 cb3c e233 81be
00000020: a606 febc 0595 ddbd 8977 24be e427 f3bd
00000030: 1922 d2bd 3771 613e 8290 833d 0a80 0dbe
00000040: 114a 0e3e f085 8abc d866 7cbe c5c3 c4bd
00000050: b94a 1fbe f5e0 a13d b9ea 673c 9c49 663c
00000060: 4ac5 fdbd 6484 5bbe 717b dabb 7014 24be
00000070: 4d95 1d3e b936 9e3d 55cf 10be 2414 1cbe
00000080: 2b3e 073e 536c f23d 2c07 09be 8fab 17be
00000090: 64b1 00be 8ac3 b4bc 465c 10be a9ec 0abd
000000a0: 2eb6 dfbd 7dca 493d 94d9 ad3d f566 e23c
000000b0: e471 b6bc 518e 183e f736 9cbd 2200 323e
000000c0: a82f e0bd 80e0 b4bb c1d6 ad3d d213 02be
000000d0: d4cf f2bd 5cae 37be c75a 4d3c 492f e83d
000000e0: f2de 68be 7476 5ebe ca2b 163d bc74 69be
000000f0: 2ccd 1abe 927b 8f3e 9e45 e6bd eb84 313e
00000100: ee35 42be 3c4d 5e3d d13b e7bb 98c4 febd
00000110: 3684 0a3e bd04 17be eda1 20bd fb50 cdbd
00000120: 84b7 9a3c d98a 10be d5f3 423d 9bd2 8dbd
00000130: 60b0 56bd 94bd b5bd de83 29bd 880f 2e3e
00000140: ea14 443e 60ed 49bd 73fc 3d3e 21b5 ba3d
00000150: 3e28 8dbe ff13 e5bd 3cf3 583c 9c30 a93d
00000160: c202 f33d 8836 b73d 8c6e 3e3e 6668 1f3e
00000170: 725f e53d 9717 0a3e 414a bfbd 1b39 483d
00000180: 06d3 16be 4304 413d ffe6 173e 712c 0e3e
00000190: a938 02be 01b5 b9bd 2b67 aebc aff6 3dbe
000001a0: fa57 eebd 5323 66be 24c2 633e 879c 1ebe
000001b0: b78b 48bd 3ff9 83be 08dd f3bd 6c1c 03bb
000001c0: 91e4 1bbd e650 c63d d7ad 12be 7912 7d3c
000001d0: 3b62 b3bd 78cc f8bd 0b62 20be 9f13 1abe
000001e0: 19c9 3a3d 4dce 4ebe db9a 67be d8e1 63be
000001f0: 6c30 72be 4ccc 313e 3fd5 143c c514 833e
-0.17369574 -0.13054125 -0.0337972 0.021852886 0.15521836 0.094044924 0.024790792 -0.25234896
-0.03100903 -0.10819439 -0.16061224 -0.11872843 -0.1026041 0.22015844 0.06424047 -0.13818374
0.13895442 -0.01690957 -0.24648607 -0.096076526 -0.15555848 0.07904235 0.014155083 0.014055636
-0.123911455 -0.21437222 -0.0066675474 -0.16023421 0.15388985 0.07725281 -0.14141591 -0.15242058
0.13207309 0.118370675 -0.13381642 -0.14811538 -0.12567669 -0.022065897 -0.140977 -0.033917103
-0.1092342 0.049265373 0.08488765 0.027636984 -0.022271104 0.1489804 -0.07627671 0.17382863
-0.1094659 -0.0055199265 0.08488227 -0.12702873 -0.11856046 -0.17937607 0.01253385 0.11337144
-0.22741297 -0.21724874 0.036662854 -0.22798437 -0.1511733 0.28023964 -0.11243747 0.1733586
-0.18965885 0.054272875 -0.007056691 -0.12439841 0.13526997 -0.14747901 -0.039216924 -0.100252114
0.018886335 -0.14115466 0.047595818 -0.069249354 -0.052414298 -0.0887405 -0.041385524 0.16998112
0.19148603 -0.049298644 0.18553333 0.09116579 -0.27569765 -0.111854546 0.013241585 0.08261225
0.118657604 0.08945948 0.18596858 0.15567169 0.111998454 0.13485561 -0.09340335 0.048882585
-0.14728937 0.047123205 0.14834212 0.1388414 -0.12716927 -0.09067727 -0.021289429 -0.18551134
-0.11637874 -0.22474413 0.22242028 -0.15489398 -0.048961367 -0.25776097 -0.11907393 -0.0020005954
-0.038059775 0.09683399 -0.14324127 0.015446299 -0.0875897 -0.12148374 -0.156624 -0.15046547
0.045601938 -0.20195885 -0.22617666 -0.22254121 -0.23651284 0.1736309 0.009084045 0.25601783

rnn.weight_ih_l0 f4 [384, 128]
00000000: 46b6 0fbe 4b3e c0bd 53a9 98bd 3fe8 813c
00000010: 5449 af3d e12f edbd 6385 c7bd 0223 6bbd
00000020: d99d cbbd e172 a13d 7657 11bd 8e40 afbc
00000030: bef1 0dbe 4921 bc3c b1e4 003d 3166 63bd
00000040: b224 23bd f437 32be 9349 f4bc 734a 873c
00000050: 5d58 bb3d 43ea fbbc 209f 38bd 1641 bbbd
00000060: e226 e9bd 2906 75bd dc89 423c bce2 353d
00000070: acba d73c 6ae0 b7bb 4e07 41bc dd90 a4bc
00000080: 93d6 9bbd 7433 0cbe 71a1 12be d706 1d3d
00000090: 12c9 d7bd 22b7 853c 0fd8 d9bc b6bc 77bd
000000a0: 71ab 823d 6496 d8bd 2227 01bc 90ff 673c
000000b0: 20d6 79bd bbec 66bc 9163 a1bd d8c7 c4bd
000000c0: f623 4a3d fd00 05be 24a6 01bd 24b9 03bd
000000d0: 57c3 373d 4d43 383c 3eaf f9bd d083 123d
000000e0: c2b1 87bd 622d 063d d5c9 a7bd a7fa 07bd
000000f0: 4400 953d 08bb 47bd 96fd b5bd f9e9 a0bd
00000100: a8d0 f83b 0d87 273c 734b aabd 2d4e 8e3c
00000110: 235b 7a3d 4e49 35bd 8332 553d 96bc b53a
00000120: 9be1 87bc 5c7d 4d3c 7c8a e43c 87c4 1b3c
00000130: 6ac5 ff3b a1b7 e1bd 5efc 513d cc7d 96bd
00000140: 930c 03be 28c6 9eb9 134b 7fbc c400 acbb
00000150: ed83 8bbd d16d 09bd 17b1 82bd 93db ff3c
00000160: cf19 87bd da26 3e3d fff7 3f3d e8ea b6bd
00000170: d7ab 2e3d 24bb 9cbd ae4d 89bc 7475 24bd
00000180: 1345 12be a690 0dbe b86f 8abd e1cf f0bc
00000190: 948a b73d 95a7 b23d d861 c2bc c7af e53d
000001a0: 184a 8d3d 8233 473b 8faa e7bc 2f9d 0abe
000001b0: 9713 c2bd a045 5ebd 343e b9bd 47ba fbbc
000001c0: 3105 ddbd a99c 8abd 9d77 bebb b781 1cbe
000001d0: 765d 46bd de6d ccbb 5caf 71b9 13c1 56bd
000001e0: b2d1 7a3c dbfb 37bd 5a62 1d3d a915 95ba
000001f0: c99e 363d 8ae6 debc 36d4 a23d 354f a63d
00000200: 6459 f93d 3cad 86bd 4a16 32bd 1183 d43d
00000210: a7f9 d7bd 6068 153e 5059 1d3e 32c6 c93d
00000220: fd0b bfbd 21a1 c33d 92d4 043e 2652 a5bc
00000230: 5db4 593d a84c 4a3d 2179 54bd 8db0 8c3c
00000240: 870e f13d bfd0 f33d 8aa1 c03d 285e 86bd
00000250: bf33 093c 1bb8 50bd 68a2 23bd 0920 263d
00000260: 00b4 c03d 7b1c acbc b188 1cbd 7ba1 b9bc
00000270: 78f2 353d 7e83 adbc f3cb 9cbd b54e 4b3e
00000280: 6c07 303e 5db4 1a3e 6dbc 253c 147d 43bc
00000290: 6a55 2d3d f88b dc3c 96e1 0bbb cfdc 673e
000002a0: 3a98 893d 38a8 a13d f1f3 f33d 3c49 133e
000002b0: f5e5 073d d35c b63c e22a 153e ad1a db3d
000002c0: 2e13 893d 5ed8 c53d 230a da3d b69f f33d
000002d0: ad9e 40bd dfe5 27bd dc65 7cbd 77b0 3bbb
000002e0: 31ce 293d 9555 433d 319c 023d d37c 933d
000002f0: 5341 44bb 6d32 73bc 4b4b a43c 5040 1fbd
00000300: 8e7f 213c 20a3 913d 0699 e13c 1fab 3c3d
00000310: d3a1 313c d303 163c 4421 d63c 2a16 d6bc
00000320: a1b7 e4bd e2af aa3c 0d78 683d c642 c63d
00000330: 1648 ab3c c822 76bb 4d41 2e3d b704 203e
00000340: 90dd 9c3d db2d 973d a75f bcbd 46b4 c73d
00000350: 1f47 bdbc 8e3f df3d 8ea6 b2bd 2552 24be
00000360: 1119 14bc 5cbb aa3c ad2a 71bc 6eb4 71bc
00000370: 833f c6bd dd70 c1bd 3976 8fbd 5673 933c
00000380: e746 c33d c575 923d 04c3 953d fda4 553b
00000390: 4483 ba3d 006a 4dbd 8dca dabb deb1 54bd
000003a0: 5236 37bc f6a8 13bd 207e 823d df7e 2d3d
000003b0: b9b0 26bd bab2 db3d 6082 6d3d e0f9 033d
000003c0: f3fa 463e 1450 d53c a021 42bc 5ab4 153d
000003d0: 08e7 173c 7628 503d 08e9 a3bc 471f 20bc
000003e0: 7285 c43d db75 bc3d 2174 833b fc9a 72bd
000003f0: 0d08 1fbc bc48 b5bd e1e4 19bc 4e22 8dbd
-0.14034376 -0.093868814 -0.07454171 0.015857814 0.08558908 -0.11581398 -0.097422384 -0.057406433
-0.099422164 0.078832395 -0.0354838 -0.021393087 -0.13861749 0.02296509 0.031468097 -0.05551738
-0.039829917 -0.17404157 -0.02982024 0.016514992 0.09147713 -0.030751353 -0.04507363 -0.091432735
-0.113843694 -0.059820328 0.011873689 0.044405684 0.02633413 -0.005611469 -0.011781527 -0.020088607
-0.07609286 -0.13691503 -0.14319398 0.0383366 -0.10536398 0.016322676 -0.026592283 -0.060482703
0.06380356 -0.1057556 -0.007882865 0.014160052 -0.06099522 -0.014094527 -0.07880319 -0.0960843
0.0493507 -0.12988658 -0.031652585 -0.032158986 0.044864025 0.0112465145 -0.12191628 0.035770237
-0.066257015 0.032758124 -0.08192793 -0.033198025 0.07275441 -0.04876235 -0.08886258 -0.07857127
0.007593233 0.01022507 -0.08315172 0.017371261 0.06112207 -0.044259362 0.052050125 0.0013865407
-0.01658707 0.012542095 0.027898066 0.009507305 0.007805516 -0.110213526 0.051266067 -0.073482126
-0.12797765 -0.00030283746 -0.015581864 -0.0052491147 -0.06812272 -0.033551995 -0.063814335 0.03123263
-0.065967195 0.04642377 0.046867367 -0.089315236 0.042644348 -0.07652882 -0.016760673 -0.040151075
-0.14284162 -0.1382471 -0.0675959 -0.029396 0.089619786 0.0872337 -0.023728296 0.112151675
0.06898898 0.0030395691 -0.02827957 -0.13536523 -0.09476393 -0.05426562 -0.090450674 -0.030728472
-0.10792006 -0.06768162 -0.005812599 -0.15283857 -0.048428975 -0.006238683 -0.00023048877 -0.052430224
0.015308784 -0.044917922 0.038423873 -0.0011374253 0.044585023 -0.027209539 0.07950632 0.08120576
0.12175253 -0.065760106 -0.043478288 0.103765614 -0.10545664 0.14590597 0.15366101 0.09852256
-0.093284585 0.09552217 0.12971714 -0.020180773 0.053150523 0.04938951 -0.05187333 0.01717403
0.11770349 0.119050495 0.09405811 -0.06560928 0.008374154 -0.050956827 -0.039949805 0.040557895
0.09409332 -0.021009674 -0.038216297 -0.022660008 0.04442069 -0.021180864 -0.07656088 0.19854243
0.17190331 0.15107866 0.010115725 -0.011931676 0.042317785 0.026922211 -0.0021344176 0.22642826
0.06718488 0.07893413 0.119117625 0.14383405 0.03317829 0.022261059 0.1456714 0.106984474
0.06693111 0.096604094 0.10646465 0.11895697 -0.047026325 -0.040990707 -0.06162058 -0.0028639117
0.041456405 0.04768904 0.031887237 0.07201543 -0.0029946163 -0.014843565 0.020055434 -0.038879693
0.009857072 0.07111192 0.027538788 0.04606163 0.010841805 0.009156185 0.02613891 -0.026133616
-0.11167837 0.02083582 0.056755114 0.09680705 0.020908397 -0.0037557352 0.042542744 0.15626799
0.07659447 0.07381793 -0.09197932 0.09751181 -0.023105202 0.10900794 -0.08723174 -0.1604696
-0.009039179 0.020841293 -0.014719647 -0.01475249 -0.09680083 -0.09445355 -0.07004971 0.017999332
0.09535008 0.07151369 0.07312587 0.0032599561 0.09107068 -0.050149918 -0.006676978 -0.05192744
-0.011182385 -0.036049806 0.06371713 0.04235732 -0.04069588 0.10727449 0.057985663 0.03222072
0.19431667 0.02603916 -0.011848837 0.03654895 0.009271391 0.050819837 -0.020008579 -0.009773082
0.09595765 0.09202167 0.0040116464 -0.059229836 -0.009706509 -0.088517636 -0.009392948 -0.06891309

rnn.weight_hh_l0 f4 [384, 128]
00000000: 2b22 cbbd 5ab4 19bd 57fd 2dbc a54b c73c
00000010: 8c73 783d 470c 313d bea3 803d c8b7 cfbd
00000020: 7a74 cdbc 6450 89bd 21bf ccba 147e d7bd
00000030: 42c7 ea3c 2300 0dbd 3f17 8dbc 8c7c 5d3d
00000040: 264a 793d 54f7 f13c 0500 23bd ddf6 aabd
00000050: 9a8d 013a 2f27 a8bd 8440 003e 3de7 c0bc
00000060: ded2 a33d 26b2 c1bd 30ec e8bd 62b3 c2b9
00000070: a28f bdbd 8433 423d 70b3 9fbd 2f7a a0bd
00000080: ac8a ff3c fe7f 943d a62b 2a3d c59f 253d
00000090: b090 043e 9a10 01be bf41 d0bc ee77 abbd
000000a0: ed65 523d d1c8 e6bd d6be 363d a6ac 5e3d
000000b0: b8dd b23d a4b9 a2bd acbb 12be d827 6bbd
000000c0: 5c53 51be 592e 313e d4c3 883d 8a3a 8cbd
000000d0: f441 933d c19b 5a3d ae6f 943d d51a 1e3e
000000e0: 8abc 90bd ad51 2ebc 422d 8c3b b556 d23c
000000f0: 1d51 8bbc c7f5 9ebc 390e 9a3d 2b8f 46bd
00000100: c4bc 93b5 7390 d83d a964 1d3d b8c7 f3bc
00000110: a8d3 ad3d 8bce 54bc c5d7 1f3b 9738 5cbd
00000120: 9abc 4fbd 63b1 4c3d 59f1 8bbd 99ab fa3d
00000130: d45c e83d 7cc2 b6bc 81dc 9a3d c68c 71bd
00000140: 596c 2738 3d27 873d dfa7 1b3b 56b9 97bd
00000150: 4013 d83c 84bc 32bd ae24 9dbd 734f 79bd
00000160: 1f29 d73d 37fa 013e dd68 87bb a805 04bd
00000170: 7ece a43d 192c 30bd 9f3d d9bd 4999 5f3d
00000180: fe25 be3d 9227 a43d 9ed3 1f3d 9794 b33d
00000190: 4772 eeb9 e58d cebd 2a79 23bd cdae d7bd
000001a0: 32f4 b33c 404d 0abc a39f 0bbc a0b0 f43c
000001b0: 9965 123d 5e26 c3bd 6776 a93d fac6 443d
000001c0: 037c a73b 6126 983d 032e 49bd deaa 393d
000001d0: 78c0 9ebd 7493 343d 5807 9fbd 439b f93d
000001e0: 0df2 29bd 1a48 b3bd ea73 62bd eb7c 9bbd
000001f0: 78c0 aebd acee 0abe 5f87 c53d 769b e13c
00000200: 55e0 323c cf4f ffbc 895e 5f3b f2aa fcbd
00000210: 10b3 203e ea22 a6bd f9de 0d3d 8bbf 3abc
00000220: 54e4 033d d02c 02be fdd2 2cbc 3b8f 0a3e
00000230: 1622 63bd 34d4 e9bd ace1 1c3c 1533 e4bc
00000240: 5879 7b3d 04df 7e3c a527 a23d 4153 85bd
00000250: 8048 ccbd 0b9b 173d 0a64 09be 936f 723c
00000260: 29e7 a7bc 9de7 c2bc 728e 9fbd 83f4 b73b
00000270: f93c 7f3d e454 17be 0f53 9ebd e8b1 54bd
00000280: ab69 2e3d 99d8 b3bb f571 8d3d 93a4 413d
00000290: b579 bb3d 889e 42bc ecdf a33d 1662 673e
000002a0: f9d0 b6bb 11cc a6bd 7719 993d d47e b63d
000002b0: 3026 c0bc a0ae fb3d 3920 00bd d3c3 b5bd
000002c0: b9f5 473d d308 6f3d 8846 a2bc 130b 313e
000002d0: a00b 9a3b 9199 53bd 61f4 603c 425a 153e
000002e0: 8ab1 6abd d8d5 a1ba 99f8 443d c4c5 d13d
000002f0: c14e c4bd cd35 173d b2f9 3fbe 04e5 563e
00000300: ace6 9dbd 6015 dcbc 05fb 53bc 6941 0f3d
00000310: 0f80 5c3d bd04 583c 54eb 30be 379a 7bbd
00000320: 1d90 5f3d aa69 dbbd e018 8b3c 34cf 5b3d
00000330: 61f9 723c 72f9 063e 9e34 533d 78e7 f2bc
00000340: b8c3 a1bd c07e a6bc bdb2 0f3e f21c b8bd
00000350: f273 9dbc 93ec b93d f343 e93d 3ef9 5ebd
00000360: 7a76 363d 4b83 41bc f0bc eb3c 4508 2abd
00000370: 45fe 6fbd e460 ddbd 0ca0 f13d 49b3 673d
00000380: dfc9 6abd c233 b5bc 1f04 593e f71e 1fbe
00000390: 750f 6c3d ee24 1b3e 54c8 6dbd 3b52 0e3e
000003a0: 6ed2 e3bc 8393 52be 337c 7abd 24dd fbbd
000003b0: d0e1 c0bc 344b 11bd 7cb1 033e 390e 87bc
000003c0: b7f2 8d3c 1366 65bd 92d3 013c b2ea 90bd
000003d0: 7699 203d 1f76 04bd af08 393c 64f5 cbbd
000003e0: 2f3e 2bbb 1e2e b7bd a3c4 02bd d93e 103c
000003f0: 4de8 423d 8297 7a3d 89c5 5d3c 6332 97bd
-0.099186264 -0.037525512 -0.010619483 0.024328062 0.06065707 0.0432246 0.06281231 -0.10142475
-0.025079954 -0.067047864 -0.0015620926 -0.10522094 0.028659467 -0.03442396 -0.017222999 0.054073855
0.06086173 0.02953688 -0.03979494 -0.08347867 0.000494206 -0.08210599 0.12524611 -0.023547763
0.07999204 -0.09457807 -0.11373174 -0.00037136214 -0.092559114 0.04741241 -0.07797897 -0.07835805
0.031194054 0.07250975 0.041545533 0.04043557 0.12945819 -0.12603989 -0.025421975 -0.08372484
0.051366735 -0.112687714 0.04461559 0.05436387 0.08733696 -0.079455644 -0.14329404 -0.057411045
-0.20441955 0.17302836 0.06677976 -0.06847103 0.07190314 0.053371195 0.07247864 0.15439923
-0.07067211 -0.01063959 0.004277856 0.02567611 -0.017006451 -0.019404305 0.07522244 -0.04847638
-1.1007292e-06 0.105744265 0.038426075 -0.02975832 0.08487636 -0.012988697 0.0024390083 -0.053764906
-0.050716974 0.049973857 -0.06833143 0.12239761 0.113458306 -0.022309534 0.07561589 -0.058972143
3.991681e-05 0.06599281 0.0023751182 -0.07408397 0.026376367 -0.043636814 -0.07673012 -0.060866784
0.1050589 0.12693106 -0.0041323737 -0.032231957 0.08047198 -0.043010805 -0.106074564 0.054589543
0.0928459 0.0801536 0.039020173 0.08768576 -0.0004548004 -0.10085658 -0.039910473 -0.105313875
0.021967027 -0.008441269 -0.008521947 0.029869378 0.035741422 -0.09528802 0.082745366 0.04804132
0.005111219 0.07429195 -0.049116146 0.045328967 -0.07751554 0.044085935 -0.077650726 0.12187817
-0.041490603 -0.08753987 -0.055286326 -0.075921856 -0.08532804 -0.13567609 0.096449606 0.02753995
0.010917743 -0.031165985 0.0034083447 -0.12337293 0.15693307 -0.08112128 0.03463647 -0.011398206
0.032200173 -0.12712407 -0.01054835 0.135312 -0.05545243 -0.11417428 0.009575289 -0.027856389
0.06139502 0.015556101 0.07917718 -0.0651002 -0.09974766 0.037013095 -0.13417068 0.014797109
-0.020495968 -0.023792082 -0.07790841 0.005613865 0.062314007 -0.14778477 -0.07730686 -0.051927477
0.04258124 -0.005488467 0.06906501 0.04727609 0.09154073 -0.011878617 0.08001694 0.2259601
-0.0055791107 -0.08144391 0.0747556 0.08910909 -0.02345571 0.122891665 -0.03128073 -0.08875241
0.048818324 0.058358025 -0.019809023 0.1728938 0.004701093 -0.051660124 0.0137301395 0.14585212
-0.05729822 -0.0012347056 0.048088644 0.10242799 -0.095853336 0.036916543 -0.18747595 0.209858
-0.07710013 -0.026865661 -0.012938266 0.03497449 0.053833064 0.013184723 -0.1727727 -0.061426368
0.054580797 -0.10713513 0.016979635 0.0536644 0.014829964 0.13181093 0.05156385 -0.029651389
-0.078986585 -0.020324111 0.14033027 -0.08989896 -0.019220326 0.09078326 0.113899134 -0.054436915
0.04454658 -0.011811088 0.028776616 -0.041511793 -0.0585921 -0.10809496 0.11798105 0.056567464
-0.057321426 -0.022119407 0.21192978 -0.15539156 0.05763193 0.15150806 -0.058052376 0.13898556
-0.027810302 -0.20564084 -0.0611536 -0.122980386 -0.023545176 -0.03547211 0.12860674 -0.016486274
0.01732765 -0.05600555 0.007923977 -0.070760146 0.03920885 -0.03233921 0.011293574 -0.09958914
-0.0026129594 -0.08944343 -0.03192581 0.008804047 0.04758482 0.061179645 0.013535866 -0.073826574

rnn.bias_ih_l0 f4 [384]
00000000: 4b4e d4bd 9612 983d e2c1 3bbc 6492 71bd
00000010: 2282 de3d b552 03be f1c4 6ebd c100 febc
00000020: cf50 abbc 5b3c e33d da98 933d 231c 9ebd
00000030: e6a2 1fbb 7fbd 06bd 6d9d fd3c dac7 bb3c
00000040: ef08 e8bd 70b7 6e3d f61e 733c 1842 8c3d
00000050: 81d0 fbbc 4c07 52bd 8cb9 1ebd d129 edbc
00000060: 80ba 8f3d aed8 bf3b 2168 083c 8695 3abd
00000070: f438 9b3d 6c9c d43d a7a1 8bbc b4df 9cbd
00000080: 17c8 babd 92a1 be3c 0aa0 6d3c 14ea 323d
00000090: 430f af3a 7eab c8bc 4627 a8bd 83b3 9d3d
000000a0: 15e4 7ebc 9c0b a4bd 85ef c13b a9d5 e23d
000000b0: 742d b8bd 0abc 5dbb 57be 793d d1c0 61ba
000000c0: 490b 043d cd0e 0c3c 6953 e93d 2beb c63a
000000d0: 00c5 14bd 7e54 b73c f3b8 063e 83f3 7e3d
000000e0: 6d3d 48bd c0c8 f2bc df24 b1bc f36e 78bd
000000f0: 4e4c 14be 0947 14bd 4cb5 98bd 20cf 28bd
00000100: 007a 793d 8e4c 3dbb 99db 6ebc 38b8 d43d
00000110: a7cf 4abd d8d2 c73c b378 053d 2d25 92bc
00000120: f185 233d fc71 2ebd be00 283c 3aa5 9bbd
00000130: 08e2 593d 1ef0 f7bd 4fef 183d 9539 f5bd
00000140: 0207 fd3d d86c 883b bca7 01bb 4c8e 2bbb
00000150: 49e0 c8bc deb0 113e 3146 453d 9555 35bc
00000160: b49b bb3d ae04 113d 35d1 38bd fa85 a93d
00000170: 5e0d ad3c 2dfc 51bb bf87 f23c fab9 0e3e
00000180: aaf0 aa3d 383f d43d 84be 06bd aca7 103e
00000190: d1e7 893a 96db b3bd de57 0d3c f89f c4bc
000001a0: 49cd 07bd be6e 093d 90ef d73c cd2f 20be
000001b0: 13a1 e6bc 0c4d 3b3d 555e fdbc ee66 1fbe
000001c0: 3a58 bb3c ec49 d93d 53bd 183d ee12 80bd
000001d0: 14e3 90bc 9124 85bd 1ed5 373e 4e84 81bc
000001e0: d48b 4b3c 78f8 29bd 09c8 3cbd 5562 b23c
000001f0: 4551 1fbd 1b93 213d 782d 86bd db22 713c
00000200: 1d2a d43d aceb 20bd ebab b4bd fb6b 73bd
00000210: 8160 64bd d336 f1bc 1741 80bd 0543 123e
00000220: 2824 c5bc 649a bb3b ee70 debc aedc f1bd
00000230: 503e f93b fa97 8c3d ca23 e23c 6c23 97bd
00000240: d35c c03d 8083 033e 291b db3d 4b0c ca3d
00000250: acd1 4cbc 3b59 d53d 60b0 953d 2f5d 243c
00000260: 74c5 6c3c 0783 4e3d f8a9 a0bd 6eec 683d
00000270: bd8c 353e d0ef 02bd 4138 893d b59b 383a
00000280: c0aa 293d ecc3 863e f2d0 5c3b 93a6 9fbd
00000290: 3adb 633c 72b5 0fbc 4817 ac3d 3691 11bc
000002a0: 4781 003e 80d9 ea3d eba1 d73d 39f4 78bd
000002b0: 9f50 e53d e0a0 0a3e c135 2b3e 7af7 dabb
000002c0: 3b21 c5bc d1e8 593d d40a debc b877 ed3b
000002d0: b364 c03d 651b 1f3d 2280 4b3e 7571 cc3c
000002e0: 82f0 053e 32c7 373e 3b10 babd f60e 113d
000002f0: 18b6 9f3d 493c 423c 6064 9ebc 7bda 14bd
00000300: c019 a1bd 99ee 1d3e 57e9 0b3c 5797 cd3d
00000310: 1b2d bc3d 66ad 803b 60d0 91bd 03cb c2bb
00000320: e266 2ebd d50f dbba f6fd 013e a057 55bd
00000330: a491 ad3d c9be 3c3e 1aae 6e3d 3480 59bd
00000340: d415 09bd f8aa 8a3d f93c 453e b3ef 7abc
00000350: dd5d da3d 25da 25bc 02f3 ac3d e861 8abd
00000360: b718 a4bd a342 bbbd bc8f 3d3e ca39 c43d
00000370: 1ca2 f83d c205 32bd b6e0 753d 4a2c 17be
00000380: 4a8a 0dbd 085c 8d3d f277 aa3d ded2 f53c
00000390: 4fc7 87bd 563f 5e3d 1801 e9bc 6d8c a3bd
000003a0: dcee 1e3d 4936 fb3d fb84 b03d ebc8 103d
000003b0: eea8 493e b4cc 06bd 5f7e 083d 7ff7 173e
000003c0: 696b 5b3d c55d ab3d dd5c b43d 44d0 803d
000003d0: 2865 553d 03dc 0a3d 4b84 c23c 6346 10bc
000003e0: 3bd9 c73d f2c1 5b3d 8f44 ecbc e4d0 a2bc
000003f0: bb88 8a3d c12d 7f3d 7b64 a83d f4da dbbd
-0.10366496 0.0742542 -0.0114597995 -0.0589775 0.108646646 -0.12824519 -0.058293287 -0.031006219
-0.020912556 0.11095496 0.072068885 -0.077202104 -0.002435857 -0.03289556 0.030958856 0.022922445
-0.11329829 0.05828041 0.014838925 0.06848544 -0.03073907 -0.05127649 -0.03875117 -0.028950604
0.07017994 0.0058546877 0.0083256075 -0.045552753 0.07579222 0.103813976 -0.017044855 -0.076598555
-0.09120195 0.023270402 0.014503488 0.043680266 0.0013355989 -0.024495836 -0.08210616 0.07700255
-0.015557309 -0.08010027 0.0059184455 0.11075909 -0.089930445 -0.0033834004 0.060972538 -0.0008611801
0.032237325 0.008548451 0.11392862 0.0015176287 -0.036320686 0.022379156 0.1315649 0.06224395
-0.048886705 -0.02963674 -0.021624027 -0.060652684 -0.14482233 -0.036200557 -0.07456455 -0.041213155
0.060907364 -0.0028884741 -0.014578723 0.103866994 -0.04951444 0.02439253 0.03258581 -0.017839992
0.03992266 -0.042589173 0.010254083 -0.07599874 0.053194076 -0.121063456 0.037337597 -0.119738735
0.12354852 0.004163366 -0.0019783815 -0.0026177345 -0.02452101 0.14227626 0.048162643 -0.011067768
0.091605574 0.035404854 -0.04512139 0.08277507 0.021124538 -0.0032041178 0.029605744 0.13938132
0.08346684 0.103636205 -0.032896534 0.14126462 0.0010521357 -0.08782117 0.008626906 -0.02400206
-0.03315476 0.033552878 0.02635935 -0.15643235 -0.028152978 0.045727775 -0.03092877 -0.15566608
0.022869218 0.106098026 0.03728993 -0.062536106 -0.017686404 -0.06501115 0.17952392 -0.015810158
0.012423474 -0.041496724 -0.046089206 0.021775404 -0.038895864 0.03944693 -0.06551641 0.014717783
0.10359595 -0.039287254 -0.08821853 -0.05942915 -0.055756096 -0.029445088 -0.06262415 0.14283378
-0.024065092 0.005725192 -0.027153458 -0.118096694 0.007606305 0.06864925 0.027604956 -0.07379803
0.09392705 0.12843132 0.1069854 0.09865626 -0.012501162 0.1041741 0.073090315 0.010031982
0.014451373 0.050417926 -0.07844919 0.056866102 0.17729469 -0.031966984 0.06700183 0.0007042245
0.041422606 0.26321352 0.0033693877 -0.077954434 0.013907248 -0.008771287 0.08402878 -0.008884719
0.12549315 0.11467266 0.1052893 -0.060779784 0.11197018 0.13537931 0.16719724 -0.0066823335
-0.024063697 0.053200547 -0.027104773 0.0072469376 0.09394207 0.038844485 0.19873098 0.024956444
0.13080028 0.1794708 -0.09085127 0.03541466 0.077984035 0.011855193 -0.019334972 -0.03634117
-0.078662395 0.15423049 0.008539519 0.100386314 0.09188291 0.0039269207 -0.071198225 -0.005944611
-0.042578585 -0.0016713092 0.12694535 -0.05208552 0.08475044 0.18432154 0.058271505 -0.05310078
-0.033468083 0.06770891 0.1926154 -0.015315938 0.10662434 -0.0101228105 0.084447876 -0.067569554
-0.080125265 -0.09143569 0.18511862 0.09581335 0.12140295 -0.043462522 0.060028754 -0.14762989
-0.03455571 0.06902319 0.08323659 0.030007776 -0.06629812 0.05425962 -0.028442904 -0.079857685
0.038802013 0.122662134 0.08619114 0.03534786 0.19693348 -0.032910064 0.033323642 0.14840506
0.05356923 0.083674945 0.08806775 0.062897235 0.052098423 0.033901226 0.023744723 -0.008805844
0.0975823 0.053651758 -0.028841285 -0.019874997 0.067643605 0.062299494 0.0822229 -0.10735121

rnn.bias_hh_l0 f4 [384]
00000000: d806 4abd 75e6 113e a69a a3bd 9f72 aa3c
00000010: cbb7 9a3d 8147 acbd 0d7c aa3d 7ea1 e3bc
00000020: d771 e93c 44f8 37bd 6d4b a23c 302c 293d
00000030: 4ef8 97bd 79bc 72bd bcb5 04bc f299 b63b
00000040: 5d20 d9bc d0fa edbc 8ae4 9fbc 4c89 eabc
00000050: cf27 c13d 247b 34bc c6bf acbc 2702 993d
00000060: ecf1 0f3d fb6c 473d 10a0 243a db03 2ebd
00000070: 4060 ff3b 4f0d 4c3d b272 a13d 57be 71bd
00000080: 5b57 c5bd 12aa a1bc 6922 1d3e 749c 803d
00000090: 1d7a 3abc cc31 b73d 9563 1bbc 7e76 383d
000000a0: 2083 07be e14e 8cbc 20d8 943b f2dd e23d
000000b0: 2289 0fbe 82ba 843d d942 4e3d 8dca db3c
000000c0: 35d1 14bd c017 9e3c c7cc 233e c528 e0ba
000000d0: 18d6 7fbd f6bd 4d3d 25f0 d3bc 3a04 b5bc
000000e0: a502 973d 07c6 71bd 15a1 333b 9adc c03d
000000f0: 6703 e6bd 9af5 3f3d c0be cabd 0dac edbd
00000100: 27a4 aebc 8f94 f8bd 38a7 fbbc 30dd 7bbd
00000110: 0314 8b3b 1b7b d93c 9443 763d 5095 8ebc
00000120: 42a6 61bd be46 553c 5da0 8d3d 14d5 143d
00000130: 2fce 25bd 6ebd e1bd 7e74 103d 4d33 c3bd
00000140: 7b02 db3c 5d6f 07bd 5388 9838 fbde c2bc
00000150: 4d97 753d ca3f 623d 615b bf3d 6e54 56bc
00000160: 51f7 b83d ec89 063e ee9e f23d e74a a9bb
00000170: 072b c83d 4bcb 12bc 3d20 683d 1036 1e3d
00000180: a18d 4dbb 8098 bcba bdac 433c b9f5 893d
00000190: 9b00 c83d d776 38bc 0a9f d93c eba2 153b
000001a0: f262 893d 0515 5d3b 5711 453d 24cf debd
000001b0: 3add cf3c b25a b2bd bf23 933c c410 17be
000001c0: 95e6 9a3d c3d5 1abc 6ac4 083e 346e 933d
000001d0: d064 293c 8ee1 75bd 3c36 363e 7950 98bd
000001e0: e523 1f3d edcb f73c 9e55 32bc 65a4 bf3c
000001f0: 97ab 8cbd 17c0 4f3d 5c0f 8dbd 8325 2d3c
00000200: 3d26 163e a3b9 41bd afa7 f43c 4dfd 2abd
00000210: 13bb 2cbd 5ead 7e3d a595 0fbd eed9 b53d
00000220: ef16 ac3d 8e25 b2bd 38ba 83bd 2b7c 75bd
00000230: 3284 1f3d 0c9a c23d 309b b43d 3dda 75bd
00000240: 6dd4 523e 8554 7d3d 16a9 d33c 875c 1f3c
00000250: fad5 353c 956e d73c 0878 f3bc 5c40 b0bb
00000260: 6f84 573d a6f2 b23d 396b 6fbc 9410 9ebc
00000270: 42aa d93c 3566 f23d 8ed2 9ebd 5280 e83c
00000280: 38b6 473c 4605 4b3e a12d abbd 3630 903c
00000290: df4d febd 745a 163e 68c6 383e 363a b63c
000002a0: 6da6 8a3d ef29 f43d 8085 07bd 664e 133c
000002b0: 81aa 4bbd c223 d73d 6fde 2a3d 5190 c7bc
000002c0: af4b 27bd 1e4e bd3c 37af d33d 5175 fdbb
000002d0: a89c 983d 11d4 d83d ec58 d03d de76 ec3d
000002e0: 5c71 01bc 222a 4a3e 6882 973d 0975 953d
000002f0: 1dfe 68bc 6dc7 81ba 5d8e e4bc 6288 92b7
00000300: ac1f c1bd 9474 813d c1d9 013e 05f5 18bc
00000310: f679 863d a1e3 3c3c 18d2 713d 12e2 743d
00000320: 3a1f 733d bb58 13be a0fc d0bc e85c 223d
00000330: b68f ac3d d026 e73c 611b fd3d 5cf5 093d
00000340: 1e8e 18bd b723 f43a 4f3c c53d 2efc 1bbd
00000350: bc9d 0c3e 29b1 643d 1611 36bb c5e7 ea3c
00000360: 430f d7bd 2225 0e39 0cf5 053e 2915 0b3e
00000370: 8d92 3f3b a346 22bd 1f1c 5939 e75a 00be
00000380: 882f 23bd 3e49 6b3d c4bb 6b3d ca8a 853d
00000390: aa74 85bc 82b5 e03d 7b3b cebc 73fd 9bbd
000003a0: 7834 0c3e 5bfb 883c 15c7 81bd c2b9 313e
000003b0: 5ec5 d43d c45b 373d 43b1 233a 2d1f d73d
000003c0: 26d3 843d 178e 083d 862e 5fbd c65d 14bd
000003d0: e698 c4bc 46fb 3fbd 76ef ae3d 11ec 0c3d
000003e0: 98bb 793c cf8f 9a3d 274b 90bc 4697 193c
000003f0: 66a3 903d cdb2 b53d 5fbf 263e ce2d dbbd
-0.049322933 0.14248069 -0.07988481 0.020806609 0.07554587 -0.08412076 0.08324442 -0.027786966
0.028496666 -0.0449145 0.019811356 0.041301906 -0.07420407 -0.059261773 -0.0080999695 0.005572551
-0.02650469 -0.02905026 -0.019518156 -0.028629921 0.09431421 -0.011015687 -0.021087538 0.07471114
0.035142824 0.048687916 0.00062799547 -0.042484146 0.0077934563 0.04981738 0.078832045 -0.059019413
-0.09635802 -0.019734416 0.15345158 0.06279841 -0.011381653 0.08945045 -0.009484191 0.045034878
-0.13233614 -0.017127456 0.0045423657 0.11077489 -0.14017156 0.06480886 0.05035672 0.026829982
-0.036332328 0.019298434 0.15996085 -0.0017101994 -0.062460035 0.05022999 -0.025871346 -0.022096742
0.07373551 -0.059026744 0.0027409245 0.094170764 -0.11231118 0.046865083 -0.09899664 -0.11605082
-0.021318508 -0.1213771 -0.030719385 -0.061490238 0.004244329 0.02654796 0.06012304 -0.017405182
-0.055090196 0.0130173545 0.069153525 0.03633602 -0.040479835 -0.11022459 0.035267346 -0.09531269
0.026734581 -0.03306519 7.273317e-05 -0.023787966 0.059958745 0.055236615 0.09343601 -0.013081653
0.09031547 0.1313855 0.1184672 -0.0051663998 0.09773832 -0.008959602 0.05667137 0.038625777
-0.0031364935 -0.001438871 0.0119430395 0.06736321 0.097657405 -0.011258802 0.026565094 0.0022832702
0.067083254 0.0033734452 0.04811224 -0.10879353 0.025374044 -0.08708705 0.017961381 -0.1475249
0.07563511 -0.009450379 0.13356176 0.07198754 0.010338977 -0.06002956 0.17794126 -0.07437224
0.03885259 0.030248607 -0.010884671 0.02339382 -0.06868666 0.0507203 -0.06887695 0.0105680255
0.14663024 -0.047296178 0.029865114 -0.041745473 -0.042170595 0.062177055 -0.03505482 0.088794574
0.08402812 -0.08698569 -0.06432003 -0.05993287 0.03894443 0.09502038 0.08818662 -0.06002258
0.20588847 0.061848182 0.025837462 0.00972665 0.011098379 0.026297847 -0.029720321 -0.005378766
0.052616533 0.08737688 -0.014612966 -0.019295014 0.026570443 0.11835901 -0.07755004 0.0283815
0.01218944 0.1982623 -0.083583124 0.017601114 -0.124171965 0.14682943 0.18044436 0.022244554
0.067700244 0.11922061 -0.0330863 0.00899086 -0.049723152 0.10504867 0.041716035 -0.024360808
-0.040843662 0.023108538 0.10336154 -0.0077349325 0.07451755 0.105873235 0.101732105 0.115461096
-0.007900562 0.19742635 0.0739792 0.07297713 -0.014220742 -0.0009901352 -0.027899915 -1.7468064e-05
-0.09429869 0.06321064 0.12680723 -0.009335761 0.06566231 0.01152888 0.05903825 0.05978591
0.05935595 -0.14389317 -0.025511086 0.039639384 0.08425848 0.02821675 0.12358738 0.03368126
-0.03724491 0.0018626367 0.096306436 -0.038082294 0.13732046 0.055833016 -0.002778118 0.02867497
-0.10500958 0.00013556008 0.13081759 0.1358229 0.0029231638 -0.039618146 0.00020705209 -0.12534676
-0.03984025 0.057442896 0.057552114 0.065206125 -0.016290981 0.1097212 -0.025174847 -0.07616701
0.1369189 0.016721418 -0.063368 0.17356017 0.10389207 0.04476525 0.00062443706 0.10503993
0.06485586 0.033338632 -0.054487728 -0.03622224 -0.023998689 -0.046870492 0.08541767 0.034404818
0.01524248 0.075469606 -0.01761396 0.009374445 0.07062416 0.08871994 0.1628394 -0.10702096

predict.1.weight f4 [24, 128]
00000000: 96a2 50bc 5b37 553d 44bb 223c 668e 293c
00000010: 8cfa 7abc 7e5c d439 fe04 55bb 7e22 30bd
00000020: bd96 923d 113a 513c 2cbd 4dbd cc4f c7bc
00000030: 4eb8 7d3c fd26 5d3d 75d9 93bc f181 03bd
00000040: 61aa 553d 409b 553d d3dc 63bd 8dda cc3b
00000050: 3bf6 413d fd41 f33b df22 d6bc e5e2 b3bc
00000060: 7ed6 13bd beba 453c a287 a1ba 9a1f a3bb
00000070: 4c2f 05bd d8b2 2bbd 89b5 b0bd efc9 00bc
00000080: d1db 9bbb 992c 26bc c662 cf3c 9570 f93c
00000090: 8275 a13b 71da f13b 0948 173c d9aa 8dbd
000000a0: 81e5 9b3c 5979 aabc e692 273d 7190 24bd
000000b0: a295 cc3c 52b2 a63c 96d8 5bbc c71e 743d
000000c0: 87ae 6abc 1e16 2ebd 8c8d c6bb 4e80 0cbb
000000d0: c433 0ebd b957 363c 23a3 97bc ae78 e7bc
000000e0: 518f c9bb 0beb 8a3b 7b42 c7bc 0145 413d
000000f0: 8b6f 8fbc ec52 953b 4558 e63c 6ca5 f8bc
00000100: 40fb 713c 2ad2 513d 326a 5e3d 265d bc3b
00000110: c0dc 08bb a4be 263b c76e cd3b a94c e33c
00000120: e22a 223d df70 8a3c ac55 a9bc 2247 2ebd
00000130: 3ac7 c23c b63f 61b8 4f51 b93b cc14 e7bc
00000140: a2bb 073c 2de5 8dbd 9d9c 49bd 8561 86bc
00000150: e533 02bd 09ca 39bc 817a 0cbd 071b b2bc
00000160: 0164 c33b 93f8 2ebc bc89 093d c663 c13c
00000170: cf3c 31bd 32a9 463c 1c88 1abc 614e bfbd
00000180: 6d91 b63b 0396 a4bc e8a1 0bbd 61cd 993c
00000190: 465f 73bd fc20 eebd cf2d 85bd cfd8 1ebc
000001a0: cefc 2f3c 2ebb 513d 33bd f03c fb33 18bd
000001b0: 1dcc b7bc bb25 0cbd 4d0b 25bd 0e7a b43d
000001c0: f84d 92bd 3a75 aebc f3d2 92bc 4842 2b3d
000001d0: cae9 563d cd92 58bd 329f 32bd 3f61 653c
000001e0: 13cf dbbb 0bc3 953c c95f c2bb a979 163b
000001f0: a084 2abb e655 97bc 24fd 85bc 99df 46bc
00000200: a385 6a3c 83c0 9c3d bfa1 63bc 4f06 9d3c
00000210: db8b 08bd 7e73 023d 1448 03bc e77c a0bd
00000220: c1ca b33d 61f5 b33b 85a8 86bd a896 b2bc
00000230: 3006 15bd f0a6 523d 2dea a1bd 2e47 86bd
00000240: b590 5a3d 8047 393d 0889 35bc 95c0 a33c
00000250: 5a91 383d c02a a9bc dc68 533c 0e90 f9bc
00000260: 9d1a 78bd 9845 8d3b 4e47 04bd 96a7 323d
00000270: 6e77 793b e2fa f7bc 60f2 c3bd ff85 9e3c
00000280: 7930 5ebc e907 3fbc 65dd 063d 7438 c13c
00000290: 71b0 60bc 1b61 d1bc f0ea 88bb 1128 d6bd
000002a0: 34c9 6c3c 8a98 c23c d31a 453c 36f6 bfbd
000002b0: 4a5b 003d 4e6b 7c3c 9fcf b23c adfa 4e3d
000002c0: 407a 1bbd 7b82 d1bd 274b a1bb d9d8 e6bc
000002d0: 9689 86bd f21e ce3c f0cf 25bd a83f 70bc
000002e0: 74c7 003d 1fc8 8a3a 5d5e 09bd 6e93 953d
000002f0: 4421 7ebc 295b 89bc f93f 3b3b 4707 babd
00000300: a7dd 7dbb 83b2 b63d 762f 2e3d d2b7 e63b
00000310: 8a2c 5bbd 96f7 4f3c f8cc 173d 5c44 663d
00000320: 9a49 7e3c 36f9 203d f50d 623c b6ea 4bbd
00000330: f205 8a3d 965d feb8 6325 c9bc 11ff 29bd
00000340: 9847 98bb 7eee d4bd abcc 8bbd f2c1 763c
00000350: 5e10 fe39 1fb0 17bc 17da 07bd 5c5f 02bd
00000360: 1b62 d73b 34b9 cabc 9221 cd3d 8df0 3f3d
00000370: 7558 10bd 9c53 723d 551f 97bb 029c e8bd
00000380: b8f3 48bc 846e 5bbd e736 a6bd feab f43c
00000390: 57f3 95bd 5ca9 b1bd 1287 94bd 1bed 74bc
000003a0: 430d e7bc 914b c83d 5e03 843b 8a9c a7bd
000003b0: 3a9d 6f3b 05c8 2dbd 4273 9fbb 2e5c 153e
000003c0: 966a e6bd 84b7 09bc 4637 413c 909e 8f3d
000003d0: 05dc 383d 2bef aebc 365d 4fbd 36bb 1a3d
000003e0: 1a0c 3ebd 9e96 7fba 8646 5e3c 182a 81bc
000003f0: aa54 02bd 5be1 003b a609 9fbb 02c7 7e3d
-0.012734076 0.052054744 0.009932343 0.010348892 -0.015318524 0.00040504703 -0.0032504196 -0.043001644
0.07157657 0.012770192 -0.050229236 -0.024330042 0.015485836 0.05399226 -0.018048028 -0.032106344
0.05216444 0.05215001 -0.055630516 0.006251639 0.047353964 0.007423638 -0.026139675 -0.021958778
-0.036093228 0.012068449 -0.0012323747 -0.0049781324 -0.03251581 -0.041918606 -0.08628375 -0.007860645
-0.0047564288 -0.010142469 0.025315654 0.030449191 0.004927338 0.0073807766 0.009233483 -0.06917352
0.019030334 -0.020809816 0.040911578 -0.040176813 0.024973694 0.020348702 -0.013418337 0.059599664
-0.014323837 -0.04250156 -0.006059354 -0.002143878 -0.034717336 0.011129313 -0.018510407 -0.028255787
-0.006151118 0.004239445 -0.024323693 0.047184948 -0.017509243 0.004557004 0.028118262 -0.030352317
0.014769375 0.05122582 0.054300494 0.005748409 -0.002088353 0.002544322 0.006269309 0.027746515
0.039591677 0.016899524 -0.020670734 -0.042548306 0.02377664 -5.3703516e-05 0.0056554447 -0.028208159
0.008284481 -0.069284774 -0.049221624 -0.016403923 -0.03178777 -0.011339673 -0.034296516 -0.021741403
0.005962849 -0.010679382 0.03357862 0.023607146 -0.043270882 0.0121253 -0.009431865 -0.093411215
0.0055715353 -0.020091062 -0.034089953 0.01877469 -0.05941703 -0.11627385 -0.06502878 -0.009695246
0.010741426 0.0512039 0.029387092 -0.037158947 -0.022436196 -0.03421567 -0.04029398 0.088123426
-0.071437776 -0.021296132 -0.017922854 0.041811258 0.052469052 -0.052874375 -0.04360885 0.014000236
-0.006708035 0.01828148 -0.0059318286 0.0022960699 -0.0026018992 -0.018473577 -0.016356058 -0.012138271
0.014314088 0.07653906 -0.013893544 0.019168047 -0.0333365 0.031848423 -0.00801279 -0.07836323
0.087789066 0.005491898 -0.06575111 -0.021800354 -0.036382854 0.051428735 -0.079059936 -0.06556545
0.05336066 0.045234203 -0.011080034 0.019989291 0.045060493 -0.020650268 0.012903418 -0.030464198
-0.060572255 0.0043112747 -0.032294564 0.043616854 0.003806557 -0.030270997 -0.09567714 0.019351004
-0.0135613615 -0.011659601 0.032925982 0.02358649 -0.013713942 -0.025558999 -0.0041783974 -0.10456861
0.014452267 0.023754377 0.012030321 -0.09373133 0.03133706 0.015406443 0.021827517 0.05053203
-0.037958384 -0.10229965 -0.004922289 -0.028179573 -0.06569211 0.02516124 -0.040481508 -0.014663614
0.031440213 0.0010588205 -0.033537257 0.073035106 -0.015510861 -0.016767101 0.0028572066 -0.09083419
-0.0038736851 0.08920767 0.04252573 0.007040956 -0.053509273 0.012693306 0.037060708 0.056217536
0.015520478 0.039300166 0.013797273 -0.049784385 0.06739415 -0.000121290956 -0.02455396 -0.041503016
-0.0046472065 -0.10397051 -0.06826147 0.015060889 0.0004845885 -0.009258299 -0.03316697 -0.031829223
0.0065729744 -0.024746515 0.10016169 0.046860266 -0.03524061 0.059161767 -0.0046118894 -0.11357881
-0.012265138 -0.053572193 -0.081159405 0.029867169 -0.07321804 -0.08674881 -0.07252325 -0.0149491085
-0.028204566 0.09780038 0.0040287217 -0.08184154 0.003656222 -0.04242708 -0.0048660347 0.14585945
-0.112507984 -0.00840557 0.011792963 0.07012665 0.045131702 -0.021354279 -0.050626002 0.037776195
-0.04639826 -0.0009749922 0.013566619 -0.015767142 -0.031819023 0.0019665572 -0.004853445 0.062201507

predict.1.bias f4 [24]
00000000: 09c8 9f3c 7485 b0ba 0409 883b 734c b4bc
00000010: a472 b33b 2239 a7bc 4df4 243d fdda 69bc
00000020: 4062 2cbc bdca 07bd ae1c 4dbd ef44 2f3b
00000030: b9f7 0c3d 1970 3c3d af59 0e3c 393e 473c
00000040: fa55 113c aba2 26bd e0cc 9b3c fed6 9e3c
00000050: 13c2 ffbc 0546 73bc c57d 48bc a760 de3b
0.019504564 -0.0013467507 0.0041514654 -0.02200911 0.0054763127 -0.020412985 0.040272046 -0.014273402
-0.0105214715 -0.03315233 -0.05007618 0.0026743968 0.034415934 0.046005342 0.008688374 0.012160831
0.008870596 -0.040682476 0.01901859 0.019389626 -0.031220471 -0.014848237 -0.012237017 0.006786424
