results/electricity_SegRNN/2/checkpoint.pth (torch, 425317 bytes, 10 tensors)

pos_emb f4 [1, 64]
0	0x3f56fdb4	0.8398087
1	0x3e920032	0.28515774
2	0x3eccb58a	0.39982253
3	0x3f2b461f	0.6690387
4	0x400aa9ac	2.166606
5	0xbf552cd1	-0.8327151
6	0x3fac8dc7	1.3480767
7	0xbfcaa0c0	-1.5830307
8	0xbf2ccb5c	-0.674978
9	0x3eefb37d	0.46816626
10	0xbf52c9c3	-0.82339114
11	0xbf598011	-0.8496104
12	0x3e65c450	0.22438169
13	0xc0159ad7	-2.3375757
14	0xbf298140	-0.66212845
15	0xbfaf0378	-1.3672934
16	0x3f858827	1.0432175
17	0x3f819e1d	1.0126377
18	0xbf29d769	-0.66344315
19	0x3f84b287	1.0366982
20	0x3f811c76	1.008681
21	0x3fa0f4d6	1.2574718
22	0xbec78d6d	-0.38975087
23	0x3fba5b87	1.4559182
24	0x3f406c05	0.75164825
25	0xbfabd8f3	-1.3425583
26	0xbef9f7b9	-0.4882181
27	0xbf06b611	-0.5262156
28	0x3d524e16	0.051344
29	0xbd15a3d7	-0.036533203
30	0xbda1bed3	-0.07897725
31	0xbf511eec	-0.8168781
32	0xbf4b0ecd	-0.7931946
33	0xc044cd2d	-3.075023
34	0x3f5e7c4e	0.86908424
35	0x3eb310bb	0.34973702
36	0xbf46d0ab	-0.7766215
37	0x3ec1dd9c	0.37864387
38	0x3fa6450d	1.2989823
39	0x3f6e6fbf	0.9313926
40	0x3ffd67da	1.9797318
41	0xbfc12673	-1.5089859
42	0xbc6cf436	-0.014462521
43	0xbf000df7	-0.5002131
44	0x3f508aff	0.8146209
45	0x3e10cf5e	0.14141604
46	0x3f498841	0.7872353
47	0x3fc1e4a0	1.5147896
48	0xbdf7af58	-0.12093991
49	0xbf396a28	-0.72427607
50	0xbf0d91ad	-0.5530041
51	0xbf097447	-0.5369305
52	0xbf9dd7ba	-1.233146
53	0x3f362c5c	0.7116144
54	0xbe94d17f	-0.29066083
55	0x3ecf6e32	0.4051376
56	0xbf0fdf22	-0.5619985
57	0x3d8228f8	0.063554704
58	0xbe9c29c1	-0.30500606
59	0xbf30eb4d	-0.6910904
60	0xbf825843	-1.0183185
61	0x3f07ec53	0.5309498
62	0xbcc031ed	-0.023461306
63	0x3f129a90	0.57267094

channel_emb f4 [1, 64]
0	0xbec162c3	-0.37770662
1	0x3efa8c14	0.48934996
2	0x3f59bfba	0.85058177
3	0xbfa7df35	-1.3114992
4	0xbf5f3ed9	-0.8720527
5	0x3fa95bd1	1.3231145
6	0x400a46ce	2.1605716
7	0xbf5c371d	-0.86021596
8	0xbf92e1dc	-1.1475177
9	0x3d88cb31	0.06679381
10	0x3f8dbbcd	1.1072937
11	0x3dad4c73	0.08461847
12	0xbed4cb99	-0.41561583
13	0x40027204	2.038209
14	0x3faa3c80	1.3299713
15	0xbdcaded2	-0.09905781
16	0x3f132e5e	0.57492626
17	0xbf214006	-0.62988317
18	0xbf16c949	-0.58900887
19	0x3d8a4626	0.06751661
20	0x3d2472bd	0.040148485
21	0xbf7f03bc	-0.99615073
22	0xc00a42b9	-2.1603224
23	0x3efb712d	0.49109784
24	0x3f5b359d	0.8562868
25	0xbf5eab65	-0.8698028
26	0xbffd271d	-1.9777561
27	0x3f3e47d4	0.7432835
28	0x3f72add2	0.9479648
29	0xbdf838ec	-0.12120232
30	0x3ec785ae	0.38969177
31	0xbf41c5dd	-0.7569254
32	0x3ee244ac	0.44193017
33	0xbe08ff7d	-0.13378711
34	0xbf07d9a7	-0.53066486
35	0xbe4859ee	-0.19565555
36	0xbf92f2fb	-1.1480402
37	0x3fc8fa76	1.5701435
38	0x3eb7d107	0.35901663
39	0x3f96d244	1.1782918
40	0xbf184bea	-0.59490836
41	0x3f5bf2f5	0.859176
42	0xbf85e12b	-1.0459341
43	0x3f8e6325	1.1124007
44	0x3fbc4bd8	1.4710646
45	0xbf77d681	-0.9681168
46	0x3f7359d5	0.9505895
47	0xbe52e105	-0.2059365
48	0xbe3ddb52	-0.18540695
49	0x3f8fe767	1.1242493
50	0x3f5bceea	0.858626
51	0xbea38183	-0.31934747
52	0x4014ebae	2.3268847
53	0x3edbefd6	0.42956418
54	0x3e12170a	0.14266601
55	0xbe185828	-0.14877379
56	0x3eeeea52	0.46663147
57	0x3fefece4	1.8744168
58	0xbfa30808	-1.2736826
59	0xbf31b5c9	-0.6941801
60	0xbe1176a7	-0.14205419
61	0xbeceb72b	-0.4037412
62	0x3f1a7500	0.6033478
63	0x3ff251a4	1.8931165

valueEmbedding.0.weight f4 [128, 24]
0	0xbeb60e36	-0.35557717
1	0xbd3b66ff	-0.04575252
2	0xbdc1d735	-0.094648756
3	0x3d6aaad5	0.057291824
4	0xbd003a5b	-0.031305652
5	0x3e20f7e6	0.15719566
6	0x3e2770a5	0.16351564
7	0xbe3eb6e8	-0.1862446
8	0xbdcbc782	-0.099501625
9	0xbd05990e	-0.032616667
10	0x3d1192a8	0.035540253
11	0x3e46169a	0.1934456
12	0x3e16f74b	0.14742772
13	0x3d851316	0.06497781
14	0xbe5fef84	-0.21868712
15	0xbe6ff3c7	-0.23432837
16	0xbe842c11	-0.2581487
17	0x3dad8994	0.084735066
18	0x3e124106	0.14282617
19	0x3e15c3b7	0.1462544
20	0x3d5f4175	0.054505784
21	0x3e1c323c	0.15253538
22	0xbb95c377	-0.0045704204
23	0xbdb6d445	-0.08927206
24	0x3d2472e2	0.040148623
25	0xbd880091	-0.06640733
26	0x3da21406	0.079139754
27	0x3d899f34	0.06719819
28	0x3c101845	0.008794849
29	0xbe41eac1	-0.18937208
30	0xbdfe6521	-0.124216326
31	0x3cb7ed69	0.022452073
32	0xbe1a4f37	-0.1506928
33	0x3e42a37e	0.1900768
34	0x3c98a764	0.018634506
35	0xbd9fceb2	-0.07803096
36	0x3e27d5bd	0.16390128
37	0xbdf62f51	-0.12020744
38	0xbe1bddd6	-0.15221342
39	0x3d890a37	0.066914015
40	0x3d817249	0.06320626
41	0x3e05231d	0.13001676
42	0xbc8bc3e9	-0.01706119
43	0xbd4ecf9d	-0.050490964
44	0x3da37347	0.07980972
45	0xbe608478	-0.21925533
46	0xbc28de81	-0.010306955
47	0x3d815aa1	0.06316114
48	0xbd2d501c	-0.042312726
49	0x3e6a7dee	0.22899601
50	0x3e09e2a0	0.13465357
51	0x3dc3930b	0.095495306
52	0xbe2da74b	-0.16958348
53	0xbbd609e1	-0.0065319394
54	0x3c5bdc9b	0.013419296
55	0xbe3a03b9	-0.18165483
56	0xbc738324	-0.014862809
57	0x3dcff2b6	0.10153715
58	0xbe31df58	-0.17370355
59	0x3e2347d6	0.15945372
60	0x3e3b2514	0.18275863
61	0xbc2b1828	-0.010442771
62	0xbcf58379	-0.029969918
63	0xbe47f5fc	-0.1952743
64	0x3d40603c	0.046966776
65	0x3bc71b90	0.0060762838
66	0xbe152314	-0.14564162
67	0xbd052e39	-0.032514784
68	0xbe31c0db	-0.17358725
69	0x3d87a66a	0.06623538
70	0x3e2df7be	0.16989037
71	0x3ea198de	0.3156194
72	0x3e7a30df	0.24432705
73	0xbdd5a417	-0.10431688
74	0x3de7c5a3	0.11316993
75	0xbbc4d8b6	-0.0060072793
76	0x3bae7505	0.0053240084
77	0xbe2cc36c	-0.16871423
78	0xbe7b0c10	-0.2451632
79	0xbda21332	-0.079138175
80	0xbde972d1	-0.113988526
81	0xbe0e6617	-0.13906132
82	0x3e26c2a8	0.16285193
83	0x3e3c78c7	0.18405448
84	0x3e40862a	0.1880118
85	0x3df9b00a	0.1219178
86	0x3d6e81b3	0.05822916
87	0xbd33584e	-0.043785386
88	0x3b61743e	0.003440156
89	0xbdc04721	-0.09388567
90	0xbe509aa4	-0.2037149
91	0xbd8a2811	-0.06745923
92	0xbe5027e0	-0.20327711
93	0x3cbdc0c0	0.0231632
94	0x3e393a65	0.18088682
95	0x3c6dcf27	0.014514721
96	0x3d17658d	0.03696208
97	0xbddf12fe	-0.10892294
98	0xbe165488	-0.14680684
99	0x3dde9f37	0.108702116
100	0x3d11c926	0.03559222
101	0xbe1139a5	-0.14182146
102	0xbd51e1cb	-0.051240724
103	0x3e4047c7	0.18777381
104	0xbe050577	-0.12990366
105	0x3dfb52fa	0.12271686
106	0x3dea7270	0.114476085
107	0x3d2fb300	0.042895317
108	0xbe250f11	-0.16119029
109	0x3e121da3	0.14269118
110	0x3dc92e5e	0.09823297
111	0xbd0aa944	-0.03385283
112	0xbd8cf12e	-0.06881939
113	0xbe051707	-0.12997065
114	0x3ca4e3da	0.02012818
115	0xbd98255c	-0.07429001
116	0xbd355d1e	-0.044278257
117	0x3d96dba4	0.07366112
118	0xbe8057d6	-0.25067014
119	0x3d7e01e5	0.062013526
120	0xbe4425e2	-0.19155076
121	0xbe0369c4	-0.12833315
122	0xbe78af29	-0.24285568
123	0xbe4a9358	-0.1978277
124	0xbe5e1abe	-0.21689889
125	0x3e33b443	0.17549233
126	0xbc8ab735	-0.016933063
127	0x3d99f1bd	0.07516811
128	0x3bba3c23	0.0056834384
129	0x3cf02b71	0.02931759
130	0xbd8db114	-0.069185406
131	0x3e0cb97c	0.13742632
132	0xbcb2a43f	-0.021806834
133	0xbd73e5b4	-0.059545234
134	0x3ca8c9bc	0.020604007
135	0x3d2db1b2	0.04240579
136	0xbe24e031	-0.16101147
137	0xbe2102e0	-0.15723753
138	0xbdd0e4e4	-0.101999074
139	0xbde9f228	-0.11423141
140	0x3cdc54f5	0.02689598
141	0x3df8dbf1	0.121513255
142	0xbd241fb6	-0.040069304
143	0x3d2cac99	0.04215679
144	0x3e5c1a0e	0.21494314
145	0x3e0620ee	0.13098499
146	0xbd8d8450	-0.06910002
147	0xbdae82a1	-0.08521009
148	0x3e654b4e	0.22392008
149	0xbd6827fb	-0.056678753
150	0x3e21eb47	0.15812407
151	0x3e422a52	0.18961456
152	0x3d5812cc	0.0527523
153	0x3cd34d9f	0.025793849
154	0x3e04c9f4	0.12967664
155	0xbe212058	-0.15734994
156	0xbe1e7400	-0.15473938
157	0x3e16eea6	0.14739475
158	0x3e258c63	0.16166835
159	0x3e03a138	0.12854469
160	0x3e33199a	0.17490235
161	0x3dd0b843	0.10191395
162	0xbdde20b8	-0.10846084
163	0xbe049dc1	-0.12950803
164	0x3e1a60c9	0.15075983
165	0x3df07f7b	0.11743065
166	0x3d370529	0.044682655
167	0xbe3fb22b	-0.1872031
168	0xbe24c1b3	-0.16089515
169	0xbe6b48ae	-0.22976944
170	0xbddac1d5	-0.10681502
171	0xbe2721e7	-0.16321526
172	0x3dcdfc63	0.100579046
173	0xbd3154e1	-0.043293837
174	0x3e6e8de3	0.23296313
175	0x3d80e9e5	0.06294612
176	0xbd999c36	-0.07500498
177	0xbdf78743	-0.12086346
178	0xbe017d1d	-0.12645383
179	0x3e0dc319	0.13843955
180	0x3e1db77b	0.15402023
181	0xbe22b9b5	-0.15891154
182	0x3d2a0fed	0.041519094
183	0x3e0e7bb8	0.13914382
184	0x3e256188	0.16150486
185	0xbd1fe832	-0.039039798
186	0x3e0f57b3	0.13998298
187	0xbe0fa4ce	-0.14027712
188	0x3d9272c6	0.071507975
189	0xbe1b985d	-0.1519484
190	0xbcfd2554	-0.030901588
191	0xbe2d6a34	-0.16935045
192	0x3da7ce28	0.08193618
193	0xbdfbe447	-0.122994
194	0xbe500a5f	-0.20316456
195	0x3e3c3b18	0.18381917
196	0xbe2734db	-0.16328757
197	0x3decc087	0.11560159
198	0xbe20c3ed	-0.1569974
199	0xbddc2f66	-0.10751228
200	0xbd160919	-0.03662977
201	0x3c830a7c	0.01599621
202	0x3e38a8c5	0.1803313
203	0x3e34b08e	0.17645475
204	0x3d24f357	0.04027113
205	0x3e2aa021	0.16662647
206	0x3c3309d3	0.010927635
207	0x3d979860	0.0740211
208	0xbe39fdb4	-0.18163186
209	0x3e04f004	0.12982184
210	0x3d96af9d	0.07357714
211	0x3e0235ee	0.12715885
212	0xbdaef4b0	-0.08542764
213	0x3e21aa77	0.15787683
214	0x3d1a6af9	0.037699673
215	0xbe75fb57	-0.2402166
216	0x3e4f2912	0.20230511
217	0x3dfaabce	0.122398004
218	0xbdb9a07d	-0.09063814
219	0xbcc29721	-0.023753705
220	0xbc92902e	-0.017891016
221	0xbcfcca31	-0.030858131
222	0x3d9c906b	0.07644733
223	0x3e556403	0.20838933
224	0x3d9df531	0.07712782
225	0xbc91b762	-0.017787639
226	0xbd4d7e5e	-0.05016934
227	0x3dfc8162	0.12329365
228	0x3de5b17f	0.11215495
229	0x3d2b8e67	0.041883852
230	0x3dba9bb7	0.091117315
231	0xbe5af919	-0.21384086
232	0xbde8aff8	-0.113616884
233	0x3dff4f9c	0.12466356
234	0xbe512387	-0.20423709
235	0x3c5fbe60	0.013656229
236	0x3d003daf	0.031308826
237	0x3d7dbf95	0.061950285
238	0xbd333146	-0.043748163
239	0xbe1e53da	-0.15461674
240	0x3e2ac49f	0.16676567
241	0x3c2686f0	0.010164008
242	0x3c79258f	0.015206709
243	0xbdf60399	-0.12012405
244	0xbc67c1af	-0.014145299
245	0x3db9d717	0.09074228
246	0x3e21d4e1	0.15803863
247	0xbb6e2242	-0.0036336337
248	0x3e0c1995	0.13681634
249	0xbe243ba7	-0.1603838
250	0xbdec0829	-0.11524994
251	0xbe65e775	-0.22451575
252	0x3cfaf5aa	0.03063472
253	0x3cb1a8e8	0.021686986
254	0xbe8608e4	-0.26178658
255	0xbe17868e	-0.14797422

valueEmbedding.0.bias f4 [128]
0	0x3dba3eb7	0.09093993
1	0xbe3141a3	-0.17310195
2	0x3e302f48	0.17205536
3	0xbd220c34	-0.03956242
4	0x3d72324e	0.059130006
5	0xbe7cf36f	-0.24702238
6	0xbde54ae1	-0.11195923
7	0xbe45cd88	-0.19316685
8	0x3d173921	0.036919717
9	0xbd5fb002	-0.054611214
10	0xbdf1dd05	-0.11809734
11	0x3c2696c9	0.010167786
12	0xbe400d53	-0.18755083
13	0xbd29c73d	-0.041449774
14	0xbc25491a	-0.01008823
15	0xbe2d2923	-0.16910224
16	0xbdd7599a	-0.10515137
17	0xbd81e3dd	-0.063422896
18	0x3958334f	0.00020618479
19	0xbdec4eff	-0.11538505
20	0xbd51c241	-0.051210646
21	0x3d77da78	0.060511082
22	0x3e1184a7	0.14210759
23	0x3e282c84	0.16423231
24	0x3e5f2b58	0.21793878
25	0xbced6ce7	-0.028982593
26	0xbe64684d	-0.22305413
27	0x3d628783	0.055305015
28	0xbe649ba1	-0.22324993
29	0xbc5f0585	-0.013612156
30	0xbda7d257	-0.08194416
31	0x3e1a5e0f	0.15074943
32	0x3e2ebcaf	0.17064165
33	0xbe2ccd0d	-0.16875096
34	0xbe190aa6	-0.14945468
35	0xbdf5cb19	-0.120016284
36	0xbe48fbc6	-0.19627294
37	0x3e001729	0.12508835
38	0x3e1439ba	0.14475146
39	0x3e1f4938	0.15555274
40	0xbd79a1fa	-0.06094549
41	0x3dded02d	0.1087955
42	0xbe949af9	-0.29024485
43	0xbdbf7b18	-0.0934965
44	0x3cf3131e	0.029672202
45	0x3dd7fcaa	0.10546239
46	0x3e46d39a	0.19416657
47	0xbe838a70	-0.25691557
48	0x3e68a383	0.22718625
49	0x3e12d657	0.14339577
50	0xbd7e05dc	-0.062017307
51	0x3e81649e	0.25272077
52	0x3ccc0344	0.0249039
53	0xbe377313	-0.17914991
54	0xbdcd719c	-0.10031435
55	0xbe1c2339	-0.15247811
56	0xbd370b8e	-0.044688754
57	0x3d3e4ec3	0.04646183
58	0xbe4c7250	-0.19965482
59	0x3e1b533a	0.15168467
60	0x3e6bf6ad	0.23043318
61	0x3dd39701	0.10331536
62	0xbd22940a	-0.039691962
63	0xbe54fddb	-0.20799963
64	0x3da047ee	0.078262195
65	0xbc44733f	-0.011990367
66	0xbe3c9f0a	-0.18420044
67	0xbe4b7d19	-0.1987194
68	0xbe28a378	-0.16468608
69	0x3c8f4f78	0.017493948
70	0x3e0bad28	0.13640273
71	0xbe428bcf	-0.18998645
72	0xbe4ab891	-0.19796969
73	0xbd6232ed	-0.055224348
74	0xbdf4cdde	-0.119533285
75	0xbdb2f603	-0.08738329
76	0x3e11338f	0.14179824
77	0xbe2c6688	-0.16835988
78	0x3d0f7654	0.035024956
79	0xbe2700ac	-0.1630885
80	0xbd6d9449	-0.058002744
81	0xbda4342e	-0.08017765
82	0xbe282811	-0.16421534
83	0xbcd4c6c0	-0.025973678
84	0x3d8dbdef	0.069209926
85	0x3cbb5d5f	0.022871671
86	0xbe2240ea	-0.15845075
87	0xbccc8c84	-0.024969347
88	0xbe88bfb1	-0.2670875
89	0xbd8af64c	-0.06785259
90	0xbcc428bf	-0.02394521
91	0xbe07bde4	-0.13256031
92	0xbe02b953	-0.12766008
93	0xbe5637e0	-0.20919752
94	0xbd80a185	-0.062808074
95	0x3df5adf8	0.119960725
96	0x3e00eba8	0.12589896
97	0xbe0dea36	-0.13858876
98	0xbe6c9fc5	-0.23107822
99	0x3d2259e5	0.03963651
100	0x3d3216b4	0.043478683
101	0xbdb7eb55	-0.08980433
102	0x3e16e0ef	0.14734243
103	0x3e1cee67	0.15325318
104	0x3daffffc	0.08593747
105	0xbd6d3f66	-0.05792179
106	0x3d9fdd49	0.07805879
107	0x3e0dd747	0.13851653
108	0xbe49c14f	-0.19702648
109	0x3e79c690	0.24392152
110	0x3e1461c5	0.14490421
111	0x3e08e3fa	0.13368216
112	0x3e14c763	0.14529185
113	0xbd1c6ecb	-0.038191598
114	0x3e3c1724	0.18368202
115	0x3e0f766e	0.14010021
116	0xbd04cfa4	-0.032424584
117	0x3e1cd3c6	0.1531516
118	0x3b8e9180	0.004350841
119	0xbdb97f01	-0.09057427
120	0xbe1deed5	-0.15423138
121	0xbe0e93f1	-0.13923623
122	0xbe84b0eb	-0.25916228
123	0xbe5ad075	-0.21368583
124	0x3d88e0b7	0.06683486
125	0x3d6fd801	0.058555607
126	0x3d531a0d	0.051538516
127	0x3d196af5	0.037455518

rnn.weight_ih_l0 f4 [384, 128]
0	0x3c9bbcb2	0.019010875
1	0xbdc9c838	-0.09852642
2	0x3d032b35	0.032023627
3	0xbd9c19d7	-0.07622116
4	0xbbd9f02a	-0.0066509442
5	0xbdb744b0	-0.08948648
6	0xbc886c4a	-0.016653199
7	0xbe15b2be	-0.14618966
8	0xbe1be2f5	-0.15223296
9	0xbde35684	-0.11100486
10	0xbd3667f7	-0.044532742
11	0xbe47b48e	-0.1950247
12	0x3dcbf4ff	0.09958839
13	0xbdae1538	-0.08500141
14	0x3c6fb66b	0.014630894
15	0xbe363e34	-0.17797166
16	0xbe133af3	-0.14377956
17	0x3dba7ae4	0.09105471
18	0xbccd88ea	-0.0250897
19	0x3c249bfa	0.010046953
20	0xbc19e41f	-0.009392767
21	0x3d67fe38	0.056638926
22	0x3dacc243	0.0843549
23	0xbbbd7a9b	-0.005782438
24	0xbd77b5ee	-0.060476236
25	0x3e0b6f9c	0.13616794
26	0x3dc5e373	0.09662523
27	0x3db8d9b1	0.09025896
28	0xbd44d80b	-0.048057597
29	0xbe2a01d2	-0.16602257
30	0x3cbc2e52	0.022971306
31	0xbcb72f57	-0.02236144
32	0xbe3e2247	-0.18567763
33	0xbd2523f6	-0.0403175
34	0xbbb75929	-0.0055953455
35	0xbdffa024	-0.12481716
36	0xbc6c914f	-0.014438941
37	0xbda58c2a	-0.08083375
38	0xbcc05601	-0.02347851
39	0xbe1131b7	-0.14179121
40	0xbd566674	-0.0523438
41	0xbd97eadf	-0.07417845
42	0x3d0af412	0.03392417
43	0xbe85e5db	-0.26151928
44	0x3dfcac64	0.123375684
45	0x3c805f0b	0.01567032
46	0x3bb3319e	0.0054685613
47	0xbdde7627	-0.108623795
48	0x3d9283e4	0.071540624
49	0x3bfd1cfd	0.007724403
50	0xbdf80ce9	-0.121118374
51	0x3ca5cf47	0.02024044
52	0xbe0dce73	-0.13848285
53	0xbcf01def	-0.029311148
54	0xbbb8b5eb	-0.0056369207
55	0xbd254a6b	-0.040354174
56	0xbbb85ae0	-0.0056260675
57	0x398ab473	0.00026455856
58	0xbe5a3581	-0.21309473
59	0x3d843b35	0.06456605
60	0x3db98d54	0.09060159
61	0x3c2ef93d	0.01067954
62	0xbd8588ea	-0.06520255
63	0xbe09fa0c	-0.13474292
64	0xbe0cc6ed	-0.13747759
65	0xbc99dd16	-0.01878218
66	0xbd1ba4b4	-0.03799887
67	0xbe0b6b06	-0.13615045
68	0xbe3adc3f	-0.1824808
69	0x3db7d11f	0.089754336
70	0x3d2c6f8b	0.042098563
71	0x3d9925e4	0.0747793
72	0xbe324b1c	-0.17411464
73	0xbdfbdb75	-0.122977175
74	0x3c8c0813	0.017093694
75	0x3c4e088f	0.012575283
76	0x3d141959	0.036156986
77	0xbb17788f	-0.002311263
78	0x3d1dae0d	0.038496066
79	0xbe03aceb	-0.12858932
80	0xbd37a02c	-0.044830486
81	0xbdf0fa89	-0.11766536
82	0xbcebfaaf	-0.028806059
83	0x3b12fd5c	0.0022428846
84	0xbd887a1b	-0.06663915
85	0xbe81154b	-0.25211558
86	0xbd911061	-0.07083202
87	0xbb715cce	-0.0036828998
88	0x3e2cf634	0.16890794
89	0xbd6cb4b5	-0.057789523
90	0xbcd1fa08	-0.02563192
91	0xbd4e91ba	-0.050431944
92	0x3d9a7b6f	0.07543074
93	0xbde12017	-0.10992449
94	0x3e25e726	0.16201457
95	0xbdbe5158	-0.09292859
96	0xbdc06363	-0.093939565
97	0xbdd4ca32	-0.10390128
98	0xbe2093bb	-0.15681355
99	0xbdb865cb	-0.090037905
100	0x3d38ccb8	0.04511711
101	0xbd84c006	-0.06481938
102	0xbca5b1a9	-0.020226317
103	0xbe71f699	-0.23629226
104	0x3ded5d2f	0.11590039
105	0x3da0caeb	0.078512035
106	0xbdcab673	-0.09898081
107	0x3bee8e16	0.0072801216
108	0x3d833fb1	0.064086325
109	0x3ddf65cc	0.10908088
110	0x3d77e0fc	0.060517296
111	0xbd760323	-0.060061585
112	0x3d4bb165	0.049729723
113	0x3d6bc0d0	0.057556927
114	0xbe4af9a0	-0.19821787
115	0xbd0b3d2e	-0.033993892
116	0xbd6f4e85	-0.05842449
117	0xbdb1f2e4	-0.08688906
118	0x3d1a4e9b	0.03767262
119	0xbe169fad	-0.14709349
120	0xbe0ad421	-0.13557483
121	0xbd02b029	-0.03190628
122	0xbe1bbf36	-0.1520966
123	0xbe45a327	-0.19300519
124	0xbe5b7a8e	-0.2143347
125	0x3dff67fc	0.12471005
126	0xbc8c570f	-0.017131357
127	0xbdc6b252	-0.09701981
128	0xb7e40bd4	-2.7185226e-05
129	0xbda4ad53	-0.080408715
130	0xbd9c7830	-0.076401114
131	0x3b5e6e33	0.0033940196
132	0xbd75136c	-0.059832975
133	0xbcc0eea2	-0.023551289
134	0xbd03cc16	-0.032177053
135	0x3c98d66f	0.018656937
136	0x3d37f8a2	0.04491485
137	0x3b388fce	0.0028161886
138	0xbdebb83e	-0.11509751
139	0x3d9bf8d7	0.07615822
140	0xbe0eb419	-0.1393589
141	0x3d4ee9ad	0.05051582
142	0x3d237a74	0.039911702
143	0xbd8b6b39	-0.068075605
144	0xbd97d3ad	-0.07413421
145	0xbd905f11	-0.070493825
146	0x3e0ec06e	0.13940594
147	0xbcf24c33	-0.02957735
148	0x3d4d5dcf	0.05013829
149	0x3d0669bf	0.03281569
150	0xbda29bb5	-0.07939855
151	0xbd90b118	-0.07065028
152	0xbd3c7f7f	-0.046020027
153	0x3d3b6572	0.045751043
154	0xbd7367a7	-0.059425022
155	0xbce9bd9f	-0.028532801
156	0x3beee98a	0.0072910236
157	0xbd3bc3f3	-0.04584117
158	0x3ca79274	0.020455576
159	0xbcdb5f8e	-0.026778962
160	0x3e37f22e	0.17963478
161	0x3cb03e53	0.021514094
162	0x3d54b478	0.05192992
163	0x3d3ef57f	0.046620842
164	0xbdcd2fb5	-0.10018865
165	0x3d5541ff	0.052064892
166	0x3d7d2b38	0.061808795
167	0x3d34cae7	0.044138815
168	0xbc9a5b7a	-0.018842448
169	0x3e1409ab	0.14456813
170	0xbe181259	-0.14850749
171	0xbc8f99aa	-0.017529327
172	0xbddede09	-0.108821936
173	0x3dbc3d09	0.09191329
174	0x3c53e0cf	0.0129320165
175	0x3cbc93e0	0.023019731
176	0xbd8b81fc	-0.06811902
177	0xbe032519	-0.1280712
178	0x3e576f6e	0.21038601
179	0xbde1bbc7	-0.11022144
180	0x3d2cdf2c	0.04220502
181	0x3b2ca2e7	0.0026342215
182	0xbcb83efc	-0.02249097
183	0x3d7ec813	0.062202524
184	0x3dd9eb29	0.10640556
185	0x3bd9c90a	0.00664628
186	0x3e01161d	0.12606092
187	0xbcb5f91b	-0.02221351
188	0x3d362bde	0.04447543
189	0x3d19d32a	0.037554897
190	0xbe305ce8	-0.17222941
191	0xbd7d1f93	-0.06179769
192	0x3e2ec86a	0.1706864
193	0x3dc2edc4	0.095180064
194	0x3d9523cb	0.072822176
195	0xbd95add4	-0.07308546
196	0xbafd5094	-0.0019326382
197	0xbcf02050	-0.029312283
198	0xbcee05ad	-0.02905544
199	0xbdc9c3c2	-0.09851791
200	0xbd1aee73	-0.03782506
201	0x3c52e72a	0.012872497
202	0xbd75d01e	-0.06001293
203	0xbd3f010f	-0.04663187
204	0x3d253857	0.040336933
205	0xbdbd14a0	-0.092324495
206	0xbbcc1c85	-0.0062289857
207	0x3d48589f	0.04891264
208	0x3d501cc1	0.05080867
209	0x3dacfc3e	0.08446549
210	0x3dd312b2	0.103063
211	0xbc9e30ed	-0.019310439
212	0x3d5265ac	0.051366493
213	0x3e195ad0	0.14976048
214	0x3d01018a	0.03149561
215	0xbd44d01a	-0.048050024
216	0x3c637a19	0.013884091
217	0x3df86fc6	0.12130694
218	0x3da63aae	0.08116661
219	0xbd324488	-0.043522388
220	0xbb6c99fe	-0.0036102529
221	0x3cc4381e	0.02395254
222	0xbd515672	-0.05110783
223	0xbd772782	-0.060340412
224	0xbcb94bb6	-0.02261911
225	0x3d23f464	0.04002799
226	0x3e44146c	0.19148415
227	0x3de6dfed	0.11273179
228	0xbd4117a2	-0.04714168
229	0x3d72b37c	0.0592532
230	0x3e1e7c23	0.15477042
231	0xbd267881	-0.040642265
232	0xbd1b875d	-0.03797089
233	0xbccc5914	-0.02494482
234	0x3d022158	0.03177008
235	0x3d108e04	0.035291687
236	0xbda163ca	-0.078803614
237	0xbd996381	-0.07489682
238	0xbde1a6ae	-0.1101812
239	0x3d4e06a2	0.050299294
240	0x3d1233bb	0.035693865
241	0x3d31427a	0.043276288
242	0xbc209372	-0.009800779
243	0x3df32d16	0.11873834
244	0xbd5a4c01	-0.05329514
245	0x3e1ad3d0	0.15119863
246	0xbe475ef3	-0.19469814
247	0x3dd9aba7	0.10628443
248	0xbd58d180	-0.05293417
249	0x3cbc463e	0.022982713
250	0xbca52f7c	-0.020164244
251	0xbcc0fbc5	-0.023557553
252	0x3d97072e	0.07374416
253	0xbaff2d59	-0.0019468471
254	0xbae5e10a	-0.001753838
255	0xbdc24fb0	-0.094878554

rnn.weight_hh_l0 f4 [384, 128]
0	0x3db628e4	0.08894518
1	0x3ca80b56	0.020513218
2	0xbd3f89bd	-0.046762217
3	0x3d83328f	0.06406128
4	0xba5fe44f	-0.00085407955
5	0xbd09226d	-0.033480097
6	0x3cc14943	0.023594504
7	0xbcf1a625	-0.02949817
8	0x3d539d05	0.051663417
9	0x3d8c7da2	0.068599
10	0xbddd1dcd	-0.107967
11	0x3d019044	0.031631723
12	0x3d6b8fd3	0.05751021
13	0xbd34cb0f	-0.044138964
14	0xbd86e559	-0.06586713
15	0xbdba0b89	-0.090842314
16	0x3d17681a	0.036964513
17	0x3d4c9c7f	0.049953934
18	0xbd6fbb2f	-0.05852812
19	0x3d99ec75	0.07515804
20	0x3dca9198	0.09891051
21	0xbd93d5ec	-0.07218537
22	0xbcd0896b	-0.025456151
23	0x3d9af74f	0.075667016
24	0x3cd183ce	0.025575545
25	0x3d89fdb5	0.06737844
26	0xbe150625	-0.14553125
27	0xbd14908b	-0.03627066
28	0x3d0889fc	0.033334717
29	0x3dab40b2	0.08361949
30	0xbb6be868	-0.003599668
31	0x3dd5395b	0.1041133
32	0x3d97a32b	0.07404169
33	0xbdec29cc	-0.115314096
34	0xbd7dc602	-0.061956413
35	0xbba60648	-0.0050666668
36	0xb9a1ce4c	-0.00030862016
37	0x3d84de9b	0.06487771
38	0xbdd7c16c	-0.10534939
39	0xbdb379fa	-0.087634996
40	0xbc314b95	-0.010821243
41	0xbca96ac6	-0.020680796
42	0xbd393ceb	-0.04522411
43	0x3b86ea73	0.004117304
44	0x3cd459e2	0.025921766
45	0x3c89ef81	0.016837837
46	0x3d70ae88	0.058760196
47	0x3d9c3ac6	0.07628398
48	0xbd8f8349	-0.070074625
49	0x3e1b2878	0.15152156
50	0xbcaa422e	-0.02078351
51	0xbdef4b87	-0.116843276
52	0xbe1558dd	-0.1458468
53	0xbd8525f9	-0.06501383
54	0x3d01fdff	0.03173637
55	0xbce240f0	-0.027618855
56	0xbdfaf37b	-0.122534715
57	0xbdc5d42b	-0.096596085
58	0x3e30693e	0.17227647
59	0xbd1a3785	-0.037650604
60	0xbd97374f	-0.07383596
61	0xbc84feed	-0.01623484
62	0xbda74b5d	-0.08168671
63	0x3d86641d	0.06562064
64	0xbe4523a6	-0.1925188
65	0xbce54091	-0.02798489
66	0x3d7781af	0.06042641
67	0x3ce48dbf	0.027899621
68	0xbe380fe3	-0.1797481
69	0x3da6d81b	0.081466876
70	0xbddd4926	-0.108049676
71	0xbd82f1d0	-0.06393778
72	0xbbbebe07	-0.005820993
73	0xbcb7daf9	-0.022443281
74	0xbdc4c838	-0.09608501
75	0xbd705bba	-0.058681227
76	0x3adbe8e1	0.0016777777
77	0xbdf207dd	-0.11817906
78	0x3d2d999d	0.042382825
79	0x3dfa72f6	0.12228958
80	0x39edc897	0.00045353614
81	0xbd9938fc	-0.07481572
82	0xbb49e42f	-0.0030806174
83	0xbe11baa3	-0.14231353
84	0x3dad2726	0.084547326
85	0x3d65522e	0.055986576
86	0x3dcb0cd2	0.09914555
87	0x3d06d1b2	0.032914825
88	0x3c3a86aa	0.0113846455
89	0x3c474469	0.012162306
90	0x3d9844e7	0.07435017
91	0xbddbe92c	-0.107378334
92	0xbcd4ef14	-0.025992908
93	0xbdd3372f	-0.1031326
94	0x3cb9a096	0.022659581
95	0x3da2e023	0.07952907
96	0xbe1d2928	-0.15347731
97	0xbde2f025	-0.1108096
98	0x3dd1436b	0.10217937
99	0xbc5e5801	-0.013570786
100	0xbdc9779f	-0.09837269
101	0x3d412ae5	0.047160048
102	0xbd14ccc4	-0.036328092
103	0xbde7055e	-0.112803206
104	0xbcb2d9a3	-0.021832293
105	0xbce27276	-0.02764247
106	0x3d59d44a	0.05318097
107	0xbd601789	-0.054709945
108	0x3b4decaf	0.0031421592
109	0xbdb2c454	-0.08728853
110	0xbdcccacf	-0.0999962
111	0x3cb5f688	0.022212282
112	0xbdbe5ec8	-0.09295422
113	0xbd891257	-0.06692951
114	0x3d8d8d70	0.06911743
115	0x3dbdd707	0.09269529
116	0xbd81fe03	-0.06347277
117	0xbd278fcf	-0.04090863
118	0x3c853ac5	0.016263375
119	0x3d53a81a	0.051673986
120	0x3ce082cb	0.027406117
121	0x3cfe917e	0.031075235
122	0x387562f5	5.8504713e-05
123	0xbca64f59	-0.020301508
124	0x3ca1cd46	0.019751202
125	0x3d97ab18	0.074056804
126	0x3ca2f722	0.019893233
127	0xbde0429e	-0.10950206
128	0xbcffb69a	-0.031215
129	0xbd221b14	-0.039576605
130	0x3ba3ba54	0.0049965773
131	0xbd188258	-0.03723368
132	0x3d0a1174	0.03370805
133	0x3b5c011c	0.0033569997
134	0xbda7c5dd	-0.08192036
135	0x3d1c5528	0.03816715
136	0xbde10243	-0.109867595
137	0xbd592e26	-0.053022526
138	0x3cf32128	0.029678896
139	0x3d661044	0.056167856
140	0xbca6c60f	-0.020358114
141	0xbd3e41cd	-0.04644947
142	0xbd1b7025	-0.037948746
143	0xbdd7b9da	-0.10533495
144	0xbcd3956e	-0.02582809
145	0x3d09e331	0.033663932
146	0x3daa4dbf	0.0831561
147	0xbd00c12b	-0.03143422
148	0xbd09f320	-0.033679128
149	0xbe238e12	-0.15972164
150	0xbb1c8592	-0.0023883325
151	0x3d9c334a	0.0762697
152	0x3df87c49	0.121330805
153	0x3dcccfa6	0.10000543
154	0xbd9010cd	-0.070344545
155	0x3c95acc0	0.01827085
156	0x3d876dbb	0.06612726
157	0xbcd317f5	-0.02576826
158	0xbce11514	-0.027475871
159	0x3db4ba7b	0.08824631
160	0x3891f134	6.9590664e-05
161	0x3cb15b08	0.021649852
162	0xbcb6432c	-0.022248827
163	0xbc8ac4b2	-0.016939495
164	0xbde20f0d	-0.11038027
165	0x3dc28553	0.09498086
166	0xbdb53486	-0.08847909
167	0xbe0389d0	-0.1284554
168	0x3dc1d613	0.094646595
169	0xbbdb8c80	-0.0067000985
170	0x3d9e674f	0.07734548
171	0x3c162d6b	0.009166102
172	0x3c94bf12	0.018157516
173	0xbdc0da30	-0.09416616
174	0x3c2ba7a5	0.010476981
175	0x3c301655	0.010747512
176	0x3da8a23c	0.08234069
177	0xbdd73461	-0.10508037
178	0x3c9fadb2	0.019492004
179	0xbcc77e32	-0.024352167
180	0x3c02cc01	0.007983209
181	0xbdf2120a	-0.11819847
182	0x3d189469	0.03725091
183	0x3d486199	0.0489212
184	0x3bb53d17	0.005530964
185	0xbc6a470c	-0.014299165
186	0xbd90d9ce	-0.07072793
187	0xbddacc51	-0.106835015
188	0xbd871ce9	-0.06597311
189	0xbb78feb4	-0.0037993612
190	0xbe13520e	-0.1438677
191	0xbc5c3d56	-0.013442358
192	0xbdb1918f	-0.08670341
193	0xbd68c7ca	-0.05683116
194	0x3db33d99	0.08751983
195	0xbd6e679d	-0.058204282
196	0xbc8abb8e	-0.016935136
197	0xbe0da431	-0.13832165
198	0xbe3c3651	-0.18380095
199	0x3cd647f4	0.026157357
200	0x3dbc2663	0.09187009
201	0xbccd9081	-0.025093319
202	0xbc960fc6	-0.018318068
203	0x3dc7b844	0.09751943
204	0x3c0670a7	0.008205569
205	0x3d85f608	0.06541067
206	0xbcd5d82c	-0.026104055
207	0xbdab9a3d	-0.08379028
208	0xbc8f42cb	-0.017487904
209	0x3ddc9e3d	0.10772369
210	0xbd77504d	-0.060379315
211	0xbd936d01	-0.07198525
212	0x3e1ec95d	0.15506501
213	0x3dc56f8b	0.09640416
214	0xbcb185c1	-0.021670224
215	0x3c287a27	0.01028303
216	0x3d49946c	0.04921381
217	0xbcc79b45	-0.02436603
218	0x3cf64a02	0.030064587
219	0xbbbdbdb3	-0.005790436
220	0xbcc7cb27	-0.024388863
221	0x3d668f12	0.056288786
222	0x3d2a6e74	0.041609243
223	0xbc4ef33b	-0.012631233
224	0xbccc47ef	-0.024936644
225	0xbd5611f8	-0.05226323
226	0x3d84bf20	0.06481767
227	0x3d28bac1	0.041193727
228	0xbe5e73c9	-0.21723856
229	0x3d001d2d	0.031277824
230	0xbdaa1f14	-0.08306709
231	0x3a27f446	0.0006406944
232	0xbd66041a	-0.056156255
233	0xbd627dc7	-0.055295732
234	0xbddc04cd	-0.10743103
235	0x3de3a3eb	0.11115249
236	0xbde9a78e	-0.11408912
237	0xbd7c5e45	-0.06161334
238	0x3bdda459	0.0067639765
239	0xbd8fc889	-0.07020671
240	0xba9cf93c	-0.0011976133
241	0x3d058372	0.03259606
242	0xbcfa86d9	-0.030581878
243	0xbcce7ca7	-0.025205923
244	0x3d29cacf	0.04145318
245	0x3e270c16	0.16313204
246	0xbda55f35	-0.080748
247	0xbd664e2b	-0.05622689
248	0x3df13166	0.11777
249	0x3d3678fb	0.04454897
250	0xbcd55907	-0.026043428
251	0x3b80f7ee	0.0039358055
252	0x3dc78f4f	0.09744131
253	0x3dac3552	0.084086075
254	0x3c158ac5	0.0091273235
255	0xbdcc1204	-0.09964374

rnn.bias_ih_l0 f4 [384]
0	0x3cf37898	0.02972059
1	0xbafa6aa5	-0.0019105269
2	0x3c8a6786	0.016895067
3	0xbd533b5c	-0.05157028
4	0xbcd1be66	-0.025603484
5	0xbd72e7bc	-0.05930303
6	0x3d9fe548	0.07807404
7	0xbd73b7c9	-0.059501443
8	0x3db0188c	0.08598432
9	0x3ccaa08a	0.024734754
10	0x3de18bed	0.11013017
11	0x3df64b5f	0.12026095
12	0x3c658752	0.014009314
13	0xbdafa088	-0.08575541
14	0x3d5860e1	0.052826766
15	0xbc333d26	-0.010939872
16	0xbdba4514	-0.09095207
17	0xbdaf1025	-0.08548001
18	0x3dc7c2bb	0.09753939
19	0x3da6ceb0	0.08144891
20	0x3d4175a3	0.047231328
21	0x3dfa2725	0.122144975
22	0x3cd08344	0.025453217
23	0x3d3d184d	0.046165753
24	0xbd940312	-0.07227148
25	0xbc0f6e66	-0.008754348
26	0x3d0757c3	0.03304268
27	0xbce2d762	-0.027690593
28	0x3da55a9f	0.08073925
29	0x3d9205d6	0.07130019
30	0xbdbf9991	-0.09355462
31	0x3def4dea	0.11684783
32	0xbd8cedfa	-0.06881328
33	0xbbf1bb66	-0.007377076
34	0x3b1a553f	0.0023549346
35	0xbd39b8f8	-0.045342416
36	0x3d953019	0.072845645
37	0x3d954f2e	0.07290493
38	0xbdfbd306	-0.12296109
39	0x3dca7f00	0.098875046
40	0xbd8bee1e	-0.068325266
41	0x3da7d00a	0.08193977
42	0xbd985fc2	-0.07440139
43	0xbb6d1529	-0.0036175943
44	0xbc615c42	-0.013754906
45	0xbc08d0fe	-0.008350609
46	0x3dcb3a29	0.099232025
47	0x3e175e74	0.14782125
48	0xbd4d3867	-0.050102618
49	0x3d98bab1	0.074574836
50	0xbd838791	-0.064223416
51	0xbcbc31ab	-0.022972902
52	0x3c1bb5cc	0.009503793
53	0xbd30ee9e	-0.043196313
54	0x3d61543e	0.05501198
55	0xbd3499d5	-0.04409202
56	0x3d89caa0	0.06728101
57	0xbd9afa57	-0.0756728
58	0x3de1217f	0.10992717
59	0x3cb9d1dc	0.022683077
60	0x3ccb16d5	0.02479116
61	0x3d4d97b1	0.050193492
62	0x3d8990e9	0.067170925
63	0xbdbaea95	-0.09126774
64	0xbdb336cc	-0.08750686
65	0x3b55374b	0.0032534178
66	0xbe29787c	-0.16549867
67	0xbd3c968b	-0.046042006
68	0xbc4964a9	-0.012292066
69	0xbd8900f2	-0.066896334
70	0xbb4e7083	-0.0031500168
71	0x3d57bdcf	0.05267125
72	0xbd53141a	-0.051532842
73	0xbd5d0b90	-0.053966105
74	0x3d959fdc	0.073058814
75	0xbd361b03	-0.044459354
76	0xbc89536d	-0.016763413
77	0x3d8b894f	0.06813299
78	0x3d368861	0.044563655
79	0x3cd14275	0.025544384
80	0x3b55556f	0.0032552143
81	0x3cf33b2d	0.029691303
82	0xbbef54c1	-0.0073038046
83	0x3ddcc924	0.10780552
84	0xbb5f0e96	-0.0034035794
85	0x3c827632	0.0159255
86	0xbdd6b64f	-0.10483991
87	0xbd13fe39	-0.036131117
88	0xbae28628	-0.0017282413
89	0x3cf8e560	0.030382812
90	0xbcefd647	-0.02927698
91	0x3bb6957b	0.0055720187
92	0xbd791df1	-0.06081957
93	0x3e054500	0.13014603
94	0x3d01d0db	0.03169332
95	0xbd2d0cd9	-0.04224858
96	0x3c76f8a6	0.015073931
97	0x3db79a97	0.089650325
98	0xbbb12eed	-0.0054072053
99	0x3d544ad8	0.05182919
100	0x3aaa9c21	0.0013016501
101	0xbdd95b59	-0.10613126
102	0x3dbefc50	0.093254685
103	0xbd816916	-0.06318872
104	0x3c334e76	0.0109439995
105	0xbc7e221f	-0.015511065
106	0xbd92fca1	-0.071770914
107	0xbcc558a2	-0.024090115
108	0x3d34f015	0.044174273
109	0xbdbee911	-0.09321798
110	0xbc5e06bc	-0.01355141
111	0x3cbb5c7b	0.022871247
112	0xbcf47820	-0.029842436
113	0x3b6e6ae4	0.003637963
114	0x3d376273	0.044771623
115	0x3db559c6	0.088550135
116	0x3c0c3d1e	0.008559493
117	0x3ce4f2d9	0.02794783
118	0xbc6a0c43	-0.01428515
119	0xbb92ca56	-0.0044796867
120	0x3bec3ac9	0.007209156
121	0xbdc346a1	-0.09534956
122	0x3dc04de9	0.0938986
123	0xbc1a8072	-0.009430038
124	0x3d0d172b	0.034445923
125	0x3e7f7b76	0.2494944
126	0xbe2c5a00	-0.16831207
127	0xbce1c39d	-0.027559096
128	0x3c5d6996	0.013513943
129	0xbccacb12	-0.024755035
130	0xbc5e1f20	-0.0135572255
131	0x3c8241fd	0.015900606
132	0x3d8f7a24	0.07005718
133	0x3d83eba0	0.06441426
134	0x3de1f0b9	0.11032242
135	0xbb53d144	-0.0032320777
136	0x3bcf2fa3	0.0063228174
137	0x3dd395c3	0.10331299
138	0x3d78b72c	0.06072156
139	0x3c772315	0.015084048
140	0xbdd1abc2	-0.10237838
141	0x3dd1cc77	0.10244077
142	0xbcf3fad0	-0.029782683
143	0x3c287298	0.0102812275
144	0x3cc7c596	0.024386209
145	0x3c211da9	0.009833732
146	0xbe1a14fc	-0.15047067
147	0xbdf99b7d	-0.1218786
148	0x3e18b7e6	0.14913902
149	0xbda21761	-0.079146154
150	0xbd08a7cb	-0.033363145
151	0x3d8bdd77	0.068293504
152	0x3d7b6861	0.06137884
153	0x3d371107	0.044693973
154	0x3da1b98b	0.07896718
155	0xbdfe01ba	-0.12402673
156	0x3d7580ce	0.05993729
157	0x3d70a53a	0.058751322
158	0x3da3f6bc	0.08006045
159	0xbdf3830f	-0.11890232
160	0x3d7e2c83	0.06205417
161	0x3dc3ce2f	0.09560811
162	0x3db57bea	0.08861525
163	0x3dd9e7d6	0.10639922
164	0xbce0756f	-0.027399747
165	0x3e0c00ee	0.1367223
166	0x3ad6da5f	0.0016391984
167	0xbda8cd71	-0.0824231
168	0xbd15268f	-0.036413725
169	0x3dfa8f0c	0.12234315
170	0xbca8ff57	-0.020629568
171	0x3de6bf36	0.11266939
172	0xbdc804e0	-0.09766555
173	0x3cf95afe	0.030438896
174	0x3c4fc1e6	0.012680506
175	0xbda9b5f9	-0.08286662
176	0x3df27d3d	0.118402936
177	0xbdd6a314	-0.104803234
178	0x3bcd5484	0.0062661786
179	0x3c53a0b3	0.012916732
180	0xbce7d08b	-0.028297683
181	0x3d395c12	0.04525382
182	0xbd311ce5	-0.043240447
183	0x3d41d472	0.047321744
184	0x3c1be7f2	0.009515749
185	0x3e1bb368	0.15205157
186	0x3d6e290b	0.05814461
187	0x3ba8d937	0.005152847
188	0xbdf27f12	-0.11840643
189	0x3d7c12fd	0.061541546
190	0x3d8c0e6a	0.06838687
191	0x3df034bb	0.117288075
192	0x3dd855f8	0.10563272
193	0x3d825df6	0.06365578
194	0x3d5724d2	0.05252535
195	0xbd76137a	-0.060077168
196	0xbd1dbe6e	-0.038511686
197	0x3d4a14f8	0.049336404
198	0xbd5b9996	-0.053613268
199	0xbc5227a1	-0.012826831
200	0x3d443741	0.047904257
201	0x3e2d6ed8	0.16936815
202	0xbdf9132c	-0.1216186
203	0x3c38ca03	0.011278632
204	0x3de379dc	0.11107227
205	0x3d6908d2	0.056893177
206	0x3d3654c8	0.044514447
207	0xbd671c28	-0.056423336
208	0x3badaec1	0.0053003733
209	0xbcebbc1c	-0.028776221
210	0x3d828476	0.06372921
211	0xba569ee0	-0.00081871264
212	0xbc216a6b	-0.009852032
213	0x3e047933	0.12936859
214	0x3e19fae0	0.15037107
215	0x3de2157d	0.11039255
216	0x3d93c2d3	0.07214894
217	0x3dce7373	0.10080614
218	0x3c8eb363	0.017419523
219	0x3df10065	0.117676534
220	0x3e05321f	0.13007401
221	0xbd78974a	-0.060691155
222	0x3d4f7c35	0.050655562
223	0xbcbf9bd9	-0.023389744
224	0x3dd69745	0.10478071
225	0x3b95e164	0.004573988
226	0x3dd763c4	0.10517076
227	0x3d63ac34	0.055584148
228	0xbce9afa2	-0.028526131
229	0x3d953a81	0.07286549
230	0xbddad55c	-0.10685226
231	0x3e14de88	0.14538014
232	0xbcf68b5a	-0.030095745
233	0x3d760e91	0.060072485
234	0x3d4640dd	0.048401702
235	0x3ded7f3b	0.11596533
236	0xbd8fe1d1	-0.07025493
237	0x3db1c60c	0.086803526
238	0xbd23eba1	-0.040019635
239	0xbd4b8500	-0.049687386
240	0x3db35c75	0.08757869
241	0x3cba1f08	0.022719875
242	0x3da87ee4	0.082273275
243	0xbbc0341a	-0.005865586
244	0x3bdff743	0.006834896
245	0x3de77264	0.11301115
246	0x3d55d5ad	0.05220573
247	0x3dff9235	0.12479059
248	0xbd8ba6e7	-0.068189435
249	0xbd851c1f	-0.06499504
250	0xbe44ee4e	-0.19231531
251	0x3e152161	0.14563514
252	0x3d3ef1a5	0.04661717
253	0xbe190bb6	-0.14945874
254	0x3bd402e2	0.00647007
255	0xbdbcccfd	-0.09218786

rnn.bias_hh_l0 f4 [384]
0	0xbcdac3b4	-0.026704647
1	0x3dad5777	0.08463948
2	0x3cf12c69	0.029440122
3	0x3d9a96ca	0.07548292
4	0x3d44ef31	0.048079673
5	0x3c689d5a	0.014197672
6	0x3c57b00f	0.013164534
7	0xbd809229	-0.06277878
8	0x3d3c3374	0.045947507
9	0x3dd2c070	0.10290611
10	0x3e065676	0.1311892
11	0xbd074d8e	-0.033032946
12	0x3d710110	0.058838904
13	0xbd9df057	-0.07711857
14	0x3d425b03	0.047450077
15	0xbdd2681c	-0.102737635
16	0xbce49bba	-0.027906287
17	0x3d77e6b9	0.06052277
18	0x3d272cb2	0.04081411
19	0x3d99c2e5	0.07507876
20	0x3da55d7b	0.080744706
21	0x3dc160b4	0.09442273
22	0x3c979ad5	0.018506447
23	0x3d858753	0.06519952
24	0xbd99cba9	-0.07509548
25	0x3d8f1e7c	0.06988236
26	0x3d32abcb	0.043620866
27	0x3b9cdfa8	0.004787404
28	0x3daf61a3	0.085635446
29	0x3c89b840	0.01681149
30	0xbd7d69d1	-0.061868493
31	0x3cadeedf	0.021232067
32	0x3d4492a5	0.047991414
33	0x3cfc0d33	0.030768013
34	0x3cf7cd94	0.030249394
35	0xbc2321cc	-0.009956788
36	0x3d0f5b52	0.0349992
37	0x3c4b0bf0	0.012392983
38	0x3cc68c53	0.024236834
39	0x3ccc8b95	0.024968902
40	0xbe07d91f	-0.13266419
41	0xbd3da2ef	-0.046297964
42	0xbdd0521d	-0.10171912
43	0xbcd45f02	-0.02592421
44	0x3be80a31	0.007081293
45	0xbc694538	-0.014237694
46	0x3e050831	0.12991406
47	0xba843c9b	-0.0010088863
48	0x3cbdc142	0.023163442
49	0x3db5c80a	0.08876045
50	0xbd365aad	-0.04452007
51	0x3d6768d4	0.056496456
52	0x3cb2668e	0.021777418
53	0xbdc82c80	-0.09774113
54	0xbd04c512	-0.032414503
55	0xbe0227c7	-0.12710486
56	0xbc61715d	-0.013759938
57	0x3d7d2759	0.061805103
58	0x3d81a91d	0.06331084
59	0xbd4869d4	-0.04892905
60	0x3d399d8c	0.045316264
61	0xbd8ad653	-0.0677916
62	0x3d8d04fb	0.068857156
63	0xbd363772	-0.04448647
64	0x3caa807d	0.020813221
65	0xbd446c33	-0.04795475
66	0xbe2d0fb5	-0.16900523
67	0xbd1b8778	-0.03797099
68	0xbc425eb7	-0.011863402
69	0xbc44ae74	-0.0120044835
70	0x3cd6b224	0.026207991
71	0xbdd0663c	-0.1017575
72	0xbe152cf8	-0.14567935
73	0xbcbbd896	-0.022930425
74	0x3d8439f2	0.06456365
75	0xbd787bc0	-0.060664892
76	0xbd6bd77e	-0.057578556
77	0x3bdf1950	0.0068084374
78	0xbc9c9f34	-0.019118883
79	0x3e068739	0.13137521
80	0x3bbfc4e6	0.0058523295
81	0xbc4f2735	-0.012643625
82	0xbc094dc9	-0.008380362
83	0x3d99a91d	0.07502959
84	0xbd1b5441	-0.037922148
85	0x3ca1e0b3	0.019760465
86	0xbc824ba0	-0.015905201
87	0xbc920da4	-0.01782877
88	0xbd4e7ce2	-0.050412066
89	0xbddafbc2	-0.1069255
90	0xbda8bf34	-0.08239594
91	0x3cad50fb	0.021156779
92	0xbbece1bd	-0.0072290585
93	0x3de66df6	0.11251442
94	0x3cd27967	0.025692655
95	0xbd881f11	-0.066465504
96	0x3d82c88f	0.0638591
97	0x3cccb711	0.024989637
98	0x3d8f818a	0.070071295
99	0x3dea486e	0.11439596
100	0xbd9ca1a9	-0.07648022
101	0x3c8eafb9	0.017417775
102	0x3bc62e6e	0.0060480153
103	0xbad39b87	-0.0016144373
104	0x3d48625e	0.048921935
105	0xbd2e0077	-0.042480912
106	0xbcca5aeb	-0.024701556
107	0xbcf3334a	-0.029687542
108	0x3ddf178f	0.10893165
109	0xbde1d941	-0.11027766
110	0xbcc682b7	-0.024232252
111	0x3e03110b	0.1279947
112	0x3d19677e	0.037452213
113	0x3c94fad6	0.018186014
114	0xba6b94f0	-0.0008986732
115	0xbc3496c7	-0.011022276
116	0x3d9378d0	0.072007775
117	0xbd3d97cd	-0.046287347
118	0x3e09d9c6	0.1346198
119	0xbd9836aa	-0.07432301
120	0xbd74076b	-0.059577387
121	0xbdc98f91	-0.09841836
122	0x3dab1410	0.08353436
123	0x3c8970e3	0.016777461
124	0x3d6c47ac	0.05768554
125	0x3e63f998	0.22263181
126	0xbdad15df	-0.08451437
127	0xbbfd2e8e	-0.007726497
128	0xbdf7e6d2	-0.12104572
129	0xbcece8b4	-0.028919555
130	0x3d410e49	0.047132764
131	0x3d15ac1d	0.036541093
132	0xbcbb2415	-0.022844354
133	0x3e04cdda	0.12969151
134	0x3d38ec31	0.045147125
135	0xbcb851be	-0.022499915
136	0xbd399b5c	-0.045314178
137	0x3de0fbac	0.109855026
138	0x3d76481f	0.060127374
139	0xbdbb6f90	-0.09152138
140	0xbd9aca0b	-0.07558068
141	0xbc074106	-0.008255249
142	0xbc4b0b0b	-0.01239277
143	0xbd4bdd05	-0.049771328
144	0xbcef3b89	-0.029203193
145	0x3c468b1c	0.012118127
146	0xbd22a37c	-0.039706692
147	0xbe26973d	-0.1626863
148	0x3db6296d	0.0889462
149	0x3c093895	0.008375307
150	0x3de21936	0.11039965
151	0xbc12b2f6	-0.0089538
152	0x3d68e6d3	0.056860756
153	0x3d4cb9cf	0.04998189
154	0x3dd4f7db	0.10398837
155	0xbc807149	-0.015679019
156	0xbd282d48	-0.04105881
157	0x3d7dcf57	0.061965313
158	0x3d87fd71	0.06640137
159	0xbdc270ec	-0.094941944
160	0xbcaf6c2a	-0.021413881
161	0xbd140b33	-0.036143493
162	0xbd186d82	-0.03721381
163	0xbd07f8c7	-0.033196237
164	0x3d1b4757	0.03790983
165	0x3dad0210	0.08447659
166	0x3e00bedb	0.12572806
167	0xbce7fab2	-0.028317783
168	0xbcbfbf7c	-0.023406737
169	0x3d3c6e5a	0.046003677
170	0xbdb4a495	-0.08820454
171	0x3e0677e9	0.1313168
172	0xbd9990ef	-0.07498347
173	0xbd87365d	-0.06602166
174	0x3db9bcef	0.09069239
175	0xbb3ee952	-0.002913077
176	0x3dcf567a	0.10123916
177	0xbbcc7c1e	-0.006240382
178	0xbc0a37fd	-0.0084362
179	0xbb82fa5f	-0.0039971317
180	0xbc190b22	-0.009341033
181	0x3cf155e1	0.029459896
182	0x3c3070e3	0.010769102
183	0x3c014f1f	0.007892399
184	0xbbdb33ff	-0.006689548
185	0x3d4b8b0c	0.049693152
186	0x3d2e2ed8	0.042525142
187	0x3d8bfbf9	0.06835169
188	0x3b8d46ee	0.004311434
189	0x3da5b1b6	0.08090536
190	0xbce3612b	-0.027756294
191	0x3d0be6ed	0.034155775
192	0x3cb397e4	0.021923013
193	0x3e0678a6	0.13131961
194	0xbd945466	-0.0724266
195	0x3d18893f	0.037240263
196	0xbd3caa84	-0.046061054
197	0x3dc978b5	0.09837476
198	0xbc59d48c	-0.013295304
199	0x3deb5c89	0.11492259
200	0x3e237fc0	0.15966702
201	0x3d9e2711	0.07722295
202	0xbd2dcd0d	-0.04243188
203	0x3de779a1	0.11302496
204	0x3d0c32de	0.0342282
205	0x3ca33500	0.019922733
206	0x3ded9ef5	0.11602584
207	0xbe14bc4c	-0.14524955
208	0x3d59c991	0.053170744
209	0xbde29c8d	-0.11065016
210	0x3bc91040	0.0061359704
211	0x3c881342	0.016610745
212	0x3b54b07e	0.003245383
213	0x3c64e129	0.013969698
214	0x3d2a3ed2	0.041563816
215	0xbd434a63	-0.047678363
216	0x3de2cee2	0.11074616
217	0x3e218d1b	0.15776484
218	0x3dd4ec12	0.10396589
219	0x3d7c29e4	0.061563388
220	0x3e1eaac9	0.15494837
221	0xbdbf4909	-0.09340102
222	0x3c32a0dc	0.01090261
223	0x3ca7068c	0.020388864
224	0x3df1b97d	0.11802957
225	0xbd57fca9	-0.05273119
226	0x3d4cc1ee	0.049989633
227	0xbda852af	-0.08218896
228	0x3b9a2ac3	0.0047048046
229	0x3c826715	0.015918294
230	0xbca72600	-0.020403862
231	0x3e7da3b8	0.24769485
232	0xbd8f4760	-0.069960356
233	0x3d996e7c	0.07491776
234	0x3dd108b9	0.10206742
235	0x3e29b93c	0.16574568
236	0x3d4b7a46	0.049677156
237	0x3ceaf37e	0.02868056
238	0x3b8e868e	0.0043495363
239	0xbdb3a075	-0.08770839
240	0x3d985b0b	0.0743924
241	0xbceabc6e	-0.028654303
242	0x3e0aeab5	0.13566096
243	0x3d6b314a	0.057420053
244	0x3de69f0b	0.11260804
245	0x3dfe6d5f	0.12423205
246	0x3da5f309	0.08102996
247	0x3dab72d5	0.08371512
248	0x3c8dabf0	0.0172939
249	0xbd8ad807	-0.06779485
250	0xbe1f92e6	-0.15583381
251	0xbb72f265	-0.0037070748
252	0x3c944416	0.018098872
253	0xbde6ad7c	-0.11263558
254	0x3de38dc9	0.11111028
255	0xbd638844	-0.055549875

predict.1.weight f4 [24, 128]
0	0xbb63ad3b	-0.0034740705
1	0xbc281a2d	-0.010260147
2	0xbba8f8a0	-0.0051565915
3	0xbd1530e6	-0.036423586
4	0x3c52cd82	0.01286638
5	0xbb8bf6d2	-0.0042713666
6	0xbd824e0f	-0.06362545
7	0x3c921588	0.017832533
8	0x3d0d968b	0.034567397
9	0x3d473e5e	0.048643462
10	0x3bf4fcb7	0.007476415
11	0xbd3d0ab1	-0.046152774
12	0xba7b9714	-0.00095974025
13	0x3d6cadf6	0.05778309
14	0xbbe07e46	-0.0068509905
15	0x3d28cfb4	0.041213706
16	0x3c4e3dcd	0.012587977
17	0x3b4bd064	0.0031099552
18	0x3caba96b	0.020954808
19	0x3b6fb5f3	0.0036576956
20	0x3cc313a3	0.023813074
21	0x3d1dc686	0.038519405
22	0x3d194bc5	0.037425775
23	0x3c835098	0.016029641
24	0xbcc3bcf6	-0.023893815
25	0xbbff32d2	-0.0077880407
26	0x3cae20a8	0.021255806
27	0xbcdb621f	-0.026780186
28	0x3c6c6363	0.0144279925
29	0xbcba0617	-0.022707982
30	0x3c925b00	0.017865658
31	0xbc1cb09c	-0.009563591
32	0xbd40d576	-0.047078572
33	0xbd374711	-0.04474551
34	0xbd059d47	-0.032620694
35	0xbc0e6227	-0.0086903935
36	0xbc6bcd7e	-0.014392255
37	0xbc68ccd4	-0.014208991
38	0x3d1ba93e	0.0380032
39	0x3b78b1d0	0.0037947781
40	0xbd45282f	-0.048134025
41	0xbcdc9361	-0.026925744
42	0xbceb11dd	-0.028695041
43	0xbc9ac078	-0.018890604
44	0x3d12e504	0.035862938
45	0xbd0bee28	-0.03416267
46	0x3c9bdb10	0.019025356
47	0xbca69d64	-0.020338722
48	0x3d1fbec1	0.039000276
49	0xbd49e991	-0.049295012
50	0x3be285a2	0.006912903
51	0x3c8a02be	0.01684701
52	0x3ccc66dc	0.02495139
53	0xbd3a661e	-0.045507543
54	0x3d13ef63	0.03611697
55	0x3cd04836	0.025425058
56	0xbd84f221	-0.06491495
57	0xbc85e82b	-0.016346058
58	0x3c2df885	0.010618334
59	0xbc66e689	-0.01409305
60	0x3b4fe175	0.0031720076
61	0xbcaf3b2a	-0.021390516
62	0x3bb1f165	0.005430388
63	0x3cef1c56	0.029188316
64	0x3d21a7eb	0.03946678
65	0xbaccb470	-0.0015617739
66	0x3c0de74c	0.0086611025
67	0xbcd79ad1	-0.02631894
68	0x3b52c0e8	0.0032158438
69	0xbca6b77e	-0.020351168
70	0xbc81cd63	-0.015845006
71	0xbbb8d137	-0.0056401747
72	0x3bac6727	0.00526132
73	0xbb484255	-0.0030557115
74	0xbd91f62d	-0.071270324
75	0x3caa6c13	0.020803487
76	0x3d1e1c9b	0.0386015
77	0xbd0d470c	-0.034491584
78	0xbc3a1794	-0.0113581605
79	0xb981e220	-0.00024773274
80	0xbd11f336	-0.035632335
81	0x3cd2d8d4	0.025738157
82	0xbc86f45f	-0.016473947
83	0x3c4fe908	0.012689836
84	0x3cb915f9	0.022593485
85	0x3d8ddc2e	0.069267616
86	0xbca3be34	-0.019988157
87	0xbc988393	-0.018617427
88	0xbc84a636	-0.016192537
89	0xbb1eb46c	-0.0024216427
90	0xbd12bd60	-0.035825133
91	0x3ca51069	0.020149427
92	0xbd2357fd	-0.039878834
93	0x3c702645	0.014657562
94	0xbcfddac3	-0.030988103
95	0x3c6776dc	0.014127459
96	0x3ce3ac9c	0.027792268
97	0xbd0ba564	-0.034093276
98	0xbd6f5390	-0.0584293
99	0xbce92a2c	-0.028462492
100	0xbc75c5aa	-0.01500074
101	0xbbf88dda	-0.0075852694
102	0x3cdb9e14	0.026808776
103	0x3d347e27	0.04406562
104	0xbd8a1d85	-0.06743912
105	0x3d8c2831	0.068436034
106	0xbd385f43	-0.045012724
107	0x3d4d5f71	0.05013985
108	0xbd14274a	-0.03617028
109	0xbcd1a4e8	-0.025591329
110	0x3cca8d1a	0.024725486
111	0x3bff90e2	0.007799254
112	0xbd250aea	-0.04029361
113	0x3c965e42	0.018355493
114	0xbd64a422	-0.05582059
115	0xbd1f45f5	-0.038885076
116	0xbc209be0	-0.0098027885
117	0x3d559a60	0.052149177
118	0xbbce4c33	-0.0062957047
119	0xbdc96814	-0.098343045
120	0x3d705c99	0.058682058
121	0xbd6a5430	-0.057209194
122	0xbcb9bccc	-0.022673033
123	0x3d0ad4f2	0.033894487
124	0x3c7fb347	0.015606708
125	0xbc0126f7	-0.007882825
126	0x3bceaffd	0.0063076005
127	0xbcd5f3ae	-0.026117172
128	0xbccf4df2	-0.025305722
129	0x3d292027	0.04129043
130	0x3d68c325	0.05682673
131	0xbc7ce716	-0.015435955
132	0xbcf8c24f	-0.030366091
133	0x3c576542	0.0131467
134	0xbd4f2a2d	-0.05057733
135	0xbd0c7199	-0.034288023
136	0x3ccb92c2	0.024850253
137	0x3c9bd1d7	0.019020958
138	0x3cd678dd	0.026180679
139	0xbc9141d5	-0.017731586
140	0xbd7eaa9c	-0.062174425
141	0x3d950e23	0.07278087
142	0x3d027ab8	0.031855315
143	0x3ca97908	0.020687595
144	0xbcf7a14e	-0.030228283
145	0x3d881979	0.066454835
146	0x3cab9b56	0.020948093
147	0xbc9e8cbc	-0.019354217
148	0x3dd115ac	0.10209212
149	0x3d36e415	0.04465111
150	0x3c488aa3	0.012240085
151	0x3d10cf47	0.035353925
152	0xbd17ff6e	-0.03710883
153	0xbd05bc4c	-0.032650277
154	0x3ac7802f	0.0015220697
155	0xbcb57f97	-0.022155566
156	0x3d5a78f4	0.053338006
157	0xbd4b1efa	-0.04959009
158	0x3d0654eb	0.032795828
159	0xbd6990db	-0.05702291
160	0xbd3ec920	-0.046578526
161	0xbc073383	-0.008252027
162	0xbd34cea9	-0.0441424
163	0xbac41495	-0.0014959747
164	0xbd1bbf52	-0.038024254
165	0xbc4b0765	-0.0123919
166	0x3d0a0614	0.033697203
167	0xbc9c13e9	-0.019052463
168	0xbd367bc4	-0.044551626
169	0xbbc90198	-0.006134223
170	0xbd3479ba	-0.0440614
171	0x3ce4f0d2	0.027946863
172	0x3d5f17fb	0.05446623
173	0xbc8b0150	-0.0169684
174	0x3cc62bf0	0.024190873
175	0xbd0c9564	-0.034322158
176	0x3d29733e	0.04136967
177	0xbd1928ca	-0.037392415
178	0x3cf7bd59	0.030241655
179	0x3d065caa	0.032803215
180	0x3c32a594	0.010903735
181	0xbd965c1e	-0.07341789
182	0x3d6d2bb9	0.057903025
183	0xbd0bbeb1	-0.034117404
184	0xbc8ad679	-0.016947972
185	0xbd33540b	-0.04378132
186	0x3c76e897	0.015070102
187	0x3cc946e2	0.024569932
188	0x3cd7530d	0.026284719
189	0x3cef3f38	0.02920495
190	0xbc194b26	-0.009356296
191	0x3b6289f2	0.0034567085
192	0x3d854536	0.065073416
193	0xbd05561b	-0.03255282
194	0x3ced22af	0.028947202
195	0xbd3fb534	-0.04680367
196	0xbca50b4c	-0.020146988
197	0xbc81c970	-0.015843123
198	0xbb5f22a3	-0.0034047745
199	0x3c6df1fb	0.014523025
200	0xbc97a4c6	-0.018511187
201	0xbcfa6fc7	-0.030570878
202	0xbdad696f	-0.084673755
203	0x3d16618a	0.036714114
204	0xbd2d8e5d	-0.042372096
205	0xbd3ab129	-0.04557911
206	0x3ceb221e	0.028702792
207	0x3cc4f6ee	0.024043527
208	0xbde03508	-0.10947615
209	0x3d44eb07	0.048075702
210	0xbd8a8a9b	-0.06764718
211	0x3c28a11d	0.010292319
212	0x3d5f7d9a	0.054563142
213	0x3cc07d78	0.023497328
214	0xbd27bd4c	-0.040952012
215	0xbb8badea	-0.0042626755
216	0x3c4cc00a	0.012496958
217	0x3c30016c	0.0107425265
218	0xbd6ab512	-0.05730159
219	0x3b47c981	0.0030485096
220	0xbd3eaaa2	-0.046549447
221	0x39c9849e	0.00038436515
222	0xbdb083cf	-0.086188905
223	0x3d5891ec	0.052873537
224	0x3cf810b8	0.03028141
225	0xbc8d410a	-0.017242927
226	0xbdb37d6f	-0.08764159
227	0x3bee1500	0.007265687
228	0xbd4c85d3	-0.049932312
229	0xbbb37b1f	-0.0054773237
230	0x3d2ac03f	0.041687246
231	0x3dad8d28	0.08474189
232	0xbd735541	-0.059407476
233	0x3dc93c05	0.09825901
234	0x3bc6c168	0.0060655363
235	0x3de407d2	0.11134304
236	0x3c07ccdd	0.008288589
237	0xbd18f4ee	-0.03734296
238	0x3dbc6fe6	0.092010304
239	0xbd0d2f5b	-0.03446899
240	0xbd6f655f	-0.058446284
241	0xbc8681ea	-0.01641937
242	0xbd1e94a3	-0.03871597
243	0xbdbb5569	-0.0914715
244	0xbd45f8bb	-0.04833291
245	0x3d844bf0	0.064597964
246	0x3c9d0c17	0.019170804
247	0xbde18e69	-0.11013491
248	0x3da8ddc4	0.082454234
249	0xbdcbcaf5	-0.0995082
250	0x3afca446	0.0019275032
251	0xbcad27b1	-0.02113709
252	0x3d3d0df1	0.046155874
253	0xba6740ff	-0.0008821636
254	0x3dc25f95	0.09490887
255	0xbcbcd19f	-0.023049174

predict.1.bias f4 [24]
0	0xbc1cabbb	-0.009562428
1	0x3a386775	0.0007034459
2	0x3cc1cb88	0.023656622
3	0x3c833a58	0.016019031
4	0x3cc0543f	0.023477672
5	0xbc326fdf	-0.01089093
6	0x3d2c0093	0.041992735
7	0xbd417160	-0.047227263
8	0x3c8cce3c	0.017188184
9	0x3d2c07de	0.04199969
10	0x3d26b3e7	0.040698912
11	0xbd4b45fa	-0.04962728
12	0x3c3aa744	0.011392418
13	0x3c955a27	0.018231465
14	0x3bac0a3d	0.005250244
15	0xbd01017a	-0.03149555
16	0xbc9b8587	-0.01898457
17	0x3d085199	0.033280943
18	0x3d6f4336	0.058413707
19	0xbbce00ab	-0.0062867007
20	0x3d24c45b	0.04022632
21	0xbd77be76	-0.060484372
22	0xbd89d532	-0.06730117
23	0xbd6aa115	-0.057282526
