results/electricity_SegRNN/3/checkpoint.pth (torch, 425317 bytes, 10 tensors)

pos_emb f4 [1, 64]
000000 f0 56 19 3f 47 82 a0 3f 74 5e 96 bf 9a fe 0c 3e
       0.5989828 1.2539757 -1.1747575 0.13768998
000010 07 b3 84 3e 21 e7 96 bf 1d cc 58 bf aa 00 28 3e
       0.25917837 -1.1789285 -0.8468645 0.16406503
000020 24 63 57 be 51 44 10 3f c0 6a 39 3f 50 59 13 bf
       -0.21033913 0.5635424 0.7242851 -0.57558155
000030 a5 a3 30 3f c2 9c f3 bf a6 db d4 ba 3e 0b 8f bf
       0.689997 -1.9032214 -0.0016239777 -1.1175306
000040 52 98 64 3f c1 b6 53 3f 9a 80 a1 3d 9a 96 e2 3f
       0.8929492 0.82700735 0.07885857 1.770221
000050 e3 29 88 3f 63 fc 90 3e be cd 1b bf aa e7 51 bf
       1.0637783 0.28317556 -0.6086081 -0.81994116
000060 7e 0e 67 bf ad c5 62 3f 57 8a 15 bf 8b 2f 56 3f
       -0.9025649 0.8858288 -0.58414215 0.83666295
000070 87 0d db 3e 3f 97 11 bf 3d 7f 02 bf b8 41 dd 3f
       0.42783758 -0.5687141 -0.509754 1.7285681
000080 80 b5 ad 3f b4 61 b7 be 3b cd bf 3d 67 c3 8d 3e
       1.3571014 -0.3581673 0.093653165 0.27688143
000090 d0 8a 61 bd 18 0f c3 3f 26 be ea 3e ff 3d a7 bf
       -0.055064023 1.5238981 0.45848197 -1.3065795
0000a0 a5 3f 45 3e 30 2d 67 3f f6 b0 3a 3f a6 cd 9f bf
       0.1926256 0.90303326 0.7292627 -1.2484634
0000b0 38 04 e1 bf 6a 19 04 3f b6 41 58 bf 39 29 c6 3f
       -1.7579412 0.5160128 -0.84475267 1.548133
0000c0 0b 8d e6 bd 93 b8 53 bf 52 21 58 be 0b d5 a1 bd
       -0.112573706 -0.8270351 -0.2110646 -0.07901963
0000d0 18 91 d6 be b4 38 d2 bf 4d 8c 05 3e 00 a1 8a bf
       -0.41907573 -1.6423554 0.13041802 -1.0830383
0000e0 aa 50 93 3f 9d ff 95 be b9 32 ce bf cd c6 a8 3f
       1.1508992 -0.2929658 -1.6109229 1.3185669
0000f0 bb bd 32 3f 3d 70 5c be 02 b4 6f 3e 2a f9 0b be
       0.69820756 -0.2152719 0.23408511 -0.13669267

channel_emb f4 [1, 64]
000000 c8 2a b0 3f bd 19 df 3f d5 d9 62 3e 5d cd fd 3e
       1.3763056 1.742973 0.22153409 0.49570742
000010 67 21 32 3e f3 db 4c 3f d2 cb 80 bf 9c ac 1b 3f
       0.17395554 0.80023116 -1.0062201 0.60810256
000020 a2 49 45 be 79 e6 1f 3f 0e 1f 21 3f 27 2b b8 be
       -0.1926637 0.6246105 0.6293801 -0.35970423
000030 b6 5a a1 be b7 91 41 bf ed 94 a6 be 7b d0 25 bf
       -0.3151452 -0.7561297 -0.32535496 -0.6477124
000040 e5 30 a2 bf eb fd b8 3f f1 8e 8a 3f 6b cc 71 be
       -1.2671171 1.445249 1.0824872 -0.23613136
000050 67 70 9a bf f8 a0 c6 be 37 5c 09 40 b9 b0 90 3f
       -1.2065552 -0.38794684 2.1462533 1.1303931
000060 dc 15 94 be 02 f9 d8 3d 53 cc 8f 3e d5 94 98 bf
       -0.28922927 0.105943695 0.28085575 -1.192042
000070 35 70 14 bf e9 37 a8 bc 46 12 d2 3c 0b 01 f2 3e
       -0.57983714 -0.020534473 0.02564348 0.4726642
000080 c7 d2 79 bf 46 64 7d bf 5d 7e c6 3e e8 48 09 be
       -0.97587246 -0.9898113 0.38768283 -0.13406718
000090 ef 1e 85 3c 46 26 0b bf 3b 22 00 be f9 75 b3 3e
       0.016250102 -0.54355276 -0.12513058 0.35050943
0000a0 42 f1 e1 be fc af 2d 3d 91 c7 66 3f 15 bf 9d bf
       -0.44129378 0.04240416 0.90148264 -1.2323939
0000b0 ce c7 86 bf 15 34 93 bf c1 c0 0e 40 53 0e 7b 3f
       -1.0529726 -1.1500269 2.2305148 0.9806873
0000c0 5b cf 86 3f 6a 54 b1 bc 01 d8 ae 3f ac 68 b0 be
       1.053203 -0.021646697 1.3659669 -0.34454858
0000d0 a9 ae cd 3e 41 dc 45 3f 49 52 e1 3e 50 f2 8f bf
       0.40172318 0.77289206 0.4400809 -1.1245823
0000e0 53 13 3f 3e c4 0f 16 bd 29 ee 17 bf 06 62 ae bf
       0.18659715 -0.03663613 -0.5934778 -1.3623664
0000f0 a8 f6 95 be 01 ec 32 bf 3c b9 db be 8b bf 02 bd
       -0.29289746 -0.69891363 -0.4291476 -0.03192095

valueEmbedding.0.weight f4 [128, 24]
000000 43 24 18 3e 90 be 45 3d b3 f7 0a be c8 da d8 bd
       0.14857583 0.048277438 -0.13571052 -0.10588604
000010 eb d4 f9 bd a8 92 67 3d 33 c1 51 3e 98 7a c5 3c
       -0.12198814 0.056536347 0.20483856 0.024106309
000020 3f 85 b6 bd 41 98 33 be cc 4c dc 3d 4e 73 57 3d
       -0.089121334 -0.17538549 0.10756835 0.052600197
000030 88 8a af bc c7 8c 9a 3d 7b 75 32 be 2f 11 d0 3d
       -0.021428362 0.075463824 -0.17427628 0.101595275
000040 2d 7c 2b be 3f 47 04 3e 58 2c 20 3e d4 a5 f8 bc
       -0.16746588 0.12917803 0.15641916 -0.03035251
000050 79 3a 55 be 5b c7 1c be 51 8a fb 3d 50 88 93 3e
       -0.20823087 -0.15310423 0.12282241 0.28814936
000060 9b 6d b1 bc 5b f2 45 3e 40 b3 68 3e 2a c6 0f 3d
       -0.02165871 0.19330733 0.22724628 0.035101093
000070 0c a0 d8 3d f7 8b 74 bd 0e 60 82 3c ff 5f e6 bd
       0.105774015 -0.059703793 0.015914943 -0.112487786
000080 09 90 c3 3d 37 61 72 be 8c 2f 24 be cc ac 00 bb
       0.09548957 -0.23669897 -0.16033763 -0.0019634245
000090 c3 9e 46 be eb de 99 3d 88 36 b1 bd 71 7f 3b bd
       -0.193965 0.07513221 -0.08652979 -0.045775834
0000a0 5e 83 07 3e 02 3f 9a 3d 31 e2 a4 bc b1 0d b5 bb
       0.13233706 0.07531549 -0.020127388 -0.005525314
0000b0 6e 22 fe bd 16 16 9e bd a2 dc a9 3c fb 3b 74 be
       -0.12408911 -0.07719056 0.020735089 -0.23851006
0000c0 30 41 b8 bc 4c 17 89 bc a7 fa e4 3d cc d2 45 3e
       -0.022492021 -0.016734742 0.11180621 0.19318694
0000d0 13 cb a5 bc aa 0c 5e bc d9 48 31 be 6c cb 9e bc
       -0.020238435 -0.013552824 -0.17312945 -0.019384108
0000e0 5b c9 13 be ab ab 38 3d 5e e8 9c bd f5 1e 03 3e
       -0.1443228 0.04508559 -0.07661508 0.12804778
0000f0 d3 ec 16 3e 90 ed 96 3d 66 22 89 bd b7 a0 6c 3d
       0.14738779 0.0736953 -0.06696014 0.057770457
000100 d2 ef d5 bd 72 a5 53 be ec ec e6 bd ef 0e 64 be
       -0.10446133 -0.20668581 -0.11275658 -0.22271322
000110 11 ac 73 3e 13 1c 89 3e 05 4a 76 3e 2b 80 c2 3a
       0.23796107 0.2677923 0.24051674 0.0014839222
000120 1d 90 3d 3e 2f ea 36 3d 74 29 03 be 9b 9f 0e be
       0.18512006 0.04465693 -0.12808782 -0.13928072
000130 94 56 56 3d 18 2b 39 bd 10 d5 24 be d7 84 80 be
       0.05232866 -0.045207113 -0.16096902 -0.2510135
000140 46 e5 be bd c7 6f 29 be 1f af 24 3e 00 ff 22 3e
       -0.09321074 -0.16546546 0.16082428 0.15917587
000150 62 cb 0a be b2 eb 42 bd fb 07 b1 3c a0 0b 03 3e
       -0.13554147 -0.047588058 0.02161025 0.12797403
000160 ea ae 10 be 0f 0e 44 3e 17 d5 47 3d 72 02 3d bd
       -0.14129224 0.19145988 0.048787203 -0.04614491
000170 31 69 cc bd e6 80 f4 3d e7 06 e3 3b 2e 3a 0d bc
       -0.09981001 0.11938648 0.006928313 -0.008619828
000180 55 91 52 bc b6 ce b0 3d 30 14 11 be 9c fe 6f 3e
       -0.012852033 0.08633177 -0.14167857 0.2343697
000190 f7 eb da 3c 03 58 b0 3d d4 d4 44 3e 8a e9 b8 bd
       0.026723845 0.08610537 0.19221812 -0.09028919
0001a0 0d 70 0b 3e 47 1a b3 bc 35 8d b7 3b f7 cc 1b 3e
       0.13616963 -0.021863116 0.00560155 0.15214907
0001b0 78 02 19 be c1 c9 44 be 43 14 9a 3d 21 6e ab bd
       -0.14942348 -0.19217588 0.07523396 -0.08370615
0001c0 5d 17 c5 3d 19 b7 23 be 02 34 b0 bd 5a bf 09 be
       0.09623597 -0.15987815 -0.0860367 -0.13451901
0001d0 74 95 a4 bd fe 1a f3 bd ab 58 93 be 95 27 42 be
       -0.080363184 -0.11870383 -0.28778586 -0.18960412
0001e0 27 d7 00 be c7 73 b2 bd a7 d4 6c 3d e6 2e 13 be
       -0.12582074 -0.08713489 0.05781999 -0.14373359
0001f0 42 5a 9e bd 91 f1 2a 3e 1a 9f 48 3e 99 39 c3 3d
       -0.07732059 0.16693713 0.19591942 0.0953247
000200 54 af 4f 3e b5 5b 3b 3e ae 52 11 be 87 dc e9 bd
       0.20281726 0.18296702 -0.14191696 -0.114190154
000210 52 24 d0 3c 8c 21 22 be 36 af 06 3d e9 4f 31 3e
       0.025407944 -0.1583311 0.032881938 0.1731564
000220 3d d4 39 3d 31 e4 47 be 28 66 25 be ff aa e2 bd
       0.04536842 -0.19520642 -0.16152251 -0.11067771
000230 7b 3a 1d be 58 81 ed bd e7 f3 a4 be 72 70 1a be
       -0.1535434 -0.11596936 -0.32217333 -0.15081957
000240 e2 44 3b 3d 85 9f 6f 3e ac d0 50 bc 90 39 a9 bc
       0.04571999 0.23400696 -0.012745064 -0.02065733
000250 1b 15 85 3d 40 a7 3c bd 17 df 81 bd a1 0e 54 be
       0.06498166 -0.04605794 -0.06341379 -0.20708705
000260 04 a9 1a 3e 21 7d 30 3e 99 8c 33 bd c6 93 29 3e
       0.15103537 0.17235233 -0.043835256 0.16560277
000270 40 29 b1 3b ad f9 07 bd 18 a6 12 be 3f bc 1d 3c
       0.0054065287 -0.033197094 -0.14321172 0.009627401
000280 b5 45 04 be 6e 0a 09 be 16 51 bd bd a8 4b 89 bd
       -0.12917216 -0.13382885 -0.092439815 -0.067038834
000290 77 52 aa bd dc 7b ff 3d f0 72 04 be bb 55 01 bd
       -0.0831651 0.12474796 -0.1293447 -0.0315759
0002a0 be e4 34 be 07 3b 4b be 22 9a 9f bd e7 e3 33 be
       -0.17665383 -0.19846736 -0.077930704 -0.17567407
0002b0 5d 31 bd 3d a7 4a 16 bd 63 98 ef 3d 0d c5 7e 3c
       0.09237931 -0.036692288 0.11698987 0.01554991
0002c0 83 c3 1a be d7 99 d9 bd b7 7c 49 3e 56 34 7f 3e
       -0.15113644 -0.10625046 0.19676481 0.24922308
0002d0 40 36 3d 3d ce 62 36 3e d4 73 2d 3d 21 ab 7b bd
       0.046194315 0.17811128 0.04234679 -0.061442498
0002e0 98 9a 8e 3c 67 e2 34 be bb 73 7e bd 9e 8f 25 bb
       0.0174077 -0.1766449 -0.062122088 -0.0025262604
0002f0 79 03 71 be 1a 27 17 be 78 3c 8b bd 37 c2 7e bd
       -0.23536481 -0.1476101 -0.06798643 -0.062196936
000300 7f dd 76 3e 0f 95 64 3d b0 38 e0 bc 2a 9d 27 be
       0.24107932 0.055806216 -0.02737078 -0.16368547
000310 d2 cb 59 bd 5f 8c 1a 3e c4 98 25 3e da 38 ac bd
       -0.053172894 0.1509261 0.16171557 -0.08409281
000320 b2 6c f3 3c 9e 99 a6 3b 5f fa 4f bc 22 c7 fb 3c
       0.029714916 0.0050842306 -0.01269397 0.030734602
000330 ac 98 af 3d 7e de 68 bc 9f d9 cd 3d f8 44 90 bd
       0.08574042 -0.0142132025 0.100512736 -0.07044405
000340 cf 06 5a be cc aa 1f be 22 f5 7c 3d b6 ce ef bd
       -0.2129166 -0.15592498 0.061757214 -0.11709349
000350 3b 08 44 be 2d 77 15 be 6d aa e0 3d a8 79 2b 3e
       -0.19143765 -0.14596243 0.10970006 0.16745627
000360 f0 0f 58 3d 44 e6 82 bd 2c 7c 4b be 07 e1 6b be
       0.052749574 -0.06391576 -0.19871587 -0.2303506
000370 34 19 4a be 2d 9d 76 be 76 00 7d 3d 9a e5 38 be
       -0.19736177 -0.24083395 0.061768018 -0.18056336
000380 70 10 1a 3e a9 9f 37 3c 1c 3c 4a 3e 9b d1 15 3e
       0.15045333 0.0112075 0.19749492 0.1463074
000390 eb f4 c0 3d c7 4b 02 be 16 87 20 3e eb 17 ac 3d
       0.094217144 -0.1272422 0.15676531 0.084029995
0003a0 b1 92 25 bb c7 a7 3d be e3 7e 8d 3c 28 10 35 be
       -0.0025264437 -0.18521033 0.017272418 -0.17681944
0003b0 fe 5f 0a 3e be 16 dc bd 92 70 d6 3d 35 57 7f bd
       0.1351318 -0.10746525 0.1047069 -0.062339026
0003c0 67 86 f1 bd 8b a7 de 3d 52 d0 08 3c 17 e1 69 3d
       -0.11793213 0.108718 0.008350449 0.057099428
0003d0 8e 07 a2 bd 18 4c 99 3d 94 fd 03 bd 11 35 f0 3d
       -0.07911597 0.07485217 -0.032224253 0.117288716
0003e0 67 de 48 3e f0 62 de bc 02 92 50 bd 3a 19 24 bd
       0.1961609 -0.027146786 -0.050920494 -0.04006312
0003f0 d7 f1 ab 3d 97 47 1b be d5 c2 34 3e 16 99 8f 3d
       0.08395737 -0.15164028 0.17652448 0.07011621

valueEmbedding.0.bias f4 [128]
000000 da 3f 5c 3e fe 99 ff bd cd c2 d1 3d e6 b9 bf 3c
       0.21508732 -0.124805436 0.102422334 0.023404073
000010 bd 51 fb 3d b9 44 de bd 64 c6 b3 3d ec 37 ef 3d
       0.1227145 -0.108529516 0.087780744 0.11680588
000020 f7 38 0b be e4 9a 01 be 25 a7 38 bb bf b7 69 3d
       -0.13595949 -0.12656742 -0.0028175798 0.05706
000030 f3 e2 b5 bc aa 81 10 3c 3c e5 9d bc e7 66 cc 3d
       -0.022202944 0.008819977 -0.019274347 0.099805646
000040 ec 36 2b be cb 8f e7 3d e0 70 bd 3d 6b 39 ae bd
       -0.1672017 0.11306723 0.09250045 -0.08507045
000050 74 22 4a 3d c7 fa 01 be ef ee 79 3c 67 5a 1f be
       0.049349263 -0.1269332 0.01525472 -0.1556183
000060 4c f6 22 3b 4a 00 bf 3c bb 11 ce bc bb 58 e3 bd
       0.0024866043 0.023315568 -0.025154939 -0.11100908
000070 78 de de bd 40 13 cd 3d d7 e2 3f bd 25 30 23 be
       -0.10882276 0.10013437 -0.04684719 -0.15936334
000080 50 ba 09 3c 3f 83 5c bd 3b aa 23 bd fa 60 d6 3c
       0.008406237 -0.053836104 -0.039957266 0.026169289
000090 cd 9b 41 3e 7e b1 1c bd b4 07 aa 3d cd ad 5d be
       0.1890709 -0.038255207 0.083022505 -0.21648331
0000a0 70 ee a4 bd e2 9c ed 3c 75 fb b7 bd a3 d1 01 bd
       -0.08053291 0.029005472 -0.089835085 -0.031694066
0000b0 e5 93 f3 bd ad 86 ed 3d a9 da 86 bd 71 18 63 be
       -0.11893443 0.11597953 -0.06584675 -0.22177292
0000c0 5a bf 0e bd 99 f7 9f 3d 8f 34 1b be 67 e9 f1 bd
       -0.034850456 0.078108974 -0.15156768 -0.11812096
0000d0 3b 67 f7 3d 81 7f eb 3c 17 47 8a bd a7 52 d9 bd
       0.120802365 0.028747322 -0.067518406 -0.10611468
0000e0 c4 04 17 3d 03 44 3a ba ca 58 f8 bc 30 5e 86 3d
       0.03686978 -0.00071054714 -0.030315775 0.065609336
0000f0 c1 14 3b bd 72 88 bf bd a2 27 ab 3d 8f 97 a2 3c
       -0.04567409 -0.09352197 0.08357169 0.01984766
000100 01 26 6f be e8 53 e2 3c 07 88 23 be 3f 58 fb bd
       -0.23354341 0.0276279 -0.15969859 -0.12272691
000110 7f 5b 2a 3d 1a e4 13 be f7 ee 5e 3b 53 13 52 be
       0.041591164 -0.14442483 0.0034016946 -0.20515184
000120 7c 61 2e 3e e3 63 22 bc fa aa 4d be ed 0d 28 be
       0.17029375 -0.00991151 -0.20084754 -0.16411562
000130 b2 44 d2 bd 2a ec ec bc dd 32 8d be dd 48 ce 3d
       -0.10267009 -0.028921206 -0.27577868 0.10072491
000140 5c eb 8e bd 5d c8 f8 bd f3 93 02 3d a3 69 97 bc
       -0.06978485 -0.12147591 0.031879377 -0.018482989
000150 31 fa d9 bd 5e a9 b6 3e 28 1e 5e be ed fc fa 3c
       -0.10643423 0.35676092 -0.21691191 0.030638183
000160 3b 4b 3a 3e b4 dc 57 be 01 4f 9d bd 83 a9 15 be
       0.1819276 -0.21080285 -0.076810844 -0.14615445
000170 43 0f 6f bd cd fd 1b be b6 a1 ab bd d5 de ff bd
       -0.058364164 -0.15233536 -0.08380453 -0.12493674
000180 fb 12 30 3b 68 9a 21 3e 5a 7b 5c 3e 2c 6a 01 be
       0.0026866782 0.15781558 0.2153143 -0.12638158
000190 93 57 66 3d 61 d9 f6 bd b3 2e 34 3e 63 bf 2e be
       0.05623586 -0.120531805 0.1759594 -0.17065196
0001a0 11 c4 39 be e1 4d d3 bd f4 b8 83 3d 34 ee 30 3d
       -0.181412 -0.103175886 0.064317614 0.04319592
0001b0 cc 10 19 3e 64 4c 61 bc a2 7e 83 be 93 22 56 be
       0.14947814 -0.013751123 -0.2568255 -0.20911627
0001c0 f6 8c 54 bd ef 18 37 3e ef 74 b7 3d fd df cc 3d
       -0.051892243 0.17880605 0.0895785 0.1000366
0001d0 b9 25 0a bb f0 77 4b 3e ce 95 e7 3d 72 04 19 3e
       -0.0021079613 0.19869971 0.1130787 0.14943102
0001e0 91 03 56 be cd 42 a4 bc 3e 61 8a be 29 02 40 3d
       -0.20899798 -0.020051384 -0.27027315 0.04687706
0001f0 b3 74 0e bd ce cf 11 3e 11 23 56 3d 14 04 b0 bd
       -0.03477926 0.14239427 0.052279536 -0.08594528

rnn.weight_ih_l0 f4 [384, 128]
000000 35 15 9e 3d 4a fd 02 be ff 5f b3 3d af d7 c4 bd
       0.07718889 -0.12791935 0.08758544 -0.09611451
000010 59 53 32 be 7a 29 02 bd 71 73 0a be b1 12 a1 bd
       -0.17414607 -0.031777836 -0.135206 -0.07864893
000020 b7 00 05 3d a4 bd 47 3d e5 c4 c4 bb dc 17 f0 bd
       0.032471385 0.04876484 -0.006004917 -0.11723301
000030 7f 6e ab bc 1c 04 ef bc 0a fc 12 3d 9d db 5f bc
       -0.020926712 -0.029176764 0.035884894 -0.0136632
000040 67 bc 26 bd 63 7b 9c 3c 98 51 10 be d6 81 13 be
       -0.04070702 0.019101804 -0.14093626 -0.14404997
000050 f7 4a b0 3d 60 bd 01 3d 83 b5 51 bd 7b ea ba 3d
       0.086080484 0.031674743 -0.051198494 0.09126755
000060 cb b6 0d 3e 3f c4 fc bd 23 6f f0 bd 02 8e 78 3c
       0.13839261 -0.123421185 -0.11739948 0.015170576
000070 e3 c5 47 3c 06 0a 96 3d 58 d1 a7 bc 6c e0 d4 bb
       0.012193176 0.073261306 -0.020485565 -0.0064964797
000080 f4 3e 3c bd 12 fc 6a 3c 8e b1 34 bd 42 46 b3 bd
       -0.045958474 0.014342325 -0.04411464 -0.08753635
000090 74 1e c4 3c 19 29 99 bd 42 2b 82 bd 4c 53 90 3c
       0.023940302 -0.07478542 -0.06355907 0.017617844
0000a0 9d e6 27 bc 81 4e 7e 3d 5e d0 02 bd 4d b3 b3 bd
       -0.010247854 0.062086586 -0.031936996 -0.08774433
0000b0 14 4c 34 bd 44 1d fa bd d1 54 f7 b7 ab 74 b7 bc
       -0.044017866 -0.12212613 -2.948419e-05 -0.022394499
0000c0 a3 f9 11 be a2 89 bd 3d a8 21 1e 3d 7b fe 8a bd
       -0.14255385 0.09254767 0.038606316 -0.067868195
0000d0 0e c6 0c be a5 00 9a 3d 81 7b 93 bd 51 97 36 bc
       -0.13747427 0.07519654 -0.07201291 -0.011144475
0000e0 19 f0 d8 bd fe 7a 41 bc b5 c7 32 3d b6 96 dd 3d
       -0.1059267 -0.011809109 0.043647487 0.108197615
0000f0 ef de 35 bd 47 f9 c4 3c fc ca ef bc ec bc af 3b
       -0.04440206 0.024044646 -0.029271595 0.0053630974
000100 9c 7d b9 bd 64 08 98 bd a9 73 e6 bc 34 c2 01 bd
       -0.09057161 -0.074234754 -0.028131323 -0.031679347
000110 e3 82 b3 3c a8 27 44 bd 6a 42 98 3d 56 34 5c bd
       0.021912998 -0.04788938 0.074345425 -0.05376085
000120 dc 1c 09 bd 88 f1 04 3d ca b1 9f bd 8e 6e 20 3d
       -0.033474788 0.032456905 -0.077975824 0.039167933
000130 57 bd de bb 0b d6 c5 bd 21 65 29 bd c7 fb 6a bc
       -0.0067974734 -0.09659966 -0.04135621 -0.014342255
000140 11 86 22 3d bf 7f 02 3d 3f be 63 be 09 2d a5 3d
       0.039678637 0.03186011 -0.22240542 0.080652304
000150 02 c8 0f be 3a 81 2b be 56 95 87 3b 5a ab f6 bd
       -0.1404114 -0.16748515 0.0041376753 -0.120444015
000160 94 b8 33 bd da d3 26 3d 93 ea 28 3c 40 a1 eb 3c
       -0.0438772 0.04072938 0.010309833 0.028763413
000170 04 d8 01 3e 1d 2e 84 bd a5 16 97 bd da 90 bf bd
       0.1268006 -0.06454108 -0.07377366 -0.093538
000180 76 64 35 bc b7 f7 0f bd ed b0 d9 bd 4a 90 56 3d
       -0.011071315 -0.03514835 -0.10629449 0.0523837
000190 01 f3 b4 bc 08 45 8f 3d 39 53 ff bc 81 f9 a4 bd
       -0.02208853 0.069955885 -0.031167613 -0.080554016
0001a0 e9 e5 8f bd 64 e9 43 3d f5 f4 11 bd 17 1e 84 bd
       -0.07026274 0.04783 -0.035634 -0.06451052
0001b0 c7 b1 ce 3b 0a 57 29 bd 69 05 bd bd 00 d3 47 3d
       0.006307814 -0.041342773 -0.092295475 0.04878521
0001c0 b7 ca d1 bd 5a ff 07 bd 99 9c c2 3c 10 2b 48 3c
       -0.10243743 -0.033202507 0.023756312 0.012217298
0001d0 be 54 2b bc 94 2f 29 3d 9a 2e 87 bd 74 b8 29 be
       -0.010457216 0.04130514 -0.066006854 -0.1657427
0001e0 22 7f d8 3d 97 41 82 3b 7c f7 4a 3d af 34 37 bc
       0.10571124 0.003975104 0.049552426 -0.011181994
0001f0 c4 f3 4d bc 1f 70 c6 3d 43 d7 d6 3a aa 46 11 bd
       -0.012570325 0.09689354 0.0016391057 -0.03546778
000200 bb 76 5b 3d da 47 b7 3d 79 f2 4b 3d b9 03 ae bc
       0.053580027 0.089492515 0.049791787 -0.02124201
000210 44 7f d7 3d 83 6c 62 3d 6a 54 14 3e 08 2e 13 3e
       0.10522321 0.055279266 0.14485326 0.14373028
000220 98 a9 4f 3e 63 4c 50 bd b8 a2 a0 bd a3 57 92 3e
       0.20279539 -0.050854098 -0.07843536 0.28582487
000230 fd 0e 9f bc 24 cc 27 3c 95 63 c5 bc a2 e6 3a 3c
       -0.019416327 0.010241542 -0.024095336 0.011407526
000240 1b 0b 87 3d 2a 8e 67 3d b5 7b c8 3d 78 cb ac bd
       0.06593915 0.056532063 0.0978922 -0.08437246
000250 c6 20 08 bd de c7 14 be 4a af 49 be b8 95 b1 3d
       -0.03323438 -0.14529368 -0.19695774 0.08671135
000260 52 42 90 bd 53 b8 a0 bd db 47 b6 3d 5a b8 ff bd
       -0.070438996 -0.07847657 0.08900424 -0.12486334
000270 2e b3 d7 bd 0b ab e9 bd 53 c0 cd bd 48 63 82 3b
       -0.10532223 -0.11409577 -0.100464486 0.0039791204
000280 8c 03 15 3e c1 38 15 bd 92 5a 9b 3c c9 cf a4 bd
       0.14552134 -0.036431078 0.018964086 -0.080474444
000290 2c 66 e0 bc e0 09 72 bd f5 cc 74 3d 9f 18 05 3e
       -0.02739247 -0.05909145 0.059765775 0.12997673
0002a0 04 ab c3 3d f1 12 ae bd 10 53 69 3d 53 b0 9d 3d
       0.09554103 -0.084997065 0.05696398 0.07699647
0002b0 9d 93 cb bd a8 db b8 3d 66 13 ec bd f5 96 b0 3d
       -0.099402644 0.09026271 -0.115271375 0.08622543
0002c0 b3 6d 3c 3a e5 78 ea bb f6 94 4c 3d 0f ab 3b 3d
       0.00071879773 -0.007155525 0.049946748 0.04581743
0002d0 ef 15 39 3e e1 94 2a 3d f0 ae 9a 3c c0 ef ad bd
       0.18074773 0.04164589 0.018882245 -0.08492994
0002e0 c1 50 30 3e 1c 26 44 3e 21 e2 5c 3d e5 77 0e 3e
       0.17218305 0.19155163 0.05392659 0.13912924
0002f0 54 1a f2 3d a5 45 5a bd d9 b1 5e bd 5b 4d 89 3c
       0.11821428 -0.053289074 -0.054368827 0.016760519
000300 32 6c cb bd 0e ae 0d be 38 1b b3 3d 3c b7 9e bd
       -0.09932746 -0.13835928 0.08745426 -0.07749793
000310 59 49 49 be e1 9d 82 3d 2c e3 6d be 1c 6a 19 bc
       -0.19656886 0.06377769 -0.2323119 -0.009363677
000320 78 0f 71 bd 83 2a 01 be 4f 51 3e 3d 67 c2 74 3e
       -0.058852643 -0.12613873 0.04646426 0.23902284
000330 04 12 9c be 1a 89 ec 3c 96 59 cb 3d 9e 28 fe 3c
       -0.30482495 0.028873969 0.099291965 0.031025227
000340 6f 65 f7 3c 72 16 86 3d 4e fa 2a 3e 54 9f 43 be
       0.030199734 0.0654725 0.16697046 -0.19103748
000350 7d ff 36 3e c1 3e 08 3e 3e 43 20 bc ca 71 09 3e
       0.17870899 0.13305189 -0.009781657 0.13422313
000360 4e 0a e4 3d 34 71 1f bd 61 5d 3a be 4b a8 c8 bb
       0.11134778 -0.03892632 -0.18199684 -0.0061235777
000370 cf 7e 03 3d b7 61 0e 3d a9 ba 9e 3d dc a4 85 bd
       0.032103356 0.034761157 0.07750446 -0.06525585
000380 b2 f5 2e bc ca de 18 3c 54 6d e5 3d 75 4c 5f 3c
       -0.0106786955 0.009330461 0.11202493 0.013629069
000390 34 2e 7f 3d 51 63 1b be 34 12 c0 bd 56 9f 0c 3d
       0.062299922 -0.15174605 -0.09378472 0.034331642
0003a0 6e ca 54 be bf c0 e2 3d 27 b9 21 be b9 95 13 bd
       -0.20780346 0.1107192 -0.15793286 -0.03603146
0003b0 c3 1b 98 3d d2 e6 0f 3e 70 3d 23 bd 09 e8 4e bd
       0.0742717 0.14052895 -0.039853513 -0.050514255
0003c0 25 5e 20 bd de 3c 48 3e f7 cd e4 bc 1a ce 04 bd
       -0.039152283 0.19554469 -0.027930243 -0.032423116
0003d0 38 75 dd bd 45 08 0b 3e fc a0 f3 3d e6 4b 69 3d
       -0.10813373 0.13577373 0.1189594 0.056957148
0003e0 ec 25 9a bc 97 6e a3 3d 13 20 32 bd ce ca fa 3d
       -0.01881691 0.07980078 -0.04348762 0.12245713
0003f0 a3 63 46 be 7a cc c7 bc 45 ef 88 3c ed 23 56 3e
       -0.19373946 -0.024389494 0.016715655 0.20912142

rnn.weight_hh_l0 f4 [384, 128]
000000 1f 6d b1 bd 21 93 b3 bc 7d 12 bc bd e7 d5 05 3d
       -0.08663391 -0.021920742 -0.09183214 0.032674696
000010 d8 74 62 bd 05 50 ce 3d d8 a9 8a bc e2 17 70 3d
       -0.055287212 0.10073856 -0.016926691 0.058616526
000020 ea 7c 37 bb 40 9a 5f 3d 00 fa 69 bc cb f3 30 3d
       -0.0027998039 0.054590464 -0.014280796 0.04320125
000030 ff 37 b1 3d b4 0a 78 3d 1b ca 98 bc b6 02 15 be
       0.086532585 0.060557082 -0.018651059 -0.14551815
000040 21 2c a5 bd e8 a7 4f bd c4 dd 0e 3d d6 94 eb bd
       -0.080650575 -0.050697237 0.03487946 -0.115029976
000050 ce 0d 91 3d 37 df 02 3d 85 95 3f 3d 42 3b 05 3c
       0.07082711 0.031951156 0.046773452 0.008131804
000060 e9 ae 84 3d 0b 1e e3 3d d7 c5 1e bd c9 a8 9c bd
       0.06478674 0.110897146 -0.038762894 -0.07649381
000070 ec 78 63 3d 52 8d d4 bc 64 57 04 bd 2d 74 28 3e
       0.055535242 -0.025946293 -0.032309905 0.16450568
000080 52 71 b9 3d 1a 90 96 3d 5c b8 d9 3b e9 4c b6 3c
       0.09054817 0.07351704 0.006644292 0.02225347
000090 2c 63 9f bd 9e 2f 88 bd 6c c1 a4 bd 78 3d 8c bd
       -0.077825874 -0.06649707 -0.08044705 -0.06847662
0000a0 ec 0b fd 3d 0b 27 08 be 36 b0 66 3d 3d 78 40 be
       0.123557895 -0.13296144 0.05632039 -0.18795867
0000b0 74 50 d8 3d e8 fc 33 bc 4d d3 6f bc 5c 18 a1 bd
       0.1056222 -0.0109855905 -0.01463778 -0.07865974
0000c0 1f 79 12 3e 1f 38 a8 bd 2a d9 f9 bd 8c c7 f2 bc
       0.14304017 -0.08213829 -0.12199624 -0.029636167
0000d0 d1 0f b7 3d 53 55 9f bd a3 e6 d6 3d 1e 90 18 be
       0.089385636 -0.07779946 0.10493209 -0.14898726
0000e0 39 08 29 bd 25 54 a9 bd 95 05 a6 3d 51 8b 0f 3d
       -0.041267607 -0.082680024 0.081065334 0.03504497
0000f0 31 96 80 3d 31 d9 99 bd fc 95 69 bd ef 9e 5d bd
       0.06278647 -0.07512129 -0.057027802 -0.05410665
000100 fe fa 1e bd f6 19 4f 3b 31 a9 d3 bd 8c be 98 bd
       -0.038813584 0.0031601167 -0.10335005 -0.07458219
000110 e1 a4 04 bd 09 ee 6f 3d 36 84 bd bd 48 7b 97 bc
       -0.032383803 0.058576617 -0.09253733 -0.018491402
000120 66 9f c1 bd 11 1f c3 bc a9 06 f5 bd 8a fe 16 3d
       -0.09454231 -0.023818525 -0.11964161 0.03686384
000130 a3 90 9d 3c 63 1b ce 3d 37 22 a1 bc 0e f1 03 bd
       0.019234007 0.10063817 -0.019669635 -0.03221231
000140 9e 26 16 3e 0b e2 78 3d 53 0d 02 be 97 33 b3 3c
       0.14663169 0.060762446 -0.12700395 0.021875186
000150 b6 85 2b be 2f b1 a5 bd 8a 84 5b bd 07 39 42 bd
       -0.16750225 -0.08090436 -0.053593196 -0.047417667
000160 6d af 9f 3c f6 68 1c 3d cb b0 8c 3d 41 dd 8a 3d
       0.01949283 0.038186036 0.06869658 0.06780482
000170 26 dd bd 3d 46 ac 89 bd fa c5 ca bc a9 9a c8 3d
       0.09270696 -0.06722312 -0.024752606 0.09795124
000180 b1 84 15 3d 5c 17 98 3d 33 7c a0 3c a4 77 98 3d
       0.036503498 0.074263304 0.019590473 0.07444695
000190 3d 41 4c 3d 5d 5a ab bd 68 fd f9 3d d9 81 9c bc
       0.049866904 -0.08366845 0.122065365 -0.019104885
0001a0 7b ce 54 3d 66 1f fc 3c ee 83 f8 bc da 33 85 bd
       0.051954728 0.03077669 -0.030336346 -0.065040305
0001b0 81 1b 4e 3d ae 97 64 bc 53 bd f6 bc 54 df fa 3c
       0.0503192 -0.013952179 -0.030119574 0.03062407
0001c0 df 7e 4d 3e 3f 1f 15 3e 92 8f 13 3d 2e 80 02 3e
       0.20067929 0.145627 0.03602559 0.12744209
0001d0 dc ec 89 3d 6e be 3d 3c ab 7f 1c be d7 77 00 be
       0.067346305 0.0115810465 -0.15283076 -0.12545715
0001e0 fe 76 02 3e b5 09 1e bd 68 62 98 3d 47 6a ce 3d
       0.12740704 -0.038583476 0.074406445 0.100788645
0001f0 c9 67 42 bd 12 ee 9d 3d a2 7c 6d 3d d3 34 8e 3b
       -0.04746226 0.07711424 0.057980187 0.004339793
000200 21 9c b7 bc 4f 7b 03 bd 0b a4 02 bd d8 59 8f 3d
       -0.022413315 -0.032100018 -0.031894725 0.06999558
000210 eb 17 a7 3d 54 c8 c3 3d 50 2b 61 be c9 be 9b bd
       0.08158859 0.09559694 -0.21989179 -0.07604749
000220 e7 ec 4b 3e cc 2e d2 bd d4 e8 aa 3d 94 67 1b 3d
       0.1991459 -0.10262832 0.0834519 0.037940577
000230 2a ad 9a bd af 74 35 3d 17 d4 06 3e 76 b8 3d 3d
       -0.0755256 0.04430073 0.13166843 0.046318494
000240 5d f6 24 3e ed e9 92 bc d3 df fe 3b 19 8a 50 3b
       0.16109605 -0.01793381 0.007778147 0.0031820594
000250 d0 a9 02 be 4a ad 48 3d 60 66 67 3d 10 e7 b7 3d
       -0.12760091 0.048993386 0.056494117 0.089796185
000260 d7 90 9a 3c f1 c0 90 bc 31 f1 d5 bd 8d c8 dd bd
       0.018867893 -0.017670127 -0.10446394 -0.10829268
000270 ac 02 10 3d 4e f1 e8 3b 8b a9 46 be c6 fc 07 3e
       0.035158798 0.007108844 -0.19400613 0.13280019
000280 9b 58 0f be 37 a2 2f be 8e 10 f2 bd bc 83 97 3d
       -0.13998644 -0.17151724 -0.11819564 0.07398173
000290 fd 1d 4e be 34 89 ad 3d d3 49 b1 3d 6a 0b e7 3c
       -0.20128627 0.08473435 0.08656659 0.028203685
0002a0 6d 3c 70 bc 02 b1 07 bd f7 b9 02 3e f1 f0 dc bd
       -0.014662844 -0.033127792 0.12766252 -0.107881434
0002b0 77 6e bc bd 63 73 af bd 1f 7c 7e bc 2e 79 14 bd
       -0.09200757 -0.0856693 -0.015532522 -0.03624838
0002c0 91 c9 2b be 19 02 70 3d f9 48 eb bd 30 17 d2 bd
       -0.1677611 0.05859575 -0.11488528 -0.10258329
0002d0 d1 7c 06 be f3 1a c6 bc 58 d3 da 3c dc 1a 96 bd
       -0.13133551 -0.024182772 0.026712105 -0.07329342
0002e0 50 0d d9 bc 35 02 ae bc 4d 01 c7 3c 74 43 8a bc
       -0.026495606 -0.021241287 0.024292612 -0.016877867
0002f0 d8 ed 3f be ff 23 35 3c cc 2e a0 bd 43 aa a5 3c
       -0.18743074 0.011055945 -0.07821426 0.020222789
000300 e0 54 27 3e fe ba e6 bc 59 c7 64 bd da 07 ad 3d
       0.16340971 -0.028165337 -0.055854175 0.08448763
000310 ea 14 74 3d 7c e6 00 3e d9 ff 80 bd 08 d2 a3 3d
       0.059590258 0.12587923 -0.06298799 0.07999045
000320 72 c4 a2 bd 42 ef b4 bd 5e c6 71 bd b6 1a 98 3d
       -0.07947625 -0.08834697 -0.05902707 0.0742697
000330 f3 d9 34 3d 18 bc 94 3d fa 98 10 be 9c 40 5e 3c
       0.044153165 0.072624385 -0.14120856 0.013565209
000340 87 50 42 3d b1 4a b7 bc f4 12 f2 bd 51 57 0e bd
       0.047440078 -0.022374483 -0.11820021 -0.03475124
000350 98 a5 16 3d 62 1f c9 bd 1b 40 ff 3c e8 7e f7 3c
       0.036779016 -0.09820439 0.031158498 0.03021188
000360 b2 ac 83 bd 53 36 c5 bc d5 cd 16 3d b3 07 90 bd
       -0.064294234 -0.024073755 0.03681739 -0.070327185
000370 59 dd 0c bb 83 f2 e0 3b 5e 18 bc 3c dc 64 28 3e
       -0.0021494238 0.006864847 0.022960838 0.16444725
000380 2b fc 52 bd 80 66 ba 3d f5 86 93 3e b0 74 db bc
       -0.051510017 0.091015816 0.28813902 -0.02678904
000390 1e dd 8a bd 5c 82 7f bc 6e db 9b bd 22 68 0c 3b
       -0.06780456 -0.015595045 -0.07610212 0.0021424373
0003a0 62 be 05 be c9 5b e1 bd 2d 78 aa bd d8 3a a9 bd
       -0.13060907 -0.11003835 -0.08323703 -0.08263177
0003b0 d8 a3 f0 3b 21 b1 52 bb ca ff 59 3c bf bc 69 bd
       0.0073437504 -0.0032149034 0.013305614 -0.057064768
0003c0 ff 47 4c 3e 42 8b 74 3e 5e 7c 9e bd 49 14 21 bb
       0.1994934 0.23881248 -0.07738565 -0.0024578741
0003d0 8a c8 c9 bd 87 57 a0 bd 32 92 54 3d 46 e6 19 be
       -0.09852703 -0.078291945 0.051897235 -0.15029249
0003e0 2e 96 11 be c7 44 71 b8 ae 3f 12 3e 54 ef ff ba
       -0.14217445 -5.752293e-05 0.14282104 -0.0019526281
0003f0 09 5c 05 3e 72 32 13 bd c8 9c 1d 3e 3d b6 b5 bd
       0.1302339 -0.03593678 0.15391839 -0.0887265

rnn.bias_ih_l0 f4 [384]
000000 40 19 18 bb 7b 36 1f 3d 65 fd 5b bd fe d2 18 3d
       -0.002320841 0.038870316 -0.053708453 0.037310593
000010 5e 50 12 be 62 fa 83 3a de 22 21 3e 6c 3c 3c 3d
       -0.1428847 0.0010069127 0.15735957 0.04595606
000020 02 6d 3c bd a7 17 2b 3d e4 f2 7b 3d 5a 84 93 bd
       -0.046002395 0.041770604 0.061510935 -0.072029784
000030 a0 13 90 bd 2a 14 28 3d 69 1b 20 3d 59 93 aa bc
       -0.07034993 0.041034855 0.03908864 -0.020822214
000040 d2 f0 a5 bd 38 78 4e 3d a0 69 04 3e 5b 0d 33 3e
       -0.081025735 0.05040762 0.12930918 0.17485563
000050 fe 86 6c bd ce 46 0e bd 7c 0f 58 3d 26 50 e8 3d
       -0.057745926 -0.034735493 0.052749142 0.11343412
000060 fb 1e 86 3b 26 77 be bb a6 64 33 bd 3b 39 14 3e
       0.0040930486 -0.0058125434 -0.043797158 0.14474957
000070 32 25 52 3d 9a db 01 3e e2 c2 4b bd f9 1a 20 bb
       0.051305003 0.12681428 -0.0497464 -0.002443014
000080 f6 d8 c2 3a cf 33 89 3d f6 5e 22 3d ee 5b 1a 3d
       0.0014865685 0.06699335 0.039641343 0.037685327
000090 be da 61 3d 5a 26 49 bd e4 e1 d8 bd fe 7a 36 bd
       0.05514025 -0.04910884 -0.1058996 -0.04455089
0000a0 15 d8 aa bc 01 20 12 3d 77 92 34 3d 40 66 77 39
       -0.020854989 0.035675053 0.044084992 0.00023593847
0000b0 1a 0b 3b 3c bb f7 81 bc 73 fe bc bc 60 c5 24 3d
       0.011416221 -0.015865197 -0.02307055 0.040227294
0000c0 96 41 c8 3d 7c 75 80 bd e7 66 db bc 37 f6 28 bc
       0.097781345 -0.06272408 -0.026782466 -0.010312608
0000d0 65 62 a2 bd c8 e0 f5 3c ed 09 91 3c 8a 27 e0 bb
       -0.079289235 0.03001441 0.017704928 -0.006840651
0000e0 99 bb 8e 3c b5 46 00 be b4 6d a5 3d df 58 9b bd
       0.017423438 -0.12526973 0.08077565 -0.0758531
0000f0 b2 1e e5 3d a0 13 06 3c da f1 98 bd 4d 06 6e bd
       0.11187495 0.00818339 -0.074680045 -0.058111478
000100 bb ad 70 bc 03 09 3f 3d 5e f9 11 bc bd e0 e6 3d
       -0.014689858 0.046639454 -0.008909551 0.11273334
000110 f9 8a 33 3d 45 c6 c3 3b 07 62 cf 3d 00 3a a3 3d
       0.043833707 0.0059745633 0.10126119 0.07970047
000120 b6 72 20 bd e5 f2 94 bc a3 43 5c bd 38 85 c8 3b
       -0.039171897 -0.018182227 -0.05377544 0.0061193965
000130 ee 57 3a 3c 16 fa e4 bd 7c e3 b7 3c 50 35 93 3d
       0.011373503 -0.111805126 0.02244734 0.07187903
000140 25 95 b4 bd e6 91 05 3e 6f 38 50 bd 65 d7 48 bc
       -0.088175096 0.13043937 -0.05083507 -0.012258385
000150 59 97 97 bd c6 95 2f 3d 5b 6b 37 3d 16 2e 96 3d
       -0.07401914 0.042867444 0.044780117 0.07333009
000160 41 6c 2e 3c 76 99 7d bd 9b 34 54 bd e3 ed 38 bd
       0.010645927 -0.06191393 -0.05180798 -0.04514874
000170 6c 73 d4 3d b2 83 ea bd 49 2d cf bc 0d 85 93 bd
       0.103735775 -0.114509 -0.025290148 -0.07203112
000180 27 f4 61 3d 0e 41 3b ba 10 97 d3 bd 1d 64 b9 3d
       0.055164482 -0.0007143178 -0.10331547 0.09052298
000190 c4 af 86 bc 47 68 aa bd c1 a0 b5 bd ff 96 fa bb
       -0.016441233 -0.083206706 -0.08868552 -0.0076473947
0001a0 93 7b 73 3d 87 76 d4 3d 8f c9 a1 3c f0 60 97 3d
       0.05944402 0.1037417 0.019749431 0.07391536
0001b0 74 26 8b bd 35 f8 04 be 60 2d c4 3d f0 6f bc bd
       -0.06794444 -0.12985308 0.09578967 -0.09201038
0001c0 49 19 7d bb 21 69 b1 3d 21 7d a0 3d c5 1a 87 3d
       -0.0038619807 0.0866263 0.078363664 0.06596903
0001d0 37 51 c2 bd cc fa 93 3c f2 82 bb bc 75 f0 99 3d
       -0.09488147 0.018063925 -0.022889588 0.07516567
0001e0 3a 3d 1b 3d 8b 4b e2 3d 20 d7 2f bd bc 7a 0c 3d
       0.037900187 0.11049565 -0.04292977 0.034296736
0001f0 9c 30 9b bd d7 91 bc bc 8c 6b cf bd 11 3a 03 be
       -0.07577631 -0.02301876 -0.10127935 -0.1281512
000200 6d 54 46 3c 52 c6 5c bd 54 d2 82 3c 44 24 a5 bd
       0.01210509 -0.05390007 0.015969433 -0.08063558
000210 0c f7 2d 3d 66 cb 10 3c ff 63 c7 3d 76 41 f5 3c
       0.04247193 0.0088375565 0.097358696 0.02993844
000220 12 40 90 3c a4 51 68 3d 6f fc f5 3d 58 e8 46 bc
       0.017608676 0.056718484 0.120110385 -0.012140356
000230 25 c3 0f 3e 60 f0 43 3d a2 b5 43 3d 3b 62 71 3d
       0.14039285 0.04783666 0.04778064 0.05893157
000240 62 5f 01 3d 53 40 98 bd a5 31 04 be 73 34 4c 3d
       0.031585105 -0.07434144 -0.12909563 0.049854707
000250 94 92 54 3d cf 7d 5a 3e 38 46 4f 3d e6 c3 19 be
       0.0518976 0.21337055 0.050604075 -0.15016136
000260 16 40 76 bd a5 ff 55 3d 6c 23 61 3d 71 a7 5d bc
       -0.06011971 0.052245755 0.05496542 -0.013528691
000270 ba 83 a8 3c 07 53 31 3d c6 af b2 3d 40 3c bf b9
       0.020570625 0.04329207 0.087249324 -0.0003647525
000280 47 e0 8b 3c f3 a3 0f be f3 5d f6 3c c9 b7 cb 3d
       0.017074717 -0.14027385 0.030074095 0.099471636
000290 e1 fc 28 3b 1b f0 a6 3d eb 71 c7 3d b7 e7 22 3d
       0.0025785493 0.08151265 0.09738525 0.03977176
0002a0 f2 36 29 3d b9 cf 2f 3d 2a c7 ea 3d 1d 1b 33 3e
       0.041312166 0.04292271 0.11463769 0.17490812
0002b0 cf b4 e0 3d e0 9b ab 3b 8b 2a 15 3e 28 53 0f 3e
       0.109719865 0.0052370876 0.1456701 0.13996565
0002c0 5f 40 84 3d 36 c2 aa bd 23 08 80 3c b9 28 c5 3c
       0.0645759 -0.08337824 0.01562888 0.02406727
0002d0 9a 4b 9a 3d 81 27 93 bd 68 b2 4e bd 17 93 8b 3d
       0.07533951 -0.07185269 -0.05046311 0.068151645
0002e0 ea fc 5f 3d 65 49 63 3d 96 dc 8b 3c 44 63 c2 3d
       0.054684557 0.055489916 0.017072957 0.0949159
0002f0 fb 09 11 3d 97 3f 17 be 76 42 90 bd 94 a8 de 3d
       0.03540991 -0.14770351 -0.070439264 0.108719975
000300 ab f7 11 bc 74 06 b9 bd 9e e9 a7 3d f6 28 d9 bd
       -0.008909146 -0.09034434 0.08198856 -0.10603516
000310 1b 30 3e 3e f9 3b 4e 3d 3a 73 4c 3d f1 d2 04 bd
       0.18573038 0.050350163 0.049914576 -0.032427732
000320 07 76 5f 3d b0 78 3c 3a d9 f4 27 3d db 8e 55 3d
       0.05455592 0.00071896147 0.04100499 0.05213819
000330 7a 7c 1d 3e cd d6 08 3d 15 d3 17 bd bc 03 64 bd
       0.15379515 0.033407975 -0.037066538 -0.055667624
000340 ea d1 33 3e b3 11 16 3e da ca 5a 3d 5f 6b 7c 3d
       0.17560545 0.14655189 0.05341611 0.061625835
000350 8d c9 cb bd 77 ae 46 3e 52 f7 0a bc 3c 02 0a bd
       -0.09950552 0.1940249 -0.008481817 -0.033693537
000360 e2 c4 92 3c 56 e7 3d 3d 3f 50 02 3d e0 b6 95 3d
       0.017916147 0.046363197 0.03181481 0.07310271
000370 d3 b2 84 3d 92 26 ec 3c 6e 26 d2 bc 37 44 08 3e
       0.064794205 0.028826986 -0.02565309 0.13307272
000380 d5 76 fa 3d 4d 41 9f bd a0 06 00 3e 54 89 c5 3d
       0.12229697 -0.07776127 0.12502527 0.09645334
000390 2f 72 ab bc 9d 88 35 3d eb ea a9 3c e2 9c 3a 3c
       -0.02092847 0.044319738 0.0207419 0.011389943
0003a0 f3 ed cc 3d 89 a5 59 bd 8f 51 a8 bc c5 fd 89 3d
       0.10006323 -0.053136382 -0.020546703 0.06737856
0003b0 9f db 9b 3d 3d fb a5 3d 96 ce 6d 3d 22 d9 4a 3c
       0.07610249 0.081045605 0.058058344 0.01238087
0003c0 e1 b7 97 bd b7 f5 ac 3b 69 9f 47 3e e2 a0 5c bd
       -0.07408119 0.005278315 0.19494404 -0.053864367
0003d0 02 90 a3 bc 65 46 ae bd 70 4a 60 bd c3 53 3b bc
       -0.01996613 -0.085095204 -0.05475849 -0.011433545
0003e0 09 2b cf 3d bc 67 ea 3a 04 d7 ba bd d0 5e 9f 3d
       0.1011563 0.0017883698 -0.09123042 0.07781756
0003f0 0b d4 83 3c c6 8b 2a bc 40 7f 04 bd 12 19 24 3e
       0.01609232 -0.010409301 -0.032347918 0.16025189

rnn.bias_hh_l0 f4 [384]
000000 83 62 49 bd cf 32 e7 3c e5 d1 f3 3b 4a 02 2a 3e
       -0.049166214 0.02822247 0.007440793 0.16602436
000010 aa c5 34 bc c0 ab 48 3d a6 e9 1a 3e b3 7b 41 bc
       -0.011033455 0.04899192 0.15128192 -0.011809277
000020 5c 8c 95 3d 61 50 ef ba 9d d6 36 bc 7e be a2 bb
       0.07302162 -0.0018258208 -0.011159566 -0.004966556
000030 51 ca e8 bd 52 8b 75 3d a8 ed 19 3d 6d e7 49 3c
       -0.11366714 0.05994732 0.037580162 0.012323243
000040 f0 d7 3c 3c 7a 44 87 3d f0 94 ba 3d 1d 35 6c 3d
       0.011526093 0.06604858 0.09110439 0.05766784
000050 46 a7 80 bd e1 47 0b be ab 4b 2e 3d 33 53 85 3c
       -0.06281905 -0.13601638 0.04255263 0.016275024
000060 64 ce ae bd 23 b6 67 bc 05 fa 4e bd 7a f5 3b 3e
       -0.0853546 -0.014142546 -0.050531406 0.1835536
000070 5a a0 0b bd bf f0 b3 bc 79 c5 19 bd 15 3e 11 bd
       -0.03408847 -0.021965383 -0.03754184 -0.035459597
000080 95 9a 2b 3c 7e f9 47 bc 70 07 8f bd 77 25 96 3b
       0.010473867 -0.01220548 -0.069838405 0.004582103
000090 fd 9d a7 3b 79 c3 9c 3c 53 f6 03 3c 43 9b 90 bc
       0.005115269 0.019136177 0.008054334 -0.01765216
0000a0 9a 34 79 bd 3f 56 a5 bd 81 2a a7 3d 54 77 76 bd
       -0.06084118 -0.08073091 0.08162404 -0.060172394
0000b0 fc f5 12 bd be 3c 2d 3c 28 f3 80 bc f4 ed a2 bd
       -0.03587912 0.010573564 -0.015740946 -0.07955542
0000c0 0e 60 f8 3d 8c b9 9c 3d c0 9b db bd 6f e4 68 3d
       0.12127696 0.07652578 -0.10723066 0.056858476
0000d0 42 e0 f7 3b 43 ec 8c ba 32 64 28 3d 70 84 0c bd
       0.0075645754 -0.0010751564 0.04111118 -0.03430599
0000e0 12 8e d3 bc 52 df de bd 34 47 0d 3e 6f 3d f1 bc
       -0.02582458 -0.10882439 0.13796693 -0.02944824
0000f0 24 97 dd 3d 1c 80 e1 bd ed 08 c5 bd fb 55 18 bd
       0.108198434 -0.11010763 -0.09620843 -0.037191372
000100 80 5b 6e bc a1 bd 6e 3d c1 70 bf 3c 88 21 cb 3d
       -0.0145481825 0.058286313 0.023369195 0.09918505
000110 5c 11 af bd 9e ba 05 bd 80 07 0e 3d 1f 5b 9a 3d
       -0.08548233 -0.032648675 0.03467512 0.07536911
000120 e3 d9 85 3d 4a 4d 8a 3c a2 0d de bd 78 df 85 bc
       0.06535699 0.016882557 -0.10842444 -0.01634191
000130 f6 4e bf 3b a8 b5 de bc 8a c1 90 3d 6f 38 84 bc
       0.0058382703 -0.02718623 0.07068165 -0.01614019
000140 b1 d9 91 3c 88 70 0a 3e 20 03 4c 3c 41 81 c9 bd
       0.017803999 0.1351949 0.012451917 -0.09839106
000150 d1 e8 2d 3c 69 9f cc 3b b4 bc 31 bd 38 ce 22 3d
       0.01061459 0.006244589 -0.043392852 0.039747447
000160 d9 e8 41 3d 36 7c b4 bc 99 c2 41 bd d6 67 c7 bd
       0.0473412 -0.022031885 -0.047304723 -0.09736602
000170 f1 1a 1d 3d 55 e7 a7 bd 6f aa d2 bd 03 6c ac bd
       0.03835577 -0.0819842 -0.10286414 -0.08419039
000180 2c 02 a3 3d 9f 2d 25 bd 93 61 6b bd b6 22 c3 bc
       0.079593986 -0.04032671 -0.0574661 -0.023820262
000190 3b 72 86 bd bf dc 24 bd 1b c1 4b bd b0 9c 69 3c
       -0.065647565 -0.040249582 -0.049744707 0.014258549
0001a0 24 33 bd bc cb 6a 63 3d c2 9a 16 be 8b e9 83 3b
       -0.023095675 0.055521768 -0.14707473 0.004025643
0001b0 39 60 4d bd 20 b0 b0 bd 61 d9 ab 3b 9b 90 ce bd
       -0.050140593 -0.08627343 0.0052444194 -0.10086175
0001c0 bc 52 87 bc 14 96 ba 3d 94 80 b7 3d 6a 7b aa bc
       -0.016518943 0.091106564 0.08960071 -0.020810802
0001d0 bf 69 20 bd 91 5a 8c 3d 11 bf 2f 3d f6 1f 89 3d
       -0.039163347 0.06853212 0.042906824 0.06695549
0001e0 e9 97 8a bd 96 98 39 3d de 7a e2 bb d4 9e d7 bb
       -0.06767256 0.045311533 -0.0069116196 -0.006580213
0001f0 b0 b1 37 3d 7f e9 01 3d 78 34 f2 bd a0 e1 6d bd
       0.04484719 0.03171682 -0.11826414 -0.0580765
000200 f3 76 da 3b 13 01 36 3d 27 95 9b bd 67 0f 2e 3a
       0.006667012 0.04443462 -0.07596808 0.00066398684
000210 67 cf 4e 3c e6 f8 3e 3d 14 d9 b3 3d 80 61 bc bd
       0.012622691 0.046624087 0.08781639 -0.09198284
000220 13 10 8a 3c 9d aa 68 bd fc cc 0c 3e 7a 6d bc 3d
       0.016853368 -0.056803335 0.1375007 0.092005685
000230 61 63 f2 ba 5f 3c 22 3e c0 14 50 3d 52 72 07 3b
       -0.0018492752 0.15843342 0.05080104 0.0020667505
000240 e3 92 a1 3b e9 0a 20 3d 0f 99 1e 3c 0a 45 a8 bb
       0.0049308403 0.039072905 0.009680047 -0.005135183
000250 7d f0 9d bc b8 16 2a 3e 69 a0 b7 bc b7 b5 99 bd
       -0.019279713 0.16610229 -0.022415357 -0.075053625
000260 69 da 12 be 25 39 00 3e 30 d9 29 3e 15 bf 37 bd
       -0.1434113 0.12521799 0.16586757 -0.044859964
000270 51 f8 29 3d ba ff 43 3b 12 23 08 3d ef 9b eb bd
       0.04149658 0.0029907064 0.03323657 -0.11504351
000280 c1 de fa 3d 2f 0b a0 bd 6c c9 89 3d 81 51 cc 3d
       0.12249518 -0.07814633 0.06727871 0.09976483
000290 b4 5d ce bd e4 7c 6e 3b f7 0b f2 3d c8 de 9a 3d
       -0.10076466 0.0036390359 0.11818688 0.075620234
0002a0 74 b7 69 bd 67 4f a9 3d 83 9f 05 3c 87 b0 90 3d
       -0.05705972 0.08267098 0.008155706 0.0706492
0002b0 ee ab d9 3d 61 27 27 3d 62 a5 89 bc 55 be 9f bc
       0.10628496 0.04080904 -0.016802493 -0.019499937
0002c0 d5 05 8d 3d 18 93 61 bd ab a6 49 3d 84 f1 de bc
       0.06885878 -0.05507192 0.049231213 -0.027214773
0002d0 4b 91 fd 3d 2c 69 06 3d a6 18 1b be 69 c9 39 3e
       0.12381228 0.032815143 -0.15146121 0.18143238
0002e0 84 a4 e3 3c 9d eb 5e bd a7 ee 21 bd d3 d3 2d 3e
       0.027788408 -0.054423917 -0.039534237 0.16975336
0002f0 a8 fe 97 3b 5f 44 92 bd 15 90 57 3d 87 4a 2c bc
       0.0046385117 -0.07141947 0.05262764 -0.010515816
000300 fe 07 f8 bc 5d df 3b 3c a8 4d 3e 3d c1 27 f6 bd
       -0.030277248 0.011466828 0.046460778 -0.12019301
000310 f1 0c e5 3d 14 2c c3 bc 52 8a 17 3e 94 f5 76 bd
       0.11184109 -0.023824729 0.14798859 -0.060292795
000320 e6 3a 12 3e 51 06 d0 3d 5f 79 d8 3c af 50 69 3d
       0.1428028 0.10157455 0.026425062 0.05696171
000330 2b 05 40 3d e6 db c4 3d ba 3f df bd b0 4f 89 3d
       0.04687993 0.09612255 -0.10900827 0.06704652
000340 7b 74 0f 3e 00 94 2a 3e 00 76 44 bd d8 d1 07 3e
       0.14009278 0.1665802 -0.047964096 0.13263643
000350 db 40 33 3d 51 95 fa 3d 4c ad f6 3d ee 51 a3 bc
       0.043763023 0.12235511 0.120447725 -0.019936528
000360 1e 33 c0 3a 33 cf 17 3e 4d a8 f4 3c 28 04 00 3e
       0.0014663672 0.14825134 0.029865408 0.12501585
000370 91 d1 f8 bc 90 7b 96 3d 6e d4 cc 3d 1a cf 12 3e
       -0.030373367 0.073477864 0.10001455 0.14336815
000380 f9 c6 22 3e 6c fd 85 bd de 6f cc 3d 8e 2e e1 3d
       0.15896215 -0.06542477 0.099822745 0.10995208
000390 eb c2 5e 3d c2 99 81 3c 7a 77 93 bc bd ca f5 3d
       0.054385107 0.015820388 -0.018001307 0.1200156
0003a0 ea 61 28 3c c5 e6 a0 bd bd ea 7c bd 62 f5 ba 3c
       0.010277251 -0.07856516 -0.0617473 0.022822086
0003b0 69 a4 7d 3d 85 11 17 3e 62 56 2c bd 29 e2 3c 3c
       0.061924372 0.14752777 -0.04207457 0.01152853
0003c0 2a 59 97 3c d1 19 a0 bd 74 5e 41 3e 09 70 f7 3c
       0.018475134 -0.07817424 0.18883687 0.03020479
0003d0 b1 d0 b3 3d 16 f3 68 ba 4b 5d 21 bd c1 86 36 3d
       0.08780039 -0.000888632 -0.03939561 0.044562105
0003e0 bb 9b b9 3d 4b 87 ba 3d 96 9d 04 3c d2 73 51 3e
       0.09062906 0.09107836 0.008094212 0.20454338
0003f0 8a f8 49 bc fd 09 85 3b ea e5 06 bd 57 3d f6 3d
       -0.012327323 0.0040600286 -0.032934107 0.120234184

predict.1.weight f4 [24, 128]
000000 6a 95 c4 bc 42 50 2f bb c5 c6 e0 bb 5a c3 81 bc
       -0.023997027 -0.0026750718 -0.0068596327 -0.015840221
000010 d5 0b 26 bd 5e 85 b8 3c 14 ae 20 bd 6c a9 59 3c
       -0.040538628 0.022524532 -0.039228514 0.013285022
000020 41 b3 9a ba 3a 25 68 bd 73 3b c2 3c bb f1 d8 bb
       -0.0011802689 -0.056676127 0.023709988 -0.0066206134
000030 d8 1f c5 3c 86 6e 3b 3b d6 cc 7f 3c 27 fd 49 bd
       0.024063036 0.0028599813 0.015612802 -0.04931369
000040 b1 3e 2b 3d 3a 9d 00 3d 54 5d 18 bb eb ba 09 bc
       0.041807834 0.031399943 -0.0023248987 -0.008406381
000050 4d 49 8f bc 98 26 3f bc 6f f0 e4 bb 3a 1e 0b 3c
       -0.017491007 -0.011666916 -0.0069866697 0.008491093
000060 b4 17 b6 bc 0d 26 3c bb 61 63 3e bc 0b a7 dd bb
       -0.0222281 -0.0028709203 -0.011620373 -0.006764298
000070 ab 50 d0 bc 2c 1e 79 3b 01 29 3c 3d cb a4 ef bc
       -0.02542909 0.0038012369 0.045937542 -0.029253384
000080 b8 ad 5b 3d fe 2a 07 bd 1f 56 1a bd 7c 9e 07 bd
       0.053632468 -0.032999985 -0.037679788 -0.033110127
000090 5e 54 05 bd 5f 6e 05 3b 0f 06 51 bd ee b8 c4 3b
       -0.032551162 0.0020359976 -0.05103117 0.0060034906
0000a0 53 f8 9a bd 6c 66 6a bd 0b fc 39 3d cf 7f 54 3d
       -0.07566895 -0.057226583 0.045406383 0.0518797
0000b0 3c a0 dd 3d 5d 5a af bd 83 59 59 3c 38 31 99 3d
       0.10821578 -0.08562157 0.01326597 0.07480091
0000c0 9b ac df bc ca ff 05 3d ae 98 bd 3c e3 38 31 3d
       -0.027303984 0.032714643 0.023144092 0.043267142
0000d0 6f 71 b4 3a 8b 23 9a bc 2c e2 8e 3c 52 ff 94 bc
       0.0013766716 -0.018815776 0.017441832 -0.018188152
0000e0 65 46 1c 3d b3 cc d2 3c ac fd 17 3c 2f 4f 18 bd
       0.03815307 0.025732374 0.009276789 -0.03718489
0000f0 f6 51 c9 3b ac 93 1a bd 46 df a4 bc 29 f0 ed 3b
       0.0061438037 -0.037738487 -0.020125996 0.0072612953
000100 14 c0 90 bb 2f d1 9e bc 94 a0 00 bc f5 ab 22 3d
       -0.0044174287 -0.019386856 -0.007850785 0.039714772
000110 a0 4f 5a bc 5e d9 41 bc db 7e e6 bc 6b a6 e0 bc
       -0.013324648 -0.0118316095 -0.028136661 -0.027423104
000120 67 71 5f bd 70 89 e8 3c 2d 7a 22 3d e5 c4 de 3c
       -0.05455151 0.028385848 0.039667297 0.027193496
000130 59 94 6b bc d5 aa 15 bc f2 b1 a7 3c fd 89 f5 bb
       -0.014378631 -0.009134968 0.020470593 -0.007493256
000140 ce d0 ca 3b ef c8 0c bd fe b7 e9 3b c5 ba a8 bb
       0.0061894422 -0.034371313 0.0071325293 -0.005149218
000150 67 42 b9 bb 57 c2 59 bb ca f7 74 bd 7d 07 2f 3c
       -0.0056536677 -0.0033227408 -0.059806623 0.010682938
000160 41 c3 66 3c 6b b6 59 3b 00 55 cb bb 97 98 1b 3d
       0.014084638 0.0033220302 -0.006205201 0.037987318
000170 25 3a 7d bc 2a 48 38 bd 66 91 3e 3b 0d 75 c4 bc
       -0.015455757 -0.044990696 0.0029078363 -0.023981595
000180 82 b1 a8 bc 6b 87 ea bd 95 86 be 3c ec f6 45 3c
       -0.020592455 -0.1145161 0.023257533 0.012082797
000190 0c 3d 32 bc 88 5b e7 bc 79 cb 1e 3d 7d b2 aa bb
       -0.0108788125 -0.028241888 0.038768265 -0.0052092657
0001a0 a6 0c 40 3d 3a a9 04 3c f8 2e 9b bb c6 5f 87 3c
       0.046887062 0.008096987 -0.0047358237 0.01652516
0001b0 e3 83 d7 3d ad 10 f0 bc 7d 2b 63 3c 7d ca 94 3c
       0.10523202 -0.029304827 0.013865349 0.01816296
0001c0 46 1c bc bb e3 81 1b 3d 40 52 1b 3d f4 d7 0c bd
       -0.005740675 0.037965667 0.037920237 -0.034385636
0001d0 81 92 66 3c d7 02 46 3c de cb a2 bc b1 d6 02 bc
       0.014073015 0.012085638 -0.019872602 -0.007985757
0001e0 e4 f6 81 3b 4a cd f5 bc 8a 63 f1 bb 3e 40 ad 3d
       0.0039661992 -0.030005116 -0.0073666023 0.08459519
0001f0 53 9c df bc b9 5c 20 bc 2d 16 b5 bb be 4d 6b bc
       -0.02729622 -0.009787732 -0.005526325 -0.014361797
000200 cd 80 4a bc 25 3e 45 ba 35 77 e1 bc 90 b6 36 3b
       -0.01235981 -0.0007524214 -0.027522663 0.0027879812
000210 e1 9e 69 bd 26 26 33 3d 7d 3d 48 bd 47 0f 4d 3c
       -0.057036284 0.043737553 -0.048886765 0.012515849
000220 cc 17 ef bc 50 fb 8a bd 91 d1 b3 bc 05 e1 81 bb
       -0.029186152 -0.06786215 -0.021950515 -0.003963592
000230 20 c7 61 3d 97 47 14 3c 74 70 da 3c 9f c6 4d bc
       0.05512154 0.0090502715 0.02666495 -0.012559562
000240 67 7d 84 3d d8 81 2a bd 9e 9a a0 bc 71 dc 9c bc
       0.06469231 -0.041627735 -0.019604977 -0.019148083
000250 7e 87 8e bc 37 24 91 bd 13 1c 93 bb 51 a7 3b bb
       -0.017398592 -0.070869856 -0.0044894307 -0.0028633664
000260 97 38 91 bd c0 bc 14 bd e9 ef 8c bd 77 6b 67 bb
       -0.07090872 -0.03631282 -0.06881697 -0.0035311857
000270 fa c7 78 3d 0b cc da bc f4 31 69 3d 30 4e a2 bd
       0.060737588 -0.026708623 0.056932405 -0.07925069
000280 72 38 e0 3d 41 3d 8f bd f2 aa da bc f0 2f a6 bc
       0.10948266 -0.06994105 -0.026692841 -0.02028653
000290 ac 37 5f bd f2 f0 04 3d e6 6f ef 39 48 c6 84 bc
       -0.054496452 0.032456346 0.00045669003 -0.01620783
0002a0 64 26 68 bd e8 36 b9 bc be 62 98 3d 71 06 c7 3d
       -0.056677237 -0.02260919 0.074407086 0.097180255
0002b0 10 be dc 3d 89 7a de bd 20 57 09 bd be 14 0a 3e
       0.10778439 -0.108632155 -0.033530354 0.13484475
0002c0 03 95 c3 bc 81 5f 10 3c 58 50 29 bd 45 39 40 3d
       -0.023874765 0.008811832 -0.041336387 0.046929616
0002d0 b9 00 c6 bc 82 60 c9 3c 00 ff c2 3c 33 2f 06 3d
       -0.024170266 0.024582151 0.023803234 0.032759856
0002e0 60 e0 1c 3d d3 cf 08 3b 7c 26 d0 3c b3 13 ba bc
       0.03829992 0.0020875826 0.025408976 -0.022714471
0002f0 c0 8e 0a 3d ca ea 48 bd c8 f3 b3 3b cb 8c 43 3d
       0.033827543 -0.049052037 0.0054917075 0.047741693
000300 25 e0 36 3c 98 26 12 bd 81 92 98 3c 23 60 39 3d
       0.011161839 -0.035681337 0.018624546 0.0452577
000310 54 52 89 3c 73 6c c5 3b 82 cc dd 3b 74 53 60 bc
       0.01676289 0.006024891 0.006768764 -0.013691772
000320 22 94 83 bd 61 29 0b 3d 80 e0 42 3d db 55 8a bb
       -0.064247385 0.03397501 0.04757738 -0.0042216606
000330 90 a8 2b 3b b7 1a 9a bc 89 a3 30 3d 23 30 22 3d
       0.0026193 -0.018811567 0.04312471 0.039596688
000340 c2 b4 e5 3c 5d d1 91 bd 9b 30 11 3c b9 00 9b 3c
       0.028040294 -0.07120011 0.008861686 0.018921243
000350 5c 82 cd bd 55 5b 87 bd 9c f1 39 bd 50 72 50 bc
       -0.1003463 -0.06609217 -0.045396432 -0.012722567
000360 46 59 ab 3c 53 af 66 3d 90 1b 42 bd b3 fa 96 3d
       0.020916592 0.056319546 -0.047389567 0.07372036
000370 ae a8 9d bb c6 25 81 bc da 53 8e 3c 58 9e f1 bc
       -0.004811368 -0.015765082 0.017373968 -0.02949445
000380 cf 2f d8 3c b7 eb 29 be 54 b3 4b 3d 45 ad a0 3c
       0.026389984 -0.16593824 0.049731568 0.019613871
000390 5c ee 67 bb 6b 04 8e 3c 14 da 91 3d e6 3c 56 3b
       -0.0035389876 0.017336091 0.07121673 0.0032690107
0003a0 ac 8a 49 3d 30 9b 9f 3c 82 b1 9b 3c 21 38 23 3b
       0.049204513 0.019483179 0.01900554 0.0024905282
0003b0 3f 0b 0e 3e ff 8c be bc d0 af e0 3b 67 f4 27 bd
       0.13871478 -0.023260592 0.006856896 -0.041004565
0003c0 a0 96 8b bc f8 4a 3f 3d 58 fa e5 3c 35 56 4e bd
       -0.017039597 0.046702355 0.028073475 -0.050375182
0003d0 a9 86 dd 3c 67 6b 05 3d ec 37 bc 39 34 71 82 bc
       0.02704175 0.03257313 0.0003589982 -0.01592312
0003e0 03 a8 88 3d 66 46 40 bd f0 3c 21 3c 21 9a e6 3d
       0.06672671 -0.046942137 0.009841189 0.112598665
0003f0 f8 e0 41 bd ce db 8a bc 6f ac 35 bd 15 d0 33 bc
       -0.047333688 -0.016950514 -0.0443539 -0.010974904

predict.1.bias f4 [24]
000000 bd 11 eb 3c ea f5 bf bc a0 3f 1d 3c c4 67 d9 bb
       0.028694982 -0.02343269 0.009597689 -0.0066346843
000010 88 05 d4 bc 35 49 16 bd 8e 5f 8e 3c a5 e3 ca 3b
       -0.025881544 -0.03669091 0.017379548 0.006191688
000020 a9 96 f2 bc ae 6b 05 bd 41 95 06 bd 4f 58 39 bd
       -0.029612856 -0.032573394 -0.032857183 -0.045250233
000030 8d 36 47 bd 94 92 a2 bc d2 9d 2b 3d 80 a9 17 3d
       -0.048636008 -0.019845285 0.041898556 0.037026882
000040 e2 30 d6 3c 87 21 a1 3c db 69 ea bc b5 a1 38 3c
       0.026146356 0.019669307 -0.028614929 0.011269023
000050 bf 45 8d 3b 51 19 0e bd 08 69 a5 bc fa ce 4a bc
       0.004311293 -0.034692112 -0.020191684 -0.012378449
