results/mimic_iii_DLinear/2/checkpoint.pth (torch, 33638 bytes, 6 tensors)

Linear_Seasonal.weight f4 [48, 48]
0	0x3d867dea	0.06566985
1	0x3ccdcced	0.02512213
2	0xbb03474d	-0.0020031512
3	0x3b17fafe	0.0023190374
4	0x3c63480f	0.013872161
5	0x3c7efdef	0.015563472
6	0x3c0e8093	0.008697647
7	0x3c703196	0.01466026
8	0xbcc8a732	-0.024493787
9	0xbb683e1c	-0.003543741
10	0x3cc0d1ec	0.023537599
11	0xbc5eb71c	-0.013593461
12	0x3c4a533f	0.012348949
13	0xbbb3b221	-0.005483881
14	0x3cc523a2	0.024064843
15	0x3d059cde	0.032620303
16	0xbc22a0d0	-0.009926036
17	0x3c16b107	0.00919748
18	0x3cf79c05	0.030225763
19	0x3d2c9ad9	0.04213986
20	0xbbe1e09e	-0.0068932315
21	0xbc1d801e	-0.009613065
22	0x3ccf9ad8	0.02534239
23	0x3c674e22	0.014117749
24	0x3c94e3bf	0.018175004
25	0x3c69a175	0.014259686
26	0x3cc36645	0.023852477
27	0x3d0aa725	0.033850808
28	0x3cd774e8	0.026300862
29	0x3d6a6cb2	0.057232566
30	0x3d1c0750	0.03809291
31	0x3d31523a	0.043291308
32	0x3cdd7b8f	0.027036456
33	0x3d605e72	0.05477757
34	0x3d0f5e67	0.03500214
35	0x3c076952	0.008264856
36	0x3cfcb72c	0.030849062
37	0x3ccfda82	0.025372747
38	0x3bcec28b	0.0063098124
39	0x3c45c2c8	0.012070365
40	0x3cff949a	0.031198788
41	0xbceaf2f4	-0.028680302
42	0x3c9c0ad1	0.019048126
43	0x3ceffae1	0.029294433
44	0x3d4424f1	0.047886793
45	0x3be643ee	0.007027141
46	0x3d49ab74	0.049235776
47	0x3ce6d544	0.028177865
48	0x3c7c79c0	0.015409887
49	0xba4c3d36	-0.00077911036
50	0x3c56fbda	0.0131215695
51	0x3cd74dce	0.026282217
52	0x3d4bd603	0.049764644
53	0x3cf96bc6	0.030446898
54	0x3d1b68b9	0.03794167
55	0x3cf111a6	0.02942736
56	0x3ccefcbb	0.025266996
57	0x3ce875d3	0.028376495
58	0x3c105c33	0.0088110445
59	0x3d4eea6e	0.05051654
60	0x3c5d8fe5	0.013523077
61	0x3d28b706	0.04119017
62	0x3a915926	0.001108919
63	0x3c3bdc35	0.011466076
64	0x3d1c56e2	0.038168795
65	0x398d1091	0.0002690596
66	0xbca25c4c	-0.019819401
67	0x3cab6918	0.020924136
68	0xbca59474	-0.02021239
69	0xbb51ea81	-0.0032030644
70	0x3ca232c2	0.019799594
71	0x3c833718	0.016017482
72	0x3cf74e20	0.03018862
73	0x3d06dfe2	0.032928355
74	0x3c8147e1	0.015781345
75	0x3cb9700d	0.022636438
76	0x3bab6db4	0.0052315835
77	0x3c620a6b	0.013796429
78	0x3d0a7d16	0.033810697
79	0x3d32ee4d	0.043684293
80	0x3d03901c	0.032119855
81	0x3d35b354	0.044360474
82	0x3c92f4b0	0.017938942
83	0x3c168d24	0.009188924
84	0xbc112d76	-0.008860936
85	0x3ce8172e	0.028331365
86	0x3ba198b9	0.004931536
87	0x3ca744b0	0.020418495
88	0xbc78eddf	-0.015193432
89	0x3b357477	0.0027687827
90	0x3c819e63	0.015822595
91	0x3bc56dd9	0.0060250578
92	0x3ce0eaf1	0.027455779
93	0x3ce87983	0.028378254
94	0x3cf6ae56	0.030112427
95	0x3d77216b	0.060334604
96	0x3d400ad5	0.04688533
97	0x3d10f310	0.035388052
98	0x3d1fce57	0.03901514
99	0x3ca22d42	0.019796971
100	0x3b8dafdf	0.004323944
101	0x3d17c967	0.037057307
102	0x3c19060d	0.0093398215
103	0x3c183cfe	0.009291885
104	0x3d3655cf	0.044515427
105	0x3bc7d59f	0.0060984637
106	0xbd143ae3	-0.03618897
107	0x3d0d86b9	0.03455231
108	0x3cd82f04	0.026389606
109	0x3ceb18bb	0.028698316
110	0x3bc0e2a8	0.0058863945
111	0x3c25f460	0.010129064
112	0x3cb7b205	0.022423754
113	0xbabd6207	-0.001444877
114	0x3b65e103	0.0035076744
115	0xbc25c8ee	-0.010118706
116	0x3cf5037d	0.02990889
117	0x3cdba934	0.02681408
118	0x3c16165a	0.009160602
119	0x3d0bf127	0.034165528
120	0x3cecbf7f	0.028899906
121	0x3d15bb09	0.036555324
122	0x3cb1f918	0.021725222
123	0xbbc81b7e	-0.006106793
124	0x3c861f42	0.016372327
125	0x3b2176b5	0.0024637405
126	0x3c9395fc	0.018015854
127	0x3cd357f7	0.02579878
128	0x3d17ed00	0.037091255
129	0x3bf8bdf0	0.0075910017
130	0x3c752c53	0.014964181
131	0x3d554b22	0.052073605
132	0x3d127cb9	0.035763476
133	0x3d8957e1	0.06706215
134	0x3d291c90	0.041287005
135	0x3d12b8ce	0.035820775
136	0x3bf6ba1a	0.0075295093
137	0x3caea48a	0.021318693
138	0x3c4ed522	0.012624057
139	0x3d58d9af	0.052941974
140	0x3d257545	0.04039504
141	0x3d431923	0.047631394
142	0xba658636	-0.0008755656
143	0xbcc30058	-0.023803875
144	0x3d8a0c1b	0.0674059
145	0x3d322a95	0.04349764
146	0x3c9ff87b	0.019527664
147	0x3b8e2d96	0.0043389304
148	0x3ce32572	0.027727816
149	0x3d1d0652	0.038336106
150	0x3ca64258	0.020295307
151	0x3c9959fa	0.018719662
152	0x38c6884d	9.466764e-05
153	0x3b9f1119	0.004854333
154	0x3ab547d5	0.0013830612
155	0x3c61ccbd	0.013781724
156	0x3ce3ceaf	0.027808515
157	0x3cb6706f	0.02227041
158	0x3c462de4	0.012095902
159	0x3ab4d89d	0.0013797466
160	0x3c21ad50	0.009867981
161	0x3c1c52f4	0.009541262
162	0x3d407459	0.046985958
163	0x3cea931c	0.0286346
164	0xbc118d63	-0.008883807
165	0xbc15f1ca	-0.009151885
166	0xbb814a79	-0.0039456454
167	0x3c5a6ddc	0.013331857
168	0x3c15433a	0.009110266
169	0x3acead65	0.0015768228
170	0x3cb59d64	0.022169776
171	0xbbc72510	-0.0060774162
172	0x3b789704	0.003793181
173	0xbc18369a	-0.009290362
174	0xbb6c7bc0	-0.0036084503
175	0x3ca74475	0.020418385
176	0x3c16e93d	0.009210882
177	0x3cf3a281	0.029740574
178	0x3c8efc45	0.017454276
179	0x3b82a4af	0.003986917
180	0xbc81160c	-0.015757583
181	0x3ce68fd1	0.028144749
182	0x3d17e655	0.037084896
183	0x3d0a6faa	0.033797897
184	0x3d0efbec	0.03490822
185	0x3d1f2c49	0.038860593
186	0x3d7a559f	0.06111681
187	0x3d431ca6	0.047634743
188	0x3d8ca779	0.068678804
189	0x3d54f40d	0.051990557
190	0x3d3523a5	0.044223446
191	0x3c99b4da	0.018762995
192	0x3ca5afa8	0.020225361
193	0xbcdfa8ea	-0.027302224
194	0xbc2586ba	-0.010102922
195	0xbb9bf8c5	-0.0047598802
196	0x3cc429b2	0.023945663
197	0x3ca5f418	0.020257995
198	0x3cedf341	0.029046657
199	0x3cad451f	0.021151124
200	0xbc7cfdfa	-0.015441412
201	0x3c8dd9bc	0.017315738
202	0x3a60607f	0.0008559301
203	0x3d074723	0.033026826
204	0xbb826e43	-0.0039804294
205	0x3c57e7ac	0.0131777935
206	0x3c8a871b	0.016910126
207	0x3cccb4e3	0.024988597
208	0x3d596588	0.053075343
209	0x3d0301bb	0.031984072
210	0x3c6ad45b	0.014332856
211	0x3d89dde6	0.06731777
212	0x3c10f505	0.00884748
213	0x3cd84a26	0.026402544
214	0x3d2ce07c	0.042206272
215	0x3cec8468	0.02887173
216	0x3cfb8676	0.030703764
217	0x3d3dae59	0.04630885
218	0x3cef8146	0.029236447
219	0x3d453779	0.048148606
220	0x3c6dd482	0.014515998
221	0x3d0f3350	0.034961045
222	0x3d552ecd	0.052046586
223	0x3d037e09	0.03210262
224	0x3cef431e	0.029206809
225	0x3d9da32b	0.076971374
226	0x3d3a7082	0.045517452
227	0x3cba2d31	0.022726627
228	0x3c845eca	0.01615848
229	0x3d10eb77	0.035380807
230	0xbb14d0a9	-0.002270738
231	0x3b38a8f5	0.0028176878
232	0xbca78737	-0.020450218
233	0xbd2525b0	-0.040319145
234	0xbd1203ec	-0.03564827
235	0xbd32bf80	-0.04363966
236	0xbd067010	-0.032821715
237	0xbcb3fd2b	-0.021971306
238	0x3d112bb2	0.03544206
239	0x3d7698a1	0.060204152
240	0x3d4d70b1	0.0501563
241	0x3d933075	0.07186977
242	0x3d3baa67	0.045816805
243	0x3d7de96b	0.061990183
244	0x3c862ebe	0.01637971
245	0x3d3874f9	0.04503343
246	0x3c9e25fb	0.01930522
247	0x3d2ff451	0.042957608
248	0x3d8dc209	0.06921775
249	0xbb6e74f4	-0.0036385627
250	0xbaa1db06	-0.0012348599
251	0xbd39e22e	-0.045381717
252	0x3c68c85e	0.0142079275
253	0xbbc50f76	-0.006013806
254	0x3baffe60	0.0053709
255	0xbc77277a	-0.015085096

Linear_Seasonal.bias f4 [48]
0	0x3df0ec31	0.117638
1	0xbe020f84	-0.12701231
2	0xbdc4292b	-0.09578165
3	0x3d9aaee6	0.075528905
4	0xbdd4a5d4	-0.10383192
5	0x3dfd19b3	0.12358417
6	0xbd9a3502	-0.07529642
7	0xbd7f89e2	-0.062387355
8	0xbde720e6	-0.11285572
9	0x3d69c058	0.0570682
10	0x3cc96a34	0.024586774
11	0xbe1a6675	-0.15078147
12	0x3d9730e9	0.07382376
13	0x3ddf59c0	0.1090579
14	0xbcfa839a	-0.03058033
15	0xbd669fb8	-0.056304663
16	0x3dfe530e	0.12418185
17	0x3dd4329c	0.103612155
18	0x3d2c9ec8	0.042143613
19	0xbde56db7	-0.11202567
20	0x3d9d729d	0.076878764
21	0xbd932e25	-0.07186536
22	0xbdb2f40e	-0.08737956
23	0xbd871b53	-0.065970086
24	0x3d28bb36	0.041194163
25	0xbddce257	-0.107853584
26	0xbd8801f9	-0.06641001
27	0xbdeeb332	-0.116552725
28	0xbdbeb3ca	-0.09311636
29	0xbe0ff6d4	-0.14059001
30	0x3dbe3605	0.09287647
31	0xbe1198b6	-0.14218411
32	0x3d5b56ab	0.05354945
33	0xbd97ac06	-0.07405858
34	0x3dce1f8a	0.10064609
35	0x3d329935	0.04360314
36	0x3e14754c	0.1449787
37	0x3dbe3b64	0.092886716
38	0xbd8f8964	-0.07008627
39	0x3da5dbf9	0.08098597
40	0x3c886b92	0.016652856
41	0x3dd660c7	0.104676776
42	0xbcce1052	-0.025154267
43	0x3cb3e9fb	0.021962157
44	0xbdaac64b	-0.08338603
45	0xbdebb067	-0.115082555
46	0xbdd2eea9	-0.10299427
47	0x3dee8022	0.11645533

Linear_Trend.weight f4 [48, 48]
0	0x3a954053	0.0011386968
1	0xb965861e	-0.00021889104
2	0xba84b2d8	-0.00101241
3	0xbad4fb12	-0.0016249141
4	0xbb325fa9	-0.0027217662
5	0xbb7708e8	-0.0037694518
6	0xbb889ae4	-0.004168855
7	0xbb94b860	-0.004538581
8	0xbbb92d4a	-0.005651151
9	0xbbdc2d28	-0.00671925
10	0xbbe515a2	-0.006991104
11	0xbbf3d716	-0.0074414117
12	0xbc02a90a	-0.007974872
13	0xbc092f0a	-0.008373031
14	0xbc07685f	-0.00826463
15	0xbbf6a9d6	-0.0075275702
16	0xbbe86ea4	-0.0070932675
17	0xbbcc7747	-0.006239805
18	0xbbb96435	-0.0056576976
19	0xbb981f0c	-0.004642373
20	0xbb80ee5b	-0.003934664
21	0xbb152d5c	-0.0022762632
22	0xba863d64	-0.0010241685
23	0xba3efbb6	-0.00072854327
24	0x3a539db4	0.0008072511
25	0x3ac5c4a4	0.0015088511
26	0x3b20a33a	0.0024511353
27	0x3b492bbc	0.0030696234
28	0x3b7c4a67	0.0038496496
29	0x3b896043	0.0041923835
30	0x3bab0ad0	0.005219795
31	0x3bbda90f	0.0057879756
32	0x3bd92312	0.006626495
33	0x3bf705a5	0.0075385147
34	0x3c13c68f	0.009019508
35	0x3c19b739	0.009382063
36	0x3c225497	0.009907863
37	0x3c2bb707	0.010480649
38	0x3c33ee42	0.010982098
39	0x3c3a4815	0.011369725
40	0x3c3f769d	0.011685994
41	0x3c46b132	0.012127208
42	0x3c44fdac	0.012023371
43	0x3c47338b	0.012158285
44	0x3c46351a	0.012097621
45	0x3c492a8f	0.012278213
46	0x3c45ed3b	0.012080486
47	0x3c460125	0.012085234
48	0x3b401f2b	0.0029315453
49	0x3b44a258	0.003000399
50	0x3b32df9c	0.0027293926
51	0x3b235d85	0.0024927568
52	0x3b243839	0.0025057925
53	0x3b0d55c9	0.0021566025
54	0x3ad5b30b	0.0016303969
55	0x3ac35186	0.0014901615
56	0x3a7fb30a	0.0009754157
57	0x3a223fbf	0.00061893085
58	0x3a0473aa	0.00050526357
59	0x39a9ac3d	0.0003236252
60	0x398abd69	0.00026462533
61	0x397da9bc	0.00024191191
62	0x39c0fba9	0.00036808595
63	0x39c67d1a	0.0003785871
64	0x3907fb6d	0.00012968267
65	0xb97bfcca	-0.00024031397
66	0xb99262a9	-0.00027920798
67	0xb94d8a56	-0.00019601858
68	0xb92b904f	-0.0001636159
69	0x38e8f361	0.00011107955
70	0x39484c3d	0.00019101887
71	0x39b0e568	0.00033740257
72	0xb817f48b	-3.6228954e-05
73	0x39fcd123	0.00048221005
74	0x39dfd695	0.0004269375
75	0x3a624079	0.0008630823
76	0x3a7157b4	0.0009206489
77	0x3a661ca1	0.000877807
78	0x3ab37d82	0.001369402
79	0x3b011d77	0.00197014
80	0x3b1f0d69	0.0024269468
81	0x3b57da10	0.0032936372
82	0x3b84fc08	0.004058365
83	0x3b9a3a0d	0.004706627
84	0x3bb219b6	0.005435194
85	0x3bc63b15	0.0060495236
86	0x3bd90d48	0.0066238977
87	0x3bf02075	0.007328088
88	0x3c02b2de	0.007977216
89	0x3c0fcec1	0.008777321
90	0x3c1bee8b	0.009517322
91	0x3c2439b6	0.010023525
92	0x3c2aac6a	0.010417083
93	0x3c3275f2	0.010892378
94	0x3c37efd1	0.01122661
95	0x3c404b0f	0.011736645
96	0x3c3e2b5b	0.011607016
97	0x3c36c4cf	0.011155321
98	0x3c09d24a	0.008411953
99	0x3bfbd868	0.0076857097
100	0x3be88bb8	0.007096734
101	0x3bce496b	0.006295373
102	0x3bb4e5c5	0.0055205547
103	0x3b9739e5	0.004615056
104	0x3b85c5c1	0.004082412
105	0x3b67c306	0.0035364046
106	0x3b3794a0	0.0028012171
107	0x3b19b531	0.0023453946
108	0x3af0e120	0.0018377639
109	0x3ab4bd5b	0.0013789342
110	0x3a5a59d5	0.0008329426
111	0xb778e478	-1.4835146e-05
112	0xb9c52db8	-0.0003760883
113	0xba54e579	-0.00081213523
114	0xbab7455e	-0.0013982465
115	0xbad067a5	-0.0015900029
116	0x39c20ebb	0.00037013539
117	0xb9c9199c	-0.00038356788
118	0xba2cdcfc	-0.00065942085
119	0xb91356d2	-0.00014051356
120	0xba07989c	-0.0005172582
121	0xb9fa9d06	-0.00047800707
122	0xba3ca33d	-0.0007195955
123	0xba41d819	-0.0007394567
124	0xba90e000	-0.0011053085
125	0xbabf10db	-0.0014577167
126	0xbad895ac	-0.0016524098
127	0xbaca182a	-0.0015418578
128	0xbab342b1	-0.0013676492
129	0xbac7b485	-0.0015236294
130	0xbb0e3450	-0.002169866
131	0xbb313b9c	-0.0027043587
132	0xbb653a7d	-0.0034977489
133	0xbb8a665d	-0.0042236284
134	0xbba4949a	-0.0050225975
135	0xbbbb7394	-0.005720565
136	0xbbc54ea2	-0.0060213367
137	0xbbd6988d	-0.006548947
138	0xbbe11e8c	-0.0068700965
139	0xbbf0adfd	-0.00734496
140	0xbc030e5f	-0.007999032
141	0xbc106aa3	-0.008814487
142	0xbc1a0fab	-0.00940315
143	0xbc263929	-0.010145464
144	0x3c8e4cd5	0.01737062
145	0x3c864c7f	0.016393898
146	0x3c7a430f	0.015274777
147	0x3c646459	0.01393994
148	0x3c4fc914	0.012682218
149	0x3c397556	0.011319479
150	0x3c2a79bc	0.010405
151	0x3c17bdcd	0.009261561
152	0x3bf8a8ac	0.0075884666
153	0x3bc2a8d9	0.0059405384
154	0x3b90f61d	0.0044238702
155	0x3b4d6360	0.003133975
156	0x3aee1c78	0.0018166443
157	0x39be18e0	0.00036258157
158	0xba53dc3e	-0.000808183
159	0xbaf14ab8	-0.0018409109
160	0xbb2dc80c	-0.0026516942
161	0xbb7c1f01	-0.0038470628
162	0xbba19fc9	-0.004932378
163	0xbbb4e8b4	-0.0055209044
164	0xbbc472cb	-0.0059951297
165	0xbbc297d8	-0.0059385113
166	0xbbc21c75	-0.0059238025
167	0xbbbeac1b	-0.0058188564
168	0xbbc7e27d	-0.0060999976
169	0xbbc66bd8	-0.0060553364
170	0xbbbb5fe5	-0.0057182186
171	0xbbab19d7	-0.005221586
172	0xbb91c166	-0.0044481037
173	0xbb73f8dd	-0.0037227191
174	0xbb2954fe	-0.0025838013
175	0xbb027d9d	-0.0019911297
176	0xba79c53b	-0.0009527986
177	0x39dee062	0.00042510318
178	0x3ad7b7be	0.0016457958
179	0x3b2766b3	0.0025543391
180	0x3b560394	0.0032655941
181	0x3b832a44	0.004002841
182	0x3b9fb5bb	0.004873959
183	0x3bb412af	0.0054953913
184	0x3bd2519a	0.006418419
185	0x3beda62f	0.0072524766
186	0x3c05f1fa	0.0081753675
187	0x3c132be5	0.008982633
188	0x3c1bdf20	0.009513646
189	0x3c2527c5	0.010080283
190	0x3c2a129f	0.010380416
191	0x3c30e4d0	0.010796741
192	0xbb44556d	-0.0029958144
193	0xbb3e94da	-0.0029080422
194	0xbb332868	-0.0027337316
195	0xbb242627	-0.0025047155
196	0xb87d5ab0	-6.040436e-05
197	0x398c754a	0.00026790268
198	0x3a029bfd	0.00049823505
199	0x3a8ea89f	0.0010883993
200	0x3aa7d37e	0.0012804118
201	0x3ad03edc	0.0015887874
202	0x3b04e01e	0.0020275186
203	0x3b1a8f96	0.002358412
204	0x3b342550	0.002748806
205	0x3b559316	0.003258889
206	0x3b84bcb9	0.004050818
207	0x3ba0558e	0.0048930114
208	0x3bb38e42	0.005479605
209	0x3bc3090e	0.005952007
210	0x3bd5a227	0.006519574
211	0x3be0b575	0.006857569
212	0x3bec98c1	0.007220358
213	0x3c0528a9	0.00812737
214	0x3c0d97bf	0.008642136
215	0x3c149860	0.009069532
216	0x3c171933	0.009222317
217	0x3c1faea2	0.009746226
218	0x3c21a03d	0.009864864
219	0x3c22a477	0.009926907
220	0x3c2086bf	0.009797751
221	0x3c17e4a3	0.00927082
222	0x3c12330d	0.008923304
223	0x3c0ce91d	0.0086005
224	0x3c032d25	0.008006369
225	0x3c005c70	0.007834539
226	0x3c01db4b	0.007925819
227	0x3c02a5a1	0.007974059
228	0x3c054500	0.008134127
229	0x3c06e2b6	0.008232763
230	0x3c06af15	0.008220454
231	0x3c086209	0.008324155
232	0x3c07d6ec	0.008290987
233	0x3c0a7d5c	0.00845274
234	0x3c0ba949	0.008524247
235	0x3c0bbaa3	0.008528384
236	0x3c0e8ab8	0.008700065
237	0x3c1134b0	0.008862659
238	0x3c0f5759	0.008748853
239	0x3c0fecbf	0.008784472
240	0x3bed0b83	0.0072340383
241	0x3bcf6759	0.0063294587
242	0x3bb55082	0.005533279
243	0x3b925192	0.0044652903
244	0x3b4bdb4f	0.003110606
245	0x3b018cdb	0.0019767794
246	0x3a947883	0.0011327419
247	0xb9354ab8	-0.0001728934
248	0xba8cf80b	-0.0010755075
249	0xbafe1e06	-0.001938761
250	0xbb3e7117	-0.0029059106
251	0xbb7944c9	-0.0038035384
252	0xbb930390	-0.0044865087
253	0xbbae55a5	-0.005320268
254	0xbbd2ebf3	-0.0064368187
255	0xbbf200c0	-0.0073853433

Linear_Trend.bias f4 [48]
0	0xbdfa9123	-0.12234714
1	0xbd0c6bd6	-0.034282528
2	0x3e16ea42	0.147378
3	0xbd965166	-0.07339744
4	0xbdf8714b	-0.12130984
5	0x3dfd8099	0.12378044
6	0x3cf2d6a9	0.029643374
7	0xbca8a676	-0.020587187
8	0xbdf4ff81	-0.11962796
9	0xbe0d9b3d	-0.1382875
10	0xbd52f615	-0.051504213
11	0xbe0419a8	-0.12900412
12	0x3dda547d	0.10660646
13	0xbdbfc5a7	-0.09363871
14	0xbdff447a	-0.12464233
15	0x3d2a215e	0.041535728
16	0xbdee2261	-0.11627651
17	0x3ccfdc81	0.0253737
18	0xbd29a04a	-0.04141263
19	0xbbc2a3c6	-0.0059399335
20	0xbe189cfe	-0.14903638
21	0xbdf7937d	-0.12088678
22	0xbd39188b	-0.04518942
23	0xbdf98f71	-0.121855624
24	0x3c8c2407	0.017107023
25	0x3e0a06e8	0.13479197
26	0xbdf853fa	-0.12125392
27	0xbd3b7e3b	-0.04577468
28	0x3c812a42	0.01576722
29	0xbdc335b4	-0.095317274
30	0x3e202e48	0.15642655
31	0x3caee587	0.021349682
32	0x3e09b0d8	0.13446367
33	0xbd737424	-0.059436932
34	0x3bf68cc2	0.007524104
35	0xbda32582	-0.079661384
36	0xbd4a7489	-0.049427543
37	0xbddfa93c	-0.10920951
38	0x3d94e84a	0.07270868
39	0x3bef67d8	0.0073060803
40	0x3d496a40	0.049173594
41	0xbd0a4966	-0.033761404
42	0xbd6548e7	-0.05597773
43	0xbd2f5fc8	-0.042815953
44	0x3c3f27ff	0.011667251
45	0xbe0cc1e5	-0.1374584
46	0x3c210a98	0.009829186
47	0xbdfd3996	-0.12364499

projection.weight f4 [2, 1488]
0	0xbc837ed7	-0.016051693
1	0x3c271c25	0.010199581
2	0x3a052955	0.00050797063
3	0x3c1e72fc	0.009670969
4	0xbcb05f26	-0.021529745
5	0xbcae5bee	-0.02128407
6	0xbc281bdd	-0.010260549
7	0xbc758c58	-0.014987074
8	0x3b4b5060	0.003102325
9	0xbbefe555	-0.0073210397
10	0xbc9012ea	-0.017587144
11	0xbc5d8789	-0.013521084
12	0xbc892793	-0.016742503
13	0x3bb322fb	0.0054668165
14	0x3bf53d6f	0.00748413
15	0xbc6c8e21	-0.014438183
16	0x3b90ed10	0.0044227913
17	0xbb35e21f	-0.0027753187
18	0xbc676251	-0.014122562
19	0xbc653c7f	-0.013991474
20	0x3b9ba082	0.0047493586
21	0xbae928f1	-0.0017788691
22	0x3c690f8c	0.014224898
23	0x3d06c2d8	0.03290066
24	0xbbb59e09	-0.005542521
25	0x3c8ad2e4	0.016946264
26	0xbc6c21c5	-0.014412348
27	0xbc8bf341	-0.017083766
28	0x3bf89c16	0.0075869663
29	0x3bc8e3f8	0.0061306916
30	0x3c21caed	0.009875041
31	0xbcddf362	-0.027093593
32	0x3b42be2a	0.0029715397
33	0xbc7dc24a	-0.015488217
34	0x3c09dd7f	0.008414625
35	0x3bc2719b	0.005933953
36	0xbb4e19d0	-0.003144849
37	0xbc3aec8f	-0.011408939
38	0x3c20c942	0.009813609
39	0xbd2b3497	-0.0417982
40	0xbbcd924b	-0.006273543
41	0xbc1ea9f5	-0.009684076
42	0xbc690b16	-0.0142238345
43	0x3cdff0b1	0.02733645
44	0xbc00caf4	-0.007860888
45	0xbc80132a	-0.015634138
46	0xbbc8aad5	-0.0061238804
47	0xbce7ca78	-0.028294787
48	0xbc3ca4ac	-0.01151387
49	0x3a6e3d0c	0.0009088076
50	0xbc45c548	-0.012070961
51	0x3cb9461a	0.022616435
52	0xbbd39107	-0.0064564976
53	0xbc882550	-0.016619354
54	0xbd21cbb5	-0.03950091
55	0xbcc6cc0d	-0.02426722
56	0xbc74974c	-0.01492865
57	0xbc895a4b	-0.016766688
58	0xbcab267a	-0.02089237
59	0xbd2cf035	-0.042221267
60	0xbc6db1f0	-0.014507756
61	0xbbb80af9	-0.0056165424
62	0xba80d832	-0.0009830056
63	0xbcbefe92	-0.023314748
64	0x3c7cb221	0.015423329
65	0xbc6c9e07	-0.0144419735
66	0x3cab467c	0.020907633
67	0xbbf713be	-0.0075401952
68	0x3c02648c	0.007958543
69	0xbc21729a	-0.009853983
70	0x3c1a8389	0.0094307745
71	0x3abe75a7	0.0014530913
72	0xbc9890ee	-0.018623795
73	0xbc2edb77	-0.010672442
74	0x3ca9c492	0.020723615
75	0x3c906a42	0.017628793
76	0x3ca8c33c	0.020600908
77	0xbcb819d9	-0.022473263
78	0xbca435d6	-0.020045202
79	0x3c67a8bb	0.01413935
80	0xbc3b1375	-0.011418213
81	0x3c1f886c	0.009737115
82	0xbb14d196	-0.002270793
83	0x3ca5662c	0.02019032
84	0x3c073f54	0.008254845
85	0x3b9c4513	0.0047689765
86	0x3ceb15f5	0.028696993
87	0xbc4ab8b4	-0.012373138
88	0xba0ecf0b	-0.0005447722
89	0x3c09645c	0.008385744
90	0x3ac027da	0.0014660314
91	0xbb9500bd	-0.004547207
92	0x3c43ea74	0.011957753
93	0xbcba9b65	-0.022779176
94	0x3c272026	0.010200536
95	0x3c88ce7c	0.016700022
96	0xbce79a84	-0.028271921
97	0x3d14ed8b	0.03635935
98	0x3c40d213	0.011768836
99	0x3b04b5e1	0.002025001
100	0xbccd3c69	-0.02505322
101	0xbbecbc38	-0.007224586
102	0xbc599856	-0.013280949
103	0xbbe20a72	-0.006898218
104	0xbc3cce89	-0.011523851
105	0xbcac62dc	-0.021043234
106	0x3b90eb87	0.0044226083
107	0x3c774729	0.0150926495
108	0x3c75925c	0.014988508
109	0x3bfcf214	0.0077192876
110	0xbc56be22	-0.013106855
111	0xbcd94284	-0.026520975
112	0x3c2ab474	0.010419
113	0x3cd8816f	0.026428906
114	0x3ae5c53c	0.0017530094
115	0x3c96dc03	0.018415457
116	0xbc96d395	-0.018411437
117	0x3cbbc326	0.022920202
118	0xbd09c771	-0.033637468
119	0xbc763e57	-0.015029511
120	0xbb1e8d3d	-0.0024193071
121	0xbc55b339	-0.013043218
122	0x3c7617ca	0.01502032
123	0x3c133599	0.008984947
124	0xbd0c2a04	-0.034219757
125	0xbcb2e81b	-0.021839192
126	0xbc8c96ac	-0.01716169
127	0x3bedc462	0.0072560767
128	0xbc62e962	-0.013849588
129	0x3c92fd18	0.01794295
130	0xbc96a49d	-0.01838904
131	0x3c3934db	0.011304106
132	0xbba13cdb	-0.0049205846
133	0x3c519c3e	0.012793599
134	0xbc78d646	-0.0151878055
135	0xbc1b2fc7	-0.00947184
136	0x3b284718	0.002567714
137	0xbc8e4146	-0.01736511
138	0xbcda08cb	-0.026615521
139	0xb96e076b	-0.00022700212
140	0xbcf18299	-0.02948122
141	0xbc181f0d	-0.009284747
142	0xbd015c4f	-0.031582173
143	0x3b8c039f	0.0042728926
144	0xbc205e0e	-0.009788049
145	0xbc757e4c	-0.014983725
146	0x3be268eb	0.00690948
147	0x3aca5100	0.0015435517
148	0xbbdda6dd	-0.0067642764
149	0xbcfcd5d7	-0.030863686
150	0x3bd33203	0.006445171
151	0xbd04200b	-0.03225712
152	0x39f54c31	0.00046786809
153	0xbceca5b5	-0.028887609
154	0x3c79a377	0.015236727
155	0x3c62e0ad	0.013847512
156	0x3b39ec71	0.002836969
157	0x3d018730	0.031623065
158	0x3cd2c2f9	0.025727736
159	0xbabf8827	-0.001461272
160	0x3d0a59a1	0.033776883
161	0x381d8bdb	3.7561967e-05
162	0xbc61b871	-0.013776884
163	0x3cad941b	0.021188786
164	0x3c03f513	0.008054036
165	0x391ee60b	0.00015153752
166	0x3acfc24e	0.0015850754
167	0xbc8ec937	-0.017429931
168	0xbc459abc	-0.012060817
169	0x3bec00fc	0.007202266
170	0xbc084e8a	-0.008319506
171	0xbbe24136	-0.0069047464
172	0xbc998432	-0.018739793
173	0x3c068fcc	0.008212995
174	0x3c869607	0.01642896
175	0x3a4b5a7f	0.00077573204
176	0x3aae7d72	0.0013312532
177	0x3cb29efe	0.021804329
178	0xb9aa8649	-0.00032524977
179	0x3d3ef74d	0.046622563
180	0x3d02ab5e	0.03190171
181	0xbb118939	-0.0022207035
182	0x3d0a82be	0.03381609
183	0x3c57ec35	0.013178875
184	0x3bc67c43	0.0060572936
185	0x3ce07901	0.02740145
186	0x3ca9b659	0.020716833
187	0x3af219f5	0.001847087
188	0xbb33aff1	-0.0027418102
189	0x3a1aeade	0.0005909632
190	0xbc5817bb	-0.013189252
191	0xbc9f9cc4	-0.019483931
192	0x3af02b1f	0.0018323398
193	0xbce89ecd	-0.028396035
194	0xbc5f3ac1	-0.013624848
195	0xbccac467	-0.024751855
196	0xbcf0dafb	-0.029401293
197	0x3c1d988e	0.009618891
198	0xbcc7da31	-0.024396034
199	0xbbc30074	-0.0059509818
200	0xbbba8616	-0.005692254
201	0x3bfdbf15	0.007743726
202	0x3bc55e84	0.00602323
203	0x3ac52a90	0.0015042592
204	0xbb8565f1	-0.0040709903
205	0xbcf6f68f	-0.030146865
206	0x3ccb60de	0.024826463
207	0x3b4cd5e1	0.0031255411
208	0x3c3323e2	0.010933848
209	0x3b8bfd43	0.0042721345
210	0x3b12640a	0.002233746
211	0x3cbca1fe	0.023026463
212	0x3b85f31c	0.004087819
213	0xbb36d8b9	-0.0027900173
214	0xbaa38f70	-0.0012478661
215	0xbd2eae7f	-0.04264688
216	0xbc494d26	-0.01228646
217	0xbd141021	-0.036148194
218	0xbcb5c420	-0.022188246
219	0x3d0c4522	0.034245618
220	0xbc217adb	-0.009855951
221	0xbbc35e88	-0.0059621967
222	0xbc7d88d8	-0.015474521
223	0xbb1e0002	-0.0024108891
224	0xbb95ae9b	-0.0045679337
225	0xbd3244f5	-0.043522794
226	0x3c7dfa14	0.015501518
227	0xbce23228	-0.027611807
228	0x3c7f226a	0.01557217
229	0xbcc5ae77	-0.024131043
230	0xbcda37fc	-0.026638024
231	0xbc87dc5f	-0.016584573
232	0xbd198e8a	-0.03748945
233	0xbbaa45ef	-0.005196325
234	0xbbcaacba	-0.0061851414
235	0x3c2634c0	0.0101444125
236	0xbd1a1be2	-0.037624247
237	0x3bc1638d	0.00590176
238	0x3c0435b9	0.008069449
239	0xbc9d7fca	-0.019225974
240	0x3c5ac55a	0.013352716
241	0x3ca93f67	0.020660115
242	0x3b87d77c	0.004145561
243	0xbc85a55f	-0.016314207
244	0xbce3388f	-0.02773693
245	0xbcbe722c	-0.0232478
246	0xbc39d4ab	-0.011342208
247	0x3ccce8b2	0.025013302
248	0xbcfa4dad	-0.030554617
249	0xbcdd6813	-0.027027166
250	0xbd1296b4	-0.035788253
251	0xbc29b2aa	-0.010357538
252	0x3ba34040	0.0049820244
253	0xbcd00790	-0.025394231
254	0xbc4ba005	-0.012428288
255	0xbcb5b7ca	-0.022182364

projection.bias f4 [2]
0	0x3cd442d6	0.025910776
1	0xbc9d0d78	-0.019171461
