results/mimic_iii_DLinear/1/checkpoint.pth (torch, 33638 bytes, 6 tensors)

Linear_Seasonal.weight f4 [48, 48]
0	0x3d6c46cd	0.05768471
1	0x3c615898	0.013754033
2	0xbc581836	-0.013189366
3	0xbaaaee0f	-0.0013040918
4	0xbc56ab3c	-0.013102349
5	0xbcb8aa96	-0.02254228
6	0xbcc993f8	-0.02460669
7	0xbcd2425c	-0.025666408
8	0xbc6b8cad	-0.014376801
9	0x3c2e8b21	0.010653288
10	0xbc82ad7b	-0.015951863
11	0x3b257b64	0.0025250548
12	0x3d43a8e9	0.047768507
13	0x3ce01978	0.027355894
14	0x3c36e4fd	0.0111629935
15	0x3d5abc33	0.053402137
16	0x3d19d0ce	0.037552647
17	0x3c82e419	0.015977906
18	0x3d4debc7	0.050273683
19	0x3d79baf3	0.060969304
20	0x3c8f2910	0.017475635
21	0xbcea8fb0	-0.028632969
22	0x3c66be55	0.014083465
23	0x3cff5dab	0.031172594
24	0x3b476686	0.00304261
25	0xbd03b2ad	-0.03215282
26	0x3bb38eeb	0.0054796836
27	0xbc55e8b9	-0.013055974
28	0x3c07ce21	0.008288891
29	0x3c5d5eb1	0.013511346
30	0x3ca6018a	0.020264406
31	0xbc59d9a7	-0.013296521
32	0x3c1cefa3	0.009578618
33	0x3cceb86f	0.02523443
34	0x3c289274	0.010288823
35	0x3bfcb668	0.007712174
36	0x3c0ffdec	0.008788567
37	0x3d077b8f	0.03307682
38	0x3ad774c6	0.0016438
39	0x3bd5920e	0.006517655
40	0xbce56ca6	-0.02800591
41	0x3c87934e	0.016549733
42	0x3cf3c5a8	0.029757336
43	0x3d2c06f0	0.041998804
44	0x3d9ea73a	0.0774674
45	0x3d92f2a2	0.07175185
46	0x3d3c4141	0.04596067
47	0x3dbb1aa6	0.09135942
48	0x3d1ed842	0.03878046
49	0x3d04ba09	0.03240398
50	0x3d471299	0.04860172
51	0x3d086797	0.033301916
52	0x3d667128	0.056260258
53	0x3d46a21a	0.048494436
54	0x3d167be0	0.03673923
55	0x3d20a4e2	0.039219745
56	0x3ccd7f6b	0.025085172
57	0x3c5e9ec6	0.013587659
58	0x3b867706	0.004103544
59	0xbc781135	-0.015140821
60	0xbd033dd0	-0.03204137
61	0xb9326416	-0.00017012688
62	0x3c9cfa91	0.019162448
63	0x3ac1f376	0.0014797288
64	0x3cb439e5	0.022000263
65	0x3d041187	0.032243278
66	0xbae807ef	-0.001770256
67	0xbca6902d	-0.02033242
68	0x3b3075c9	0.0026925674
69	0x3d1d4c2b	0.038402718
70	0x3d203852	0.03911621
71	0x3ca89cf9	0.020582663
72	0x3cbce490	0.023058206
73	0x3d140de6	0.036146067
74	0x3c63fc8d	0.013915193
75	0xbcb5953b	-0.022165885
76	0x3d124a3d	0.03571533
77	0x3b902478	0.0043988787
78	0x3c8425e0	0.016131341
79	0x3d37fc54	0.044918373
80	0x3ccd62b0	0.025071472
81	0x3d0a1ba2	0.03371776
82	0x3caac473	0.020845627
83	0x3c6c74b0	0.014432117
84	0xbc882d16	-0.016623061
85	0xbc2a7305	-0.010403399
86	0x3c79a2a5	0.015236531
87	0x3c7fb3cf	0.015606835
88	0xbc100e8f	-0.008792534
89	0x3c32175a	0.010869825
90	0x3cc3b298	0.023888871
91	0x3c882311	0.016618283
92	0x3ce6f5f8	0.028193459
93	0x3cf55e3f	0.029952167
94	0x3d1bbce8	0.038021952
95	0x3d8e5282	0.06949331
96	0x3d5fc5b4	0.054631904
97	0x3c19c0ac	0.009384315
98	0x3cad71d2	0.021172438
99	0x3c7e1fbe	0.015510498
100	0x3cbe6406	0.023241054
101	0x3d2908d7	0.041268196
102	0x3d38421d	0.044984926
103	0x3d0440f4	0.032288507
104	0x3d05fd42	0.03271223
105	0x3d0d5c47	0.03451183
106	0x3c4c4825	0.0124683725
107	0x3c288fb1	0.010288165
108	0xbba3891c	-0.00499071
109	0x3c9c7c37	0.019102199
110	0x3bc875ee	0.006117574
111	0xbc3f92ca	-0.011692712
112	0x3cdf4655	0.027255217
113	0x3b31adc0	0.002711162
114	0x3c5d9fc1	0.013526858
115	0xbcafbb80	-0.021451712
116	0xbd319254	-0.04335244
117	0x3b07f740	0.0020746738
118	0x3ce3d428	0.027811125
119	0x3ba03e24	0.0048902202
120	0x3c8f3617	0.017481847
121	0x3d3408d7	0.043953743
122	0x3d187ce9	0.0372285
123	0x3b04820d	0.0020219118
124	0x3c127e09	0.008941182
125	0xba39fc4a	-0.0007094784
126	0xbc29f462	-0.010373207
127	0x3d3776a6	0.044790886
128	0x3d3a3ee5	0.045470137
129	0x3d2d1e16	0.04226502
130	0x3cd436db	0.025905063
131	0x3cf3bf9e	0.029754456
132	0x3c371a07	0.011175639
133	0x3d24af19	0.04020605
134	0x3cacbc22	0.021085802
135	0x3c304490	0.010758534
136	0x3c5710e9	0.01312659
137	0x3c9b0f65	0.01892824
138	0x3d898069	0.067139454
139	0x3d71a4ce	0.05899506
140	0x3d876dc1	0.06612731
141	0x3d21dc04	0.039516464
142	0x3c601525	0.013676916
143	0xbc800d6a	-0.015631396
144	0x3d06d9e6	0.032922648
145	0x3c8fc872	0.017551634
146	0x3c0ddb1c	0.008658197
147	0xbc086200	-0.008324146
148	0x3b33a9cc	0.002741444
149	0x3af20caf	0.0018466915
150	0x3ccbc68f	0.024874954
151	0x3d8ae553	0.067820214
152	0x3d749333	0.059710693
153	0x3d3b8413	0.045780253
154	0x3c671f76	0.014106622
155	0x3d644c46	0.055736803
156	0x3d6b5e43	0.05746294
157	0x3c95eb7a	0.01830076
158	0x3c5e421a	0.0135655645
159	0x3be18edc	0.0068834852
160	0x3d072dc2	0.033002622
161	0x3d13b97c	0.036065564
162	0x3cf2a2f2	0.029618714
163	0xbbba5350	-0.005686201
164	0x3d05ed22	0.03269685
165	0x3c2912ad	0.010319394
166	0xbafd1ed2	-0.0019311553
167	0x3d2ab411	0.04167563
168	0x3ca39edc	0.019973211
169	0x3bf4defc	0.007472871
170	0x39b97895	0.0003537579
171	0x3c67c517	0.014146111
172	0x3d58c1f1	0.052919332
173	0x3d1121c4	0.035432592
174	0x3c4a6a20	0.012354404
175	0x3cb67104	0.022270687
176	0x3ce89ec7	0.028396023
177	0xbbe62afc	-0.007024167
178	0x3d1eba99	0.038752172
179	0x3d6bbcab	0.057552975
180	0x3d6a9750	0.05727321
181	0x3d7f216d	0.062287737
182	0x3d25fca8	0.040524155
183	0x3c2a039c	0.010376837
184	0xbc30b71d	-0.010785845
185	0x3c885e00	0.016646385
186	0xbc9d0419	-0.019166993
187	0xbbc7de3c	-0.0060994904
188	0xbc942420	-0.018083632
189	0x3be2e8e3	0.006924735
190	0xbbf7eefe	-0.007566332
191	0xbca726ab	-0.02040418
192	0x3bcc5550	0.006235756
193	0x3d2c2a06	0.042032264
194	0x3c922c02	0.01784325
195	0x3ce5f3b0	0.0280703
196	0x3d9032e8	0.070409596
197	0x3cfb18fd	0.030651564
198	0x3b130d32	0.0022438285
199	0x3c32dad1	0.010916428
200	0x3b85be0f	0.0040814946
201	0x3cd33495	0.025781909
202	0xbb568d33	-0.003273797
203	0x3ca3323d	0.019921416
204	0xbbcb297a	-0.0062000128
205	0xbc3fc28a	-0.011704097
206	0x3c2a1481	0.010380865
207	0x3d56febd	0.05248903
208	0x3d2660b4	0.040619567
209	0x3d8dbc3b	0.06920668
210	0xbb6d796a	-0.0036235698
211	0x3d265134	0.040604785
212	0x3d657497	0.056019392
213	0x3d3f300e	0.046676688
214	0x3d4c9159	0.0499433
215	0x3d5a9da4	0.053372994
216	0x3cefb8c1	0.029262902
217	0x3c138763	0.009004447
218	0x3b739a0f	0.0037170683
219	0x3ca403c8	0.020021334
220	0x3cc20822	0.023685519
221	0x3c2de6d6	0.010614118
222	0x3d4ef10e	0.050522856
223	0x3c9d371f	0.019191323
224	0x3bb489c4	0.005509587
225	0x3cbd04a9	0.023073511
226	0x3d4dce59	0.050245617
227	0x3d03670e	0.032080702
228	0x3d5c534d	0.05379038
229	0x3d020e66	0.031752013
230	0x3d4598ed	0.048241545
231	0x3cb050ca	0.021522898
232	0x3ccf5dd0	0.025313288
233	0x3cba3d45	0.022734294
234	0xbc96d47f	-0.018411873
235	0xbd1da75d	-0.03848969
236	0xbd43a616	-0.047765814
237	0xbcaf8598	-0.021426007
238	0xbc605225	-0.01369146
239	0x3cbd0ed7	0.023078365
240	0x3d0194c7	0.031636026
241	0x3b1c000c	0.002380374
242	0x3cb39c5f	0.02192515
243	0x3cc742ea	0.0243239
244	0x3d0f6428	0.035007626
245	0x3d4bec25	0.04978575
246	0x3d72cad5	0.059275467
247	0x3d43bf48	0.047789842
248	0x3d2f41e6	0.042787455
249	0x3d2d32d6	0.04228481
250	0x3cadbdfa	0.021208752
251	0x3c86b826	0.01644523
252	0x3c9c464c	0.019076489
253	0x3cc95a04	0.024579056
254	0x3c044907	0.008074052
255	0xbd069e80	-0.032866

Linear_Seasonal.bias f4 [48]
0	0xbd91d892	-0.07121386
1	0xbc9e442a	-0.019319613
2	0x3bcf24b9	0.0063215164
3	0xbca56140	-0.020187974
4	0xbd12f421	-0.03587735
5	0xbce76dbc	-0.028250568
6	0xbe067381	-0.13129999
7	0x3cdc6ba5	0.026906798
8	0xbdbad869	-0.09123308
9	0x3dede9e5	0.116168775
10	0x3d9edf19	0.07757396
11	0x3d3c5b61	0.045985583
12	0xbcb0e5b7	-0.021593912
13	0xbe1243b2	-0.14283636
14	0x3da3ba16	0.079944775
15	0xbe081edb	-0.1329302
16	0x3aeac947	0.0017912769
17	0x3d307ca7	0.043087628
18	0x3d863886	0.0655375
19	0x3d925136	0.07144396
20	0x3cfc8ed0	0.030829817
21	0xbd1d8599	-0.038457487
22	0x3c105996	0.008810421
23	0x3dc9f1e0	0.09860587
24	0xbe068302	-0.13135913
25	0xbe1262c4	-0.14295489
26	0xbe052317	-0.13001667
27	0x3dfc2465	0.12311629
28	0xbdf11d39	-0.11773152
29	0xbe0dc923	-0.13846259
30	0xbe0ba275	-0.13636191
31	0x3d5b0fd0	0.053481877
32	0x3dce1131	0.10061873
33	0xbd570e14	-0.05250366
34	0xbd2357f8	-0.039878815
35	0x3cdd7b34	0.027036287
36	0xbd5801fa	-0.05273626
37	0x3e081bf8	0.13291919
38	0xbd59574b	-0.053061765
39	0xbdd3cf9d	-0.103423335
40	0x3ddd8fa4	0.10818413
41	0xbd9f3936	-0.07774584
42	0x3da2e9b6	0.07954733
43	0xbdd53d3c	-0.1041207
44	0x3d9d57f6	0.07682793
45	0x3d3fea45	0.046854276
46	0xbd180eed	-0.03712361
47	0xbd829387	-0.06375795

Linear_Trend.weight f4 [48, 48]
0	0xbc074e5c	-0.008258428
1	0xbc0b3e77	-0.0084987795
2	0xbc10fece	-0.008849813
3	0xbc102cee	-0.008799775
4	0xbc111a14	-0.008856315
5	0xbc1538b1	-0.009107755
6	0xbc1202c2	-0.00891179
7	0xbc0baccf	-0.0085250875
8	0xbc0dd50e	-0.008656753
9	0xbc1440a6	-0.0090486165
10	0xbc1426be	-0.00904244
11	0xbc109b6e	-0.00882612
12	0xbc10aeae	-0.008830709
13	0xbc15082b	-0.009096186
14	0xbc0e02ff	-0.0086677065
15	0xbc0439d3	-0.008070427
16	0xbbf19c68	-0.0073733814
17	0xbbd2595b	-0.0064193434
18	0xbbaa93d8	-0.0052056126
19	0xbb8efef2	-0.004363888
20	0xbb5c755e	-0.0033639292
21	0xbb099818	-0.0020995196
22	0xba962087	-0.0011453786
23	0x36713b65	3.594637e-06
24	0x3a983820	0.0011613406
25	0x3b056639	0.002035512
26	0x3b4a5915	0.003087585
27	0x3b8e8df7	0.0043504196
28	0x3ba3f859	0.0050039706
29	0x3bcd127f	0.0062583084
30	0x3bffb0ae	0.0078030443
31	0x3c164bc2	0.0091733355
32	0x3c2e6865	0.010645007
33	0x3c4fe003	0.012687686
34	0x3c716783	0.014734152
35	0x3c88729f	0.016656218
36	0x3c9658b8	0.018352851
37	0x3ca6294b	0.020283362
38	0x3cb83982	0.02248836
39	0x3cc7856c	0.024355613
40	0x3cd78d79	0.026312577
41	0x3ce569e8	0.028004602
42	0x3cf31727	0.029674126
43	0x3cff3cfb	0.031157007
44	0x3d06a15d	0.03286873
45	0x3d0ce05b	0.03439365
46	0x3d11f3f0	0.035633028
47	0x3d175fb2	0.036956497
48	0x3c12837c	0.008942481
49	0x3c05dd08	0.008170374
50	0x3bf96e82	0.0076120505
51	0x3bdd223a	0.006748465
52	0x3bc7b527	0.006094593
53	0x3bb5634f	0.00553552
54	0x3b8fef18	0.004392516
55	0x3b43edee	0.0029896456
56	0x3b07dc1d	0.0020730563
57	0x3ac3da7f	0.0014942436
58	0x3a670e8c	0.00088141183
59	0x38cf5516	9.886378e-05
60	0xba2b9138	-0.00065447716
61	0xba9f709c	-0.0012164298
62	0xbb063d9e	-0.0020483504
63	0xbb6397c3	-0.0034727908
64	0xbb7dc07a	-0.0038719461
65	0xbba740a6	-0.0051041422
66	0xbbc20388	-0.005920831
67	0xbbc7581f	-0.006083503
68	0xbbcfd817	-0.0063428986
69	0xbbd08021	-0.0063629304
70	0xbbd24c50	-0.0064177886
71	0xbbd046a3	-0.006356077
72	0xbbcf7653	-0.006331244
73	0xbbb99c94	-0.0056644175
74	0xbbabc18d	-0.005241579
75	0xbba5a142	-0.005054624
76	0xbb9a1f33	-0.0047034263
77	0xbb8bf6ec	-0.0042713787
78	0xbb6e4555	-0.0036357243
79	0xbb2bdeec	-0.00262254
80	0xba79855e	-0.00095184695
81	0x394755c6	0.00019010072
82	0x3a97a3b1	0.001156917
83	0x3b16b90c	0.002299848
84	0x3b6d92a3	0.0036250732
85	0x3ba35002	0.004983903
86	0x3bc866c0	0.0061157644
87	0x3bf3d83f	0.00744155
88	0x3c172f28	0.0092275515
89	0x3c283538	0.010266595
90	0x3c40dbcd	0.011771155
91	0x3c540f1d	0.012943056
92	0x3c60fbe9	0.013731935
93	0x3c6f2a9b	0.01459756
94	0x3c7ca6f8	0.015420668
95	0x3c85f9b1	0.016354414
96	0x3cc315c0	0.023814082
97	0x3cbc70bc	0.023002975
98	0x3cb477f1	0.022029849
99	0x3caa826b	0.020814141
100	0x3ca3d8f9	0.020000922
101	0x3c9a963d	0.018870467
102	0x3c91cf38	0.017799005
103	0x3c858691	0.016299518
104	0x3c6e5e40	0.014548838
105	0x3c59c8d7	0.013292513
106	0x3c49082a	0.012270013
107	0x3c35c546	0.011094397
108	0x3c2406ab	0.010011355
109	0x3c1768b7	0.009241275
110	0x3c0ff2ca	0.008785913
111	0x3bfe7918	0.0077659003
112	0x3be2bd5a	0.006919545
113	0x3bc48e9d	0.005998446
114	0x3b9b8c97	0.004746984
115	0x3b85cca4	0.004083233
116	0x3b776158	0.003774723
117	0x3b659687	0.0035032348
118	0x3b484586	0.0030559017
119	0x3b4262fc	0.002966105
120	0x3b32c710	0.0027279295
121	0x3b41232a	0.0029470422
122	0x3b343f19	0.002750343
123	0x3b28ba6b	0.002574588
124	0x3b31a2d4	0.002710511
125	0x3b2ad5b9	0.002606733
126	0x3b4d25dc	0.0031303084
127	0x3b680775	0.0035404835
128	0x3b959b18	0.0045656078
129	0x3bb3dcc1	0.0054889624
130	0x3bb83b5a	0.0056223096
131	0x3bb08e0a	0.005388026
132	0x3bae1079	0.0053120223
133	0x3b4f2164	0.0031605596
134	0x3b3150fe	0.0027056332
135	0x3b1a1bf7	0.0023515204
136	0x3b1e2281	0.0024129453
137	0x3b1dfa12	0.0024105352
138	0x3b236710	0.0024933256
139	0x3b304aca	0.0026900047
140	0x3b16af4d	0.002299267
141	0x3aef2eef	0.001824824
142	0x3aaa132f	0.0012975688
143	0x3a7f84b2	0.0009747251
144	0x3cb875d3	0.02251712
145	0x3cb35e8e	0.021895673
146	0x3cad7d1f	0.021177826
147	0x3ca6da1f	0.02036768
148	0x3ca1cd10	0.019751102
149	0x3c9c6460	0.019090831
150	0x3c96cb36	0.018407445
151	0x3c8dbd6f	0.017302243
152	0x3c875394	0.016519345
153	0x3c7d3f3c	0.015456971
154	0x3c6a94cd	0.014317703
155	0x3c5d461d	0.013505486
156	0x3c4b5258	0.012409769
157	0x3c36a365	0.011147355
158	0x3c23b445	0.00999171
159	0x3c12eef8	0.008968107
160	0x3c0c949f	0.008580356
161	0x3bff053f	0.007782608
162	0x3bdbf269	0.006712247
163	0x3bb5054b	0.0055243126
164	0x3b836a7f	0.004010498
165	0x3b12660f	0.0022338664
166	0x3a87f8ff	0.0010373889
167	0x39985a1b	0.00029058833
168	0xba7df9af	-0.000968839
169	0xbb131e53	-0.0022448495
170	0xbb53c1f7	-0.0032311657
171	0xbb92625f	-0.004467293
172	0xbbbb9860	-0.0057249516
173	0xbbe86048	-0.0070915557
174	0xbc0fce58	-0.0087772235
175	0xbc2a6aff	-0.010401486
176	0xbc3ee800	-0.011651993
177	0xbc53e686	-0.012933379
178	0xbc677c26	-0.01412872
179	0xbc7a84b1	-0.015290425
180	0xbc8928bb	-0.016743055
181	0xbc925605	-0.017863283
182	0xbc9a095a	-0.018803287
183	0xbca11b59	-0.01966636
184	0xbca87bec	-0.020566903
185	0xbcb31e8c	-0.021865152
186	0xbcba85c2	-0.022768859
187	0xbcbf026d	-0.023316586
188	0xbcc542c4	-0.024079688
189	0xbccc3863	-0.024929231
190	0xbccf7d0f	-0.025328187
191	0xbcd5c2fc	-0.026093952
192	0xbbc654b9	-0.00605258
193	0xbbcab192	-0.006185719
194	0xbbc14f16	-0.0058993204
195	0xbba41d97	-0.00500841
196	0xbb8aa5df	-0.004231199
197	0xbb4a7a9d	-0.0030895837
198	0xbb3d807e	-0.0028915699
199	0xbb097ef5	-0.0020980213
200	0xba91e580	-0.0011131018
201	0xb92d97f3	-0.00016555171
202	0x3a575685	0.00082144915
203	0x3adea25e	0.0016985645
204	0x3b1a7612	0.002356891
205	0x3b2fe806	0.0026841178
206	0x3b1efabb	0.0024258334
207	0x3b2c1d4b	0.0026262577
208	0x3b3b24d2	0.0028555882
209	0x3afc101c	0.0019230875
210	0x3b110490	0.0022127964
211	0x3b19a3ea	0.0023443648
212	0x3b06cda0	0.002056934
213	0x3b09486a	0.0020947703
214	0x3b0ef641	0.002181426
215	0x3b0e91ab	0.0021754305
216	0x3b0e3b46	0.002170281
217	0x3b07bbca	0.0020711296
218	0x3b161f44	0.002290682
219	0x3ae2e1b9	0.0017309702
220	0x3a0a9eef	0.0005287965
221	0xba1764b5	-0.00057751994
222	0xbb27e558	-0.0025618877
223	0xbb86ba16	-0.0041115386
224	0xbbcc3ca6	-0.006232816
225	0xbc061a37	-0.008184961
226	0xbc22e364	-0.009941909
227	0xbc38e352	-0.011284666
228	0xbc4c87b3	-0.012483525
229	0xbc5ca5be	-0.01346725
230	0xbc672215	-0.014107247
231	0xbc70c7f9	-0.014696115
232	0xbc7d27fa	-0.015451426
233	0xbc8535f6	-0.016261082
234	0xbc88e230	-0.016709417
235	0xbc92056b	-0.01782485
236	0xbc96a8e6	-0.018391084
237	0xbc9884ce	-0.018618014
238	0xbc9d97fa	-0.019237507
239	0xbca5e3c2	-0.020250205
240	0x3cb55f62	0.022140209
241	0x3caffbe6	0.02148242
242	0x3ca8b6d2	0.020594988
243	0x3c9c2fd4	0.019065775
244	0x3c94d6e8	0.018168882
245	0x3c8b38fe	0.01699495
246	0x3c86c444	0.016451009
247	0x3c796b4a	0.015223334
248	0x3c5c07a2	0.013429554
249	0x3c4580ab	0.012054603
250	0x3c34304c	0.010997843
251	0x3c208d87	0.009799368
252	0x3c0df6cc	0.008664798
253	0x3c0065ae	0.007836742
254	0x3bf3234e	0.00741998
255	0x3bccceea	0.006250252

Linear_Trend.bias f4 [48]
0	0x3daba142	0.08380367
1	0x3db44fb0	0.08804262
2	0x3dd2f27b	0.10300156
3	0x3dca63a0	0.09882283
4	0xbc802a97	-0.015645308
5	0x3d2bea5f	0.04197156
6	0x3c10d0cc	0.008838844
7	0x3d537b66	0.051631354
8	0x3d642229	0.05569664
9	0xbca280d8	-0.019836828
10	0xbdd9b668	-0.10630494
11	0xbd54160d	-0.05177884
12	0xbc4be309	-0.012444266
13	0xbda93724	-0.0826247
14	0x3e24cdb0	0.16094089
15	0xbe1046c7	-0.140895
16	0x3d961504	0.07328227
17	0x3d53f108	0.051743537
18	0xbddef480	-0.108864784
19	0xbdc1668a	-0.09443386
20	0xbdeb3215	-0.11484162
21	0x3e058271	0.1303804
22	0x3ccfaa8e	0.025349882
23	0xbc8bcc29	-0.017065125
24	0xbdb5fc17	-0.08885973
25	0xbd8519d3	-0.06499066
26	0xbd64b90b	-0.055840533
27	0x3e1e23a8	0.1544329
28	0xbe0972eb	-0.13422744
29	0xbde4fc8a	-0.111809805
30	0xbe04b232	-0.12958601
31	0x3df92fe4	0.121673375
32	0x3bc9537a	0.0061439844
33	0x3db3e177	0.087832384
34	0xbd1d8207	-0.038454082
35	0xbe17545f	-0.14778279
36	0x3de4c3b6	0.111701414
37	0x3c950190	0.018189222
38	0xbda17232	-0.07883109
39	0xbd87f9f4	-0.06639472
40	0x3e0a1ea9	0.13488258
41	0x3d74c6bb	0.059759837
42	0x3d368126	0.04455676
43	0x3dbfb9ae	0.093615875
44	0xbe1d6070	-0.15368819
45	0x3cf179c8	0.029477015
46	0xbdbdeda4	-0.09273842
47	0x3e11839b	0.1421036

projection.weight f4 [2, 1488]
0	0xbd0cfa21	-0.03441823
1	0x3cc92c41	0.024557235
2	0x3d0e65ad	0.034764934
3	0xbca16c67	-0.01970501
4	0x3c977345	0.018487582
5	0xbc618c3c	-0.013766345
6	0xbc9f0520	-0.019411623
7	0x3c85fdbc	0.016356342
8	0x3c02621d	0.007957962
9	0x3ccadba1	0.02476293
10	0xbcc162d1	-0.02360669
11	0x3cbe318c	0.023216985
12	0x3b15c93c	0.002285554
13	0xbb8de0d6	-0.004329781
14	0xbca8cbe9	-0.020605044
15	0xbcdc73e3	-0.026910728
16	0xbc5f56c5	-0.013631527
17	0xbcb46dce	-0.022025015
18	0xbc3b5634	-0.011434127
19	0x3b9dc361	0.0048145507
20	0x3d371f20	0.044707417
21	0x3c9e33d0	0.019311816
22	0xbcc27366	-0.023736667
23	0xbca634ab	-0.020288786
24	0x3bc0638e	0.005871243
25	0xba7fa303	-0.00097517687
26	0x3c8af851	0.01696411
27	0x3c57df38	0.013175778
28	0xbb9fe2b6	-0.004879321
29	0xbba98512	-0.005173334
30	0xba04349d	-0.00050432404
31	0xbca4e34d	-0.020127917
32	0x3c3bfcca	0.011473844
33	0xbb8a7e02	-0.004226447
34	0xbbcc932d	-0.0062431307
35	0x3c1adfa1	0.009452731
36	0x3aed1815	0.0018088842
37	0x3bf19fb2	0.0073737735
38	0xbc825e73	-0.015914178
39	0x3c8b52cc	0.017007254
40	0x3ca6b88f	0.020351676
41	0xbc00a980	-0.007852912
42	0xbc480738	-0.012208752
43	0xbc41cbff	-0.011828422
44	0x3bff06f4	0.0077828113
45	0xbbd91940	-0.0066253245
46	0xbc9fa417	-0.019487424
47	0x3c9365be	0.01799285
48	0xbc6508aa	-0.013979116
49	0xbbccb587	-0.0062472257
50	0x3b8e134d	0.004335797
51	0x3c0fa065	0.008766268
52	0xbb287219	-0.0025702773
53	0x3c6eec19	0.014582657
54	0xbcffcbbc	-0.031225078
55	0x3c6381d6	0.013885936
56	0x3cd1d48a	0.025614042
57	0x3c9367e4	0.017993875
58	0x3b649100	0.0034876466
59	0x3ab1228f	0.0013514328
60	0xbcfe69ef	-0.031056372
61	0xb9b571fd	-0.00034607938
62	0xbcce6b0c	-0.025197528
63	0x3c20fb16	0.009825489
64	0xbc274d19	-0.010211253
65	0xbccead14	-0.025229014
66	0x3d2e31b4	0.04252787
67	0x3cfba74d	0.030719424
68	0xbc38e5d1	-0.011285261
69	0xbaafb127	-0.0013404236
70	0x3bb0b8da	0.00539313
71	0x3ce5fb1d	0.028073842
72	0xbcbf3cc4	-0.023344405
73	0x3c3cb543	0.011517826
74	0x3cc775c1	0.024348142
75	0xbb53fd87	-0.003234716
76	0x3c44894e	0.011995627
77	0xbcb26b73	-0.021779751
78	0x3c2058d1	0.0097868005
79	0x3c1a1edd	0.009406772
80	0xbb5b09e8	-0.0033422653
81	0xbc8c0f5b	-0.017097166
82	0x3c22586a	0.009908775
83	0x3cd1592e	0.02555522
84	0x3c6d8441	0.014496864
85	0xbc3297de	-0.010900466
86	0x38e6cdeb	0.0001100561
87	0x3c972870	0.0184519
88	0xbbd52036	-0.006504084
89	0x3c93bda4	0.018034764
90	0xbd136d42	-0.03599287
91	0x3bb5b2f6	0.0055450154
92	0x3bc4c489	0.006004874
93	0xbb2b08c0	-0.0026097745
94	0x3bd50a80	0.006501496
95	0xbb873fce	-0.004127479
96	0x3ca47bd8	0.020078585
97	0x3c21a24a	0.009865353
98	0x3c9b4c53	0.018957293
99	0x3ca3e874	0.020008303
100	0x3b035fc4	0.0020046094
101	0xbb66d510	-0.003522221
102	0x3b36b5b8	0.002787931
103	0xbc81b3ef	-0.01583287
104	0xbb8dda07	-0.0043289694
105	0x3bd6219e	0.006534769
106	0xbd00d149	-0.03144959
107	0x3c8772a8	0.016534165
108	0x3d13ce61	0.03608549
109	0x39bc6ff1	0.00035941557
110	0xbbdf1604	-0.0068080444
111	0x3bcdcd7e	0.0062806
112	0x3c8a97fc	0.016918175
113	0xbcef4617	-0.029208226
114	0xbae7e1c7	-0.0017691188
115	0xbc4b0d9e	-0.012393383
116	0xbbc509ed	-0.006013146
117	0x3c3ea654	0.011636335
118	0x3cbe4f5d	0.023231203
119	0x3cca3e39	0.024687873
120	0xbb1c8794	-0.0023884522
121	0xbce1a85e	-0.027546104
122	0xbbf0077a	-0.00732511
123	0x39922030	0.00027871272
124	0xbcd0e506	-0.025499832
125	0xbcba8713	-0.022769487
126	0x3ad6bf87	0.0016383984
127	0xbb30c13b	-0.0026970643
128	0x3c5b516b	0.013386111
129	0xbb355e46	-0.00276746
130	0xbcd109cf	-0.025517372
131	0xbc6cf2b9	-0.0144621665
132	0xbd391413	-0.04518516
133	0x3c580f44	0.013187233
134	0xbc21de4e	-0.009879662
135	0xbbb84fbe	-0.0056247404
136	0x3ca2eb49	0.019887583
137	0x3c00753c	0.007840451
138	0x3c428d1f	0.011874466
139	0xbc979e96	-0.018508237
140	0xbba79eec	-0.0051153805
141	0x3c8a0a8a	0.016850729
142	0xbbed753a	-0.0072466405
143	0x3cc6e40b	0.024278661
144	0x3a1e6b37	0.0006043198
145	0xbc84cf18	-0.016212031
146	0x3c09e7a4	0.008417044
147	0xbba2cf83	-0.004968585
148	0xbc886dfa	-0.016654003
149	0xbc01660b	-0.007897864
150	0xbbbd7943	-0.005782278
151	0x3c03a585	0.008035068
152	0xbc8312aa	-0.01600011
153	0xbb67c401	-0.003536463
154	0x3c3b4435	0.011429836
155	0xbc95e1a0	-0.018296063
156	0xbc937528	-0.0180002
157	0x3beb3f45	0.007179173
158	0xbceb4fc8	-0.028724566
159	0x3d01c856	0.031685196
160	0x3d1a2923	0.037636887
161	0x3bf6e534	0.0075346474
162	0xbcadafee	-0.021202054
163	0x3c4f6164	0.012657497
164	0x3d05f135	0.032700736
165	0x3cbafea1	0.022826495
166	0x3c0d1d21	0.008612902
167	0xbc843fbb	-0.01614367
168	0xbc213ee3	-0.0098416535
169	0x3c928a1f	0.017888127
170	0xbcc106cb	-0.02356281
171	0x3b40be21	0.00294102
172	0xbc659eb0	-0.014014885
173	0xbc3ff374	-0.011715759
174	0x3a8e7438	0.0010868376
175	0x3cd3156f	0.025767056
176	0x3bf99592	0.007616707
177	0x3bf3b62d	0.0074374885
178	0xbd11ae16	-0.035566412
179	0xbb9b012f	-0.0047303657
180	0x3cdd3c3a	0.027006257
181	0xbc0c15dc	-0.008550134
182	0xbcb55580	-0.022135496
183	0xbca6924c	-0.020333432
184	0xbb9833e6	-0.0046448587
185	0xbbf2c8ba	-0.0074091824
186	0xbc730d10	-0.014834657
187	0xbc20c473	-0.009812462
188	0xbb5dbc89	-0.00338343
189	0xbc898e97	-0.016791625
190	0xbc47e35d	-0.012200204
191	0x3b0af609	0.0021203777
192	0xbcb1d7ca	-0.021709342
193	0x3b551711	0.003251497
194	0xbc570d50	-0.013125733
195	0xbc86a401	-0.016435625
196	0xbcbc7539	-0.023005115
197	0x3c7ca964	0.015421245
198	0xbc3df9fa	-0.011595244
199	0xbbb94998	-0.005654525
200	0xbc032e1e	-0.008006601
201	0xbc685c11	-0.014182107
202	0x3b99c832	0.0046930546
203	0xbc5c89d3	-0.013460594
204	0x3b2104d0	0.002456952
205	0xbcca2d46	-0.024679791
206	0xbc1a266e	-0.009408576
207	0xbca62987	-0.020283474
208	0x3c0e7a35	0.008696129
209	0x3c695f4c	0.014243912
210	0xbc93c2e5	-0.018037269
211	0xbbf66424	-0.007519262
212	0x3c40e9d8	0.011774503
213	0x3c0dcddd	0.008655039
214	0xbd20b9d4	-0.03923972
215	0xbd0eb85c	-0.034843788
216	0xbb8dbb2d	-0.0043252916
217	0xbcab0d90	-0.02088049
218	0xba2cd9ee	-0.00065937534
219	0x3d0b7ec6	0.034056447
220	0xbb0d1959	-0.002153
221	0x3d0c0075	0.034180123
222	0x3cf7f6cf	0.030269055
223	0x3c9c725e	0.019097503
224	0xbc4c135c	-0.0124557875
225	0x3c61d50c	0.0137837045
226	0x3b815cd0	0.0039478317
227	0xbcb4902d	-0.022041405
228	0x3c312388	0.010811694
229	0x3c774160	0.01509127
230	0xbc0bbbc2	-0.008528652
231	0xbb9a73f6	-0.0047135307
232	0xbb6fe35e	-0.0036604027
233	0x3cb88f94	0.0225294
234	0x3b84b89e	0.0040503284
235	0xbc91e0a2	-0.017807309
236	0xbbfabe89	-0.007652108
237	0xbae9ddbc	-0.0017842571
238	0x3cd0f42f	0.02550706
239	0x3c96d128	0.01841028
240	0x3b8cfed5	0.0043028393
241	0x3c88f5f8	0.01671885
242	0x3aa857ab	0.001284351
243	0x3cba5201	0.02274418
244	0x3ceb395e	0.028713878
245	0x3c193f18	0.009353422
246	0x3b11ac3d	0.0022227906
247	0x3c4c6a1f	0.012476473
248	0xbc93f0c7	-0.018059148
249	0x3b7a3c75	0.0038183008
250	0x3ce3714a	0.027763981
251	0xbaf60c5e	-0.0018771996
252	0xbba6e7ca	-0.0050935494
253	0xbcdec661	-0.027194204
254	0x3c5f9827	0.013647116
255	0xbc789dd1	-0.015174345

projection.bias f4 [2]
0	0x3ca7e30d	0.020494008
1	0xbd1452be	-0.03621172
