results/traffic_SegRNN/2/checkpoint.pth (torch, 425317 bytes, 10 tensors)

pos_emb f4 [1, 64]
0.8329193 0.30140907 0.44421658 0.6596019 2.1608322 -0.8302689 1.3570194 -1.5794469
-0.66250676 0.48664612 -0.8357037 -0.8408226 0.21153453 -2.3288689 -0.6753124 -1.3549304
1.0444198 1.0183371 -0.64322764 1.050666 1.0196419 1.2689778 -0.396081 1.5024815
0.7685954 -1.3448188 -0.49062583 -0.5336644 0.0589137 -0.034671932 -0.09143604 -0.83807737
-0.79797316 -3.0739675 0.8628475 0.34710112 -0.7657979 0.39979175 1.2775779 0.93096673
1.9600722 -1.4959495 -0.04780457 -0.4933946 0.8157573 0.14873657 0.77415204 1.514357
-0.13428943 -0.7351389 -0.52861845 -0.5397294 -1.2363391 0.71581393 -0.30959603 0.41429484
-0.5628527 0.083092935 -0.33143508 -0.69972664 -0.9862636 0.5302627 -0.045702007 0.5934312
00000000: 333a 553f 4a52 9a3e 5b70 e33e acdb 283f
00000010: 134b 0a40 818c 54bf d0b2 ad3f 512b cabf
00000020: 0b9a 29bf ae29 f93e adf0 55bf 2640 57bf
00000030: 829c 583e 300c 15c0 46e1 2cbf 5c6e adbf
00000040: 8caf 853f df58 823f 91aa 24bf 397c 863f
00000050: a083 823f dd6d a23f 21cb cabe 5051 c03f
00000060: abc2 443f 0623 acbf 4f33 fbbe 3b9e 08bf
00000070: 7e4f 713d 2804 0ebd d242 bbbd 3d8c 56bf
00000080: f847 4cbf e2bb 44c0 93e3 5c3f 3db7 b13e
00000090: 550b 44bf 81b1 cc3e ac87 a33f d653 6e3f
000000a0: a5e3 fa3f 467b bfbf bace 43bd 389e fcbe
000000b0: 78d5 503f 664e 183e d42e 463f 73d6 c13f
000000c0: 2b83 09be 1032 3cbf 8a53 07bf b52b 0abf
000000d0: 5c40 9ebf 953f 373f 5f83 9ebe 741e d43e
000000e0: 1d17 10bf a12c aa3d dcb1 a9be 4921 33bf
000000f0: c57b 7cbf 4cbf 073f 0732 3bbd 1beb 173f

channel_emb f4 [1, 64]
-0.35804766 0.48728514 0.88719374 -1.318608 -0.8699742 1.3201811 2.1672828 -0.8647955
-1.1287664 0.06958548 1.0984259 0.07825605 -0.42750672 2.0579896 1.333184 -0.09146053
0.5510383 -0.63547385 -0.5768226 0.08152654 0.078071445 -1.0045643 -2.1546755 0.51184875
0.8466218 -0.8596543 -1.9822506 0.7503517 0.92723846 -0.093672045 0.38846555 -0.7743956
0.4407347 -0.116812535 -0.52599734 -0.15638849 -1.1334397 1.5603331 0.35488266 1.1658822
-0.6039855 0.86657286 -1.0697174 1.0881124 1.4857172 -0.9760351 0.95275605 -0.17242505
-0.17473045 1.1220618 0.87248933 -0.29743585 2.3467593 0.42963073 0.17773592 -0.15575576
0.51603085 1.8777459 -1.2536341 -0.6971613 -0.13645792 -0.42666903 0.58647674 1.8890427
00000000: 0652 b7be 707d f93e 211f 633f 26c8 a8bf
00000010: a1b6 5ebf b2fb a83f c3b4 0a40 3d63 5dbf
00000020: 6b7b 90bf d582 8e3d 3899 8c3f b544 a03d
00000030: 29e2 dabe 1ab6 0340 c6a5 aa3f a94f bbbd
00000040: d910 0d3f 6aae 22bf a5aa 13bf 63f7 a63d
00000050: ece3 9f3d 9095 80bf 34e6 09c0 8508 033f
00000060: 35bc 583f 4e12 5cbf 63ba fdbf 0d17 403f
00000070: 805f 6d3f 21d7 bfbd f5e4 c63e ca3e 46bf
00000080: fba7 e13e 693b efbd c3a7 06bf 4e24 20be
00000090: 8d14 91bf ffb8 c73f 2eb3 b53e a13b 953f
000000a0: cb9e 1abf b8d7 5d3f 80ec 88bf 4447 8b3f
000000b0: fb2b be3f 70dd 79bf d2e7 733f 3190 30be
000000c0: 8aec 32be b99f 8f3f 765b 5f3f 8349 98be
000000d0: 4e31 1640 8ff8 db3e 6800 363e 707e 1fbe
000000e0: 991a 043f fa59 f03f 1577 a0bf 2a79 32bf
000000f0: a0bb 0bbe 5d74 dabe 5723 163f 27cc f13f

valueEmbedding.0.weight f4 [128, 24]
-0.2921249 0.016341424 -0.010884768 0.10820407 -0.008174374 0.17474078 0.15644573 -0.20705862
-0.11439018 -0.043631386 0.016535161 0.16654497 0.111612946 0.027831482 -0.22179991 -0.20806073
-0.21453553 0.10965697 0.15285435 0.1794553 0.1207444 0.22804822 0.06716409 -0.13034646
-0.005394316 -0.07582702 0.0981732 0.111260824 0.05677684 -0.15810987 -0.09826804 0.0443786
-0.15645656 0.17185818 -0.013249967 -0.12472038 0.1213293 -0.15174821 -0.17309992 0.04999006
0.062253155 0.12443467 -0.028290642 -0.07306828 0.09288002 -0.18267643 -0.026710998 0.034897108
0.06432598 0.34496394 0.24446586 0.16464245 -0.14437224 -0.000635377 0.053159658 -0.11307221
0.055181414 0.14558874 -0.16995783 0.15404902 0.19083253 0.0113665 0.0044986466 -0.16567272
0.09003475 0.063666075 -0.087005414 0.031316034 -0.12332047 0.11534564 0.21583705 0.3101649
0.19150507 -0.16481657 0.06457995 -0.031871963 0.005969447 -0.15586017 -0.23094468 -0.07060641
-0.1376428 -0.18067515 0.12645653 0.17051865 0.1997301 0.14075798 0.06867974 -0.03487586
0.012169778 -0.08604649 -0.15742756 -0.0035997943 -0.1545689 0.07594442 0.21656309 0.019821597
0.13983709 -0.046481743 -0.12476778 0.11363508 0.04078269 -0.14620885 -0.07594492 0.14871015
-0.18673415 0.0598783 0.08221864 0.024068993 -0.17222871 0.15636548 0.116287805 -0.036026552
-0.08807121 -0.121654816 0.07494648 -0.0026037323 0.011313635 0.09538443 -0.25028867 0.14060909
-0.02748499 0.034206446 -0.12127709 -0.09762227 -0.12912974 0.22639182 0.017858036 0.08450684
-0.0141371405 -0.001990688 -0.11768595 0.080956705 -0.08243195 -0.11073224 -0.0082445275 0.027372267
-0.1989278 -0.20456433 -0.106270894 -0.09384319 0.04103441 0.14641492 -0.081959516 0.018113231
0.2407196 0.13568398 -0.06742206 -0.07224951 0.25153062 -0.030339101 0.17663649 0.19736972
0.03756323 0.00035041696 0.10480802 -0.1704001 -0.15584737 0.15492454 0.15953097 0.13013321
0.17789142 0.11878129 -0.09358209 -0.11597434 0.15986755 0.10958085 0.040761754 -0.12418283
-0.21395595 -0.25726324 -0.13999927 -0.18270947 0.09956669 -0.030096719 0.24099128 0.05240105
-0.11391023 -0.16795968 -0.16604924 0.11705509 0.13893537 -0.16332424 0.0454429 0.15385461
0.17786495 -0.019275159 0.15170513 -0.12689313 0.07156854 -0.19282728 -0.1618824 -0.3670049
0.14386666 -0.07316674 -0.17211123 0.20477478 -0.15688583 0.12548926 -0.14903696 -0.09039138
-0.026592448 0.018696584 0.18885897 0.19195466 0.05400831 0.17613287 0.010553288 0.0750736
-0.17089468 0.14457174 0.0760152 0.0988905 -0.124589756 0.113631435 0.008676525 -0.23010771
0.20260607 0.17086987 -0.060116082 -0.007301484 -0.013850477 -0.048931304 0.037653152 0.17388557
0.03974493 -0.059614453 -0.08480061 0.082694955 0.073824584 0.015148589 0.07665619 -0.21213637
-0.07548818 0.17460962 -0.17197113 0.054126825 0.09355145 0.088648684 -0.057405695 -0.23102424
0.2516202 0.13436408 0.14141172 -0.02723769 0.017731547 0.065509416 0.103821985 -0.046544448
0.114987135 -0.17803007 -0.13063705 -0.22823595 0.06118443 0.053688895 -0.24225579 -0.13887042
00000000: 6591 95be 73de 853c 0756 32bc 189a dd3d
00000010: cfed 05bc 3fef 323e 4f33 203e 2d07 54be
00000020: 6645 eabd d3b6 32bd bf74 873c c48a 2a3e
00000030: 5495 e43d d9fe e33c 841f 63be df0d 55be
00000040: 34af 5bbe d593 e03d da85 1c3e 21c3 373e
00000050: d748 f73d 7985 693e 548d 893d 8b79 05be
00000060: cdc2 b0bb 324b 9bbd 080f c93d b7dc e33d
00000070: d58e 683d 8ee7 21be c140 c9bd 56c6 353d
00000080: 2636 20be 97fb 2f3e 6416 59bc 666d ffbd
00000090: 7f7b f83d e263 1bbe 1b41 31be 61c2 4c3d
000000a0: 2afd 7e3d 9bd7 fe3d c7c1 e7bc d3a4 95bd
000000b0: e137 be3d 880f 3bbe 06d1 dabc 45f0 0e3d
000000c0: 57bd 833d 1d9f b03e 4255 7a3e 0898 283e
000000d0: 51d6 13be 6e8f 26ba f1bd 593d 6792 e7bd
000000e0: e805 623d 3715 153e 6d09 2ebe 07bf 1d3e
000000f0: 9a69 433e 8e3a 3a3c 6269 933b 1ca6 29be
00000100: 2464 b83d 5c63 823d e52f b2bd 3e45 003d
00000110: 718f fcbd 563a ec3d 6304 5d3e efcd 9e3e
00000120: e819 443e adc5 28be 7e42 843d 2d8c 02bd
00000130: 5a9b c33b cf99 1fbe c37c 6cbe 189a 90bd
00000140: 3cf2 0cbe e802 39be d27d 013e 719c 2e3e
00000150: 0c86 4c3e dc22 103e f7a7 8c3d fdd9 0ebd
00000160: c063 473c 2439 b0bd b134 21be 87ea 6bbb
00000170: 4f47 1ebe c088 9b3d b7c2 5d3e e760 a23c
00000180: 7431 0f3e a463 3ebd 4086 ffbd 82b9 e83d
00000190: c00b 273d c6b7 15be 0389 9bbd 7947 183e
000001a0: 3d37 3fbe f342 753d 3f62 a83d 562c c53c
000001b0: b95c 30be 461e 203e 4d28 ee3d 9490 13bd
000001c0: ae5e b4bd 2926 f9bd 8a7d 993d 61a3 2abb
000001d0: d35c 393c e958 c33d d625 80be d4fb 0f3e
000001e0: 3428 e1bc 0f1c 0c3d 1f60 f8bd 2fee c7bd
000001f0: 963a 04be 42d3 673e 044b 923c ec11 ad3d
00000200: 779f 67bc 3476 02bb 5505 f1bd a1cc a53d
00000210: 15d2 a8bd 96c7 e2bd 0e14 07bc ce3b e03c
00000220: bbb3 4bbe 5079 51be 8ea4 d9bd dc30 c0bd
00000230: b313 283d cbed 153e 64da a7bd 3362 943c
00000240: 337f 763e bef0 0a3e 9414 8abd 8df7 93bd
00000250: 9fc8 803e b589 f8bc 32e0 343e 4a1b 4a3e
00000260: e7db 193d 2bb8 b739 96a5 d63d 5d7d 2ebe
00000270: 7496 1fbe 8aa4 1e3e 165c 233e a441 053e
00000280: 2b29 363e 9b43 f33d f8a7 bfbd f483 edbd
00000290: 52b4 233e ed6b e03d ccf5 263d 9153 febd
000002a0: 4517 5bbe 02b8 83be f85b 0fbe 3118 3bbe
000002b0: 9fe9 cb3d 658d f6bc 6bc6 763e 7ca2 563d
000002c0: c449 e9bd 9ffd 2bbe d008 2abe 94ba ef3d
000002d0: 1345 0e3e 783e 27be 5622 3a3d 108c 1d3e
000002e0: 3b22 363e f0e6 9dbc 9758 1b3e 46f0 01be
000002f0: 8792 923d 8474 45be 80c4 25be 11e8 bbbe
00000300: c851 133e 72d8 95bd ed3d 30be 7bb0 513e
00000310: aea6 20be 4280 003e 259d 18be 1e1f b9bd
00000320: 68d8 d9bc 9429 993c 3f64 413e c38f 443e
00000330: d137 5d3d 2d5c 343e b3e7 2c3c 30c0 993d
00000340: 04ff 2ebe 9d0a 143e dbad 9b3d 1a87 ca3d
00000350: ea28 ffbd 99b7 e83d fc27 0e3c 5ba1 6bbe
00000360: f777 4f3e 83f8 2e3e 483c 76bd 4941 efbb
00000370: 1ced 62bc 316c 48bd 313a 1a3d 0f0f 323e
00000380: 94cb 223d 492e 74bd f1ab adbd f95b a93d
00000390: 5831 973d ca31 783c ecfd 9c3d 473a 59be
000003a0: 8c99 9abd ddcc 323e 3319 30be 17b4 5d3d
000003b0: e797 bf3d 718d b53d 3c22 6bbd 9e91 6cbe
000003c0: 5dd4 803e bd96 093e 3cce 103e 9321 dfbc
000003d0: c041 913c cd29 863d 9fa0 d43d 64a5 3ebd
000003e0: 607e eb3d 844d 36be b8c5 05be afb6 69be
000003f0: 869c 7a3d e3e8 5b3d e711 78be 0c34 0ebe

valueEmbedding.0.bias f4 [128]
0.060686562 -0.19345306 0.2087836 -0.008155834 0.0813484 -0.23103313 -0.11030201 -0.16750549
0.07029268 -0.056439355 -0.048141208 -0.04557364 -0.15506984 -0.13061894 -0.0308043 -0.14881955
-0.095143005 -0.05516692 0.032704648 -0.11588385 -0.033435326 0.11281724 0.14617525 0.16307949
0.17798854 -0.07539941 -0.2199076 0.035058863 -0.213381 -0.02763967 -0.09121227 0.16644935
0.17306663 -0.18474549 -0.16720228 -0.16456652 -0.14745878 0.13234763 0.19683385 0.076878555
-0.06385106 0.121427946 -0.29355958 -0.09144906 -0.021575889 0.118847854 0.14057806 -0.1826836
0.13333741 0.011729202 -0.065300256 0.1531622 0.015375198 -0.055069435 -0.13553059 -0.17024842
0.0005637787 0.052740958 -0.167792 0.15359421 0.25102687 0.12234577 -0.054176785 -0.21498519
0.086405985 0.06631708 -0.1731147 -0.1344187 -0.1515822 -0.023862708 0.08146333 -0.17507085
-0.15790997 -0.1496606 -0.11853894 -0.093534835 0.13855569 -0.1574258 0.062380403 0.0035528752
-0.077692926 -0.11209723 -0.12221522 -0.043427974 -0.037264712 0.030454015 -0.15203813 -0.008307189
-0.25600883 -0.042478967 0.0816584 -0.104941756 -0.12156734 -0.1572372 -0.006933535 0.085026026
0.19018777 -0.15665202 -0.23089439 -0.026415953 0.04879574 -0.16243166 0.15288657 0.20277162
0.026149064 -0.048747495 -0.019695928 0.20657785 -0.24022791 0.16535957 0.14244771 0.14840811
0.10390484 -0.06813711 0.20775302 0.077957876 -0.013475633 0.13174222 -0.024837222 -0.10629682
-0.17935282 -0.15469854 -0.23494384 -0.17059745 0.033653535 0.0440925 -0.027567659 0.023044307
00000000: 7992 783d 8f18 46be 5ecb 553e 0ca0 05bc
00000010: fd99 a63d f393 6cbe 05e6 e1bd 8f86 2bbe
00000020: 9cf5 8f3d f42c 67bd b72f 45bd 6dab 3abd
00000030: a1ca 1ebe f9c0 05be 4d59 fcbc 2764 18be
00000040: 56da c2bd b5f6 61bd 4ff5 053d 8354 edbd
00000050: 7bf3 08bd ba0c e73d f7ae 153e 4ffe 263e
00000060: a142 363e 026b 9abd 752f 61be e299 0f3d
00000070: 8d80 5abe 976c e2bc 80cd babd b371 2a3e
00000080: 6138 313e ec2d 3dbe 1337 2bbe 2084 28be
00000090: 6fff 16be 2386 073e d08e 493e 8172 9d3d
000000a0: 58c4 82bd 37af f83d 714d 96be a549 bbbd
000000b0: ebbf b0bc 8166 f33d b2f3 0f3e 6911 3bbe
000000c0: 9a89 083e d72b 403c 24bc 85bd 8dd6 1c3e
000000d0: 41e8 7b3c 7d90 61bd 88c8 0abe 9a55 2ebe
000000e0: 8cca 133a e706 583d abd1 2bbe cd47 1d3e
000000f0: 9886 803e 6b90 fa3d 7ae8 5dbd 1425 5cbe
00000100: 9ff5 b03d 40d1 873d fb44 31be 0ea5 09be
00000110: 5d38 1bbe ba7b c3bc 3fd6 a63d c645 33be
00000120: 27b3 21be a140 19be 8bc4 f2bd 318f bfbd
00000130: 8be1 0d3e 3b34 21be 9882 7f3d 5bd7 683b
00000140: 781d 9fbd 3c93 e5bd f94b fabd 88e1 31bd
00000150: e2a2 18bd b37a f93c e2af 1bbe e01a 08bc
00000160: 9713 83be 6dfe 2dbd 853c a73d b4eb d6bd
00000170: 4cf8 f8bd ca02 21be b532 e3bb 2022 ae3d
00000180: 95c0 423e 6369 20be 946f 6cbe 4566 d8bc
00000190: 0bde 473d 7c54 26be 4c8e 1c3e 5da3 4f3e
000001a0: 9036 d63c 74ab 47bd 5b59 a1bc 2589 533e
000001b0: 4efe 75be 0554 293e d0dd 113e 4cf8 173e
000001c0: 10cc d43d 788b 8bbd 35bd 543e 61a8 9f3d
000001d0: e7c8 5cbc 6fe7 063e 6e77 cbbc 26b2 d9bd
000001e0: 44a8 37be 4b69 1ebe 1e95 70be 19b1 2ebe
000001f0: 4ad8 093d 569a 343d 92d5 e1bc 6ac7 bc3c

rnn.weight_ih_l0 f4 [384, 128]
-0.09473245 -0.0921515 0.04032933 -0.075840615 0.008742974 -0.12339927 0.0072812163 0.057332106
-0.11441959 -0.08466661 -0.0036595208 -0.09358254 0.03914208 -0.02156655 0.03711012 -0.105465114
-0.06704574 0.051413134 -0.007649833 -0.0074956995 0.0027814128 0.09327403 0.084334195 -0.10115783
0.01648537 0.031307165 0.06433019 0.03381931 -0.028528154 -0.048354216 -0.015551153 -0.25382346
-0.06546833 -0.009527928 -0.053924218 -0.0049858 0.06711351 -0.10201708 0.058698844 -0.09476045
-0.01406925 0.055888947 0.015701456 -0.12746663 0.093795545 0.01722436 0.02173361 -0.0741693
4.7863546e-06 0.035920743 -0.12380265 0.04553407 -0.049071077 -0.006777845 0.010705286 -0.047399648
0.023344256 -0.007629258 -0.16639647 0.028832905 0.06646728 0.0089740325 -0.015934814 -0.17420217
0.036751654 0.046485312 -0.097108595 -0.25997275 -0.046489842 0.03643962 0.070770234 0.04281618
-0.0843248 -0.03752296 0.02885374 -0.028354265 0.010530044 -0.041728053 -0.016460046 -0.098699644
-0.10098544 -0.086609 0.0968195 0.01529869 -0.13197246 -0.0570216 -0.006208672 -0.0044604023
0.13240144 0.21032694 -0.13961755 -0.0009350266 0.09103419 -0.11845 0.05181907 -0.010094786
-0.03711879 -0.035520036 -0.028726801 -0.0636295 0.02577072 0.050684843 0.023255866 -0.055446457
0.0025564218 0.051992543 -0.08264587 0.048615117 0.043546863 -0.005102631 0.035879698 0.02736415
-0.0067980746 0.10321844 -0.05479986 -0.022104084 -0.014180876 -0.060159463 0.08681298 -0.18675102
-0.11233252 -0.063885756 -0.05697104 0.011495531 -0.117203765 0.06788216 0.009580237 0.0052316478
0.04519068 -0.09137125 -0.09310888 0.03340872 -0.0613581 -0.040259574 -0.06385953 -0.038878433
-0.058737524 0.041889437 -0.09154767 0.008860673 -0.08916815 0.009794415 0.0684085 -0.033308268
-0.100037575 -0.08243555 0.0027386048 0.0033889057 0.030247781 0.024241652 -0.0296439 -0.10382013
-0.059983414 0.018264746 -0.07008383 0.018332355 -0.08200734 -0.045321666 0.051032435 -0.057035685
0.09311929 -0.014375477 0.0009685493 -0.04681311 -0.076915406 0.045293607 0.028661128 0.023195852
-0.016955 0.009400244 -0.06860873 -0.11296328 -0.08752533 -0.011244692 -0.048643593 0.00014137282
-0.14631592 -0.15292592 0.030953808 -0.16945909 0.027484909 0.020961918 -0.011578762 0.06570222
-0.0007518831 -0.022793692 0.09028367 -0.102015235 -0.07101637 0.0076674367 -0.110567905 0.0007184779
0.03206368 0.041435964 0.0033277129 -0.14480053 -0.06359714 0.026258633 -0.03572935 -0.0863583
0.0005106132 -0.025361836 -0.07106998 0.00989014 0.076856226 -0.084708154 0.015731134 -0.11291299
0.035460766 -0.021916803 0.0034154027 -0.045391113 -0.051424406 0.055272922 -0.046990123 -0.07056367
0.06926738 0.024450498 0.051080626 -0.050308835 -0.011987959 -0.09566514 -0.017532943 -0.11486505
-0.09278934 0.004482732 0.075253665 -0.016997313 -0.06442858 -0.01456207 0.11160919 -0.08497021
-0.07532484 0.04178601 0.017938994 0.043397542 -0.019639181 -0.018680297 -0.06568297 -0.06969066
0.060360484 0.054579977 -0.021352164 0.036233637 -0.055821374 0.047322486 -0.098286465 -0.080595285
-0.06201456 0.050014034 -0.09453605 -0.004662199 -0.047426946 0.026366275 -0.07137836 -0.078861915
00000000: 1603 c2bd edb9 bcbd 5e30 253d 5352 9bbd
00000010: b13e 0f3c c2b8 fcbd 4597 ee3b 12d5 6a3d
00000020: d154 eabd b065 adbd 92d4 6fbb 34a8 bfbd
00000030: 7253 203d 55ac b0bc c800 183d 18fe d7bd
00000040: 474f 89bd 9496 523d 73ab fabb 7c9e f5bb
00000050: 5d48 363b 7406 bf3d 68b7 ac3d d62b cfbd
00000060: 540c 873c f13b 003d 8cbf 833d 1e86 0a3d
00000070: e0b3 e9bc 120f 46bd 43ca 7ebc 26f5 81be
00000080: 4314 86bd 071b 1cbc a4df 5cbd ec5f a3bb
00000090: cf72 893d 55ee d0bd 336e 703d c411 c2bd
000000a0: b682 66bc cfeb 643d 57a0 803c 9d86 02be
000000b0: e117 c03d 1a1a 8d3c af0a b23c 13e6 97bd
000000c0: 799a a036 a121 133d 3e8c fdbd ef81 3a3d
000000d0: c1fe 48bd af18 debb 3965 2f3c 2226 42bd
000000e0: 743c bf3c dbfe f9bb d663 2abe fc32 ec3c
000000f0: ff1f 883d d207 133c ba89 82bc 0e62 32be
00000100: e788 163d 6267 3e3d dfe0 c6bd 261b 85be
00000110: 226c 3ebd b641 153d fcef 903d 0560 2f3d
00000120: 7bb2 acbd adb1 19bd ae5e ec3c 3447 e8bc
00000130: 3586 2c3c 09eb 2abd 38d7 86bc 0a23 cabd
00000140: 74d1 cebd 0f60 b1bd 4d49 c63d 5ba7 7a3c
00000150: ca23 07be 7b8f 69bd 1e72 cbbb 9128 92bb
00000160: 3e94 073e f25f 573e e7f7 0ebe 931c 75ba
00000170: 2270 ba3d ea95 f2bd 3c40 543d 9a64 25bc
00000180: df09 18bd 757d 11bd 7854 ebbc 2f50 82bd
00000190: 1e1d d33c e99a 4f3d 1683 be3c d31b 63bd
000001a0: a489 273b 22f6 543d 3d42 a9bd a520 473d
000001b0: 325e 323d f933 a7bb 97f6 123d c82a e03c
000001c0: 62c2 debb 3164 d33d d175 60bd a013 b5bc
000001d0: e856 68bc c569 76bd 01cb b13d a93b 3fbe
000001e0: 980e e6bd 89d6 82bd 775a 69bd c057 3c3c
000001f0: 8708 f0bd cd05 8b3d 6df6 1c3c 3e6e ab3b
00000200: dd19 393d da20 bbbd deaf bebd 95d7 083d
00000210: a252 7bbd 39e7 24bd c9c8 82bd fe3e 1fbd
00000220: c296 70bd 4294 2b3d 587d bbbd 5b2c 113c
00000230: cb9d b6bd c178 203c c119 8c3d 406e 08bd
00000240: 80e0 ccbd f8d3 a8bd 2a7a 333b 6718 5e3b
00000250: 32ca f73c 6e96 c63c c4d7 f2bc a69f d4bd
00000260: 2bb1 75bd f39f 953c 1c88 8fbd bc2d 963c
00000270: 77f3 a7bd 36a3 39bd 6307 513d 409e 69bd
00000280: 54b5 be3d 1f87 6bbc 3ee6 7d3a 1bbf 3fbd
00000290: d385 9dbd ca85 393d beca ea3c 3a05 be3c
000002a0: 36e5 8abc 7b03 1a3c bc82 8cbd 4b59 e7bd
000002b0: 7b40 b3bd a83b 38bc 813e 47bd 7a3d 1439
000002c0: d7d3 15be 9d98 1cbe d792 fd3c af86 2dbe
000002d0: 0828 e13c 54b8 ab3c d9b4 3dbc e38e 863d
000002e0: 051a 45ba d6b9 babc a5e6 b83d 5ded d0bd
000002f0: 0871 91bd 1f3f fb3b 6d71 e2bd 3c58 3c3a
00000300: 3555 033d c2b8 293d c215 5a3b 9746 14be
00000310: 383f 82bd 581c d73c f058 12bd 9fdc b0bd
00000320: acda 053a a0c3 cfbc 238d 91bd 410a 223c
00000330: cc66 9d3d 787b adbd 94de 803c ed3e e7bd
00000340: 4f3f 113d de8a b3bc f3d4 5f3b 08ec 39bd
00000350: 66a2 52bd dc65 623d b778 40bd af83 90bd
00000360: 0edc 8d3d 694c c83c eb39 513d a310 4ebd
00000370: 2569 44bc 16ec c3bd 3fa1 8fbc 5e3e ebbd
00000380: 5608 bebd e2e3 923b 981e 9a3d f33d 8bbc
00000390: 22f3 83bd c095 6ebc 5c93 e43d dd04 aebd
000003a0: e943 9abd cf27 2b3d ccf4 923c 9fc1 313d
000003b0: 59e2 a0bc 6c07 99bc cb84 86bd fab9 8ebd
000003c0: 8e3c 773d 418f 5f3d bcea aebc b969 143d
000003d0: f4a4 64bd 39d5 413d 6a4a c9bd 240f a5bd
000003e0: fb02 7ebd 84db 4c3d 1e9c c1bd 5cc5 98bb
000003f0: c242 42bd 16fe d73c d12e 92bd 5b82 a1bd

rnn.weight_hh_l0 f4 [384, 128]
0.065526895 -0.009350998 -0.12590355 0.03073844 -0.032025367 0.0017745299 0.05115763 -0.03916266
0.057194076 -0.009980041 -0.069511026 0.045970324 0.07674457 -0.03793753 -0.04962392 -0.07214672
0.0029833582 0.050212197 -0.04442646 0.0660341 0.023199381 -0.10291407 -0.046226073 0.057251975
-0.027333876 0.09362604 -0.046318974 0.0931835 0.042690724 -0.009391816 -0.0087787025 0.05682617
0.004401332 -0.06801166 -0.085939206 -0.036204375 -0.106282495 0.052427392 -0.11293484 0.0037611816
-0.033108026 0.0383531 -0.010656921 -0.12213022 0.065829836 -0.07972707 0.030972883 0.086151876
-0.080925964 -0.0071586375 0.016209414 -0.1265045 -0.04051021 -0.04884554 -0.036321156 0.019428615
-0.04661974 -0.08463918 0.072678804 -0.031090915 0.13892967 0.041281007 -0.15430534 0.12286984
-0.096775025 -0.017098282 0.030956274 0.017850855 -0.10045946 0.06487815 -0.074205235 -0.02389033
-0.013458276 -0.031205889 -0.097123206 0.091787025 -0.036614686 -0.12452614 0.05900667 0.09827447
0.04543534 -0.0439338 0.026760478 -0.083205186 0.097463176 -0.047653243 0.07256888 0.03048823
0.0375741 0.0045670536 0.056533042 -0.10395211 -0.04903624 -0.04230355 -0.08511816 0.1083164
-0.093264505 -0.06957303 0.10588846 -0.026982998 -0.07249647 -0.032040842 -0.043719064 -0.07411161
0.08227563 -0.03496951 0.045059472 -0.053134575 0.013721494 -0.05143071 -0.027394956 0.07360969
0.025597626 -0.12145221 0.069231786 0.12348235 -0.022921715 -0.0014069562 -0.06422473 -0.04319949
0.08449492 -0.068445005 -0.041749276 -0.07548414 0.039041974 -0.002539606 0.0014192963 0.04281018
-0.0029134776 -0.044866633 -0.086304575 -0.013441693 0.104266696 0.052451562 -0.07111101 0.0787027
-0.09599234 0.000939912 0.008665599 0.030142602 0.035085063 -0.020942813 0.0016624186 -0.056375116
0.019700374 0.016419219 0.0958666 -0.06881806 -0.08088427 -0.003994061 -0.044508047 0.00973749
0.030190406 -0.04656876 0.07880448 0.05818497 0.059525616 0.067928135 -0.0043711956 0.024730017
0.033585224 0.004791706 0.05448007 0.051330984 0.020406237 0.04469856 -0.060341556 -0.09312116
0.02235751 -0.019961556 0.016667128 -0.06455399 -0.032386374 -0.043934874 -0.017997902 -0.09933504
0.0069786822 0.053781535 0.09793301 0.025786063 0.027589364 -0.09725416 0.02947336 0.02024188
0.070837185 -0.046810247 -0.0019294331 -0.08204688 -0.056819 0.049579524 -0.07758582 -0.064692006
-0.075177945 -0.087968424 0.048401076 -0.025762929 0.0699069 -0.07610014 -0.02239285 0.06401847
0.10209001 -0.0010579122 0.04057216 -0.02704784 0.06848621 0.06636418 0.046632487 -0.08341114
-0.033421494 0.10660152 0.058886845 -0.04332916 -0.00016655705 0.073747106 -0.05397391 0.020821253
0.07780613 0.016979072 -0.0031205919 -0.02386126 -0.07307433 0.04162578 0.044439055 -0.01492158
-0.041678574 -0.0368508 0.0763061 0.0607387 -0.09653701 -0.03260242 -0.072298415 -0.004642941
0.07050254 -0.060969874 -0.090874456 0.02844593 -0.080621354 -0.062741116 0.00017557094 -0.028963115
-0.07826318 0.10937342 -0.043738525 -0.016815884 0.059234757 0.06028553 -0.08517423 0.02333393
0.007726322 -0.033501994 -0.049679648 0.040223945 0.061205123 -0.03636788 0.02010999 0.014078884
00000000: f732 863d ee34 19bc dcec 00be 2ecf fb3c
00000010: 082d 03bd 5897 e83a aa8a 513d 0669 20bd
00000020: 5644 6a3d 5383 23bc cc5b 8ebd 614b 3c3d
00000030: 422c 9d3d 6264 1bbd 7442 4bbd a9c1 93bd
00000040: 7284 433b 4eab 4d3d 85f8 35bd e33c 873d
00000050: a10c be3c 9dc4 d2bd 8d57 3dbd 0c81 6a3d
00000060: 4beb dfbc 02bf bf3d f7b8 3dbd fed6 be3d
00000070: 78dc 2e3d 22e0 19bc 8cd4 0fbc 8fc2 683d
00000080: 0c39 903b b249 8bbd e500 b0bd 0a4b 14bd
00000090: a3aa d9bd 1bbe 563d 624a e7bd 287e 763b
000000a0: 489c 07bd 2418 1d3d 5e9a 2ebc 691f fabd
000000b0: cbd1 863d f247 a3bd d8ba fd3c 6570 b03d
000000c0: 83bc a5bd 0193 eabb 9bc9 843c 658a 01be
000000d0: 09ee 25bd 4312 48bd 7ec5 14bd c228 9f3c
000000e0: 57f4 3ebd 4e57 adbd a0d8 943d 60b2 febc
000000f0: 9443 0e3e 4616 293d 3802 1ebe 2fa3 fb3d
00000100: fc31 c6bd b211 8cbc 0398 fd3c f53b 923c
00000110: b0bd cdbd d6de 843d eaf8 97bd a7b5 c3bc
00000120: 1a80 5cbc 7ea3 ffbc 88e8 c6bd d6fa bb3d
00000130: 48f9 15bd 9007 ffbd fab0 713d 2044 c93d
00000140: 681a 3a3d eef3 33bd ca38 db3c 7b67 aabd
00000150: c69a c73d 0c30 43bd fe9e 943d 74c2 f93c
00000160: 4de7 193d 39a7 953b 318f 673d d8e4 d4bd
00000170: 39da 48bd 7d46 2dbd 6e52 aebd fdd4 dd3d
00000180: 7601 bfbd 4e7c 8ebd 0ddc d83d 730b ddbc
00000190: 0779 94bd 423d 03bd c312 33bd d4c7 97bd
000001a0: 2080 a83d 303c 0fbd 4890 383d a4a3 59bd
000001b0: 1ed0 603c 02a9 52bd 636b e0bc adc0 963d
000001c0: 1db2 d13c f0bb f8bd 65c9 8d3d 50e4 fc3d
000001d0: 52c6 bbbc 9e69 b8ba 4188 83bd f3f1 30bd
000001e0: ac0b ad3d e52c 8cbd 4a01 2bbd 6e97 9abd
000001f0: 7aea 1f3d 856f 26bb ae07 ba3a ba59 2f3d
00000200: 0bf0 3ebb 13c6 37bd 74c0 b0bd 8c3a 5cbc
00000210: c789 d53d 73d7 563d a6a2 91bd e22e a13d
00000220: a297 c4bd 6d64 763a 28fa 0d3c 9eed f63c
00000230: 5bb5 0f3d 4390 abbc 83e5 d93a 98e9 66bd
00000240: ae62 a13c 9981 863c b555 c43d 7cf0 8cbd
00000250: a7a6 a5bd 9de0 82bb 124e 36bd fe89 1f3c
00000260: df51 f73c e2be 3ebd 3e64 a13d 5d53 6e3d
00000270: 22d1 733d e81d 8b3d 3f3c 8fbb 9b96 ca3c
00000280: a990 093d be03 9d3b 7e26 5f3d 7040 523d
00000290: fb2a a73c d615 373d b528 77bd 4fb6 bebd
000002a0: 1927 b73c 6b86 a3bc 8089 883c e234 84bd
000002b0: 93a7 04bd 0ef5 33bd 5670 93bc 2b70 cbbd
000002c0: 6ead e43b 074a 5c3d 1a91 c83d 4b3d d33c
000002d0: 1703 e23c 302d c7bd 1e72 f13c 4dd2 a53c
000002e0: 1613 913d 1abc 3fbd 08e5 fcba 3208 a8bd
000002f0: 0abb 68bd e613 4b3d 50e5 9ebd 3e7d 84bd
00000300: e5f6 99bd ca28 b4bd 3540 463d c70c d3bc
00000310: 592b 8f3d 64da 9bbd 3671 b7bc 1e1c 833d
00000320: 9114 d13d a5a9 8aba fe2e 263d 6f93 ddbc
00000330: 8042 8c3d f1e9 873d b501 3f3d 76d3 aabd
00000340: fae4 08bd e651 da3d 5533 713d eb79 31bd
00000350: d1a5 2eb9 b908 973d bf13 5dbd 5591 aa3c
00000360: d258 9f3d b217 8b3c d882 4cbb b078 c3bc
00000370: ffa7 95bd cb7f 2a3d ba05 363d a579 74bc
00000380: 27b7 2abd ddf0 16bd 5f46 9c3d 25c9 783d
00000390: 32b5 c5bd 1d8a 05bd 3111 94bd d023 98bb
000003a0: a363 903d 8cbb 79bd 631c babd 7007 e93c
000003b0: cf1c a5bd 6a7e 80bd 7719 3839 0e44 edbc
000003c0: 7248 a0bd 2cff df3d 2b27 33bd 77c1 89bc
000003d0: 25a0 723d f6ed 763d d46f aebd cc26 bf3c
000003e0: 162d fd3b 6339 09bd e37c 4bbd ddc1 243d
000003f0: 39b2 7a3d 7cf6 14bd b5bd a43c 1fab 663c

rnn.bias_ih_l0 f4 [384]
-0.0071303747 -0.039631125 -0.005497472 -0.07287303 -0.0036623678 -0.07192915 0.04641592 -0.07141772
0.06371577 0.0025437125 0.017617155 0.10194993 0.027823223 -0.028811626 -0.020235391 0.06373591
-0.05465106 -0.061008397 -0.022258217 0.050923128 -0.035592012 0.13839284 -0.008201703 -0.042372838
-0.060365234 -0.065950796 0.018272284 -0.10771564 0.0025080994 0.051587623 -0.06508222 0.058344737
-0.09185881 -0.038287528 -0.021651583 -0.018049331 0.027092509 0.07521864 -0.113444775 0.092427574
0.000241127 0.068911456 -0.047447503 0.021886764 -0.07651325 -0.054957993 0.003103096 0.082511514
-0.1023659 0.038215507 -0.04881393 -0.06910894 -0.016332025 -0.036440633 0.06547679 -0.0031418481
0.004741617 -0.100588255 0.08878446 0.03542532 -0.03208527 -0.006074198 -0.0036981732 -0.079331174
-0.051619638 0.059114773 -0.07035071 -0.10008709 -0.05652084 -0.047436338 0.008428517 0.12541161
0.031458467 0.0051309485 -0.026102152 -0.013772862 -0.016138608 0.04991375 0.06240175 -0.031196516
0.027800484 0.057266463 -0.055649653 0.083118655 0.029513234 0.13015813 -0.030230736 -0.055906616
0.01677928 0.04877059 -0.025396282 0.017215699 -0.04304704 0.03811697 0.02368068 0.02898602
-0.06582284 0.03975882 0.032231826 -0.013306979 -0.011181145 -0.060832653 0.04754049 -0.00509835
-0.0367961 -0.009583139 -0.06284028 -0.06382234 0.039802205 -0.086399846 -0.043009136 -0.023512434
-0.078461 -0.04689232 0.04732027 0.09538496 -0.0037846249 -0.017033422 -0.10385482 -0.015427446
0.010975083 -0.0803035 0.072936006 0.019144237 0.011379072 0.11099552 -0.10396101 -0.025968488
0.08961133 0.00017588027 -0.033848558 0.10738596 0.0582284 0.009282205 0.03211428 -0.04260549
-0.04376405 0.10840055 0.0926861 -0.02435365 -0.082720004 0.14557089 -0.020194259 0.008186604
0.028179891 -0.010972489 -0.045178656 -0.020518973 0.13068919 -0.08110548 0.008855182 -0.008370444
0.04606884 0.09545859 -0.036961857 -0.009449923 0.051912967 0.05187059 0.031601 -0.040467568
0.09656161 0.13156505 0.11743356 0.1264191 -0.009888456 0.123167194 -0.0049942927 -0.03844206
-0.0123589765 0.14307947 0.014396662 0.062256206 -0.06063938 0.07152674 -0.018663697 0.0005517251
0.12524323 -0.026259646 -0.022411002 0.05927443 -0.010224191 0.016728507 0.034482345 0.07905487
0.04233984 0.11525793 0.043932237 0.03345318 -0.060625084 0.018122435 -0.001352102 0.06232609
0.09146616 -0.008428918 0.12152948 -0.0048176036 0.0070748325 0.024256006 0.0030294815 -0.08346928
-0.011879596 0.12128527 -0.060674228 -0.014420008 0.0654059 0.058322806 0.04908522 0.11556836
-0.023383996 -0.017431654 0.06245197 -0.015574 -0.029602818 0.061409857 0.101234 0.08114617
0.11272518 0.04262543 -0.026256008 0.119688615 0.11181653 0.097178034 0.016041748 -0.043374337
0.15549184 0.010496248 0.06421706 0.10888286 -0.07473626 -0.004117568 -0.05829533 0.009039605
-0.027774962 0.07263445 0.0035331338 0.08607419 -0.065492265 0.06573583 -0.005796693 0.015079563
0.09942327 0.10092626 0.0938257 -0.08292427 -0.083614 0.04784741 0.086804025 0.080246806
-0.05770552 -0.051535264 -0.08308318 0.088668436 0.045160104 -0.056276686 -0.028035702 -0.04049938
00000000: eba5 e9bb 3f54 22bd 2324 b4bb 753e 95bd
00000010: 5604 70bb 974f 93bd 9f1e 3e3d 7443 92bd
00000020: 6a7d 823d 6ab4 263b da51 903c 20cb d03d
00000030: 87ed e33c 5c06 ecbc b1c4 a5bc f987 823d
00000040: cad9 5fbd f1e3 79bd dd56 b6bc c594 503d
00000050: eec8 11bd dab6 0d3e 7060 06bc 248f 2dbd
00000060: 8941 77bd 3611 87bd c2af 953c 049a dcbd
00000070: ed5e 243b 8b4d 533d d449 85bd e4fa 6e3d
00000080: 7920 bcbd 62d3 1cbd a95e b1bc 31dc 93bc
00000090: 1cf1 dd3c 3b0c 9a3d bc55 e8bd ab4a bd3d
000000a0: 09d7 7c39 7321 8d3d 5058 42bd df4b b33c
000000b0: fbb2 9cbd a21b 61bd 505d 4b3b ccfb a83d
000000c0: 37a5 d1bd dd87 1c3d 1ef1 47bd fd88 8dbd
000000d0: bdca 85bc c642 15bd b218 863d 77e7 4dbb
000000e0: 915f 9b3b 3701 cebd a1d4 b53d 241a 113d
000000f0: d86b 03bd 110a c7bb 0d5d 72bb 6278 a2bd
00000100: 1d6f 53bd 5522 723d 0814 90bd 76fa ccbd
00000110: 6582 67bd 9b4c 42bd c317 0a3c e76b 003e
00000120: 98da 003d 8421 a83b 2ed4 d5bc 92a7 61bc
00000130: 1d35 84bc 5c72 4c3d fa98 7f3d d68f ffbc
00000140: d7bd e33c 3d90 6a3d e4f0 63bd 1d3a aa3d
00000150: bdc5 f13c 2c48 053e 73a6 f7bc 56fe 64bd
00000160: b374 893c acc3 473d dd0b d0bc f007 8d3c
00000170: 1852 30bd 8a20 1c3d fcfd c13c 1774 ed3c
00000180: 20ce 86bd 25da 223d 8505 043d 8405 5abc
00000190: 1f31 37bc a92b 79bd d1b9 423d 0f10 a7bb
000001a0: 82b7 16bd 9902 1dbc 68b2 80bd 49b5 82bd
000001b0: a307 233d 67f2 b0bd 592a 30bd 269d c0bc
000001c0: 29b0 a0bd 2912 40bd e6d2 413d 3159 c33d
000001d0: 7807 78bb ad89 8bbc d6b1 d4bd 66c3 7cbc
000001e0: d6d0 333c 2976 a4bd 795f 953d 60d4 9c3c
000001f0: 4a6f 3a3c 9f51 e33d 83e9 d4bd debb d4bc
00000200: 2586 b73d 806c 3839 c9a4 0abd 2ced db3d
00000210: e780 6e3d 6414 183c 438a 033d 1883 2ebd
00000220: ef41 33bd 1c01 de3d 36d2 bd3d 4e81 c7bc
00000230: 1b69 a9bd 8910 153e 6e6e a5bc 1b21 063c
00000240: 84d9 e63c f4c5 33bc 410d 39bd 6817 a8bc
00000250: 63d3 053e a11a a6bd 5315 113c 3024 09bc
00000260: aeb2 3c3d cb7f c33d 5165 17bd dad3 1abc
00000270: b1a2 543d 4176 543d 0d70 013d 52c1 25bd
00000280: 18c2 c53d fdb8 063e 0281 f03d 0274 013e
00000290: 3103 22bc 153f fc3d 2aa7 a3bb 6c75 1dbd
000002a0: 4e7d 4abc 6d83 123e fadf 6b3c 5d00 7f3d
000002b0: 0061 78bd 9d7c 923d 9ce4 98bc a5a1 103a
000002c0: c33f 003e 781e d7bc 4797 b7bc bfc9 723d
000002d0: 5d83 27bc 390a 893c 5c3d 0d3d 85e7 a13d
000002e0: 8a6c 2d3d 590c ec3d 4af2 333d 3406 093d
000002f0: 0252 78bd 8075 943c 0439 b1ba a449 7f3d
00000300: 9c52 bb3d 7219 0abc 73e4 f83d fddc 9dbb
00000310: ffd3 e73b 88b4 c63c 448a 463b f1f1 aabd
00000320: a3a2 42bc 6964 f83d 8a85 78bd e641 6cbc
00000330: 87f3 853d e5e3 6e3d 950d 493d 1baf ec3d
00000340: cb8f bfbc d4cc 8ebc a3cd 7f3d 172a 7fbc
00000350: 9c81 f2bc e788 7b3d c553 cf3d f72f a63d
00000360: 76dc e63d 0198 2e3d d716 d7bc 4e1f f53d
00000370: 1100 e53d 4705 c73d fc69 833c 4aa9 31bd
00000380: 4139 1f3e 74f8 2b3c 3c84 833d fafd de3d
00000390: 530f 99bd aaec 86bb 15c7 6ebd da1a 143c
000003a0: 5188 e3bc 5fc1 943d 268c 673b aa47 b03d
000003b0: cf20 86bd 82a0 863d 2ff2 bdbb 4510 773c
000003c0: 6d9e cb3d 6db2 ce3d b027 c03d 33d4 a9bd
000003d0: d13d abbd a5fb 433d 4fc6 b13d 7058 a43d
000003e0: a05c 6cbd a416 53bd 8427 aabd cc97 b53d
000003f0: cdf9 383d 6282 66bd 21ab e5bc aee2 25bd

rnn.bias_hh_l0 f4 [384]
-0.06355544 0.046918936 0.0070475303 0.054180417 0.07002083 0.0015714845 -0.018493703 -0.07469509
0.02367887 0.080714956 0.03867647 -0.05134391 0.072652824 -0.020174833 -0.025612062 -0.028061677
0.008394815 0.08499434 -0.078983605 0.044553 -0.0020786435 0.11067046 -0.015148457 -0.023339177
-0.06318936 0.012685571 0.02885042 -0.07523755 0.0074042864 -0.002901019 -0.033396248 -0.03727073
0.0249461 -0.00014236069 0.0062428177 0.01733629 -0.010753938 0.0147067 0.033752926 0.018521478
-0.06409809 -0.059326373 -0.074765325 -0.00041980506 -0.055677064 -0.0608451 0.0337849 -0.066318795
-0.029099865 0.052401025 -0.029110614 0.010360401 -0.004058388 -0.09098549 -0.021949898 -0.0861547
-0.076299414 0.036889344 0.04216816 -0.036186807 -0.011560122 -0.12405933 -0.0020119576 -0.032550156
0.056700394 0.007906581 -0.07385719 -0.09201609 -0.056092158 0.0074556503 0.037786506 -0.02901718
-0.0626881 0.036166605 -0.03459732 -0.029978514 -0.056953806 -0.011410794 -0.0012807753 0.07463416
0.03039758 0.014931438 -0.0567262 0.050342802 -0.005005317 0.13399294 0.05870388 -0.037604295
-0.031904526 -0.08853799 -0.07851524 0.032800443 0.010543431 0.0204857 0.01768006 0.004769126
-0.017037641 -0.024901701 0.107710175 0.04925985 -0.08896305 0.06271634 -0.039666243 0.056475896
0.0011818446 -0.036552925 -0.015770886 -0.06941978 0.10455962 -0.10345959 -0.05369009 0.08161093
-0.011166248 -0.032344256 0.001650028 -0.004187437 0.059663646 -0.091268726 0.045050204 -0.08527057
-0.055811405 -0.083372355 0.06257202 0.04535168 0.03461857 0.08413301 -0.020163136 -0.00613594
-0.044948217 -0.0039886525 0.026841393 0.12802634 -0.034673236 0.07455958 -0.033060994 -0.061873283
-0.09540079 0.11494259 0.09209192 -0.1309586 -0.05592244 0.034874965 -0.0028042612 -0.051865865
-0.025409462 -0.008688107 0.06558504 -0.061326396 0.07049621 0.0064162076 0.15261793 -0.08561769
0.041550744 0.10074645 -0.011940483 0.09889782 -0.049083218 0.05508462 0.017941812 -0.016507255
0.013093569 -0.00018685262 -0.008395604 -0.013176359 0.055420976 0.07092126 0.11909441 0.015663134
0.00064800435 0.06673988 -0.053178426 0.08090362 -0.037957314 -0.024933828 0.059348285 0.08050527
0.10807944 0.07230346 -0.037113443 0.042360585 0.008732478 0.0009345164 0.08849218 0.039625265
0.026134524 0.012899876 0.02831278 0.09665203 0.0620927 0.03748627 -0.09749529 -0.020806145
0.00775628 0.059235048 -0.003422406 0.09249988 -0.00047452239 0.073294125 0.043347467 0.04428025
0.09988343 0.029139936 0.018512469 0.08732632 -0.0114383325 0.0213523 0.120596595 0.026742266
0.024486326 -0.099305704 0.0048589967 0.0018554257 -0.016505426 -0.053989142 -0.007573065 -0.07692474
0.15132205 0.099583626 0.060290463 0.06357542 0.1366909 0.06446822 -0.02371124 0.00040434548
0.16874067 -0.046808884 0.009035946 -0.028890092 -0.041505452 -0.06106471 0.028153274 0.11135438
-0.06763965 0.087479584 0.05719899 0.13585478 0.054439757 0.0076128375 0.0385724 -0.022941599
0.08623708 0.049552053 0.14721325 -0.019638477 0.02215914 0.059068345 0.115628265 0.039170977
0.027777923 -0.054335207 -0.046601795 -0.060673647 0.01664189 -0.019453712 0.07660455 -0.0038614965
00000000: 5b29 82bd 122e 403d f8ee e63b 49ec 5d3d
00000010: 1567 8f3d 45fa cd3a 1b80 97bc bdf9 98bd
00000020: 31fa c13c e24d a53d 386b 1e3d fe4d 52bd
00000030: 01cb 943d b145 a5bc 63d0 d1bc 9ae1 e5bc
00000040: 688a 093c 8311 ae3d 28c2 a1bd 357d 363d
00000050: da39 08bb 32a7 e23d 3c31 78bc cd31 bfbc
00000060: 6c69 81bd 24d7 4f3c b757 ec3c 2516 9abd
00000070: a89f f23b 061f 3ebb 81ca 08bd 31a9 18bd
00000080: c35b cc3c a846 15b9 8d90 cc3b d604 8e3c
00000090: 4931 30bc 5ff4 703c 8240 0a3d 5bba 973c
000000a0: dc45 83bd 3600 73bd 901e 99bd 4819 dcb9
000000b0: a20d 64bd b638 79bd 0962 0a3d 26d2 87bd
000000c0: d762 eebc 75a2 563d 6279 eebc acbe 293c
000000d0: 3afc 84bb 9a56 babd 46d0 b3bc e071 b0bd
000000e0: de42 9cbd 4819 173d 85b8 2c3d 9e38 14bd
000000f0: aa66 3dbc d112 febd 0cdb 03bb 5053 05bd
00000100: ac3e 683d 9b8a 013c 7042 97bd ef72 bcbd
00000110: e4c0 65bd 874e f43b 06c6 1a3d 70b5 edbc
00000120: 9e62 80bd 6f23 143d ebb5 0dbd 8095 f5bc
00000130: 6548 69bd 57f4 3abc b0df a7ba cbd9 983d
00000140: 5804 f93c fda2 743c bb59 68bd 4134 4e3d
00000150: a403 a4bb 7235 093e 7b73 703d f606 1abd
00000160: 52ae 02bd 6853 b5bd 99cc a0bd c259 063d
00000170: 5bbe 2c3c a0d1 a73c c6d5 903c 5446 9c3b
00000180: 8692 8bbc a7fe cbbc 2797 dc3d b2c4 493d
00000190: 4232 b6bd 6d71 803d 1279 22bd 4553 673d
000001a0: 20e8 9a3a 85b8 15bd f231 81bc f52b 8ebd
000001b0: 5b23 d63d 9fe2 d3bd 24ea 5bbd a223 a73d
000001c0: a3f2 36bc 697b 04bd c145 d83a c436 89bb
000001d0: de61 743d 19eb babd 9086 383d 56a2 aebd
000001e0: 809a 64bd 20bf aabd c225 803d afc2 393d
000001f0: 34cc 0d3d ed4d ac3d 292d a5bc ff0f c9bb
00000200: 9f1b 38bd 3eb3 82bb 7be2 db3c 5619 033e
00000210: 8605 0ebd b1b2 983d f76a 07bd d76e 7dbd
00000220: 7d61 c3bd 0567 eb3d b09a bc3d 031a 06be
00000230: ee0e 65bd 0dd9 0e3d b2c7 37bb 4d71 54bd
00000240: 8127 d0bc 9058 0ebc 7351 863d 6331 7bbd
00000250: 5160 903d 0d3f d23b e047 1c3e 5458 afbd
00000260: 1d31 2a3d 2854 ce3d 04a2 43bc f18a ca3d
00000270: 7c0b 49bd 69a0 613d b5fa 923c 393a 87bc
00000280: 6986 563c deed 43b9 b78d 09bc a8e1 57bc
00000290: 1b01 633d 2a3f 913d c5e7 f33d f94f 803c
000002a0: d6de 293a ebae 883d 9fd1 59bd ccb0 a53d
000002b0: 2179 1bbd 0742 ccbc 3017 733d f2df a43d
000002c0: c158 dd3d d613 943d 4404 18bd 4b82 2d3d
000002d0: ab12 0f3c 56fa 743a 633b b53d 1a4e 223d
000002e0: 1218 d63c 005a 533c 34f0 e73c 80f1 c53d
000002f0: ea54 7e3d 348b 193d 9cab c7bd a671 aabc
00000300: 6428 fe3b 73a0 723d 724a 60bb 9470 bd3d
00000310: 51c9 f8b9 3b1b 963d 1d8d 313d 355f 353d
00000320: af8f cc3d e0b6 ee3c 76a7 973c 24d8 b23d
00000330: d867 3bbc 05eb ae3c 59fb f63d 9912 db3c
00000340: 8c97 c83c ca60 cbbd 3838 9f3b c131 f33a
00000350: 6336 87bc b823 5dbd 7927 f8bb b88a 9dbd
00000360: 2bf4 1a3e 80f2 cb3d 22f3 763d d433 823d
00000370: b3f8 0b3e ea07 843d 133e c2bc 55fe d339
00000380: 5bca 2c3e acba 3fbd 810b 143c eaaa ecbc
00000390: 9f01 2abd fd1e 7abd b2a1 e63c c40d e43d
000003a0: a886 8abd 7f28 b33d 7d49 6a3d 841d 0b3e
000003b0: 39fc 5e3d 1c75 f93b 18fe 1d3d 05f0 bbbc
000003c0: 119d b03d 18f7 4a3d 12bf 163e dfe0 a0bc
000003d0: 1687 b53c a6f1 713d 83ce ec3d bf71 203d
000003e0: 878e e33c 988e 5ebd 86e1 3ebd ee84 78bd
000003f0: 9354 883c 645d 9fbc d9e2 9c3d 2911 7dbb

predict.1.weight f4 [24, 128]
0.0025785037 -0.01344041 0.008316871 -0.03801808 0.026399752 -0.048157293 -0.056790095 0.019010704
0.016608233 0.05630058 -0.0074540195 -0.05000719 -0.015216346 0.04567841 0.0141163785 0.009343749
0.009056433 -0.020946633 0.020536633 0.014320243 0.0146199195 0.021097573 -0.0051367525 0.044133
0.011798963 0.007625539 0.021522285 0.001506489 -0.05219701 -0.06190736 0.02333084 -0.022262154
-0.0443277 -0.007588806 -0.018233508 -0.002248337 -0.014994765 -0.032219607 0.0046974877 0.016177312
-0.012468169 -0.017856767 0.0196244 -0.0014703388 0.024903221 -0.0014637985 0.000879917 0.03500385
0.057447005 -0.040719762 -0.042905945 0.033501733 0.009099314 -0.023454756 0.025096638 -0.0045981607
-0.03285634 0.020604568 0.02959431 0.010950352 -0.03556872 -0.0070978235 0.017185979 0.04722659
0.032505922 0.019856995 0.015083385 -0.02251409 -0.01247522 -0.027979765 0.008749921 0.043550353
0.021397557 -0.0021685455 -0.0119723175 0.08566367 -0.011840702 -0.012164087 -0.019924205 0.00561094
-0.002749709 0.006247388 -0.007209254 0.022255598 0.015873998 0.024647752 0.0011572774 -0.026829539
-0.020034106 -0.023140686 -0.02986782 0.022721017 -0.03507183 0.03994682 -0.03362021 -0.031986494
0.019222334 -0.06272211 -0.00740875 -0.038329232 -0.0015900063 0.010206113 -0.015788006 0.02223754
-0.06746277 0.036247782 -0.0066934614 0.075084105 -0.025241166 0.019908076 0.014254847 0.0362558
-0.021237116 -0.012382536 -0.05562733 -0.044254653 -0.0017091286 0.03734976 -0.022101069 -0.04435857
0.068377264 -0.020000244 0.014292474 0.006582382 0.018979575 -0.073851384 0.010931385 -0.037838172
-0.05543695 0.054227505 0.06654329 -0.025044343 -0.0006095845 -0.037909266 -0.053719148 -0.02129579
0.051654402 0.02867406 -0.014861226 -0.008534488 -0.022055887 0.03996961 0.04132759 -0.0021395166
-0.036678225 0.005273728 0.035194974 0.007292701 0.054431 0.017786287 -0.035978694 0.10086432
0.00055494433 -0.049997613 -0.016802292 -0.020406296 -0.009953614 -0.0608613 0.054440968 -0.089321464
-0.051735636 0.025461549 -0.052658666 0.027497934 -0.043160968 -0.038513783 0.006990268 -0.019321976
-0.0053522717 0.0012710955 0.029195525 0.020486139 0.04853542 -0.003496661 -0.009920882 0.021006433
0.0539622 -0.032013692 -0.036406666 0.023665415 0.0064808093 -0.042013288 0.018890385 -0.048525397
-0.013863506 -0.015187796 0.03367998 0.0333608 -0.0604935 0.019894283 0.05716487 0.0050147385
0.09348533 0.010602777 0.047030445 -0.056907345 -0.029615287 -0.013046862 0.030290121 -0.0023873749
0.0069391374 -0.012395346 -0.007373163 0.100333154 -0.06557246 -0.012620389 0.00087813666 0.06551518
-0.08015307 0.030924786 -0.01924635 0.0019638247 0.014776272 0.0154537195 -0.04503926 -0.015290341
-0.0070690005 -0.0048932573 -0.02816538 0.021286052 -0.034862828 0.01983247 -0.0739987 -0.03571762
0.024736676 -0.040197346 -0.004191111 0.009703949 -0.031600136 -0.008082472 -0.010839767 0.066455305
-0.062999025 0.05042322 0.05370597 0.1259904 0.009357131 0.012688501 0.08636366 0.01053782
-0.02878885 -0.02852419 -0.044268873 -0.04665916 -0.034570664 0.054049637 -0.034769285 -0.042390354
0.04995551 -0.0484095 0.023525637 -0.08450295 0.06309073 -0.07665118 0.07225968 -0.033651613
00000000: 1dfc 283b 2a35 5cbc 7c43 083c d9b8 1bbd
00000010: 4b44 d83c 9540 45bd bb9c 68bd 56bc 9b3c
00000020: fd0d 883c 709b 663d d940 f4bb 57d4 4cbd
00000030: fb4d 79bc 4919 3b3d 6248 673c 8616 193c
00000040: 6f61 143c 4698 abbc 713c a83c 749f 6a3c
00000050: 6388 6f3c d1d4 ac3c 3452 a8bb cec4 343d
00000060: 7050 413c a8df f93b 814f b03c 6275 c53a
00000070: 88cc 55bd 9292 7dbd 5120 bf3c 1f5f b6bc
00000080: f690 35bd 85ab f8bb 705e 95bc d658 13bb
00000090: 9aac 75bc b5f8 03bd 62ed 993b 4886 843c
000000a0: 4b47 4cbc 5b48 92bc 5ac3 a03c 62b8 c0ba
000000b0: d701 cc3c eddc bfba 3baa 663a 3260 0f3d
000000c0: 8d4d 6b3d c4c9 26bd 25be 2fbd 1d39 093d
000000d0: 4a15 153c 3024 c0bc 7797 cd3c 2bac 96bb
000000e0: 5f94 06bd e9ca a83c c46f f23c 1b69 333c
000000f0: 82b0 11bd dc94 e8bb 9cc9 8c3c ab70 413d
00000100: ee24 053d 23ab a23c 4d20 773c 786f b8bc
00000110: dd64 4cbc d235 e5bc d45b 0f3c db61 323d
00000120: ee49 af3c 281e 0ebb 8a27 44bc 6f70 af3d
00000130: 81ff 41bc e14b 47bc 1638 a3bc fadb b73b
00000140: 7634 34bb e4b6 cc3b 9b3b ecbb 5f51 b63c
00000150: 300a 823c 15ea c93c c9af 973a 9fc9 dbbc
00000160: 911e a4bc 8991 bdbc 5cad f4bc 6d21 ba3c
00000170: 7ba7 0fbd 479f 233d 58b5 09bd 4504 03bd
00000180: 2878 9d3c 7374 80bd 19c5 f2bb 1dff 1cbd
00000190: c267 d0ba 8a37 273c d955 81bc 802b b63c
000001a0: ec29 8abd 8e78 143d d354 dbbb b2c5 993d
000001b0: 90c6 cebc 4316 a33c 298d 693c f680 143d
000001c0: 76f9 adbc 1fe0 4abc 7cd9 63bd 5e44 35bd
000001d0: d704 e0ba 10fc 183d 4d0d b5bc 55b1 35bd
000001e0: 6109 8c3d 8dd7 a3bc fb2a 6a3c 06b1 d73b
000001f0: 0e7b 9b3c 653f 97bd 8d19 333c 33fc 1abd
00000200: db11 63bd a91d 5e3d d947 883d cb29 cdbc
00000210: 86cc 1fba bf46 1bbd 9c08 5cbd 8274 aebc
00000220: 9193 533d dde5 ea3c 807c 73bc 3dd4 0bbc
00000230: 8cae b4bc 2cb7 233d 1e47 293d 2237 0cbb
00000240: e83b 16bd 3dcf ac3b 9b28 103d 9cf7 ee3b
00000250: 0af3 5e3d 8cb4 913c 655e 13bd f491 ce3d
00000260: af79 113a 4cca 4cbd f6a4 89bc 1b2b a7bc
00000270: 7c14 23bc b349 79bd 7efd 5e3d 2cee b6bd
00000280: bfe8 53bd bd94 d03c 9db0 57bd 5943 e13c
00000290: 8ec9 30bd a1c0 1dbd 9e0e e53b 1f49 9ebc
000002a0: 1c62 afbb e39a a63a 742b ef3c 8cd2 a73c
000002b0: 14cd 463d 3d28 65bb 328b 22bc af15 ac3c
000002c0: 7807 5d3d ca20 03bd 281f 15bd f9dd c13c
000002d0: f85c d43b 2016 2cbd 02c0 9a3c 91c2 46bd
000002e0: c223 63bc 3cd6 78bc 05f4 093d 56a5 083d
000002f0: 08c8 77bd 56f9 a23c b625 6a3d ad52 a43b
00000300: 3d75 bf3d 45b7 2d3c ffa2 403d ad17 69bd
00000310: c29b f2bc 81c2 55bc fd22 f83c 8175 1cbb
00000320: b461 e33b d915 4bbc 939a f1bb 787b cd3d
00000330: db4a 86bd c0c5 4ebc c132 663a d32c 863d
00000340: 4b27 a4bd fa55 fd3c 85aa 9dbc 83b3 003b
00000350: 2d18 723c 9931 7d3c 167b 38bd 5784 7abc
00000360: 13a3 e7bb 9e57 a0bb 15bb e6bc 1660 ae3c
00000370: 53cc 0ebd b477 a23c a18c 97bd a44c 12bd
00000380: 92a4 ca3c f9a5 24bd 9655 89bb 50fd 1e3c
00000390: 256f 01bd 586c 04bc 4799 31bc b819 883d
000003a0: a205 81bd 9488 4e3d cbfa 5b3d a103 013e
000003b0: a74e 193c 6ee3 4f3c 6edf b03d d2a6 2c3c
000003c0: 98d6 ebbc 90ab e9bc 4753 35bd ad1d 3fbd
000003d0: f899 0dbd 2763 5d3d 3d6a 0ebd 82a1 2dbd
000003e0: 269e 4c3d 0a49 46bd d6b8 c03c e20f adbd
000003f0: b635 813d 4bfb 9cbd e2fc 933d 46d6 09bd

predict.1.bias f4 [24]
-0.0313061 -0.024761895 0.027915565 0.020171273 0.01708129 -0.023132235 0.035082962 -0.04984465
0.0043055466 0.039530087 0.01958551 -0.066448584 0.020709896 0.018150933 0.0032620702 -0.026925808
-0.006436156 0.038528107 0.06101921 0.0011625363 0.03162584 -0.04643141 -0.04061163 -0.03217613
00000000: d33a 00bd 75d9 cabc 2faf e43c 3a3e a53c
00000010: 10ee 8b3c d07f bdbc 27b3 0f3d e729 4cbd
00000020: 8b15 8d3b 4dea 213d cb71 a03c 3216 88bd
00000030: cda7 a93c 44b1 943c 75c8 553b 8393 dcbc
00000040: 64e6 d2bb a6cf 1d3d 47ef 793d 3f60 983a
00000050: 198a 013d dd2e 3ebd 6158 26bd 1ecb 03bd
