results/electricity_DLinear/1/checkpoint.pth (torch, 20840 bytes, 4 tensors)

Linear_Seasonal.weight f4 [24, 96]
000000 6e 50 80 3c 49 c0 41 3c 21 66 13 3b 54 f4 f4 3b
       0.015663352 0.0118256295 0.0022491293 0.0074754152
000010 bb 43 ce b9 65 42 83 bc e9 ab c5 3c 19 cd 9d 3c
       -0.00039341845 -0.01602287 0.024129825 0.019262837
000020 9d 4d 78 bb fa 25 5f bc 3d eb 12 3c 9d b4 e4 ba
       -0.0037888058 -0.013619894 0.008967218 -0.0017448846
000030 0f a6 46 3c fe 69 99 bb 68 e6 f6 3c a9 21 bb 3c
       0.012124552 -0.0046818247 0.030139163 0.022843199
000040 99 e6 d1 ba e1 81 07 bb 8c 18 d2 3c 88 e3 f5 3b
       -0.0016014158 -0.002067678 0.02564647 0.0075039305
000050 76 0d bc bb 9d ab 7b bc bd 5a 1d bd f3 0e 82 bd
       -0.0057389094 -0.01536074 -0.038416613 -0.063505076
000060 fd 73 e6 3d 61 34 47 3d 4f 5b 13 3c d6 d7 f2 3b
       0.11252592 0.048633937 0.008993938 0.0074109836
000070 5f 9c 0d bb 26 8f a9 3a 94 fb 8e 3c f3 df 02 3d
       -0.0021608097 0.0012936338 0.017453946 0.031951856
000080 bf 58 2d 3c 69 71 88 3b 55 bd af 3c c4 8b 72 bc
       0.010580241 0.00416391 0.021452585 -0.0148038305
000090 c9 3f 94 3c 7a 46 25 bc fd fe 9b 3c 37 ca ca 3c
       0.018096821 -0.010087604 0.019042486 0.024754627
0000a0 af f5 84 bc 60 dc 23 3c ac 21 ac 3c d9 03 ff 3b
       -0.016230432 0.010001272 0.02101215 0.007782441
0000b0 b5 a4 ba bb 93 d7 5e 3b 1a f2 d7 bc e9 3c 9a bd
       -0.005695904 0.0034003004 -0.02636056 -0.07531149
0000c0 d7 42 de 3d 22 c5 0c 3d f2 4f cc 3b 1d 11 4a 3c
       0.108525924 0.034367688 0.006235116 0.012333182
0000d0 7b 5c 4a 3c a3 b7 39 bb f9 34 a4 3c bd a3 ea 3c
       0.012351151 -0.0028338216 0.02004479 0.02864253
0000e0 d9 07 44 bc f0 e8 8e 3b 87 21 22 3d 69 ef 1c 3c
       -0.011964762 0.0043612644 0.039582755 0.009578564
0000f0 72 71 10 3d ef 49 7e 3c a8 5c f9 3c af 8c 1b 3d
       0.03526444 0.015520557 0.03043969 0.037975963
000100 95 2b 44 3c 14 21 de 3c a9 81 32 3d 24 39 e2 3c
       0.011973281 0.027115382 0.043580685 0.027615137
000110 05 01 12 3c f7 b7 cc bc 30 fe 7c bd fc e8 a9 bd
       0.008911376 -0.024990065 -0.06176585 -0.08296391
000120 80 66 f1 3d cc f0 65 3d 58 8b 07 3d 84 9f ab 3b
       0.117871284 0.056137845 0.033091873 0.0052375216
000130 b8 78 9c bc a0 6c 76 bd 5c c4 fb bc 0f 6b 93 bd
       -0.019100532 -0.060162187 -0.03073328 -0.07198154
000140 d0 55 bb bd dd 4e d9 bd 96 b3 a7 bd 23 c5 cc bd
       -0.09147227 -0.10610745 -0.0818855 -0.09998538
000150 11 2f 9d bd 6d 1f d0 bd 2e ce b6 bd c9 af da bd
       -0.07674993 -0.10162244 -0.089260444 -0.106780596
000160 33 2e 01 be 12 8b f4 bd a5 74 a4 bd 41 9b e8 bd
       -0.1261528 -0.11940588 -0.08030061 -0.11357737
000170 7e 29 b4 bd 10 32 3c bd 69 9f 7d 3b ec de 70 3e
       -0.087969765 -0.04594618 0.0038699752 0.23522538
000180 97 b3 87 bc 3a 86 fa 3d da d7 fd 3c f1 eb 83 3c
       -0.016565127 0.12232633 0.030986715 0.016103717
000190 a0 8d 14 3c 2e 19 33 bc 23 c9 09 3c 51 d5 23 3d
       0.009066969 -0.010931296 0.008409771 0.039998356
0001a0 7e 6e 55 3c 1b 42 61 bc 2e 17 82 ba d8 10 57 3c
       0.013026832 -0.013748671 -0.0009925121 0.013126574
0001b0 66 a5 5b 3c 98 4b 44 3c f3 70 b1 3c f3 d4 25 3d
       0.013406133 0.011980914 0.021660304 0.040486287
0001c0 42 0e 5d 3c 40 cc fa bb 10 b1 54 3c 9a 95 9d 3c
       0.013492169 -0.007653743 0.012981668 0.019236375
0001d0 01 c0 cb bb 3e 49 c9 bc fe 4d 53 bd 2a 4e ab bd
       -0.006217957 -0.024571057 -0.05158805 -0.08364518
0001e0 75 01 fa 3c a3 4b 05 3e 9c c2 23 3d 9b da 97 3a
       0.030518273 0.13017134 0.039980516 0.0011585535
0001f0 67 3d 3e bb ff 53 20 bc 50 6a 30 3c 65 b0 0e 3d
       -0.0029028298 -0.009785651 0.010767534 0.03483619
000200 b4 06 ec 3c a9 be c2 3b 71 52 54 3c 12 fc 95 3b
       0.02881179 0.0059431386 0.012959109 0.0045771683
000210 a9 42 70 bb 9c dd 94 3b 7b a6 7b 3b c4 27 f8 3c
       -0.0036660826 0.0045430195 0.003839879 0.0302924
000220 47 e5 b6 3b c9 0e 29 bc 11 64 b5 3c fc 77 9e 3c
       0.005581531 -0.010318466 0.022142442 0.019344322
000230 1e 91 b8 ba d0 ad 30 bc 27 75 da bc 4c 44 a4 bd
       -0.0014081334 -0.010783628 -0.02666719 -0.08020839
000240 4c 67 88 3c 77 70 f0 3d ae 2c 08 3d 89 f2 fd 3b
       0.016650818 0.11740201 0.033245735 0.0077498597
000250 a2 89 44 3c 42 90 a8 ba f7 4d 6a 3b 56 3e e5 3c
       0.011995705 -0.0012860375 0.0035752037 0.027983826
000260 40 38 79 3a f8 c3 ad bc 19 c5 99 3c e3 9a 01 3d
       0.0009506978 -0.02121161 0.018770741 0.031641852
000270 66 a4 a8 3c ac 2a d8 3c 76 cd a9 3c 61 c7 18 3d
       0.020586204 0.026387535 0.020727854 0.037299518
000280 80 23 ad 3c 12 b1 54 3c 7b d0 15 3d ae 14 26 3d
       0.021135092 0.01298167 0.036575776 0.040547065
000290 fd 21 f5 3b d8 e0 0c bd e0 f3 b4 bd 4f 48 fc bd
       0.0074808584 -0.034394115 -0.08835578 -0.12318479
0002a0 74 1d 82 3c 36 95 1d 3e 9e c1 ad 3d 3b 5e 3b 3d
       0.015883185 0.1538895 0.08484195 0.045744162
0002b0 f4 7c f9 3b 3e 9f 22 bd 1f 7c 40 bd 35 5f 31 bd
       0.0076137725 -0.039702646 -0.04699337 -0.043303687
0002c0 e4 b0 ae bd 88 f2 d5 bd 03 66 b5 bd 62 47 a2 bd
       -0.08529833 -0.1044665 -0.08857348 -0.079237714
0002d0 9b 73 97 bd bc ec 90 bd 40 12 ae bd e5 5d b9 bd
       -0.07395097 -0.070764035 -0.08499575 -0.09051112
0002e0 df 44 f8 bd 37 4d 07 be f3 83 c7 bd 21 7a a4 bd
       -0.12122511 -0.13213049 -0.09741964 -0.08031107
0002f0 cd b1 bd bd b8 54 06 bd 22 75 39 3d 21 b6 68 3e
       -0.092624284 -0.032795638 0.045277722 0.22725727
000300 b2 87 c6 bc 24 6b 01 3d ec 76 03 3e ba 6e 2b 3d
       -0.024234626 0.031596318 0.12838334 0.041853644
000310 7b 2f 6b 3c a2 c8 6b bb 57 6b e5 3b 94 4a 9c 3c
       0.014354582 -0.003597774 0.0070013213 0.01907853
000320 46 21 d6 3c ae ee 5a 3a 47 70 da bb 46 55 2d bb
       0.026138913 0.0008351606 -0.0066662165 -0.0026448532
000330 22 73 ab 3c 4c ec 0b 3c 52 22 0b 3d e0 65 eb 3c
       0.020928923 0.008540224 0.033968277 0.028735101
000340 1e 8f fa 3c cd b0 1f 3c b8 9d fa 3b 8f ba 15 3c
       0.030585822 0.009746742 0.007648196 0.009138717
000350 26 cf 1e 3c 27 3f b2 bc 1c 06 60 bd b4 f5 b2 bd
       0.009692943 -0.021758629 -0.054693326 -0.087382704
000360 9b 9e 1e 3b eb 3b 47 3d ab 49 f5 3d 8b 77 0d 3d
       0.0024203423 0.048641127 0.11976942 0.034537833
000370 c9 f3 cf bb d8 5c 1c bc c0 c2 f4 3a 3f 65 d8 3c
       -0.0063462 -0.00954362 0.0018673763 0.026415465
000380 a4 df 10 3d e4 0e d5 3c cb ca 68 3c 15 cf 61 ba
       0.03536953 0.026008077 0.014208506 -0.00086139265
000390 37 c7 5d 3c 7a bf 66 bc b0 5b 88 3c 94 c0 50 3c
       0.013536266 -0.0140837375 0.016645283 0.012741227
0003a0 16 65 33 3c 41 a6 17 3c 06 30 cd 36 87 86 91 3c
       0.010949394 0.009255947 6.1150668e-06 0.017764343
0003b0 2f 21 4e 3c 5a 7a f7 bb e3 d6 1c bd 4c ce 94 bd
       0.012581154 -0.0075524272 -0.03829087 -0.072659105
0003c0 44 c0 78 3a 63 4a d4 3c 93 63 ef 3d 5b cc 0a 3d
       0.0009489099 0.025914377 0.11688914 0.033886295
0003d0 8d d4 ed 3b 0a 98 45 ba 3d 82 99 3b a5 a4 12 3c
       0.007258004 -0.0007537609 0.004684715 0.008950387
0003e0 80 90 6c 3b 9d 68 ae bb 1c 36 1f bc a9 41 5d 3c
       0.003609687 -0.0053225295 -0.0097174905 0.013504424
0003f0 da 2f 25 3d d7 ed 4e 3c d1 5d fe 3c d5 2f d2 3c
       0.040328838 0.012629948 0.031050595 0.025657574

Linear_Seasonal.bias f4 [24]
000000 72 00 39 bd c5 f9 fa 3c e6 b7 b3 3c c2 b9 d7 bb
       -0.04516644 0.030636678 0.021938276 -0.0065834234
000010 5f 1d 64 bd 43 7a af bb e0 26 a7 bd df 25 21 3d
       -0.055692073 -0.005355151 -0.08161712 0.039342757
000020 73 b3 79 bd a4 f8 0f bc 1f 1c 16 3d 01 20 36 3d
       -0.06096215 -0.008787308 0.036647912 0.044464115
000030 0f e3 43 bc f2 65 14 bd 87 50 25 3d 70 2b 40 3b
       -0.01195599 -0.036230035 0.04036 0.0029322766
000040 ff 39 88 3c 39 a9 10 bc 16 b0 8d bc 97 44 7f 3d
       0.016629217 -0.008829408 -0.017295878 0.06232127
000050 05 1b 1a bc ad 13 6a ba 6d 37 02 bc b6 be 40 3d
       -0.009405856 -0.00089293235 -0.007947785 0.047056876

Linear_Trend.weight f4 [24, 96]
000000 48 b4 14 3c 62 69 e7 3b c6 22 cb 3b fc 01 ae 3b
       0.0090761855 0.007062123 0.0061992137 0.005310295
000010 73 7e 82 3b 31 ac 35 3b 59 ba 1c 3b 56 fb ba 3a
       0.003982359 0.0027721042 0.0023914783 0.0014265578
000020 e2 80 21 39 6c c9 b1 ba ce 39 63 bb 07 a3 c7 bb
       0.00015402169 -0.0013564057 -0.0034671905 -0.0060924324
000030 3b 6a 28 bb 23 4f a7 ba c0 79 a7 ba 6e 29 92 ba
       -0.0025698084 -0.0012764673 -0.0012777373 -0.0011151263
000040 46 c1 c1 ba b6 75 c4 ba d5 04 25 ba c6 2b 65 b9
       -0.0014782331 -0.0014988694 -0.00062949705 -0.00021855449
000050 7e 28 9a b9 c3 c7 8f 38 66 01 b4 3a de 1d 81 3a
       -0.00029403338 6.85598e-05 0.0013733327 0.000985082
000060 14 7d 0c 3b 9a 3f e8 3a ad 83 2f 3b 04 6c 33 3b
       0.0021436857 0.001771915 0.0026781366 0.0027377615
000070 b1 c6 f0 3a 8a 21 14 3b 0a fd 3f 3b 02 ce 1e 3b
       0.0018369762 0.0022602999 0.002929511 0.0024231677
000080 fc ba 06 3b 5a 49 17 3b 6f 51 04 3b 49 d3 89 3a
       0.0020558229 0.0023084492 0.002019014 0.0010515238
000090 0e 79 da 3b 39 39 82 3b 6b 5b 18 3b 0d c3 0d 3b
       0.006667263 0.0039741066 0.0023247849 0.0021631152
0000a0 82 b8 0b 3b d0 25 10 3b ac 63 38 3b e6 15 42 3b
       0.0021319692 0.0021995194 0.002813558 0.0029615103
0000b0 fc f6 c3 3a 0f e0 99 3a 28 63 05 3b f9 01 af 3a
       0.0014950926 0.0011739748 0.0020353291 0.0013352028
0000c0 07 9a 2b 3b 3c bb 05 3b 09 c3 3b 3b 4f 4f 4a 3b
       0.0026184337 0.002040579 0.0028650186 0.0030870026
0000d0 cf e1 13 3b 00 72 38 3b 51 8b 3e 3b 87 5e 15 3b
       0.0022565012 0.0028144121 0.0029074738 0.0022791938
0000e0 5d af d0 3a 53 c9 8d 39 1d 5e 2f bb d5 07 ae bb
       0.0015921403 0.00027043614 -0.0026758977 -0.0053109922
0000f0 c1 58 6c 39 2d fa 3a bb 9b e9 96 bb f1 0c ce bb
       0.00022539777 -0.0028530464 -0.0046054847 -0.006288164
000100 89 28 11 bc ff cf 46 bc fe 10 69 bc c1 3e 92 bc
       -0.008859762 -0.012134551 -0.014225243 -0.017852189
000110 df 21 b7 bc 9d 12 d5 bc 97 6b ed bc 85 65 05 bd
       -0.022355018 -0.026009852 -0.028981967 -0.03256752
000120 66 15 09 bd 1b 0c 11 bd 53 7b 10 bd 30 e4 0e bd
       -0.033467673 -0.035411935 -0.03527386 -0.034885585
000130 fa 41 0a bd 82 a0 f7 bc a9 14 cd bc 2b 80 95 bc
       -0.033754326 -0.030227903 -0.025034266 -0.018249592
000140 3b 3b 46 bc 11 f1 81 bb 7f c9 e0 3b 1c 39 df 3c
       -0.012099083 -0.003965505 0.0068599577 0.027248912
000150 9e b2 41 3d 89 57 76 3d c7 b9 97 3d eb 0b b3 3d
       0.047289483 0.060142074 0.07408481 0.087425075
000160 c0 99 cc 3d b9 98 e3 3d ad b9 f8 3d e2 8c 04 3e
       0.09990263 0.11113114 0.1214479 0.12944368
000170 07 14 0c 3e 62 e8 12 3e 62 16 19 3e 87 f8 1d 3e
       0.13679515 0.1434646 0.14949945 0.15426837
000180 b7 5d 4c bb 08 ab 50 bb 96 9c 3a bb 3d 01 f0 ba
       -0.0031183788 -0.0031840224 -0.002847468 -0.0018310916
000190 bb 6d b2 ba 80 15 ad ba 38 10 18 ba 4f 2d cb 39
       -0.0013613024 -0.001320526 -0.00058007566 0.00038752935
0001a0 6c 1e 1c 3a ae 98 50 39 50 76 82 ba 09 3b 46 bb
       0.0005955461 0.00019893303 -0.0009953473 -0.003024759
0001b0 4d 2c b1 ba 2f 71 7a 3b e0 d4 57 3b f1 d3 48 3b
       -0.0013517231 0.0038214435 0.003293328 0.0030643905
0001c0 0b 92 3c 3b 68 61 2b 3b 2e 26 5b 3b 42 d6 8b 3b
       0.0028773572 0.0026150588 0.0033439505 0.004267485
0001d0 5c 86 88 3b 0b c3 82 3b b3 e5 9f 3b cc fe aa 3b
       0.0041664075 0.003990536 0.004879677 0.0052183624
0001e0 3f de a8 3b f0 9b ad 3b 79 2e a7 3b 01 a6 af 3b
       0.005153447 0.00529813 0.0051019755 0.0053603654
0001f0 99 ec 8f 3b bc 3a 73 3b 83 11 93 3b 59 1e 95 3b
       0.0043922183 0.0037113866 0.0044881715 0.004550737
000200 4c 75 76 3b 65 8d 5b 3b 7b 7f 47 3b 10 9b 08 3b
       0.0037606535 0.0033501026 0.0030440975 0.0020844378
000210 2b 1f a5 3b 8a 36 fc 3b 87 bd 8e 3b a4 2f 40 3b
       0.005039116 0.0076969313 0.0043560895 0.002932527
000220 e4 2d 3b 3b 24 f3 30 3b 14 3f 41 3b 21 9a 61 3b
       0.0028561288 0.0027000392 0.002948706 0.0034424143
000230 d1 be 17 3b 59 b5 1e 3a 24 5a 1e 3a 30 6c 10 3a
       0.0023154507 0.00060542446 0.00060406537 0.0005509285
000240 a8 dc f1 39 ca dc 4d 3a cc 97 14 3a e7 be 87 3a
       0.00046131504 0.00078530295 0.00056683715 0.0010356576
000250 ab f8 84 39 9e b1 6e b9 c4 f7 ba 39 f8 80 37 b7
       0.00025362274 -0.00022763616 0.00035661284 -1.0937678e-05
000260 d5 9d b0 ba 16 87 59 bb b1 aa d7 bb 93 14 29 bc
       -0.0013474772 -0.003319209 -0.0065816273 -0.010319847
000270 6f c4 ff bb d9 06 6e bb c4 98 b0 bb 66 ac c1 bb
       -0.007805399 -0.003632 -0.005389305 -0.005910444
000280 8b 4a e2 bb ff eb 15 bc e9 b2 39 bc 52 39 54 bc
       -0.006905859 -0.009150504 -0.011334159 -0.012953119
000290 cd a4 88 bc 80 ac a3 bc a4 3f b3 bc c7 ca c2 bc
       -0.016680146 -0.019979715 -0.021880932 -0.023778332
0002a0 eb 3e cb bc ae ff ca bc 1d d7 cc bc db d5 c6 bc
       -0.024810275 -0.02478012 -0.025004918 -0.024271896
0002b0 81 51 c5 bc 63 a8 b8 bc 0f fc 99 bc f2 c9 6d bc
       -0.024086716 -0.02254123 -0.018796949 -0.01451348
0002c0 60 a7 26 bc d7 f8 47 bb 58 75 f7 3b 6d 65 d3 3c
       -0.010171741 -0.003051331 0.0075518303 0.0258052
0002d0 3a 93 35 3d 8c ab 6d 3d f7 12 89 3d 8e b0 9e 3d
       0.04432986 0.058024928 0.066930704 0.07748519
0002e0 3a c9 b4 3d 87 9a ca 3d 53 f0 df 3d 39 17 f2 3d
       0.088274434 0.09892755 0.1093451 0.118208356
0002f0 a2 cd 00 3e 65 5a 0a 3e 07 34 11 3e 97 c8 16 3e
       0.12578443 0.13511045 0.14180003 0.14724956
000300 71 b0 8f bb 03 fc 94 bb 82 32 88 bb 3a 5a 72 bb
       -0.004385047 -0.0045466437 -0.0041564116 -0.0036980049
000310 c6 6f a0 bb 5a c6 8d bb eb e3 65 bb 05 c4 1f bb
       -0.004896137 -0.004326624 -0.0035078477 -0.0024378311
000320 79 8a 9c ba 3b 79 83 ba 67 0c e8 ba 1b 03 62 bb
       -0.0011943124 -0.0010030636 -0.0017703891 -0.0034486714
000330 d9 fa 15 bb 46 ee 15 3a 3d 6a 9b 3b 3c ac 77 3b
       -0.0022885113 0.00057194044 0.004742889 0.0037791869
000340 e9 a8 54 3b ca 43 4f 3b 6d 95 76 3b f5 73 9b 3b
       0.003244931 0.0031626099 0.0037625686 0.0047440478
000350 2f af b7 3b 5f 50 be 3b 24 a9 d2 3b d8 10 e1 3b
       0.0056056003 0.005807921 0.0064288545 0.006868463
000360 ab be fe 3b 0c 57 ea 3b 71 3e fc 3b 82 da ea 3b
       0.0077741942 0.00715149 0.0076978733 0.0071671614
000370 5b ca da 3b f2 da c6 3b 5b 97 bd 3b 9b c3 c4 3b
       0.0066769547 0.006068581 0.0057858652 0.0060047633
000380 34 39 c4 3b 7e b9 a8 3b 3b a2 8e 3b ae 59 68 3b
       0.0059882645 0.0051490655 0.0043528355 0.0035453844
000390 c4 7e c4 3b 70 ac d6 3b e3 ed 08 3c e0 3d a7 3b
       0.005996557 0.006551318 0.008357498 0.0051038116
0003a0 a5 80 73 3b 03 06 5f 3b 30 f8 60 3b 78 17 61 3b
       0.0037155536 0.0034030683 0.0034327619 0.0034346264
0003b0 89 7b 30 3b 05 5e 96 3a 5b 37 bf b9 09 80 91 ba
       0.0026929101 0.0011472112 -0.00036471602 -0.001110078
0003c0 d6 b9 2d ba 65 1e c9 ba f5 85 71 ba 5a 30 b4 ba
       -0.0006627118 -0.0015344141 -0.00092133816 -0.001374732
0003d0 53 b7 dd ba 85 8a ff ba 1c c7 11 bb c9 c1 fa ba
       -0.0016915597 -0.0019496238 -0.0022243923 -0.0019131239
0003e0 e0 7e 2d bb b1 63 a3 bb 0e 55 0b bc 3e 97 4c bc
       -0.0026473328 -0.0049862494 -0.008504165 -0.012487231
0003f0 ab 73 41 bc b3 13 2a bc 77 33 b7 bb 48 32 d6 bb
       -0.011807363 -0.010380673 -0.005590852 -0.0065367557

Linear_Trend.bias f4 [24]
000000 a6 06 4b 3d 21 e7 db bc 70 1f 84 bc 99 57 62 3c
       0.049566887 -0.02684361 -0.016128272 0.01381483
000010 24 04 75 3d 77 ae 20 3c b4 92 ae 3d 77 0e 13 bd
       0.059818402 0.009807221 0.08524075 -0.035902467
000020 31 2f 81 3d f2 d1 3a 3c 37 79 12 bd 35 17 31 bd
       0.06307829 0.011402594 -0.03576013 -0.043235023
000030 74 27 34 3c f1 e2 18 3d 5b b4 27 bd ab a1 ad bb
       0.0109957345 0.037325803 -0.040943485 -0.0052988133
000040 c9 f0 9d bc b8 bc f0 3b f3 a6 69 3c b6 96 81 bd
       -0.019279854 0.007346716 0.014260995 -0.06327574
000050 7e d0 05 3c 6a dd ce ba 43 b3 dc 3b 34 39 42 bd
       0.008167384 -0.0015782539 0.006735237 -0.047417834
