results/traffic_DLinear/2/checkpoint.pth (torch, 20840 bytes, 4 tensors)

Linear_Seasonal.weight f4 [24, 96]
00000000: a03c 803c 5a93 df3c 31c8 a5bb cf12 0ebc
00000010: 7f20 953a aaab 943c b332 343c 1af5 913c
00000020: 6e08 d73b b930 213c 6de5 243c 42f2 423c
00000030: e4e4 f6ba bc3f 8e3b 8b1d 623c 4e4f 563c
00000040: 0aaa 203b ce01 dd3b 6ff7 53bb 3bd4 a73c
00000050: c851 ab3c 0ff8 2dbb 482a 00bd 3dfb a2bc
00000060: 8399 593d f521 303d 2616 2c3c 483b 273b
00000070: 782e 483c 4306 a03c 4138 6a3c 7ab7 843c
00000080: 66a6 523c 67ed 463c b16b 643c 34c2 9a3c
00000090: f7b9 413b 28fc 0cbb dfe0 4a3b d43f 3e3c
000000a0: f6d5 39ba ef7e 353c 72e4 a53c e1ce b93c
000000b0: 760b f03c dd47 e23a 35f2 e2bc 60a6 47bc
000000c0: 02e3 653d cc98 1d3d ecfe 4a3b b368 59bc
000000d0: 7448 fa3b 32a2 993c 77d2 573c cf76 013c
000000e0: d1a3 02ba e6b0 1abb 8742 223a 0e4a cf3b
000000f0: 2755 32bc fa97 8abb d36f 27b9 08e8 8e3b
00000100: 699c 753a 51d3 133c 6ff7 2d3c 2f44 a33c
00000110: ee4b a73c ea4f febb bdba e2bc 7622 bb3c
00000120: aab7 0a3e 9b94 ed3d 63f4 6a3d 802a 0b3c
00000130: 94b4 6839 ab8e fbbb 580c dcbc 1b4a 1abd
00000140: a60b 63bd c995 75bd 15ba 65bd bd6e 27bd
00000150: 1ca0 2fbd 51fe e9bc 3286 ffbc 83d2 17bd
00000160: 85ce 70bd 32b7 70bd 8974 aebd f1a3 b1bd
00000170: 10e2 8fbd 0a6e a2bd 7a4c 15bd fade 0b3e
00000180: dba9 2fbb 097c bb3d 113e 313d 63db c8bb
00000190: 556b 22bb 0083 7e3c 04e7 dd3c e344 cd3c
000001a0: 54e7 923c 9e43 6c3c 8100 9c3c 56b9 983c
000001b0: 0ce9 183c becb 61bb e6f6 ca3b ab63 4f3c
000001c0: feef 913b 2ad5 43bb 7f75 20bb 273f 74bb
000001d0: e553 b93c a7f7 a23b 65ab 02bd b2f9 35bd
000001e0: 0837 8c3c 6456 9b3d 0066 1a3d 0fd6 023b
000001f0: 6608 163b 33ae 8c3c fb0b b13c 2815 b43c
00000200: aa51 8c3c 4da0 743c ced8 753c b08b 8e3c
00000210: f125 3d3c 8b30 c9bb 23d0 03bc fe30 013b
00000220: c707 603b 7571 0bba cc28 7a3c 05b5 a03c
00000230: 72bd 043d 2835 893c 49e5 e8bc 7ac9 2abd
00000240: e645 ad3c 0a50 973d 49f5 0e3d f817 22bc
00000250: a0a9 1fbc 0187 8e3c 0c42 da3c 4c86 a03c
00000260: 53cf a73b 8f15 5cba ed62 c9b8 2442 8d3b
00000270: 199d 15bb 5e77 75bc bb4d 0ebc d43a 88bb
00000280: badd cbbb 7f09 09bc 1c76 9cbb 585b 67bb
00000290: 2e17 153c a476 d5bb 3799 3abd 36d5 e3bc
000002a0: 8a65 c33d 00f0 3b3e 0701 063e 5cac 313d
000002b0: 4aea a5bb 135a 68bc b6db d4bc a5ac 34bd
000002c0: aafb 83bd c591 99bd d2ef 89bd f2d8 49bd
000002d0: ad76 ffbc d993 a9bc c814 3cbb 1354 e8bb
000002e0: a836 cbbc 1a40 3bbd 2571 4ebd 1d9b 99bd
000002f0: eb17 7cbd 9542 5abd 99be 0fbd 7060 d73d
00000300: 68c1 90bc 4f10 503d 8418 c33d 1a74 233d
00000310: c029 99b9 6ed3 dc3b 6559 ae3c 258a 0c3d
00000320: 4870 dc3c 49ca bd3c 8072 b03c 47ab ca3c
00000330: be33 873c a1c4 fc3b e650 25bb 14e9 4e3b
00000340: c922 983b c764 8bba 6483 20bc 4fe2 2ebb
00000350: bb6a 8bbb bb7e 1e3c ca14 73bc 864d 10bd
00000360: b87b 2ebc 8464 023d beee 8b3d bc79 013d
00000370: ea98 403b 6a17 bd3b c68d 973c 9770 c93c
00000380: a249 b73c d146 8e3c 0dfa 863c 21bc 8d3c
00000390: 364a 463c 9397 9b3b d6e1 33bc 1ae3 21bc
000003a0: a081 9dbb 0c35 f13a 7eb6 2a3b 4883 973c
000003b0: 4e42 d23c 6a98 b33c 5694 c7bb e80e 0ebd
000003c0: a979 3cbc 5cd4 053d e794 8b3d ac2f c63c
000003d0: 04e8 d3bb 7f7b e5ba 7f43 be3c 5d32 ff3c
000003e0: 3892 923c 401e c93b 300e 983a 953e 1f3b
000003f0: fac5 41b9 d739 73bb cfca 89bc 4c4d 34bc
0.015653908 0.027291942 -0.005059265 -0.0086714765 0.0011377482 0.018148262 0.010998416 0.017817069
0.006562284 0.009838277 0.010064465 0.011898579 -0.0018836525 0.004341094 0.013800989 0.013080431
0.0024515414 0.0067446 -0.0032343527 0.020486942 0.02091302 -0.002654556 -0.031290323 -0.01989519
0.053124916 0.043001134 0.0105033275 0.0025517512 0.01221811 0.019534236 0.014295639 0.01620077
0.012857055 0.012141562 0.013941691 0.018891431 0.0029560307 -0.0021512602 0.0030956788 0.0116118975
-0.00070890726 0.011077627 0.020250533 0.022681655 0.02930234 0.0017263849 -0.027703384 -0.012185663
0.056124695 0.038475797 0.00309747 -0.013269591 0.0076380316 0.018754099 0.013172737 0.007901861
-0.0004983517 -0.0023603975 0.0006189723 0.0063259667 -0.01088456 -0.004229543 -0.00015968019 0.0043611564
0.0009369315 0.00902255 0.010618075 0.019929973 0.020421948 -0.0077609913 -0.027676934 0.02284358
0.13546625 0.1160061 0.05736197 0.0084940195 0.00022192515 -0.0076769195 -0.026861355 -0.03766833
-0.05543103 -0.0599573 -0.056085665 -0.040877093 -0.0428773 -0.02856365 -0.031191919 -0.037065994
-0.058790702 -0.05876846 -0.08518321 -0.086738475 -0.0702554 -0.079311445 -0.036449887 0.13659278
-0.0026804123 0.09154517 0.04327208 -0.0061296686 -0.0024783213 0.0155341625 0.027087696 0.025057262
0.017932571 0.014420418 0.019043209 0.018643063 0.009332906 -0.0034453715 0.0061939834 0.01265804
0.004453658 -0.0029881694 -0.0024484096 -0.0037269087 0.022623012 0.00497337 -0.031901736 -0.04442758
0.017116085 0.07584837 0.03769493 0.0019964015 0.002289319 0.017172908 0.021612158 0.021982744
0.017128784 0.014930797 0.015005304 0.017400593 0.0115446905 -0.00613982 -0.008045229 0.001971304
0.0034184323 -0.00053193356 0.015268516 0.019617567 0.03240723 0.01674898 -0.028429644 -0.04169605
0.021151494 0.07388313 0.03490189 -0.00989341 -0.009745032 0.01739836 0.026642822 0.019595288
0.0051211505 -0.00083955465 -9.602853e-05 0.004310863 -0.0022829233 -0.014982073 -0.008685525 -0.0041574035
-0.0062215 -0.00836408 -0.004774822 -0.0035302248 0.009099765 -0.006514387 -0.045556273 -0.027811628
0.095408514 0.18353271 0.1308633 0.043377265 -0.00506333 -0.014181632 -0.025983673 -0.04410996
-0.064444855 -0.074985065 -0.06735195 -0.04927916 -0.031184519 -0.020700382 -0.002869891 -0.0070901006
-0.024806336 -0.04571543 -0.05040087 -0.07500289 -0.061546247 -0.053286154 -0.035093877 0.10516441
-0.017670348 0.050796803 0.0952616 0.039905645 -0.0002921354 0.0067390716 0.021282861 0.034311432
0.026909009 0.023167746 0.021538973 0.024739875 0.016504165 0.0077138697 -0.0025225221 0.003157203
0.0046428186 -0.0010634892 -0.009796951 -0.0026685183 -0.0042546666 0.00967377 -0.0148364995 -0.035230182
-0.010649614 0.03183414 0.06832646 0.031610236 0.002938802 0.0057706134 0.01850022 0.02458982
0.022373978 0.017367752 0.016476655 0.01730162 0.012102654 0.0047482937 -0.010979136 -0.009880805
-0.0048067123 0.001840265 0.0026048715 0.018495217 0.025666382 0.021923263 -0.006090681 -0.034682184
-0.011503615 0.032673225 0.0681551 0.024192654 -0.0064668674 -0.0017508118 0.023225544 0.031151945
0.017891988 0.0061376393 0.0011600908 0.0024298776 -0.00018479666 -0.0037113333 -0.01682034 -0.011004757

Linear_Seasonal.bias f4 [24]
00000000: 5782 a23d 9d92 523c 3de2 6dbc e98a 393d
00000010: 3171 a9bd 3a08 be3c 5daf a1bc 29dc 1a3d
00000020: 849a 3dbd bca1 803d 02ce a63c 56ac f43b
00000030: 0a54 d1bc 1025 a93d d0db 163c 03c0 b0bc
00000040: 8472 1c3c a756 9f3d 43e3 123d dc6d 89bd
00000050: e9f9 ed3c b920 58bd 88de a23c 6b62 183d
0.079350166 0.012852338 -0.014519271 0.04529849 -0.08273543 0.023197282 -0.01973694 0.037807617
-0.046289936 0.062808484 0.020361904 0.007466833 -0.025552768 0.08259022 0.009207681 -0.021575933
0.009548787 0.077801995 0.035861265 -0.06710407 0.02904983 -0.05276558 0.019881502 0.037203234

Linear_Trend.weight f4 [24, 96]
00000000: 7dc3 5e3c 105d 5c3c 6463 673c 6412 723c
00000010: 4284 683c f1d7 3d3c e608 133c 3c32 da3b
00000020: 6caf 923b 7df1 1dbb 230e 85bc 11a1 d6bc
00000030: 4253 80bc 54bd 08bc b9ee 3cbc e5dc 3dbc
00000040: 06b6 13bc b761 dbbb cc95 dfbb 0ae8 9dbb
00000050: 5e6d 93bb 7737 2ebb 157c 92ba 251e ea3a
00000060: 9d92 bb3a 82c1 273b 62f9 3d3b 65a5 383b
00000070: efc0 383a b260 3c3b 5f34 9c3b f7c3 e43b
00000080: a6e8 163c 9ec9 a73b aac7 45ba 3af2 c53b
00000090: 2f89 e33c 28b4 ba3c 7aac 263c 8591 383b
000000a0: 779e 083b 4e06 db3a 88d4 093a f820 7f3a
000000b0: 564d 56bb f485 03bc 315a 47bc 7ff7 6fbc
000000c0: 2d65 b0bc 8e81 babc e2a9 b0bc fef5 aabc
000000d0: f6c9 b9bc 8629 a8bc 1a36 a9bc 6258 b9bc
000000e0: 279e a0bc 46bd c1bc 933f d0bc 13bc 7dbb
000000f0: df43 373d 9d53 813d 5df4 863d e473 863d
00000100: fa3d 873d d7cb 733d ab8e 443d 7165 0a3d
00000110: 64ca 423c 84fb 1bbc 05e7 e2bc 7ad7 23bd
00000120: 6cd5 57bd 600e 66bd 6e5f 7cbd 47a3 8abd
00000130: 0f53 99bd 5b80 97bd af0b 94bd 9d34 8dbd
00000140: 597b 83bd 914d 72bd 8461 23bd 0b99 3e3c
00000150: 9ff8 443d 0e21 693d a62e 913d 3f6f c13d
00000160: e918 f33d f74b 0a3e fc24 133e b6c8 153e
00000170: 3414 153e e643 143e 121b 133e 345c 113e
00000180: 679a b23b d890 9d3b 2887 9f3b 1af1 b73b
00000190: b526 bd3b 09f6 aa3b 2f7f 233b efec da3a
000001a0: 5d70 1d3b ea7d 6b3a 9868 fcbb f81a 9abc
000001b0: f579 71bc b3d3 913b c0b8 a33a ba53 a9bb
000001c0: f98b 97bb 5b23 abba 32f0 0139 399d 2fb8
000001d0: 8ef7 d13a ecd2 f43a bc0a 1f3b be2f 2e3b
000001e0: 2050 1d3b a102 d139 064b 48b9 15db 6eba
000001f0: eeb4 25bb 12ae 48bb d569 df39 bda6 9a3b
00000200: 30f6 013c 4365 e03b 0918 abb9 f012 19bb
00000210: dfe5 6b3c 8cfc f33c c202 a13c 114a e63b
00000220: 86fe 263b b2be 763b 0d13 7b3b f776 4c3b
00000230: 0e46 243b c4d4 24bb 0be5 fdbb 01ff 40bc
00000240: 738e 87bc 9235 b5bc b141 b2bc fd8a a3bc
00000250: d3a8 abbc 6ddb bbbc c03f c1bc 8ee7 ddbc
00000260: 3861 08bd 9235 2abd 261b 5cbd 453e 46bd
00000270: 7664 9bbb 670c 473d 846b 863d 164e 8a3d
00000280: f793 8a3d 569f 853d 78ba 5d3d 49ab 1e3d
00000290: 2b45 aa3c 16e0 0dbb d1fd abbc 93f5 04bd
000002a0: 2700 1dbd a43d 22bd e5dc 0fbd f15a 0abd
000002b0: 08e6 11bd 5965 18bd d535 12bd b057 0dbd
000002c0: 557c 06bd e7c7 f1bc 7b2f 98bc f816 a53c
000002d0: 89f1 593d 63bc 753d 5044 413d fa6d 423d
000002e0: 1014 843d 2e42 b03d 2a67 d23d c41e e83d
000002f0: ee7d f33d 10e0 f73d cf5a fa3d 2ed5 f93d
00000300: 9270 9238 37b2 8139 6d14 aeb9 505e 01ba
00000310: 63db d8b9 c98b 2fba ec5a 7fbb 11f7 83bb
00000320: 574b 45bb bbc9 0bbb 42a7 96bb 4a90 2dbc
00000330: 4824 2abc a537 963a a955 4f3c f125 e43b
00000340: c6d3 803a ea95 db3a 5789 853b 9b9b a83b
00000350: f91c a33b 7c1b db3b 7f85 c83b 2c7b bb3b
00000360: d30f 7d3b 1878 0d3b a5d7 8fba ad46 20bb
00000370: d3fa 83bb 6f35 97bb 2c02 7bbb c969 c63a
00000380: b981 da3b 13f1 f73b 6225 8c3b 4ddf 4bb9
00000390: 51d9 bd3b dfaa 953c 127d ed3c c54f 983c
000003a0: f869 003c e2a7 8d3b 70c8 ad3b 8f06 b03b
000003b0: de02 793b 116e 0d3b 23cf 72bb 88a6 19bc
000003c0: dd43 74bc 1e79 9bbc 463c bcbc 4b08 b4bc
000003d0: 59aa b1bc 10b6 bebc eaff ddbc 60a9 f7bc
000003e0: 2bf9 15bd 8fbb 45bd c39d 77bd cd3d 85bd
000003f0: c7ce 2abd b68a 943b 70d6 553d 9616 8a3d
0.013596413 0.013449922 0.014122818 0.0147748925 0.014191689 0.011587129 0.0089742895 0.0066588204
0.0044764783 -0.0024100237 -0.016242092 -0.02619985 -0.0156647 -0.008345921 -0.011531525 -0.01158831
-0.009015566 -0.006694998 -0.006823277 -0.004818921 -0.0044991216 -0.0026583353 -0.0011175895 0.0017861767
0.0014310662 0.0025597517 0.0028987755 0.0028174755 0.00070477923 0.0028744158 0.0047669853 0.0069813686
0.009210741 0.00512047 -0.0007544706 0.0060408385 0.027775375 0.022790983 0.010172958 0.0028162908
0.0020846406 0.0016710253 0.0005257805 0.0009732391 -0.0032699904 -0.008027542 -0.012167499 -0.01464641
-0.02153262 -0.022766855 -0.021565381 -0.020869251 -0.02267931 -0.020527612 -0.02065568 -0.022625152
-0.019606663 -0.023649823 -0.02542094 -0.0038716837 0.04474246 0.06314776 0.06589577 0.06565073
0.06603618 0.05952057 0.04798762 0.03378815 0.011889074 -0.009520415 -0.02769805 -0.040000416
-0.05269377 -0.056166053 -0.061614446 -0.06769424 -0.07486545 -0.07397529 -0.07228791 -0.06894801
-0.06420011 -0.059156004 -0.03988792 0.011633168 0.048088666 0.05691629 0.070889756 0.09445047
0.118699856 0.13505541 0.14369577 0.14627346 0.14558488 0.14479026 0.14365795 0.14195329
0.005450535 0.0048085265 0.004868407 0.0056134583 0.0057724365 0.005217318 0.0024947634 0.0016702692
0.0024023273 0.0008983301 -0.0077028982 -0.018811688 -0.0147385495 0.0044502853 0.0012490973 -0.0051674517
-0.0046248403 -0.0013056801 0.00012391878 -4.1869676e-05 0.0016019212 0.0018678582 0.0024267873 0.002657875
0.0024004057 0.00039865545 -0.00019101435 -0.0009111625 -0.0025284844 -0.0030621332 0.00042612726 0.004719584
0.007932231 0.006848009 -0.0003263357 -0.0023357235 0.014398067 0.02978351 0.019654635 0.0070278724
0.0025481298 0.0037650284 0.0038310916 0.0031198838 0.002506617 -0.0025151232 -0.0077482513 -0.011779548
-0.016547417 -0.02212027 -0.02175984 -0.019963736 -0.020954525 -0.022931779 -0.023589969 -0.027087953
-0.03329584 -0.041554995 -0.05373683 -0.04839923 -0.0047422005 0.048595812 0.06563476 0.06753175
0.06766503 0.065245315 0.05413291 0.03873757 0.020784935 -0.0021648458 -0.020995053 -0.03246076
-0.038330223 -0.039609566 -0.03512277 -0.033778135 -0.035619766 -0.037206028 -0.03569587 -0.034507453
-0.032833416 -0.029514266 -0.018577328 0.020152554 0.05320886 0.059994113 0.04718429 0.047468163
0.06449139 0.08606373 0.10273583 0.11333993 0.118892536 0.121032834 0.122243516 0.12198864
6.9827904e-05 0.00024737578 -0.00033203085 -0.0004935013 -0.00041362186 -0.000669655 -0.0038964106 -0.0040272553
-0.003010472 -0.0021329958 -0.0045975754 -0.010593483 -0.010384627 0.0011460675 0.0126547 0.006962531
0.0009828738 0.0016753052 0.00407521 0.0051455027 0.004977819 0.006686626 0.0061194296 0.0057214703
0.0038614168 0.0021586474 -0.0010974301 -0.0024456189 -0.0040277033 -0.004614524 -0.0038300855 0.0015137728
0.006668296 0.00756658 0.0042769173 -0.00019442775 0.0057937284 0.018269954 0.028990302 0.018592725
0.007837765 0.0043229917 0.005303435 0.0053718756 0.0037996094 0.0021580497 -0.0037049733 -0.009378083
-0.014908758 -0.018978652 -0.02297796 -0.02197661 -0.021687673 -0.023280174 -0.027099568 -0.030232131
-0.03661458 -0.048274573 -0.060453188 -0.06505928 -0.041701104 0.004533137 0.052206457 0.06742589

Linear_Trend.bias f4 [24]
00000000: c107 9fbd 6286 39bc 8c09 693c a8aa 34bd
00000010: a5ca ad3d 0e52 b1bc 6d9b ac3c 1646 11bd
00000020: 24ff 4a3d 3b59 74bd e576 88bc a293 82bb
00000030: 0d43 f03c 0241 a3bd 146f e6bb a709 c83c
00000040: 1ac8 a2bb ecaf 9abd fb4c fdbc 14d1 913d
00000050: 0fd4 b7bc 5b1a 6a3d 5411 7abc 0c6e 01bd
-0.07765151 -0.011323543 0.014223468 -0.044108063 0.08485917 -0.021645572 0.021070207 -0.03546723
0.049559727 -0.05965541 -0.016658256 -0.0039848844 0.029328847 -0.07971384 -0.0070322845 0.024418665
-0.0049677016 -0.07553086 -0.030920496 0.071199566 -0.022439985 0.05715404 -0.01526292 -0.03159909
